utility-model-selected/dim-3/utility-12.pt (torch, 23458 bytes, 17 tensors)

bn1.running_mean f4 [3]
0.5019971 0.5000743 0.49888787
00000000: e282 003f df04 003f 3b6e ff3e

bn1.running_var f4 [3]
0.056474797 0.05373016 0.05290013
00000000: 1e52 673d 2814 5c3d cfad 583d

mlp1.weight f4 [24, 3]
0.15856914 0.0 0.18023805 0.21753852 0.0 0.46056172 0.34733433 0.4883441
0.10095867 0.22500798 0.0 0.22370003 0.3701053 0.20891619 0.35897824 0.37535474
0.41616008 0.14871202 0.4566223 0.3413529 0.4164245 0.5 0.24895476 0.280351
0.5 0.0 0.21841139 0.16222948 0.31016642 0.23589815 0.5 0.30244488
0.20233786 0.25581422 0.3862861 0.18090905 0.43576878 0.4057845 0.17921364 0.20696671
0.08228544 0.4983445 0.33779588 0.23149367 0.41359285 0.17515004 0.20441496 0.4917572
0.032407813 0.20575228 0.5 0.2067909 0.0 0.35157308 0.5 0.0
0.48856145 0.22499634 0.0 0.13626802 0.14301258 0.0 0.15537041 0.34882322
0.0 0.24605697 0.5 0.05508809 0.03129233 0.5 0.2609034 0.24701218
00000000: f35f 223e 0000 0000 5390 383e 6bc2 5e3e
00000010: 0000 0000 bfce eb3e ced5 b13e 3d08 fa3e
00000020: 6bc3 ce3d 7e68 663e 0000 0000 9f11 653e
00000030: 717e bd3e 20ee 553e ffcb b73e 7f2e c03e
00000040: ef12 d53e f747 183e 66ca e93e cfc5 ae3e
00000050: 9835 d53e 0000 003f ffed 7e3e 2b8a 8f3e
00000060: 0000 003f 0000 0000 3ca7 5f3e 7c1f 263e
00000070: 22ce 9e3e 498f 713e 0000 003f 0eda 9a3e
00000080: a831 4f3e 15fa 823e 4bc7 c53e 3940 393e
00000090: 161d df3e fcc2 cf3e c883 373e 15ef 533e
000000a0: 4585 a83d 0327 ff3e 95f3 ac3e ad0c 6d3e
000000b0: 71c2 d33e 885a 333e 2852 513e 9ac7 fb3e
000000c0: 0ebe 043d bab0 523e 0000 003f fec0 533e
000000d0: 0000 0000 6301 b43e 0000 003f 0000 0000
000000e0: ba24 fa3e 7165 663e 0000 0000 d889 0b3e
000000f0: e471 123e 0000 0000 6c19 1f3e f598 b23e
00000100: 0000 0000 5cf6 7b3e 0000 003f 0da4 613d
00000110: 632c 003d 0000 003f 2195 853e c3f0 7c3e

mlp1.bias f4 [24]
0.28740588 -0.36086592 0.43849048 0.38442424 0.44603086 0.17930347 0.48154077 -0.4746256
0.33925918 0.05881337 -0.32737777 -0.10713226 0.17960408 0.26297185 0.19012962 -0.39218563
0.1418824 0.1322552 0.1463427 -0.20747857 0.48274997 0.075416446 -0.38878295 -0.41860428
00000000: dd26 933e 6bc3 b8be d381 e03e 41d3 c43e
00000010: 285e e43e 549b 373e 838c f63e 2002 f3be
00000020: 61b3 ad3e 4ae6 703d 0f9e a7be 2968 dbbd
00000030: 22ea 373e 3fa4 863e 57b1 423e 8ecc c8be
00000040: 9f49 113e e86d 073e dcda 153e 4375 54be
00000050: 012b f73e f073 9a3d 8f0e c7be 4d53 d6be

mlp2.weight f4 [24, 72]
0.07799701 0.07221188 0.0 0.06854612 0.0 0.0 0.0 0.012779575
0.057525348 0.0 0.029319173 0.0 0.0 0.0 0.0 0.0
0.0054245875 0.029110767 0.13585296 0.11886334 0.044295907 0.20993197 0.16099085 0.06371549
0.1189671 0.13316423 0.0 0.031856302 0.0 0.0 0.0 0.009059909
0.03032794 0.0 0.0 0.0 0.0 0.033831622 0.0 0.0
0.0 0.112780206 0.24844593 0.20602489 0.0 0.26552695 0.112448454 0.03069432
0.16944967 0.042306066 0.0 0.09384282 0.0 0.0 0.0 0.0
0.03728909 0.0 0.0 0.0 0.0 0.0 0.0 0.0
0.0033162946 0.11726541 0.18455252 0.17379603 0.0 0.20744449 0.077865906 0.0
0.065785 0.06398685 0.0 0.031349953 0.0 0.0 0.0 0.029145623
0.06772125 0.0 0.030558286 0.0 0.0 0.014335465 0.0 0.0
0.0 0.034034394 0.12229244 0.18108463 0.029619204 0.15519617 0.12883833 0.047165852
0.09656449 0.08914389 0.0 0.08330742 0.0 0.0 0.0 0.008265721
0.07628945 0.0 0.0 0.0 0.0 0.0017161333 0.0 0.0
0.032815546 0.08003995 0.24483715 0.18944882 0.0060269786 0.19052877 0.1275226 0.0
0.06314146 0.07601396 0.0 0.043513846 0.0 0.0 0.0 0.0
0.050476186 0.0 0.0 0.0 0.0 0.0 0.0 0.0
0.0 0.13080144 0.22549959 0.13238996 0.0 0.12919244 0.028501814 0.0
0.10157453 0.09327775 0.0 0.087117895 0.0 0.0 0.0 0.03918176
0.05784117 0.0 0.0 0.0 0.0 0.00422193 0.0 0.0
0.0 0.08041383 0.23345722 0.14518832 0.022450851 0.21076182 0.09035174 0.055892628
0.10216027 0.14768466 0.0 0.08986734 0.0 0.0 0.0 0.032718368
0.050595358 0.0 0.019893711 0.0 0.0 0.0 0.0 0.0
0.0 0.12529196 0.28791088 0.16476437 0.0 0.21609502 0.10488174 0.06735386
0.101952165 0.03866195 0.0 0.04284299 0.0 0.0 0.0 0.016763603
0.069501355 0.0 0.0 0.0 0.0 0.00010609883 0.0 0.0
0.017143449 0.031603165 0.16132784 0.15749362 0.0 0.20784754 0.04612964 0.0
0.11876674 0.107052594 0.0 0.057385456 0.0 0.0 0.0 0.02628102
0.0331857 0.0 0.0 0.0 0.0 0.0 0.0 0.0
0.0 0.100200765 0.10308983 0.14303677 0.0 0.17492177 0.09109113 0.04015286
0.07368931 0.15284015 0.0 0.038299546 0.0 0.0 0.0 0.1092452
0.079486266 0.0 0.0 0.0 0.0 0.024030538 0.0 0.0
00000000: e5bc 9f3d d2e3 933d 0000 0000 e861 8c3d
00000010: 0000 0000 0000 0000 0000 0000 6c61 513c
00000020: b39f 6b3d 0000 0000 c32e f03c 0000 0000
00000030: 0000 0000 0000 0000 0000 0000 0000 0000
00000040: bdc0 b13b b479 ee3c 0a1d 0b3e 9f6e f33d
00000050: a06f 353d 68f8 563e c9da 243e 447d 823d
00000060: 06a5 f33d 345c 083e 0000 0000 c17b 023d
00000070: 0000 0000 0000 0000 0000 0000 0370 143c
00000080: 4d72 f83c 0000 0000 0000 0000 0000 0000
00000090: 0000 0000 0793 0a3d 0000 0000 0000 0000
000000a0: 0000 0000 4ff9 e63d 9c68 7e3e 30f8 523e
000000b0: 0000 0000 26f3 873e 604b e63d a872 fb3c
000000c0: 3784 2d3e 2049 2d3d 0000 0000 aa30 c03d
000000d0: 0000 0000 0000 0000 0000 0000 0000 0000
000000e0: 72bc 183d 0000 0000 0000 0000 0000 0000
000000f0: 0000 0000 0000 0000 0000 0000 0000 0000
00000100: 3156 593b d928 f03d 56fb 3c3e 96f7 313e
00000110: 0000 0000 546c 543e 2978 9f3d 0000 0000
00000120: 49ba 863d 8a0b 833d 0000 0000 cf68 003d
00000130: 0000 0000 0000 0000 0000 0000 cdc2 ee3c
00000140: 70b1 8a3d 0000 0000 5f55 fa3c 0000 0000
00000150: 0000 0000 4cdf 6a3c 0000 0000 0000 0000
00000160: 0000 0000 a667 0b3d 7574 fa3d 406e 393e
00000170: f9a3 f23c bfeb 1e3e 32ee 033e fb30 413d
00000180: 9ac3 c53d 1291 b63d 0000 0000 159d aa3d
00000190: 0000 0000 0000 0000 0000 0000 f26c 073c
000001a0: a53d 9c3d 0000 0000 0000 0000 0000 0000
000001b0: 0000 0000 e1ef e03a 0000 0000 0000 0000
000001c0: 9869 063d fceb a33d 97b6 7a3e dffe 413e
000001d0: f67d c53b f919 433e 4995 023e 0000 0000
000001e0: 4f50 813d 35ad 9b3d 0000 0000 933b 323d
000001f0: 0000 0000 0000 0000 0000 0000 0000 0000
00000200: 1ec0 4e3d 0000 0000 0000 0000 0000 0000
00000210: 0000 0000 0000 0000 0000 0000 0000 0000
00000220: 0000 0000 d0f0 053e 5de9 663e 3c91 073e
00000230: 0000 0000 064b 043e a37c e93c 0000 0000
00000240: 4f06 d03d 6808 bf3d 0000 0000 de6a b23d
00000250: 0000 0000 0000 0000 0000 0000 0e7d 203d
00000260: ddea 6c3d 0000 0000 0000 0000 0000 0000
00000270: 0000 0000 1e58 8a3b 0000 0000 0000 0000
00000280: 0000 0000 02b0 a43d 690f 6f3e 3fac 143e
00000290: d9ea b73c f2d1 573e 550a b93d abef 643d
000002a0: 6739 d13d a63a 173e 0000 0000 5e0c b83d
000002b0: 0000 0000 0000 0000 0000 0000 b203 063d
000002c0: 143d 4f3d 0000 0000 23f8 a23c 0000 0000
000002d0: 0000 0000 0000 0000 0000 0000 0000 0000
000002e0: 0000 0000 894c 003e 0e69 933e feb7 283e
000002f0: 0000 0000 0348 5d3e 3dcc d63d d2f0 893d
00000300: 4ccc d03d fe5b 1e3d 0000 0000 227c 2f3d
00000310: 0000 0000 0000 0000 0000 0000 d353 893c
00000320: ba56 8e3d 0000 0000 0000 0000 0000 0000
00000330: 0000 0000 6081 de38 0000 0000 0000 0000
00000340: 6b70 8c3c 5272 013d 2033 253e 0246 213e
00000350: 0000 0000 fcd5 543e 6ff2 3c3d 0000 0000
00000360: fa3b f33d 643e db3d 0000 0000 030d 6b3d
00000370: 0000 0000 0000 0000 0000 0000 4b4b d73c
00000380: bbed 073d 0000 0000 0000 0000 0000 0000
00000390: 0000 0000 0000 0000 0000 0000 0000 0000
000003a0: 0000 0000 0f36 cd3d c320 d33d 3b78 123e
000003b0: 0000 0000 b11e 333e fd8d ba3d 5377 243d
000003c0: 6cea 963d 2182 1c3e 0000 0000 fcdf 1c3d
000003d0: 0000 0000 0000 0000 0000 0000 f3bb df3d
000003e0: b2c9 a23d 0000 0000 0000 0000 0000 0000
000003f0: 0000 0000 b1db c43c 0000 0000 0000 0000

mlp2.bias f4 [24]
0.044537954 -0.03616713 0.054464787 0.015105828 0.023836056 -0.016932094 -0.04803236 -0.018606074
0.03411817 -0.025534902 -0.08317753 -0.026995169 -0.08206791 0.025214918 -0.045349408 0.06260209
-0.0028366328 0.036714736 0.040860437 0.06237183 -0.070452146 0.013043884 0.056568842 -0.03743739
00000000: 6e6d 363d fc23 14bd 7816 5f3d 6f7e 773c
00000010: d543 c33c 2db5 8abc 94bd 44bd c46b 98bc
00000020: 7fbf 0b3d 922e d1bc fb58 aabd f924 ddbc
00000030: 3813 a8bd 848f ce3c 4dc0 39bd 8635 803d
00000040: cde6 39bb 3162 163d 465d 273d 9b79 7f3d
00000050: 3749 90bd 04b6 553c bbb4 673d f357 19bd

bn2.weight f4 [72]
0.49527806 0.49977964 0.38827977 0.4568288 0.39660853 0.38780555 0.39177647 0.43861756
0.4954458 0.38265446 0.40758175 0.3811657 0.39049184 0.4211529 0.39150384 0.4031444
0.41170463 0.4949688 0.49829286 0.5 0.41536173 0.5 0.48033386 0.42822397
0.4977584 0.49965397 0.38594797 0.47945005 0.40648946 0.38587064 0.40355152 0.46496847
0.4905058 0.37997162 0.4119583 0.37895662 0.40579724 0.4470107 0.39145106 0.40997258
0.43279535 0.49097344 0.5 0.5 0.42446345 0.5 0.48285255 0.45888704
0.49829698 0.47517547 0.39488658 0.4805599 0.40500766 0.39434066 0.40043 0.39560083
0.4855431 0.37850553 0.38308033 0.37108412 0.39437512 0.429654 0.3844394 0.39457986
0.41133943 0.4880697 0.5 0.5 0.42173985 0.5 0.47715792 0.3862884
00000000: 1695 fd3e 1ee3 ff3e 9bcc c63e 77e5 e93e
00000010: 4610 cb3e 738e c63e ed96 c83e 7b92 e03e
00000020: 12ab fd3e 49eb c33e 8eae d03e 2728 c33e
00000030: 8cee c73e 5aa1 d73e 3173 c83e f168 ce3e
00000040: f3ca d23e 8d6c fd3e 3e20 ff3e 0000 003f
00000050: 4baa d43e 0000 003f 52ee f53e 2c40 db3e
00000060: 30da fe3e a5d2 ff3e f99a c53e 7a7a f53e
00000070: 631f d03e d690 c53e 4e9e ce3e 5910 ee3e
00000080: 9423 fb3e a48b c23e 33ec d23e 9a06 c23e
00000090: a8c4 cf3e 96de e43e 466c c83e ede7 d13e
000000a0: 5a97 dd3e df60 fb3e 0000 003f 0000 003f
000000b0: 4653 d93e 0000 003f 7338 f73e 3ef3 ea3e
000000c0: c820 ff3e 334a f33e 932e ca3e f20b f63e
000000d0: 2a5d cf3e 05e7 c93e 2905 cd3e 318c ca3e
000000e0: 1b99 f83e 7acb c13e 1b23 c43e bdfe bd3e
000000f0: 89eb c93e 9cfb db3e 3ed5 c43e 5f06 ca3e
00000100: 159b d23e 46e4 f93e 0000 003f 0000 003f
00000110: 49ee d73e 0000 003f 0b4e f43e 98c7 c53e

bn2.bias f4 [72]
-0.0035746123 0.0037626852 0.0134829385 0.0026102294 0.0036968826 0.0029726771 0.0049682185 0.0027914632
0.0023545339 0.013597533 0.0025550951 0.016513512 0.014153436 0.008186109 0.010506142 -0.0027304653
0.0011870953 -0.0038943414 -0.003868432 -0.00567155 -0.0037225268 -0.003358165 -0.0049688113 -0.00094607973
-0.009233343 -0.002344062 0.0018933847 -0.010390238 -0.006538598 0.0019995738 -0.01574662 7.64305e-05
-0.0020082523 0.009122175 0.0036033813 0.017222162 0.008628478 -0.004196494 0.005241666 0.015620678
0.0017029834 -0.0026793855 -0.007347924 -0.0014642889 0.00062018144 -0.008015606 -0.002913523 -0.002888494
-0.004545878 0.0032859708 0.01829264 -0.0149399415 -0.005716427 0.016784832 0.0013880078 -0.013972344
-0.006413913 0.016758418 0.004232753 0.017884081 0.01542879 -0.005624826 -0.005776166 0.00155651
-0.0070611057 -0.0011596646 -0.006862297 -0.0043779523 -0.0063010994 -0.0066210935 -0.018383931 0.0068554236
00000000: 0b44 6abb 6297 763b 8be7 5c3c 6210 2b3b
00000010: 6647 723b 3fd1 423b 70cc a23b fbf0 363b
00000020: 864e 1a3b 30c8 5e3c 6273 273b 5847 873c
00000030: d0e3 673c 081f 063c f421 2c3c 9bf1 32bb
00000040: 4f98 9b3a 3538 7fbb 8585 7dbb 69d8 b9bb
00000050: a3f5 73bb a914 5cbb 69d1 a2bb 5602 78ba
00000060: 7347 17bc d69e 19bb 732b f83a d13b 2abc
00000070: bc41 d6bb 480b 033b 0eff 80bc 5049 a038
00000080: e29c 03bb 2d75 153c b526 6c3b 7e15 8d3c
00000090: 765e 0d3c be82 89bb 48c2 ab3b dfed 7f3c
000000a0: a436 df3a a198 2fbb dbc6 f0bb 62ed bfba
000000b0: ac93 223a e353 03bc cef0 3ebb e34c 3dbb
000000c0: 97f5 94bb 7159 573b 72da 953c a8c6 74bc
000000d0: de50 bbbb 5880 893c d0ed b53a 42ec 64bc
000000e0: cd2b d2bb f348 893c e8b2 8a3b a381 923c
000000f0: 09c9 7c3c 7650 b8bb fe45 bdbb cf03 cc3a
00000100: d960 e7bb e3ff 97ba 1fdd e0bb ed74 8fbb
00000110: 7479 cebb c2f5 d8bb e699 96bc 76a3 e03b

bn2.running_mean f4 [72]
0.2876147 -0.21055774 0.45008025 0.38451394 0.45393205 0.21205151 0.50526845 -0.22040258
0.34211498 0.076485634 -0.14290689 -0.043223564 0.22125518 0.27705136 0.22275881 -0.20985569
0.17222331 0.14087869 0.21197984 -0.1912207 0.4827478 0.08987181 -0.22543263 -0.19382574
0.2620023 -0.21657705 0.2240482 0.30528402 0.25079995 0.09624772 0.22245686 -0.23431018
0.18938577 0.04438985 -0.16613233 -0.067834474 0.090070136 0.14992383 0.10735244 -0.21947537
0.08324049 0.09839945 0.07058179 -0.19128233 0.40528452 0.053672876 -0.22642414 -0.2097626
0.2620023 -0.3623676 0.2124637 0.3052075 0.24292523 0.063750066 0.19872221 -0.48155177
0.18082061 0.026716242 -0.34776115 -0.13132301 0.048607036 0.13482842 0.074669234 -0.40209764
0.05500006 0.09105278 0.004861747 -0.2072636 0.40528452 0.03919987 -0.39568081 -0.42772335
00000000: 3c42 933e 739c 57be eb70 e63e 03df c43e
00000010: c869 e83e 0824 593e 4659 013f 37b1 61be
00000020: b229 af3e 80a4 9c3d 2f56 12be 310b 31bd
00000030: b890 623e add9 8d3e e31a 643e 69e4 56be
00000040: 4f5b 303e 8142 103e 3e11 593e 5ccf 43be
00000050: b82a f73e b60e b83d d0d7 66be 417a 46be
00000060: 2a25 863e 60c6 5dbe e46c 653e 304e 9c3e
00000070: da68 803e 861d c53d bbcb 633e 02ef 6fbe
00000080: 58ee 413e 22d2 353d 981e 2abe cdec 8abd
00000090: b176 b83d a285 193e 99db db3d 27be 60be
000000a0: fd79 aa3d a785 c93d 2f8d 903d 84df 43be
000000b0: 7481 cf3e 17d8 5b3d bbdb 67be 02cc 56be
000000c0: 2a25 863e 3f88 b9be 1690 593e 2844 9c3e
000000d0: 64c1 783e 658f 823d d67d 4b3e f48d f6be
000000e0: 0a29 393e 05dc da3c c00d b2be 8a79 06be
000000f0: 2c18 473d 7610 0a3e 2fec 983d bedf cdbe
00000100: be47 613d e179 ba3d 4a4f 9f3b e93c 54be
00000110: 7481 cf3e 0b90 203d ad96 cabe 8efe dabe

bn2.running_var f4 [72]
0.05765038 0.11935983 0.35447326 0.10042334 0.29826054 0.28839248 0.45234868 0.14324872
0.27881318 0.15828235 0.18024665 0.17448221 0.32182756 0.27196857 0.28589004 0.13238661
0.25204667 0.15610445 0.3635358 0.056615375 0.044533886 0.16133425 0.10403171 0.15385173
0.040893 0.109454006 0.11930887 0.04877559 0.101279475 0.14509559 0.12674485 0.11704915
0.12205358 0.11950115 0.14009883 0.13855484 0.15237904 0.13051137 0.14019948 0.11531775
0.14543052 0.10993741 0.16171412 0.0565261 0.016145341 0.118129484 0.10240696 0.124829836
0.040893 0.24692225 0.13979399 0.048904993 0.11616799 0.19584848 0.17295195 0.36906832
0.13602874 0.14379436 0.34558305 0.2161301 0.21835811 0.15463679 0.19330516 0.29961756
0.1869816 0.12031015 0.26868173 0.06896534 0.016145341 0.13772291 0.25454432 0.35420334
00000000: ce22 6c3d ed72 f43d 857d b53e c1aa cd3d
00000010: 9bb5 983e 2ea8 933e 3f9a e73e cbaf 123e
00000020: 9ac0 8e3e c514 223e 9492 383e 77ab 323e
00000030: 95c6 a43e 773f 8b3e 2e60 923e 5b90 073e
00000040: 430c 813e d8d9 1f3e 5d21 ba3e 86e5 673d
00000050: 2a69 363d ce34 253e 940e d53d 4f8b 1d3e
00000060: 6b7f 273d 6c29 e03d 3558 f43d eac8 473d
00000070: 9d6b cf3d f093 143e 67c9 013e 77b7 ef3d
00000080: 3af7 f93d 05bd f43d 1176 0f3e 52e1 0d3e
00000090: 4009 1c3e c6a4 053e 7490 0f3e b62b ec3d
000000a0: bdeb 143e dd26 e13d 6398 253e e987 673d
000000b0: 3c43 843c dfed f13d beba d13d c9a6 ff3d
000000c0: 6b7f 273d 30d9 7c3e 2826 0f3e 9a50 483d
000000d0: 7ce9 ed3d 818c 483e 511a 313e 86f6 bc3e
000000e0: 1e4b 0b3e d43e 133e 43f0 b03e 3551 5d3e
000000f0: 4599 5f3e 1b59 1e3e caf1 453e 7967 993e
00000100: 1b78 3f3e 2b65 f63d a790 893e b33d 8d3d
00000110: 3c43 843c 3c07 0d3e a253 823e 245a b53e

mlp3.weight f4 [24, 72]
0.05764895 0.07768922 0.035881605 0.03141065 0.08991438 0.036790077 0.04434709 0.07644152
0.04532118 0.07168534 0.027920708 0.036257744 0.0417189 0.09095357 0.03273241 0.04616671
0.042309105 0.083260454 0.07259358 0.034876075 0.035821043 0.03580653 0.03698654 0.052004997
0.08969421 0.08459553 0.070869036 0.14067817 0.12041333 0.096213594 0.16729794 0.13754149
0.15144043 0.07448212 0.05710857 0.12544891 0.17001987 0.13130775 0.113850616 0.14297785
0.13105243 0.07684168 0.06519873 0.12310269 0.090787135 0.1450996 0.07708744 0.055311974
0.0 0.0 0.0 0.0 0.0 0.0 0.0 0.0
0.0 0.0 0.0 0.0 0.0 0.0 0.0 0.0
0.0 0.0 0.0 0.0 0.0 0.0 0.0 0.0
0.0 0.0 0.0 0.0 0.0 0.0 0.0 0.0
0.0 0.0 0.0 0.0 0.0 0.0 0.0 0.0
0.0 0.0 0.0 0.0 0.0 0.0 0.0 0.0
0.12810214 0.08015506 0.08837314 0.13332342 0.06470337 0.087171875 0.13599037 0.06936509
0.06569918 0.12490366 0.12943111 0.10254851 0.095585346 0.05946436 0.03802648 0.1725104
0.12972215 0.0889698 0.15935244 0.074022904 0.051367458 0.15377384 0.09428231 0.053986344
0.14082886 0.12763013 0.1801 0.12066409 0.0818517 0.06250324 0.1304171 0.05740787
0.10920151 0.14216857 0.14104995 0.15442567 0.15686305 0.085191466 0.089452915 0.09048469
0.14229582 0.17993261 0.1349656 0.10687866 0.16803575 0.07268965 0.15977892 0.058469962
0.0 0.0 0.0 0.0 0.0 0.0 0.0 0.0
0.0 0.0 0.0 0.0 0.0 0.0 0.0 0.0
0.0 0.0 0.0 0.0 0.0 0.0 0.0 0.0
0.19198486 0.11820407 0.13956681 0.14147088 0.17697932 0.20155638 0.13661966 0.19458015
0.16945378 0.20907299 0.069896385 0.2199417 0.19649866 0.14171083 0.15680675 0.22079897
0.16651462 0.1542095 0.22163431 0.21691705 0.18920346 0.12566224 0.16331558 0.098404266
0.0 0.0 0.0 0.0 0.0 0.0 0.0 0.0
0.0 0.0 0.0 0.0 0.0 0.0 0.0 0.0
0.0 0.0 0.0 0.0 0.0 0.0 0.0 0.0
0.022848286 0.022211216 0.017142862 0.01371329 0.019271398 0.017066691 0.021249197 0.023107285
0.013551801 0.021504834 0.0030251471 0.026948843 0.020560607 0.020429073 0.015030957 0.027307011
0.018486965 0.019375518 0.01519082 0.015181777 0.016275328 0.015426401 0.01605422 0.0147755835
0.14188106 0.13103808 0.10603537 0.11235121 0.11413546 0.13300584 0.044753596 0.07460179
0.10433697 0.062457025 0.0042989166 0.12780502 0.12580016 0.12769748 0.16158174 0.074363895
00000000: 4e21 6c3d 871b 9f3d 97f8 123d 74a8 003d
00000010: 0825 b83d 31b1 163d 4ba5 353d 5f8d 9c3d
00000020: b4a2 393d c3cf 923d f8b9 e43c 0083 143d
00000030: 70e1 2a3d de45 ba3d 6b12 063d 4e19 3d3d
00000040: 504c 2d3d 7584 aa3d f1ab 943d 37da 0e3d
00000050: 16b9 123d dea9 123d 337f 173d 3103 553d
00000060: 99b1 b73d 6c40 ad3d c923 913d f00d 103e
00000070: 449b f63d a20b c53d 2750 2b3e add7 0c3e
00000080: 3313 1b3e 158a 983d adea 693d ae75 003e
00000090: b019 2e3e 8a75 063e 832a e93d c968 123e
000000a0: 9c32 063e 2c5f 9d3d e986 853d 431d fc3d
000000b0: 9bee b93d fd94 143e 05e0 9d3d cf8e 623d
000000c0: 0000 0000 0000 0000 0000 0000 0000 0000
000000d0: 0000 0000 0000 0000 0000 0000 0000 0000
000000e0: 0000 0000 0000 0000 0000 0000 0000 0000
000000f0: 0000 0000 0000 0000 0000 0000 0000 0000
00000100: 0000 0000 0000 0000 0000 0000 0000 0000
00000110: 0000 0000 0000 0000 0000 0000 0000 0000
00000120: 0000 0000 0000 0000 0000 0000 0000 0000
00000130: 0000 0000 0000 0000 0000 0000 0000 0000
00000140: 0000 0000 0000 0000 0000 0000 0000 0000
00000150: 0000 0000 0000 0000 0000 0000 0000 0000
00000160: 0000 0000 0000 0000 0000 0000 0000 0000
00000170: 0000 0000 0000 0000 0000 0000 0000 0000
00000180: 352d 033e 5628 a43d fafc b43d ef85 083e
00000190: 3383 843d 2b87 b23d 0f41 0b3e 490f 8e3d
000001a0: 4b8d 863d 7dcd ff3d 9789 043e f404 d23d
000001b0: 40c2 c33d e790 733d a7c1 1b3d 91a6 303e
000001c0: e2d5 043e cc35 b63d 492d 233e 5299 973d
000001d0: af66 523d e476 1d3e 1517 c13d c920 5d3d
000001e0: 7135 103e 79b1 023e 226c 383e bc1e f73d
000001f0: dda1 a73d b301 803d 0f8c 053e 8424 6b3d
00000200: 0ba5 df3d a394 113e 666f 103e c321 1e3e
00000210: b5a0 203e dd78 ae3d 1733 b73d 0a50 b93d
00000220: ffb5 113e 4140 383e 6c34 0a3e 33e3 da3d
00000230: 9011 2c3e 50de 943d 169d 233e 337e 6f3d
00000240: 0000 0000 0000 0000 0000 0000 0000 0000
00000250: 0000 0000 0000 0000 0000 0000 0000 0000
00000260: 0000 0000 0000 0000 0000 0000 0000 0000
00000270: 0000 0000 0000 0000 0000 0000 0000 0000
00000280: 0000 0000 0000 0000 0000 0000 0000 0000
00000290: 0000 0000 0000 0000 0000 0000 0000 0000
000002a0: ae97 443e fa14 f23d 9aea 0e3e bedd 103e
000002b0: 113a 353e cc64 4e3e 06e6 0b3e 0540 473e
000002c0: 4b85 2d3e 3b17 563e d625 8f3d 6638 613e
000002d0: f236 493e a51c 113e f391 203e 2019 623e
000002e0: cf82 2a3e 18e9 1d3e 1bf4 623e 811f 5e3e
000002f0: 8dbe 413e 9aad 003e 333c 273e 2d88 c93d
00000300: 0000 0000 0000 0000 0000 0000 0000 0000
00000310: 0000 0000 0000 0000 0000 0000 0000 0000
00000320: 0000 0000 0000 0000 0000 0000 0000 0000
00000330: 0000 0000 0000 0000 0000 0000 0000 0000
00000340: 0000 0000 0000 0000 0000 0000 0000 0000
00000350: 0000 0000 0000 0000 0000 0000 0000 0000
00000360: 542c bb3c 4cf4 b53c 306f 8c3c b5ad 603c
00000370: 0ddf 9d3c 72cf 8b3c cc12 ae3c 7d4b bd3c
00000380: 6008 5e3c e82a b03c 8c41 463b d2c3 dc3c
00000390: b86e a83c df5a a73c 6744 763c f4b2 df3c
000003a0: fa71 973c 68b9 9e3c ebe2 783c fdbc 783c
000003b0: d653 853c 04bf 7c3c 2484 833c 4a15 723c
000003c0: 4549 113e d92e 063e 1229 d93d 6418 e63d
000003d0: dabf e93d af32 083e 8c4f 373d d3c8 983d
000003e0: 9fae d53d f0d2 7f3d eddd 8c3b 52df 023e
000003f0: c2d1 003e 21c3 023e af75 253e 194c 983d

mlp3.bias f4 [24]
-0.1707306 0.07597518 0.12919082 -0.20486535 -0.038927272 -0.19362065 0.012577186 -0.1689709
-0.15044765 -0.014222768 -0.23680341 -0.22879846 0.034790702 0.09762563 -0.14637403 -0.16025433
-0.08332583 -0.078279324 -0.19500726 0.12615612 -0.07634093 0.07450738 0.23228645 0.026464531
00000000: 01d4 2ebe e098 9b3d 994a 043e 39c8 51be
00000010: 3472 1fbd 7e44 46be 8b10 4e3c b506 2dbe
00000020: f30e 1abe 9d06 69bc 987c 72be 254a 6abe
00000030: b280 0e3d f2ef c73d 13e3 15be b619 24be
00000040: bca6 aabd e950 a0bd fcaf 47be 122f 013e
00000050: a258 9cbd 5397 983d 80dc 6d3e 25cc d83c

bn3.weight f4 [72]
0.43714136 0.45154333 0.4449982 0.46638167 0.48574498 0.478943 0.46249098 0.49150965
0.46011466 0.47730562 0.44464284 0.44099212 0.4707625 0.46334985 0.4402661 0.5
0.4726659 0.46519297 0.44359106 0.44558224 0.44043416 0.46440876 0.45479167 0.45487598
0.46593228 0.47956392 0.4643008 0.4744007 0.4734748 0.47428498 0.47941002 0.47690123
0.46695188 0.4787909 0.44967967 0.47341263 0.48079804 0.48146063 0.47125474 0.47040927
0.47761637 0.47293362 0.4749647 0.4635293 0.4704022 0.47229198 0.47315246 0.46698555
0.38935998 0.3930664 0.39157066 0.3905181 0.39092773 0.3906649 0.38947675 0.38401392
0.38371828 0.3905021 0.3912654 0.3936169 0.39462453 0.3905487 0.3870679 0.38832918
0.39263296 0.39051032 0.3869021 0.39229545 0.3890268 0.3907912 0.3912891 0.3862959
00000000: fed0 df3e b030 e73e ced6 e33e 94c9 ee3e
00000010: 91b3 f83e 0438 f53e 9ecb ec3e 27a7 fb3e
00000020: 2694 eb3e 6761 f43e 3aa8 e33e b8c9 e13e
00000030: c807 f13e 313c ed3e 8f6a e13e 0000 003f
00000040: 4401 f23e c62d ee3e 5e1e e33e 5b23 e43e
00000050: 9680 e13e fcc6 ed3e 74da e83e 81e5 e83e
00000060: ad8e ee3e 6789 f53e d6b8 ed3e a6e4 f23e
00000070: 4a6b f23e 7bd5 f23e 3b75 f53e 662c f43e
00000080: 5114 ef3e 1524 f53e 6a3c e63e 2463 f23e
00000090: 292b f63e 0282 f63e 4d48 f13e 7cd9 f03e
000000a0: 228a f43e 5b24 f23e 932e f33e b653 ed3e
000000b0: 8fd8 f03e 41d0 f13e 0a41 f23e bb18 ef3e
000000c0: 315a c73e 0040 c93e f37b c83e fdf1 c73e
000000d0: ae27 c83e 3b05 c83e 7f69 c73e 799d c43e
000000e0: b976 c43e e4ef c73e f053 c83e 2888 c93e
000000f0: 3a0c ca3e 00f6 c73e c42d c63e 15d3 c63e
00000100: 3007 c93e f8f0 c73e 0818 c63e f3da c83e
00000110: 852e c73e c915 c83e 0b57 c83e 94c8 c53e

bn3.bias f4 [72]
-0.08733754 -0.08720842 -0.07439737 -0.05802316 -0.08053042 -0.08369526 -0.09306096 -0.09278979
-0.06563842 -0.09387173 -0.09130415 -0.08100215 -0.09134003 -0.08370826 -0.064736046 -0.098095715
-0.07448483 -0.09089879 -0.060426716 -0.087232426 -0.07784723 -0.0629164 -0.07904678 -0.08532832
-0.09363279 -0.10523185 -0.085727476 -0.07562971 -0.10696718 -0.09382932 -0.08019774 -0.1019405
-0.08128514 -0.099426724 -0.07346083 -0.09366839 -0.10403939 -0.09845367 -0.10490016 -0.072965026
-0.09613739 -0.07474049 -0.07422295 -0.091782354 -0.096960396 -0.102752514 -0.11029941 -0.10295577
-0.0418743 -0.063518025 -0.06816398 -0.06389896 -0.08034428 -0.074856095 -0.08055856 -0.07658134
-0.06637325 -0.09004486 -0.05389987 -0.052323353 -0.0675089 -0.09013053 -0.09480136 -0.08522537
-0.039377797 -0.03901773 -0.08070401 -0.0803974 -0.05901478 -0.08165016 -0.052831236 -0.086534455
00000000: 06de b2bd 549a b2bd a65d 98bd b1a9 6dbd
00000010: 22ed a4bd 6c68 abbd bf96 bebd 9308 bebd
00000020: 706d 86bd d23f c0bd acfd babd 75e4 a5bd
00000030: 7b10 bbbd 3c6f abbd 5594 84bd 68e6 c8bd
00000040: 818b 98bd 2529 babd 0182 77bd eaa6 b2bd
00000050: 5e6e 9fbd 50da 80bd 47e3 a1bd 9dc0 aebd
00000060: 8cc2 bfbd cc83 d7bd e391 afbd c0e3 9abd
00000070: 9c11 dbbd 9629 c0bd b63e a4bd 2ec6 d0bd
00000080: d378 a6bd 3da0 cbbd a272 96bd 36d5 bfbd
00000090: 9b12 d5bd 14a2 c9bd e5d5 d6bd b06e 95bd
000000a0: aee3 c4bd 8b11 99bd 3402 98bd 63f8 bbbd
000000b0: 2c93 c6bd e96f d2bd a8e4 e1bd 7ada d2bd
000000c0: 6384 2bbd bd15 82bd 8f99 8bbd 75dd 82bd
000000d0: 8b8b a4bd 274e 99bd e3fb a4bd add6 9cbd
000000e0: b3ee 87bd 7169 b8bd 1cc6 5cbd 0351 56bd
000000f0: 1b42 8abd 5b96 b8bd 3727 c2bd a48a aebd
00000100: 9d4a 21bd 0ed1 1fbd 2548 a5bd 64a7 a4bd
00000110: 7bb9 71bd 3338 a7bd 9165 58bd fa38 b1bd

bn3.running_mean f4 [72]
0.480116 0.35516754 0.4881181 0.42440745 0.44184077 0.38704103 0.35129324 0.3910805
0.4834088 0.38191724 0.3918614 0.38142943 0.31382224 0.4468604 0.3273283 0.48978457
0.41874203 0.48835018 0.4766933 0.5125766 0.31911758 0.4294638 0.48574704 0.38461486
0.012668209 0.00094141625 0.011079074 0.0048251566 0.007837516 0.0037400168 0.002948875 0.0028944185
0.012510729 0.004405326 -0.0103378035 0.0024035687 -0.0010519956 0.009263129 -0.0051418175 0.01028438
0.008801829 0.014250049 0.011328682 0.014562543 -0.0035721909 0.007840169 0.01090832 0.006763229
-0.43954366 -0.4037076 -0.43897814 -0.41974932 -0.42531505 -0.4156474 -0.41167074 -0.4229833
-0.45314872 -0.41726914 -0.4996028 -0.42218265 -0.41270158 -0.4280974 -0.3881458 -0.4329537
-0.42931932 -0.45510647 -0.44073725 -0.452857 -0.40657622 -0.42472476 -0.43468478 -0.42955753
00000000: c4d1 f53e 85d8 b53e 9eea f93e ef4b d93e
00000010: f438 e23e 3e2a c63e b5dc b33e b43b c83e
00000020: 5c81 f73e a88a c33e 0fa2 c83e b84a c33e
00000030: 4fad a03e e3ca e43e 9397 a73e 0bc5 fa3e
00000040: 5b65 d63e 0909 fa3e 2511 f43e 3838 033f
00000050: 6163 a33e aee2 db3e d6b3 f83e 3dec c43e
00000060: 528e 4f3c 60c9 763a 0185 353c 591c 9e3b
00000070: ed68 003c 121b 753b ea41 413b 49b0 3d3b
00000080: cdf9 4c3c 8e5a 903b e45f 29bc 3185 1d3b
00000090: 1de3 89ba 61c4 173c b17c a8bb d17f 283c
000000a0: 8c35 103c 0a79 693c f09b 393c bb97 6e3c
000000b0: 6b1b 6abb 0d74 003c cfb8 323c 149e dd3b
000000c0: de0b e1be c3b2 cebe bec1 e0be 62e9 d6be
000000d0: e5c2 d9be bccf d4be 82c6 d2be 4491 d8be
000000e0: 1c03 e8be 4da4 d5be f0cb ffbe 5328 d8be
000000f0: 9f4d d3be 952f dbbe 0cbb c6be 1bac ddbe
00000100: becf dbbe b703 e9be 50a8 e1be dfdc e7be
00000110: c22a d0be 8675 d9be 018f debe f7ee dbbe

bn3.running_var f4 [72]
1.1687275 0.8836502 1.2097399 1.0588313 1.0834212 0.95471364 0.8557763 0.9639307
1.1767206 0.93313843 1.0353211 0.9483964 0.7722035 1.0953771 0.84278 1.2260953
1.0078745 1.1767336 1.1729192 1.2556081 0.8080923 1.0471468 1.2067713 0.92463845
0.21837464 0.2151379 0.21838489 0.21656673 0.21741861 0.216085 0.21515512 0.21648243
0.21893427 0.21590005 0.21866143 0.21593328 0.21474232 0.21760982 0.21316636 0.21853223
0.2174003 0.218903 0.21823813 0.21923174 0.2140091 0.21751656 0.21844192 0.21631713
1.1872852 1.0225677 1.1676764 1.0874802 1.1204883 1.0739329 1.0600733 1.0886837
1.2235162 1.0784616 1.2516633 1.0900271 1.0457475 1.1304351 0.95317024 1.1459118
1.1350341 1.2452648 1.1832203 1.2365744 1.0143808 1.1124549 1.1565125 1.1321096
00000000: dd98 953f e636 623f c2d8 9a3f c987 873f
00000010: 8cad 8a3f 1d68 743f 2814 5b3f 2ac4 763f
00000020: c89e 963f 29e2 6e3f 6785 843f 1bca 723f
00000030: 21af 453f 5135 8c3f 6ec0 573f b1f0 9c3f
00000040: 0802 813f 359f 963f 3722 963f c4b7 a03f
00000050: 23df 4e3f e808 863f 7b77 9a3f 1bb5 6c3f
00000060: 9a9d 5f3e 1c4d 5c3e 4aa0 5f3e abc3 5d3e
00000070: fca2 5e3e 6345 5d3e a051 5c3e 92ad 5d3e
00000080: 4e30 603e e714 5d3e c8e8 5f3e 9d1d 5d3e
00000090: 69e5 5b3e 1cd5 5e3e 4848 5a3e eac6 5f3e
000000a0: 2f9e 5e3e 1c28 603e d179 5f3e 497e 603e
000000b0: 3425 5b3e a9bc 5e3e 3daf 5f3e 3d82 5d3e
000000c0: f6f8 973f 80e3 823f 6c76 953f 8d32 8b3f
000000d0: 296c 8f3f a276 893f 7bb0 873f fd59 8b3f
000000e0: 2e9c 9c3f 080b 8a3f 8136 a03f 0286 8b3f
000000f0: 0edb 853f 19b2 903f f702 743f 3dad 923f
00000100: cc48 913f d664 9f3f c373 973f 1248 9e3f
00000110: 3bd7 813f ec64 8e3f 9a08 943f f8e8 903f

mlp4.weight f4 [1, 72]
0.0 0.0 0.0 0.0 0.0 0.0 0.0 0.0
0.0 0.0 0.0 0.0 0.0 0.0 0.0 0.0
0.0 0.0 0.0 0.0 0.0 0.0 0.0 0.0
0.10635728 0.0 0.0066310507 0.13769802 0.19951986 0.11281685 0.07598177 0.09598739
0.1473545 0.0 0.16420123 0.08250452 0.0 0.057509627 0.045355335 0.20175135
0.20365769 0.20397499 0.20129317 0.0 0.14943276 0.048802856 0.03188861 0.024762806
0.15135287 0.0 0.12030592 0.19539545 0.23969984 0.12494059 0.026838297 0.08885582
0.15319525 0.0 0.24332058 0.18167283 0.013311247 0.13832638 0.0 0.23589848
0.13892965 0.17095843 0.21762495 0.16362447 0.21863669 0.0 0.0 0.12766662
00000000: 0000 0000 0000 0000 0000 0000 0000 0000
00000010: 0000 0000 0000 0000 0000 0000 0000 0000
00000020: 0000 0000 0000 0000 0000 0000 0000 0000
00000030: 0000 0000 0000 0000 0000 0000 0000 0000
00000040: 0000 0000 0000 0000 0000 0000 0000 0000
00000050: 0000 0000 0000 0000 0000 0000 0000 0000
00000060: d8d1 d93d 0000 0000 4949 d93b b600 0d3e
00000070: ef4e 4c3e 850c e73d 559c 9b3d 0995 c43d
00000080: 19e4 163e 0000 0000 5e24 283e 21f8 a83d
00000090: 0000 0000 378f 6b3d 84c6 393d e897 4e3e
000000a0: a48b 503e d2de 503e cc1f 4e3e 0000 0000
000000b0: e704 193e 81e5 473d a29d 023d 5edb ca3c
000000c0: 3ffc 1a3e 0000 0000 f362 f63d bf15 483e
000000d0: e073 753e dae0 ff3d fddb db3c 0afa b53d
000000e0: 37df 1c3e 0000 0000 0829 793e 7108 3a3e
000000f0: 6b17 5a3c 6ea5 0d3e 0000 0000 5f8f 713e
00000100: 9343 0e3e ba0f 2f3e 13d9 5e3e 2c8d 273e
00000110: 4ce2 5f3e 0000 0000 0000 0000 0abb 023e
