utility-model-selected/dim-3/utility-85.pt (torch, 23458 bytes, 17 tensors)

bn1.running_mean f4 [3]
000000 e2 82 00 3f df 04 00 3f 3b 6e ff 3e
       0.5019971 0.5000743 0.49888787

bn1.running_var f4 [3]
000000 1e 52 67 3d 28 14 5c 3d cf ad 58 3d
       0.056474797 0.05373016 0.05290013

mlp1.weight f4 [24, 3]
000000 00 00 00 00 00 00 00 3f da 9a b4 3e 76 fd 32 3e
       0.0 0.5 0.35274392 0.174795
000010 7f 14 fd 3e d9 b5 d5 3e 00 00 00 00 ab 57 c4 3d
       0.494297 0.417403 0.0 0.09587034
000020 d9 59 ab 3e 72 3e 0b 3d 13 08 a7 3e aa 90 c7 3e
       0.33466986 0.0339951 0.32623348 0.38977557
000030 78 9b 6e 3e 84 54 e6 3e c6 b3 e1 3e 99 34 72 3e
       0.23301494 0.44986355 0.4408247 0.23652877
000040 00 00 00 3f 84 52 cb 3d 7d cf fa 3e 7c 90 f6 3c
       0.5 0.09927848 0.48986426 0.030098192
000050 3a 50 69 3e 8a 3e ad 3e 2c d8 37 3e 84 32 93 3d
       0.2278451 0.33836776 0.17953557 0.071873695
000060 00 00 00 00 26 99 ed 3e dd f3 f7 3e 7d e1 fe 3e
       0.0 0.46405905 0.4842824 0.4978141
000070 19 94 e5 3d 87 ae 86 3e 28 d8 bf 3e e7 ed 69 3e
       0.11209888 0.2630503 0.37469602 0.22844659
000080 bf af f7 3e d3 86 6d 3d 81 17 30 3e 00 00 00 3f
       0.4837627 0.057989907 0.17196466 0.5
000090 00 00 00 00 6e 32 91 3e eb bf 8d 3e 40 38 b2 3e
       0.0 0.28358787 0.27685484 0.3480854
0000a0 da 87 f5 3e 93 19 2b 3e 00 00 00 00 eb 2b b8 3e
       0.4795521 0.16708975 0.0 0.35971007
0000b0 c3 de e2 3e 00 00 00 00 65 5f 0e 3e 42 43 e8 3e
       0.4431058 0.0 0.13903578 0.45363814
0000c0 f4 a7 18 3e 18 c2 d4 3e 0d 40 a7 3d 00 00 00 00
       0.14907819 0.41554332 0.081665136 0.0
0000d0 e8 23 99 3e f1 18 b4 3e 82 38 75 3e d3 75 89 3e
       0.29910207 0.3517528 0.23947337 0.26847705
0000e0 94 e3 87 3e 3a 62 73 3e 00 00 00 3f 61 2d f7 3e
       0.26540816 0.23767939 0.5 0.4827681
0000f0 00 00 00 00 5e ac bd 3e 24 82 c6 3e c8 30 a0 3e
       0.0 0.37045568 0.38771164 0.31287217
000100 7d 78 6d 3e c9 86 a2 3e 47 2e de 3a fa 6a 3c 3e
       0.23190494 0.31743458 0.0016951048 0.18400183
000110 93 81 b7 3e e4 a4 b9 3e 28 4c e1 3e 99 05 8c 3e
       0.35841045 0.36258614 0.44003415 0.2734802

mlp1.bias f4 [24]
000000 c9 b9 d4 3e 5e 4a 4b be 66 74 a1 be 27 d8 0e be
       0.41547993 -0.19852588 -0.31534117 -0.13949643
000010 da ab 21 bf 30 ca 35 be 49 c3 03 3f 9c 47 a2 3e
       -0.6315285 -0.1775291 0.51469857 0.3169526
000020 ad 87 2c 3e 29 b4 b2 3e f8 72 9c 3e bc 29 8d be
       0.16848631 0.34903076 0.30556464 -0.27570903
000030 26 06 81 ba 6b b4 cb be f4 5d 3b 3e 46 9a 75 be
       -0.0009843751 -0.39786085 0.18297559 -0.23984632
000040 7b 76 8e be 7d 98 2b 3e 4a e6 0d bf 1b f4 bb be
       -0.27824768 0.16757388 -0.5542952 -0.36709675
000050 00 be 2e 3e 1e 72 a4 be 41 47 d2 bd c0 9f e6 3e
       0.17064667 -0.32118315 -0.10267497 0.45043755

mlp2.weight f4 [24, 72]
000000 4a 78 9c 3d 00 00 00 00 e2 50 50 3c 70 6f 82 3c
       0.07640131 0.0 0.012714596 0.015922278
000010 00 00 00 00 3a 2c 01 3d 00 00 00 00 00 00 00 00
       0.0 0.03153632 0.0 0.0
000020 be 37 f7 3c 00 00 00 00 00 00 00 00 96 65 1b 3d
       0.030177947 0.0 0.0 0.037938677
000030 b5 0d 0c 3e 00 00 00 00 c3 62 85 3d 07 5f 34 3d
       0.13677104 0.0 0.06512978 0.044035938
000040 27 9d 70 3c 73 32 5e 3d 00 00 00 00 00 00 00 00
       0.014685906 0.05424733 0.0 0.0
000050 85 bf 2f 3e 00 00 00 00 2f 05 80 3b 00 00 00 00
       0.17162903 0.0 0.003906868 0.0
000060 98 00 6b 3e b8 99 95 3b 82 4b 15 3d 00 00 00 00
       0.22949445 0.004565444 0.036448963 0.0
000070 00 00 00 00 00 00 00 00 00 00 00 00 00 00 00 00
       0.0 0.0 0.0 0.0
000080 d1 1a a5 3d 00 00 00 00 00 00 00 00 00 00 00 00
       0.080617554 0.0 0.0 0.0
000090 47 06 2e 3e 00 00 00 00 2f 96 f6 3d 3d cf e5 3d
       0.16994582 0.0 0.12040364 0.11221168
0000a0 5c b4 21 3d 72 c3 2b 3e 00 00 00 00 b3 fb 94 3d
       0.039478645 0.16773775 0.0 0.0727457
0000b0 de f1 25 3e 00 00 00 00 c0 62 11 3d 00 00 00 00
       0.16205546 0.0 0.035494566 0.0
0000c0 ed fa 1d 3e 00 00 00 00 93 0f 05 3c 00 00 00 00
       0.15427752 0.0 0.008121389 0.0
0000d0 00 00 00 00 00 00 00 00 00 00 00 00 00 00 00 00
       0.0 0.0 0.0 0.0
0000e0 88 50 b0 3d 00 00 00 00 00 00 00 00 00 00 00 00
       0.0860911 0.0 0.0 0.0
0000f0 84 e3 bc 3d 00 00 00 00 90 f9 f3 3d 3b 64 f6 3d
       0.09223083 0.0 0.11912835 0.12030836
000100 00 00 00 00 ef eb 09 3e 00 00 00 00 00 00 00 00
       0.0 0.13468908 0.0 0.0
000110 fb cc d1 3d 00 00 00 00 00 00 00 00 00 00 00 00
       0.10244175 0.0 0.0 0.0
000120 8e 19 cd 3d 1e 24 16 3d 4f f0 c1 3d 09 fb 68 3d
       0.1001464 0.036655538 0.09469663 0.05688003
000130 5c 83 54 3d 00 00 00 00 00 00 00 00 00 00 00 00
       0.051883087 0.0 0.0 0.0
000140 f3 7e 77 3d 00 00 00 00 00 00 00 00 00 00 00 00
       0.060423803 0.0 0.0 0.0
000150 5b f5 4a 3e 00 00 00 00 89 31 bd 3d 81 c2 96 3d
       0.19820158 0.0 0.09237964 0.073613174
000160 ef 66 27 3d b6 35 c0 3d 00 00 00 00 00 00 00 00
       0.04086965 0.093852445 0.0 0.0
000170 9a 87 3e 3e 00 00 00 00 00 00 00 00 00 00 00 00
       0.18606415 0.0 0.0 0.0
000180 1f 76 4b 3e 10 e6 22 3d fc 0d b0 3d c8 2a 0f 3d
       0.19869278 0.039770186 0.08596417 0.03495291
000190 4a 46 25 3c 00 00 00 00 00 00 00 00 00 00 00 00
       0.010087559 0.0 0.0 0.0
0001a0 ba e7 ee 3d 00 00 00 00 00 00 00 00 00 00 00 00
       0.11665292 0.0 0.0 0.0
0001b0 d6 e8 7c 3e 00 00 00 00 cb e3 e7 3d 03 c3 1a 3d
       0.24698195 0.0 0.11322745 0.037783634
0001c0 ff 70 06 3d 22 69 90 3d 00 00 00 00 7d 95 c0 3b
       0.032822605 0.070513025 0.0 0.0058771954
0001d0 a2 a4 05 3e 00 00 00 00 9c 60 9b 3d 00 00 00 00
       0.13051084 0.0 0.07586786 0.0
0001e0 bd e9 1a 3e 00 00 00 00 b3 cb cc 3d 00 00 00 00
       0.15128227 0.0 0.0999979 0.0
0001f0 00 00 00 00 00 00 00 00 00 00 00 00 00 00 00 00
       0.0 0.0 0.0 0.0
000200 99 0b 24 3d 00 00 00 00 00 00 00 00 00 00 00 00
       0.040050123 0.0 0.0 0.0
000210 f6 99 b8 3d 00 00 00 00 f0 69 83 3a 00 00 00 00
       0.09013741 0.0 0.0010026079 0.0
000220 00 00 00 00 05 59 71 3d 00 00 00 00 00 00 00 00
       0.0 0.058922786 0.0 0.0
000230 bf 46 fd 3d 00 00 00 00 00 00 00 00 00 00 00 00
       0.12367009 0.0 0.0 0.0
000240 e1 f5 1e 3e 00 00 00 00 86 24 d7 3b cd 55 ec 39
       0.15523483 0.0 0.006565633 0.00045077354
000250 9d 50 98 3c 00 00 00 00 00 00 00 00 00 00 00 00
       0.018593127 0.0 0.0 0.0
000260 0f f3 4b 3d 00 00 00 00 00 00 00 00 00 00 00 00
       0.049792346 0.0 0.0 0.0
000270 26 f0 56 3e 00 00 00 00 df 0c 23 3e b5 2b 91 3d
       0.20990047 0.0 0.15922879 0.070884146
000280 b8 d5 88 3c 26 f8 8e 3d 00 00 00 00 00 00 00 00
       0.016703472 0.06980924 0.0 0.0
000290 df 4c 5a 3e 00 00 00 00 10 67 f3 3a 00 00 00 00
       0.21318386 0.0 0.0018570144 0.0
0002a0 35 23 a1 3e ea 40 8f 3c 77 55 a0 3d 00 00 00 00
       0.31472173 0.017487008 0.07828801 0.0
0002b0 00 00 00 00 00 00 00 00 00 00 00 00 00 00 00 00
       0.0 0.0 0.0 0.0
0002c0 2d 22 ce 3d 00 00 00 00 00 00 00 00 ed b5 e8 3b
       0.10065112 0.0 0.0 0.0071017654
0002d0 48 6a 48 3e 00 00 00 00 ee 2e e5 3d fb 46 bb 3d
       0.19571793 0.0 0.11190592 0.09144398
0002e0 26 b4 92 3c 3f cd 0e 3e 00 00 00 00 dc 8c 75 3c
       0.017908167 0.13945483 0.0 0.014987197
0002f0 94 c8 21 3e 00 00 00 00 fc 94 a6 3a 00 00 00 00
       0.1579917 0.0 0.0012709196 0.0
000300 3d 83 33 3e 00 00 00 00 5c 71 56 3d 00 00 00 00
       0.17530532 0.0 0.0523542 0.0
000310 00 00 00 00 00 00 00 00 00 00 00 00 00 00 00 00
       0.0 0.0 0.0 0.0
000320 a4 1f 2d 3d 00 00 00 00 00 00 00 00 00 00 00 00
       0.042266503 0.0 0.0 0.0
000330 11 4c 86 3d 00 00 00 00 00 00 00 00 0e b5 22 3d
       0.06557477 0.0 0.0 0.03972345
000340 00 00 00 00 c1 59 16 3d 00 00 00 00 00 00 00 00
       0.0 0.03670669 0.0 0.0
000350 d4 8d 64 3d 00 00 00 00 00 00 00 00 00 00 00 00
       0.05579932 0.0 0.0 0.0
000360 23 80 50 3e 62 90 c1 3b 95 23 f6 3c 00 00 00 00
       0.2036138 0.0059071044 0.030046264 0.0
000370 00 00 00 00 00 00 00 00 00 00 00 00 00 00 00 00
       0.0 0.0 0.0 0.0
000380 39 60 ac 3d 00 00 00 00 00 00 00 00 ba 0a 30 3d
       0.084167905 0.0 0.0 0.04297898
000390 16 65 63 3e 80 3e 01 3b 25 c2 4b 3e f9 3c 00 3d
       0.2220653 0.001972109 0.19898279 0.031308148
0003a0 00 00 00 00 c9 7a ba 3d 00 00 00 00 00 00 00 00
       0.0 0.09105451 0.0 0.0
0003b0 23 30 13 3e 00 00 00 00 56 bd f3 3c 00 00 00 00
       0.14373831 0.0 0.029753368 0.0
0003c0 e0 4f 1d 3e da f8 19 3c b9 75 1e 3d 40 b2 19 3d
       0.15362501 0.00939771 0.038686488 0.037523508
0003d0 94 da bd 3d bf 40 32 3c 00 00 00 00 00 00 00 00
       0.09270206 0.0108796945 0.0 0.0
0003e0 c7 f0 b6 3d 00 00 00 00 00 00 00 00 43 89 78 3c
       0.089326434 0.0 0.0 0.0151694445
0003f0 5d 6a 46 3e 00 00 00 00 ce 57 08 3e 0b fc e1 3d
       0.19376512 0.0 0.13314745 0.110344015

mlp2.bias f4 [24]
000000 42 40 00 be 04 6f 3f bd 72 60 9d bd f0 11 a1 bb
       -0.12524512 -0.046736732 -0.07684411 -0.0049154684
000010 7c b8 90 bd c9 2a bb bd 13 ac 88 bd 60 6d bf bd
       -0.070664376 -0.0913902 -0.066734456 -0.093470335
000020 bf 95 2e be 3e ca 04 bd 19 1f 65 bc be f1 84 bd
       -0.17049311 -0.032419436 -0.013984465 -0.06491421
000030 7d 1c c2 bd 7b 16 2c bd 16 0e 20 bd 08 81 07 bd
       -0.0947809 -0.042013627 -0.039075933 -0.03308204
000040 b5 c6 9c bd a7 4a e9 bd 3e a0 02 be 20 4f 2b bd
       -0.07655088 -0.11391192 -0.1275644 -0.041823506
000050 da fb dd bd bf 6c f9 bc bd ad 26 bd 77 0a 4c bd
       -0.108390525 -0.030447362 -0.040693033 -0.049814668

bn2.weight f4 [72]
000000 00 00 00 3f f7 58 db 3e 43 56 f7 3e dc a6 ce 3e
       0.5 0.42841312 0.48308 0.4036168
000010 af 0a dc 3e b1 e4 dc 3e f8 40 c3 3e 2e 8a ca 3e
       0.429769 0.43143228 0.38135505 0.39558548
000020 00 00 00 3f 09 e8 c5 3e a6 91 c0 3e 5f a2 d4 3e
       0.5 0.3865359 0.3761112 0.4153013
000030 00 00 00 3f 63 5b d0 3e 00 00 00 3f f0 bd f6 3e
       0.5 0.40694723 0.5 0.48191786
000040 6d e1 da 3e 00 00 00 3f d5 3b c4 3e 8d e5 db 3e
       0.4275011 0.5 0.38326898 0.4294857
000050 00 00 00 3f 60 7c bd 3e 12 15 d0 3e d6 64 cf 3e
       0.5 0.37008953 0.40641075 0.4050662
000060 00 00 00 3f 34 c4 dc 3e 75 ac fb 3e 75 84 bf 3e
       0.5 0.4311844 0.49155012 0.37405744
000070 30 85 e9 3e 1d 9d dc 3e ec 42 cb 3e a3 1b cb 3e
       0.45609426 0.43088618 0.39699495 0.39669523
000080 d5 a4 fa 3e a3 fb c8 3e d0 08 d0 3e 71 16 de 3e
       0.48953882 0.39254484 0.40631723 0.43376496
000090 00 00 00 3f 80 02 d9 3e 00 00 00 3f 8b 7f ff 3e
       0.5 0.4238472 0.5 0.49901995
0000a0 9a aa dc 3e 6b ae fb 3e f4 d9 c3 3e 96 3a dc 3e
       0.4309891 0.49156508 0.38252223 0.43013448
0000b0 00 00 00 3f 35 1f bc 3e cc 9f df 3e 76 6b ca 3e
       0.5 0.3674256 0.43676603 0.3953511
0000c0 07 20 fb 3e 59 db d0 3e 82 7a e6 3e 4c a5 ba 3e
       0.49047872 0.4079235 0.4501534 0.36454237
0000d0 28 de c6 3e 39 07 d6 3e 7a 7b cf 3e 2a 4e d0 3e
       0.38841367 0.41802385 0.40523893 0.40684634
0000e0 f7 4f de 3e 33 8c ca 3e 9b e2 ce 3e 26 8e d3 3e
       0.43420383 0.3956009 0.4040726 0.41319388
0000f0 4d 78 c4 3e 40 b4 cc 3e ad 3c dd 3e 61 90 e5 3e
       0.38373032 0.3998127 0.43210354 0.44836715
000100 e9 df d4 3e 59 a5 dc 3e 27 c1 c5 3e 58 d7 c8 3e
       0.4157708 0.430949 0.38623926 0.39226794
000110 a5 27 dc 3e af 67 bf 3e 44 2a d3 3e 4f e1 c7 3e
       0.42998996 0.37383792 0.41243184 0.39039084

bn2.bias f4 [72]
000000 d2 d4 8e bd 9c 3e 41 bd 1e 2b 77 bd 82 be 41 bd
       -0.06974186 -0.04717885 -0.060343854 -0.047300823
000010 26 04 43 bd 67 ee 41 bd 24 22 53 bd 05 17 43 bd
       -0.047611378 -0.0473465 -0.05154623 -0.047629375
000020 c3 a6 59 bd 53 66 24 bd 41 6a 03 bd 6b 33 81 bd
       -0.053137552 -0.040136646 -0.032083753 -0.06308635
000030 15 22 8c bd a5 4b 86 bd 38 31 8f bd c9 f4 89 bd
       -0.06842438 -0.06557397 -0.069918096 -0.06736142
000040 5f db 53 bd 86 06 55 bd 9c ad 65 bd 0e 9c 5d bd
       -0.05172288 -0.052008174 -0.05607377 -0.054103903
000050 94 ef 81 bd 1e 7e 4e bd 5e 49 71 bd f6 b0 54 bd
       -0.06344524 -0.050413243 -0.05890786 -0.051926576
000060 3f c0 7c bd ce 95 53 bd ee bb 77 bd a8 d3 34 bd
       -0.061706778 -0.051656537 -0.060481958 -0.044147164
000070 51 24 79 bd 3c c4 53 bd bc a8 3e bd c9 d3 46 bd
       -0.06082565 -0.051700816 -0.046547636 -0.048541818
000080 14 49 76 bd 71 52 4f bd d9 35 60 bd 65 9f 4b bd
       -0.060128286 -0.05061573 -0.054738853 -0.049712557
000090 bd 46 90 bd 75 1d 4f bd 8d 07 90 bd db 0d 6d bd
       -0.07044742 -0.0505652 -0.0703269 -0.05787454
0000a0 bb e7 47 bd 5c 5a 67 bd 62 01 2d bd f0 5e 44 bd
       -0.04880498 -0.056482658 -0.042237647 -0.047942102
0000b0 c8 e3 83 bd b4 4e 05 bd 18 95 5d bd 73 5e 57 bd
       -0.0643993 -0.03254576 -0.054097265 -0.05258031
0000c0 5c f2 87 bd 38 4a 5d bd f7 7a 73 bd 1a 28 50 bd
       -0.06638023 -0.05402586 -0.05944344 -0.050819494
0000d0 e8 9c 41 bd c6 8e 5e bd 8e 34 4b bd 46 fa 34 bd
       -0.047268778 -0.054335378 -0.049610667 -0.04418399
0000e0 56 0a 6a bd 6d 95 56 bd eb 64 6c bd bd a3 6c bd
       -0.057138763 -0.052388597 -0.05771343 -0.05777334
0000f0 30 76 87 bd cf 10 52 bd 79 4e 88 bd 71 2f 72 bd
       -0.06614339 -0.05128556 -0.066555925 -0.059127275
000100 20 97 7e bd b2 b7 6f bd 6a 09 02 bd 2b 9f 4f bd
       -0.062155843 -0.058524795 -0.03174726 -0.050688904
000110 86 05 83 bd 7e d7 2d bd 47 fd 78 bd e6 55 39 bd
       -0.06397538 -0.042441837 -0.06078842 -0.045247935

bn2.running_mean f4 [72]
000000 a6 f3 dd 3e b2 8a 3d bd 2d 0b 79 be 6f 2c 81 bd
       0.43349952 -0.04627485 -0.2432067 -0.06307303
000010 79 59 8e be aa 86 88 bd 37 52 04 3f 03 ac a2 3e
       -0.27802637 -0.0666631 0.5168795 0.3177186
000020 e5 cd 6b 3e 60 11 b9 3e d3 13 ad 3e 4c 0c 15 be
       0.23027761 0.3614607 0.33804187 -0.14555472
000030 7c b6 a4 3c d5 07 40 be f6 2c 5e 3e f5 65 11 be
       0.020106547 -0.18752988 0.21696839 -0.1419905
000040 4c 86 34 be 43 d2 40 3e c8 e4 ad be b1 af f7 bd
       -0.17629355 0.18830208 -0.3396361 -0.12094057
000050 55 e7 4c 3e 06 ee 45 be 29 31 89 bd 2f b0 ee 3e
       0.20010121 -0.1932908 -0.0669883 0.46618792
000060 46 bd 5d 3e 17 12 c7 bd ff 2a 79 be b7 68 b0 bd
       0.21654233 -0.09720247 -0.24332808 -0.08613723
000070 2f d1 93 be 7c 90 c2 bd 6c 4e 90 3e 2e fd 6a 3e
       -0.28870532 -0.095002145 0.2818483 0.22948143
000080 73 a7 b5 3d 64 35 41 3e 2c 9f 1f 3e d6 0b 21 be
       0.08869829 0.18868023 0.15588063 -0.15727171
000090 2d 43 2a 3b 1a ea 4f be 62 c6 dc 3d 9e d5 17 be
       0.0025979981 -0.20304146 0.10780026 -0.14827582
0000a0 f2 d3 37 be f9 3e f7 3d 06 87 ae be ed 57 27 be
       -0.17951944 0.12072558 -0.3408739 -0.16342135
0000b0 a3 d4 db 3d 4e 02 50 be f6 6d 9a bd 34 e7 67 3e
       0.107339166 -0.20313379 -0.07540505 0.2264679
0000c0 30 f7 4d 3e 39 cd 7d be a8 b1 a0 be 91 3e 27 be
       0.20113826 -0.24785317 -0.3138554 -0.16332461
0000d0 c7 6b 22 bf fb 3f 4e be fe 30 8f 3e a3 44 6a 3e
       -0.63445705 -0.20141594 0.27967066 0.22877745
0000e0 1c 69 ef 3c 92 80 34 3e d0 c7 fc 3d 19 5f 91 be
       0.029224925 0.1762717 0.12342799 -0.28392866
0000f0 7b 08 89 bc ce ad d2 be c9 ae 9a 3d 86 9b 75 be
       -0.016727677 -0.41148227 0.07552869 -0.23985109
000100 54 2a 8d be e5 8f dc 3d da c8 0d bf 78 cb ce be
       -0.27571356 0.10769633 -0.553846 -0.4038961
000110 77 71 a5 3d 72 6c a9 be 8b 6b e2 bd 41 ce 57 3e
       0.08078282 -0.3309055 -0.110556684 0.21074773

bn2.running_var f4 [72]
000000 15 e0 b1 3e 39 08 7a 3e 0a 71 8f 3d 0f 4b 2c 3e
       0.34741274 0.24417199 0.07003982 0.16825508
000010 7e 57 f9 3d bc 75 43 3e 9e d8 93 3e 5c eb 1d 3e
       0.12174891 0.19087881 0.28876203 0.15421814
000020 33 ef b1 3e 2b c6 9d 3e c1 85 bb 3e e1 94 18 3e
       0.34752807 0.30815253 0.36625484 0.14900543
000030 aa 8f 0a 3e 82 8e 22 3e f1 c9 8c 3e 9b a9 07 3e
       0.13531366 0.15874675 0.2749782 0.13248293
000040 d7 43 e9 3d 3e 56 47 3e 08 6f 76 3d 15 f9 69 3e
       0.113898925 0.19466493 0.06016448 0.22848924
000050 a9 c7 7c 3e be 32 03 3e af c2 00 3e 0a 6b c0 3e
       0.2468554 0.12812325 0.12574266 0.37581664
000060 55 ce f9 3d 5b 4b 23 3e 6e 0a 8f 3d f4 24 09 3e
       0.12197558 0.15946715 0.06984411 0.13393003
000070 0f b4 cc 3d 17 be 17 3e 11 c8 b1 3d 4d 2c a7 3d
       0.09995281 0.14818607 0.08680738 0.081627466
000080 64 88 22 3e 5d f5 fd 3d 07 2d 10 3e d4 c9 05 3e
       0.15872341 0.12400315 0.14079677 0.13065273
000090 29 be e8 3d f7 12 06 3e aa 4a 12 3e 27 54 fc 3d
       0.11364395 0.13093172 0.14286295 0.12320738
0000a0 5e a7 de 3d d0 e9 f7 3d 39 f0 6b 3d f6 09 1a 3e
       0.108717665 0.12105143 0.05760214 0.15042862
0000b0 85 84 0c 3e c6 df e2 3d 91 61 ea 3d 31 46 f3 3d
       0.13722427 0.11077838 0.114443906 0.11878622
0000c0 fa 6f 18 3e ea 8a b9 3e 6e bb fa 3d b5 13 69 3e
       0.14886466 0.36238796 0.122427806 0.22761424
0000d0 c6 fd df 3e cb 87 8d 3e b5 ef b9 3d fa b6 a9 3d
       0.437483 0.27642664 0.090789236 0.08286853
0000e0 48 1f 83 3e 0c 92 14 3e 62 ab 4a 3e b3 44 88 3e
       0.25609803 0.14508837 0.1979194 0.26614913
0000f0 1e 13 0d 3e f7 fb b6 3e c9 35 46 3e c7 ca 5d 3e
       0.13776824 0.3573911 0.19356455 0.21659385
000100 49 64 4d 3e 5b e5 0f 3e 9c 7e 50 3e de 62 ea 3e
       0.20057787 0.14052336 0.20360798 0.45778555
000110 8f 80 36 3e 99 df 74 3e 95 da 1c 3e 57 d5 17 3e
       0.17822479 0.2391342 0.15317757 0.14827476

mlp3.weight f4 [24, 72]
000000 00 00 00 00 00 00 00 00 00 00 00 00 00 00 00 00
       0.0 0.0 0.0 0.0
000010 00 00 00 00 00 00 00 00 00 00 00 00 00 00 00 00
       0.0 0.0 0.0 0.0
000020 00 00 00 00 00 00 00 00 00 00 00 00 00 00 00 00
       0.0 0.0 0.0 0.0
000030 00 00 00 00 00 00 00 00 00 00 00 00 00 00 00 00
       0.0 0.0 0.0 0.0
000040 00 00 00 00 00 00 00 00 00 00 00 00 00 00 00 00
       0.0 0.0 0.0 0.0
000050 00 00 00 00 00 00 00 00 00 00 00 00 00 00 00 00
       0.0 0.0 0.0 0.0
000060 dc 97 03 3d 00 00 00 00 00 00 00 00 41 9b 60 3c
       0.032127246 0.0 0.0 0.01370889
000070 75 a3 7e 3d 0d 25 3a 3d b8 17 1a 3d 48 4e a9 3c
       0.062167604 0.04544549 0.037620276 0.02066721
000080 00 00 00 00 00 00 00 00 b0 6e 1c 3d d2 52 45 3d
       0.0 0.0 0.038191497 0.048174687
000090 00 00 00 00 00 00 00 00 00 d2 24 3d be a6 3c 3d
       0.0 0.0 0.040239334 0.046057455
0000a0 00 00 00 00 00 00 00 00 00 00 00 00 00 00 00 00
       0.0 0.0 0.0 0.0
0000b0 00 00 00 00 00 00 00 00 00 00 00 00 00 00 00 00
       0.0 0.0 0.0 0.0
0000c0 04 2c b8 3d 21 63 03 3e 80 2f e1 3d ca b0 89 3d
       0.0899277 0.12830783 0.10995388 0.06723173
0000d0 a7 11 08 3e 54 1f 72 3e eb 6d 37 3d a1 6f c4 3d
       0.13287984 0.23644763 0.04478256 0.09591604
0000e0 9d 02 dd 3d ae 03 8b 3d 95 23 a5 3d 62 1e b1 3d
       0.10791514 0.06787811 0.08063427 0.08648373
0000f0 9e cd 40 3e b3 fb 8a 3d 72 ab c1 3d bb e4 e8 3d
       0.18828437 0.06786289 0.09456529 0.11371752
000100 55 ea 16 3e 12 46 eb 3d c5 f9 2f 3e 2b 0c 0c 3e
       0.14737828 0.11487974 0.17185123 0.13676517
000110 ec b0 c1 3d d9 6b 06 3e 54 75 ad 3d dc 0f 3c 3e
       0.09457573 0.13127078 0.08469644 0.18365425
000120 97 04 3b 3e 0f af 30 3e f8 b5 66 3e 65 2a 60 3e
       0.1826347 0.1725428 0.22530353 0.21891172
000130 78 fd 39 3e 82 48 32 3e 3a dd 7f 3e 9c e4 84 3e
       0.18163097 0.17410472 0.24986735 0.25955665
000140 f6 77 4c 3e 56 74 80 3e 9f de 44 3e fe 7c 6a 3e
       0.19967636 0.25088757 0.19225548 0.22899243
000150 52 81 7f 3e f0 10 88 3e e6 a2 7b 3e 9b ae 53 3e
       0.24951676 0.26575422 0.2457386 0.20672075
000160 3a b5 6b 3e fe 42 24 3e 6a 4e 80 3e 9e 8c 87 3e
       0.23018351 0.1604118 0.25059825 0.2647447
000170 4c 51 70 3e c6 6a 55 3e e3 25 4f 3e f0 99 31 3e
       0.23468512 0.20841512 0.20229296 0.17343879
000180 39 56 04 3d 29 a9 a9 3d 39 88 94 3d ac d5 a3 3d
       0.03230879 0.08284218 0.07252545 0.07999739
000190 f2 f8 6c 3d 41 cd e8 3d 01 03 6a 3c 72 cf be 3d
       0.0578546 0.11367274 0.014282943 0.09316911
0001a0 a4 e0 84 3d ff a3 a1 3d 6b e2 57 3d 84 4e e8 3d
       0.06488159 0.07892608 0.052706163 0.11343101
0001b0 c3 96 9d 3d c2 50 d8 3c 5a d3 14 3d d6 c4 83 3d
       0.07694771 0.026405696 0.036334373 0.06434028
0001c0 40 1f d1 3d b3 c0 13 3c 0f 44 b5 3c 99 49 c0 3c
       0.102110386 0.009018111 0.02212718 0.023472594
0001d0 e4 01 bc 3c a0 d0 55 3d 39 c1 f4 3c 5e 51 bb 3d
       0.02295012 0.052200913 0.029877292 0.09146379
0001e0 ac 29 24 3d ee 97 46 3d 09 c3 82 3d 3d 0e d9 3d
       0.040078804 0.048484735 0.06384856 0.10598419
0001f0 b9 82 ab 3d 9f 32 b3 3d d1 5e 20 3d 09 18 7f 3d
       0.08374543 0.087498896 0.039152924 0.06227878
000200 92 55 ea 3d 0d cc c1 3c 08 f7 d5 3d 79 a0 c5 3d
       0.114421025 0.02365687 0.10447508 0.09649748
000210 f8 ad 91 3d 9f fd 54 3d 48 b1 4f 3d 74 b2 81 3d
       0.0711326 0.051999684 0.050706178 0.06332865
000220 da 0c 61 3d 76 85 b2 3d 11 e5 9d 3d 2d 54 7b 3d
       0.054943897 0.08716862 0.077097066 0.061359573
000230 02 ab f4 3d ae 98 92 3d a3 4c 83 3d a1 92 80 3d
       0.1194668 0.071580276 0.06411102 0.06277967
000240 fa 31 35 3c 96 93 6b 3d 26 54 9f 3d 99 fd 0a 3d
       0.011059279 0.057513796 0.07779722 0.033933256
000250 e8 9f 85 3c 45 50 67 3d d2 e5 d1 3d 3a db 98 3d
       0.0163116 0.056473035 0.10248913 0.07463689
000260 50 71 08 3d 32 1c a7 3d c0 1b c7 3d 28 3e cd 3c
       0.03331119 0.08159675 0.0972209 0.025054052
000270 93 7d eb 3d 91 af 23 3d 04 39 b9 3d e3 72 68 3d
       0.11498561 0.039962355 0.09044078 0.05675019
000280 39 87 86 3d f9 c2 94 3c 25 91 e3 3d 6c 66 00 3d
       0.065687604 0.018159376 0.111116685 0.031347677
000290 9f 07 17 3d 5a c2 52 3d 75 ff 4b 3d 51 f1 29 3d
       0.036872502 0.05145488 0.04980417 0.041489903
0002a0 f0 42 85 3d 38 1a 5d 3d dc 00 7c 3d 2b f9 95 3d
       0.06506908 0.053980082 0.061524257 0.07322916
0002b0 20 66 8c 3d 3f e6 20 3c c9 4e 61 3a 75 e2 47 3d
       0.06855416 0.00982052 0.0008594809 0.04879995
0002c0 00 00 00 00 00 00 00 00 ad f0 94 3d ba ff 51 3d
       0.0 0.0 0.07272468 0.05126927
0002d0 e6 38 5d 3a 44 81 ba 3c 92 10 99 3d b1 10 87 3d
       0.00084389595 0.022766717 0.07473864 0.065949805
0002e0 00 00 00 00 b0 39 e0 3c 43 41 88 3d 75 8a ff 39
       0.0 0.027371258 0.06653073 0.0004874055
0002f0 f7 06 e6 3c 00 00 00 00 d9 38 9d 3c 00 00 00 00
       0.028079493 0.0 0.019192146 0.0
000300 81 e3 5c 3c 41 d3 0f 3d c4 74 c5 3d 44 ad e5 3d
       0.0134819755 0.035113577 0.09641412 0.112146884
000310 27 34 90 3d 7b eb 11 3e b5 2e 19 3d 2a 2f 94 3d
       0.07041197 0.14249985 0.03739806 0.07235558
000320 a7 a4 19 3e f6 f0 4c 3c 62 9c 4f 3d 7a 1b d8 3c
       0.15004216 0.012508621 0.050686248 0.02638029
000330 c8 cd 66 3d 22 d7 58 3d 23 b1 2f 3d 3b d3 e8 3d
       0.056348592 0.05293954 0.04289354 0.11368414
000340 9b 97 0d 3d e3 0a 00 3d 51 2f 46 3d b2 1d 17 3e
       0.03456841 0.031260382 0.04838497 0.14757422
000350 bb 8c ab 3d b2 1c 0a 3e 20 fd 82 3d e4 68 89 3d
       0.083764516 0.13487509 0.06395936 0.067094594
000360 00 00 00 00 00 00 00 00 00 00 00 00 00 00 00 00
       0.0 0.0 0.0 0.0
000370 00 00 00 00 00 00 00 00 00 00 00 00 00 00 00 00
       0.0 0.0 0.0 0.0
000380 00 00 00 00 00 00 00 00 00 00 00 00 00 00 00 00
       0.0 0.0 0.0 0.0
000390 00 00 00 00 00 00 00 00 00 00 00 00 00 00 00 00
       0.0 0.0 0.0 0.0
0003a0 00 00 00 00 00 00 00 00 00 00 00 00 00 00 00 00
       0.0 0.0 0.0 0.0
0003b0 00 00 00 00 00 00 00 00 00 00 00 00 00 00 00 00
       0.0 0.0 0.0 0.0
0003c0 00 00 00 00 00 00 00 00 bb 1a 7a 3d 00 00 00 00
       0.0 0.0 0.06106065 0.0
0003d0 00 00 00 00 d5 ab b6 3a 5a 9b 69 3d 23 15 17 3d
       0.0 0.0013936708 0.05703292 0.036885392
0003e0 00 00 00 00 00 00 00 00 72 9c fc 3c 00 00 00 00
       0.0 0.0 0.030836318 0.0
0003f0 00 00 00 00 04 15 90 3c 00 00 00 00 00 00 00 00
       0.0 0.017588146 0.0 0.0

mlp3.bias f4 [24]
000000 c1 af 7e 3e fa 0c 29 be 7a 62 e3 bd 6d cc cc 3e
       0.24871732 -0.16508856 -0.11102767 0.39999714
000010 2b c4 54 be c5 4b 74 be 03 2e 97 3b 1d 3b 69 be
       -0.20777957 -0.23857029 0.0046136393 -0.22776456
000020 69 05 21 be 05 02 84 be 4a 8a 1a be 3c aa 99 be
       -0.1572472 -0.2578279 -0.15091816 -0.3001269
000030 51 a9 5f bd 25 c5 2b be ee f4 e4 3d a4 22 55 be
       -0.054604832 -0.16774423 0.11179529 -0.20813996
000040 1c 11 a0 3e c4 83 98 be 17 cf bb 3e 34 12 df bd
       0.31263053 -0.2978803 0.36681435 -0.10892144
000050 54 29 98 3e 29 69 62 be 01 38 6a be 62 cf 7e be
       0.2971903 -0.22110428 -0.22872926 -0.24883798

bn3.weight f4 [72]
000000 e0 2f c3 3e 02 db c9 3e b4 05 d9 3e fd b7 d5 3e
       0.38122463 0.39424902 0.42387164 0.41741934
000010 64 33 cf 3e 8c ee c8 3e b3 7f ca 3e 61 54 cd 3e
       0.40468895 0.39244497 0.39550552 0.40103438
000020 bc 24 d0 3e 53 9c cc 3e 6c 06 dd 3e 3a a7 d1 3e
       0.40653026 0.39963016 0.43168962 0.40947896
000030 96 dc cd 3e 2c 9c cb 3e 13 b0 d5 3e 74 73 ca 3e
       0.40207356 0.39767587 0.41735896 0.3954121
000040 fb 5b d1 3e cd 9c d3 3e 9e f6 dd 3e 95 39 d2 3e
       0.40890488 0.41330567 0.43352216 0.41059557
000050 c6 3a da 3e a6 71 ce 3e 7d a3 d1 3e af 80 c7 3e
       0.42622966 0.40321082 0.40945044 0.38965365
000060 fc cd d0 3e f4 83 d0 3e 54 06 d3 3e f7 ec d3 3e
       0.40782154 0.40725672 0.41215765 0.41391727
000070 7e 07 d6 3e 01 7a d9 3e ff 53 d6 3e 7c 25 da 3e
       0.4180259 0.42475894 0.4186096 0.42606723
000080 45 47 ca 3e 47 68 d5 3e 01 81 d2 3e 05 18 d5 3e
       0.395075 0.4168112 0.41114047 0.41619888
000090 69 8a d4 3e 67 ed d8 3e 96 a4 d5 3e 5f 0f db 3e
       0.4151185 0.42368624 0.41727132 0.42785165
0000a0 8a 36 d3 3e bd 70 d0 3e ee 0a c0 3e 27 7b df 3e
       0.41252548 0.40711012 0.3750834 0.43648645
0000b0 b6 7a d7 3e 30 d8 d4 3e f7 e2 d6 3e 8f df d9 3e
       0.4208581 0.41571188 0.41970035 0.42553374
0000c0 24 be eb 3e 6d 42 fb 3e c9 aa ff 3e af 77 fb 3e
       0.46043503 0.49074116 0.49934986 0.4911475
0000d0 29 c6 ff 3e 00 00 00 3f 2f 15 ff 3e 57 a6 ff 3e
       0.49955872 0.5 0.4982085 0.49931595
0000e0 9b 02 ff 3e 89 95 e8 3e 31 91 ff 3e 40 11 f7 3e
       0.49806675 0.45426586 0.4991546 0.48255348
0000f0 40 0a ff 3e 69 f7 fe 3e 8f 68 ff 3e ee ac fe 3e
       0.49812508 0.49798134 0.4988446 0.4974131
000100 e3 a0 fc 3e 3f 5f fb 3e 36 25 fa 3e bc ca ff 3e
       0.49341497 0.49096105 0.48856515 0.49959362
000110 81 ef fe 3e 00 00 00 3f e2 1b fe 3e 58 d5 ff 3e
       0.49792102 0.5 0.49630648 0.49967456

bn3.bias f4 [72]
000000 26 a8 39 be 94 4d 36 be a5 e0 33 be b9 8b 2d be
       -0.1813055 -0.17803031 -0.17566164 -0.16947831
000010 e8 73 34 be c5 3d 37 be 9a fc 3b be 23 c8 37 be
       -0.1762234 -0.17894657 -0.18358079 -0.1794744
000020 3a 63 32 be 46 73 32 be 24 27 37 be 2a 21 34 be
       -0.17420664 -0.17426786 -0.17886025 -0.17590776
000030 d6 d1 32 be ef d5 39 be 56 61 2f be 74 c7 35 be
       -0.17462859 -0.18148015 -0.17126974 -0.17751867
000040 9b 55 33 be a7 ab 2b be ec a9 2f be a2 e1 31 be
       -0.17513125 -0.16764699 -0.17154664 -0.17371228
000050 32 2e 2c be ca cf 2d be 60 7a 3d be b5 60 34 be
       -0.16814497 -0.16973796 -0.18503714 -0.17615016
000060 51 a1 47 be 00 15 4a be 1b 2f 40 be e3 45 45 be
       -0.19495131 -0.19734573 -0.1876797 -0.19264941
000070 32 2a 46 be 7d c1 4c be 4d 16 51 be 15 78 43 be
       -0.19352034 -0.19995685 -0.20418663 -0.19088776
000080 19 f4 4b be 1d 64 39 be 47 b0 40 be 39 22 49 be
       -0.19917335 -0.18104596 -0.18817244 -0.19641961
000090 d7 4e 4d be 9d d7 44 be 0a c7 4d be 24 47 3b be
       -0.20049606 -0.19222875 -0.20095459 -0.18288857
0000a0 bd 65 4c be 13 c3 4a be 58 74 55 be ab 66 40 be
       -0.19960685 -0.19800977 -0.20845163 -0.18789165
0000b0 3a 55 4a be eb 83 3b be 94 ee 3f be 41 b7 3e be
       -0.19759074 -0.18312041 -0.18743354 -0.18624593
0000c0 db c8 3a be 13 f6 4a be 89 16 4b be c4 3a 4a be
       -0.18240683 -0.19820432 -0.19832815 -0.1974898
0000d0 98 b9 30 be 66 9f 5c be eb 7b 35 be 89 6b 45 be
       -0.17258298 -0.2154518 -0.17723052 -0.19279303
0000e0 f7 60 4d be 45 77 3f be d7 18 42 be d0 19 43 be
       -0.2005652 -0.18697841 -0.18954788 -0.19052815
0000f0 5b 4f 3b be aa 8b 48 be 15 07 40 be c8 77 37 be
       -0.1829199 -0.19584528 -0.18752702 -0.17916787
000100 52 b6 45 be 03 38 36 be 01 02 45 be 06 e8 3f be
       -0.19307831 -0.17794804 -0.19239046 -0.18740854
000110 85 63 4c be 2a a7 50 be a4 26 49 be 19 ab 36 be
       -0.19959839 -0.20376268 -0.19643646 -0.17838706

bn3.running_mean f4 [72]
000000 ea bc 14 3e ac 6b 53 3e 44 70 36 3e b0 fb 60 3e
       0.1452519 0.20646542 0.17816263 0.21971011
000010 f6 b3 2a 3e 53 ac 21 3e d9 a0 2a 3e 75 f6 25 3e
       0.16670212 0.15788393 0.16662921 0.16207297
000020 0d c5 32 3e 4f 78 5a 3e 51 cd 59 3e 4a 0f 34 3e
       0.17457981 0.21334957 0.21269728 0.17583957
000030 18 25 2f 3e 26 4f 58 3e 09 cf 51 3e e6 f5 47 3e
       0.17103994 0.21123943 0.20489134 0.19527397
000040 0e 5e 39 3e f8 19 d7 3d 4c d3 65 3e 7a 26 40 3e
       0.18102285 0.10503 0.22443885 0.18764678
000050 e1 3d 25 3e 68 36 5a 3e a4 b2 46 3e 89 96 42 3e
       0.16136886 0.21309817 0.19404083 0.19002737
000060 fe 4c 1e bd c6 fb 10 bd a4 61 e9 bc 6a 5f ee bc
       -0.038647644 -0.03539636 -0.028488941 -0.029098231
000070 30 1f e7 bc 78 9b 02 bd 48 91 f9 bc bb 17 ed bc
       -0.028213114 -0.031886548 -0.030464783 -0.02894198
000080 05 25 72 bd 74 5f 08 bd 0d a5 de bc 91 88 15 bd
       -0.059117336 -0.033294156 -0.027178312 -0.036507193
000090 61 72 e4 bc 6a 88 e7 bc b3 fb 00 bd bb 83 ef bc
       -0.027886571 -0.02826329 -0.03149004 -0.029237619
0000a0 5a 11 1e bd a0 c0 59 bd 14 f6 6a bd ec 0c f2 bc
       -0.038590766 -0.053162217 -0.057363585 -0.029547177
0000b0 5d 32 02 bd c4 7f c4 bc a8 4c e5 bc 36 04 de bc
       -0.03178631 -0.023986705 -0.027990654 -0.027101617
0000c0 4c 45 f4 be 09 ae ec be 8f 7b e5 be 5c 8e d8 be
       -0.4770912 -0.46226528 -0.4482083 -0.42296112
0000d0 39 fa d7 be 15 9a e2 be 45 87 d9 be 5e 04 e4 be
       -0.42183092 -0.4425818 -0.42486015 -0.44534582
0000e0 a2 34 17 bf 9f 29 e9 be 4d 33 d8 be e6 35 e2 be
       -0.59064686 -0.45539567 -0.4222664 -0.44181746
0000f0 2a 51 ec be 58 29 e7 be f4 22 e3 be 88 0b d8 be
       -0.46155673 -0.4514873 -0.44362605 -0.42196298
000100 60 fe ef be 99 7d d7 be 8d a9 1b bf af 9a d8 be
       -0.4687376 -0.4208801 -0.6080559 -0.42305514
000110 68 43 ef be 2c f8 dd be 2d 4b dc be 9d 6d dc be
       -0.46731114 -0.43353403 -0.43026105 -0.43052378

bn3.running_var f4 [72]
000000 ce de 00 3f 3f 0b 24 3f c4 1d 0d 3f 8c 12 27 3f
       0.5033997 0.6407966 0.55123544 0.65262675
000010 be 89 05 3f e7 8a 04 3f 58 b1 07 3f 89 c8 03 3f
       0.521633 0.5177445 0.5300498 0.5147787
000020 6d 77 23 3f d1 62 26 3f 74 a1 21 3f a5 d8 11 3f
       0.63854104 0.6499453 0.6313698 0.569712
000030 0c 51 07 3f 1d fa 20 3f e4 31 1f 3f 76 ec 16 3f
       0.5285804 0.6288164 0.621855 0.5895456
000040 98 03 17 3f 70 9d ee 3e 85 fd 43 3f 88 8c 13 3f
       0.5898986 0.4660449 0.76558715 0.5763631
000050 3b 2c 06 3f 49 2c 1e 3f f2 a4 15 3f 25 3e 13 3f
       0.5241124 0.61786324 0.5845481 0.575167
000060 69 d1 55 3e dd 4f 57 3e 04 71 55 3e 4f f7 55 3e
       0.20880665 0.21026559 0.20843893 0.20895122
000070 06 80 55 3e e2 bd 54 3e cb 2a 54 3e 59 8a 55 3e
       0.20849618 0.2077556 0.20719449 0.20853557
000080 6c fa 58 3e 70 16 57 3e af ca 55 3e 40 8a 55 3e
       0.21189278 0.21004653 0.20878099 0.2085352
000090 9b dd 56 3e 5a 9f 56 3e 87 ba 56 3e 64 01 56 3e
       0.20982973 0.20959225 0.20969592 0.20898968
0000a0 e9 ac 55 3e 35 69 4e 3e 24 d5 59 3e ba ea 54 3e
       0.20866741 0.20157321 0.21272713 0.20792666
0000b0 da 6f 55 3e 6e e7 56 3e ae 72 56 3e f2 5a 55 3e
       0.20843449 0.20986721 0.20942184 0.20835474
0000c0 95 7e 86 3f 26 3c 81 3f 38 c9 81 3f 23 ff 6f 3f
       1.050738 1.0096481 1.0139532 0.9374868
0000d0 40 5b 70 3f ab 5b 7b 3f f6 18 71 3f 3e 89 80 3f
       0.93889236 0.9818675 0.9417871 1.0041883
0000e0 0c cb 9e 3f d5 2b 81 3f 79 ec 71 3f f9 92 74 3f
       1.2405715 1.0091501 0.94501454 0.9553676
0000f0 a5 59 87 3f 43 e6 82 3f b4 88 7a 3f f1 53 6f 3f
       1.0574232 1.022652 0.9786484 0.9348746
000100 48 61 82 3f a1 1b 56 3f d9 26 a7 3f 82 a6 6f 3f
       1.0185938 0.8363591 1.305873 0.93613446
000110 76 46 87 3f eb 62 7c 3f f7 72 76 3f d4 40 78 3f
       1.0568378 0.98588437 0.9626917 0.9697392

mlp4.weight f4 [1, 72]
000000 00 00 00 00 00 00 00 00 00 00 00 00 00 00 00 00
       0.0 0.0 0.0 0.0
000010 00 00 00 00 00 00 00 00 00 00 00 00 00 00 00 00
       0.0 0.0 0.0 0.0
000020 00 00 00 00 00 00 00 00 00 00 00 00 00 00 00 00
       0.0 0.0 0.0 0.0
000030 00 00 00 00 00 00 00 00 00 00 00 00 00 00 00 00
       0.0 0.0 0.0 0.0
000040 00 00 00 00 00 00 00 00 00 00 00 00 00 00 00 00
       0.0 0.0 0.0 0.0
000050 00 00 00 00 00 00 00 00 00 00 00 00 00 00 00 00
       0.0 0.0 0.0 0.0
000060 00 00 00 00 6c ca 99 3e 57 72 6e 3c 00 00 00 00
       0.0 0.30037248 0.014553628 0.0
000070 62 bf 8b 3e 0e d9 98 3e 00 00 00 00 00 00 00 00
       0.2729445 0.298531 0.0 0.0
000080 00 00 00 00 5f 69 f4 3d dc 84 2f 3d f0 33 72 3d
       0.0 0.119341604 0.042851314 0.059131563
000090 00 00 00 00 00 00 00 00 00 00 00 00 78 e9 d5 39
       0.0 0.0 0.0 0.00040800474
0000a0 00 00 00 00 06 04 cd 3d 00 00 00 00 00 00 00 00
       0.0 0.10010533 0.0 0.0
0000b0 00 00 00 00 5a 50 a1 3e 21 20 7f 3e c6 b8 5e 3e
       0.0 0.31506616 0.249146 0.21750173
0000c0 d6 0b 44 3d a8 b1 01 3d a1 3d e7 3d 8f a6 ec 3d
       0.04786285 0.031663567 0.11291052 0.11555206
0000d0 16 f1 9b 3d a2 ab f9 3d 29 48 fa 3d d6 78 2c 3d
       0.07614343 0.121909395 0.12220795 0.042107426
0000e0 f4 27 8e 3d 5b bc c9 3d 4a e6 02 3e 40 69 dd 3d
       0.06941214 0.09850379 0.12783161 0.108110905
0000f0 f8 1d 8d 3d 6b 16 0a 3e 9f c4 83 3d 5f eb 36 3e
       0.06890482 0.13485114 0.06433987 0.17863224
000100 e5 2c bd 3d 40 cd e2 3d d0 80 dc 3d c0 07 c0 3d
       0.092370786 0.110743046 0.107667565 0.09376478
000110 13 c0 03 3e 8d c7 26 3e 4d 1b b9 3d 56 2c 91 3d
       0.12866239 0.1628706 0.0903841 0.070885345
