utility-model-selected/dim-3/utility-65.pt (torch, 23458 bytes, 17 tensors)

bn1.running_mean f4 [3]
0	0x3f0082e2	0.5019971
1	0x3f0004df	0.5000743
2	0x3eff6e3b	0.49888787

bn1.running_var f4 [3]
0	0x3d67521e	0.056474797
1	0x3d5c1428	0.05373016
2	0x3d58adcf	0.05290013

mlp1.weight f4 [24, 3]
0	0x3d3b6153	0.045747112
1	0x3f000000	0.5
2	0x3ea14634	0.31498873
3	0x3ef21e92	0.47288948
4	0x3bd22288	0.006412808
5	0x3d2e545c	0.04256092
6	0x3e8d2add	0.27571765
7	0x3f000000	0.5
8	0x00000000	0.0
9	0x3edf7777	0.43645832
10	0x3f000000	0.5
11	0x00000000	0.0
12	0x3ec6b01c	0.38806236
13	0x00000000	0.0
14	0x00000000	0.0
15	0x3e6d6acc	0.23185271
16	0x3f000000	0.5
17	0x3d9e2218	0.077213466
18	0x3ee6ada1	0.45054343
19	0x3ee4d01e	0.4469003
20	0x3e074187	0.1320859
21	0x3ebbfda1	0.3671694
22	0x3eaef455	0.34170786
23	0x3ef816bf	0.48454854
24	0x3e974098	0.2954147
25	0x3efbe003	0.49194345
26	0x3ea650b1	0.32483438
27	0x3ed2c200	0.41163635
28	0x3eb6ea81	0.35725787
29	0x3e8c1643	0.27360734
30	0x3f000000	0.5
31	0x3e53061e	0.20607802
32	0x3ec2b48d	0.38028374
33	0x3ecdd855	0.4020411
34	0x3ee52ed9	0.44762304
35	0x3ecec18d	0.40382043
36	0x3f000000	0.5
37	0x3e9f6b06	0.3113634
38	0x3eecbd1c	0.4623803
39	0x3edd524e	0.43226856
40	0x3eb985ee	0.36234993
41	0x3e91feac	0.28514612
42	0x3effb25e	0.4994077
43	0x3e0e892f	0.13919519
44	0x3ec9c4fa	0.39408094
45	0x3e2ee0fd	0.17078014
46	0x3eb30eae	0.34972137
47	0x3db117f5	0.086471476
48	0x3e4360ab	0.19079845
49	0x3f000000	0.5
50	0x3eb3b620	0.35099888
51	0x3e7eb8bb	0.24875157
52	0x3ea2b02a	0.31775028
53	0x3e7644fc	0.24049753
54	0x3edc8748	0.4307196
55	0x3dc2b34c	0.095068544
56	0x00000000	0.0
57	0x3e83d8bb	0.2575129
58	0x3f000000	0.5
59	0x3e50e2fb	0.20399086
60	0x00000000	0.0
61	0x00000000	0.0
62	0x3e066624	0.13124901
63	0x3e6b07eb	0.22952239
64	0x3eaca5c8	0.3372023
65	0x3e7e431e	0.2483029
66	0x3bd3dd6e	0.0064656055
67	0x3f000000	0.5
68	0x3e29a740	0.16567707
69	0x3e30c5bb	0.17262928
70	0x3efff527	0.49991724
71	0x3eb14e14	0.3462988

mlp1.bias f4 [24]
0	0xbf3ecffc	-0.7453611
1	0xbf59f68e	-0.8514184
2	0xbea096b1	-0.31364968
3	0x3d8e28dc	0.06941387
4	0xbf424ae3	-0.7589552
5	0xbdd7717a	-0.10519691
6	0xbe60d4ea	-0.2195622
7	0x3f12fced	0.57417184
8	0x3ee174b0	0.44034338
9	0x3d4362af	0.047701534
10	0xbf0408b0	-0.51575756
11	0x3d5d825c	0.0540794
12	0x3e7765d2	0.24159935
13	0x3f04740d	0.5173958
14	0xbe77a41f	-0.24183701
15	0xbe421a0f	-0.18955253
16	0xbf4aceb8	-0.7922168
17	0x3e999586	0.2999689
18	0xbe412812	-0.18862942
19	0xbf114f91	-0.56762034
20	0x3f1c4560	0.6104336
21	0xbe8ccdf5	-0.27500883
22	0xbf0f5b0b	-0.55998296
23	0xbf3c49e6	-0.7355026

mlp2.weight f4 [24, 72]
0	0x3d81cc2c	0.06337771
1	0x3d8f655f	0.07001757
2	0x3cc7c6c3	0.02438677
3	0x3b4902f1	0.003067192
4	0x3dcb9a3d	0.09941528
5	0x3c51721d	0.012783554
6	0x00000000	0.0
7	0x00000000	0.0
8	0x00000000	0.0
9	0x00000000	0.0
10	0x00000000	0.0
11	0x00000000	0.0
12	0x00000000	0.0
13	0x00000000	0.0
14	0x00000000	0.0
15	0x00000000	0.0
16	0x388afd44	6.627527e-05
17	0x00000000	0.0
18	0x00000000	0.0
19	0x00000000	0.0
20	0x00000000	0.0
21	0x00000000	0.0
22	0x3e137dbe	0.14403436
23	0x00000000	0.0
24	0x3dfc7c3b	0.123283826
25	0x3e37a292	0.1793311
26	0x3df4d19d	0.11954043
27	0x3e7e0f1e	0.24810454
28	0x3e1f0979	0.15530957
29	0x3c38ab41	0.011271299
30	0x00000000	0.0
31	0x3bf67a37	0.0075218934
32	0x00000000	0.0
33	0x00000000	0.0
34	0x00000000	0.0
35	0x00000000	0.0
36	0x00000000	0.0
37	0x3d171c98	0.036892503
38	0x00000000	0.0
39	0x3ad72f65	0.0016417323
40	0x3dce07aa	0.100600556
41	0x00000000	0.0
42	0x3d286fb8	0.04112217
43	0x3d2c23cc	0.042026326
44	0x3eb03422	0.34414774
45	0x00000000	0.0
46	0x3e294ad5	0.16532452
47	0x3de19165	0.1101406
48	0x3d2a1e7a	0.04153297
49	0x00000000	0.0
50	0x3df68755	0.12037531
51	0x3e10e0ab	0.14148204
52	0x00000000	0.0
53	0x3d073115	0.033005793
54	0x00000000	0.0
55	0x00000000	0.0
56	0x00000000	0.0
57	0x00000000	0.0
58	0x00000000	0.0
59	0x00000000	0.0
60	0x00000000	0.0
61	0x00000000	0.0
62	0x00000000	0.0
63	0x00000000	0.0
64	0x00000000	0.0
65	0x00000000	0.0
66	0x00000000	0.0
67	0x00000000	0.0
68	0x3ea0c7a4	0.31402314
69	0x00000000	0.0
70	0x3d6612ac	0.05617015
71	0x00000000	0.0
72	0x3d79febd	0.061033953
73	0x3dc79974	0.09746066
74	0x3c8d0c47	0.017217768
75	0x3c8d3195	0.017235557
76	0x3d45fbb4	0.048335746
77	0x3b7533a0	0.0037414804
78	0x00000000	0.0
79	0x00000000	0.0
80	0x00000000	0.0
81	0x00000000	0.0
82	0x00000000	0.0
83	0x00000000	0.0
84	0x00000000	0.0
85	0x00000000	0.0
86	0x00000000	0.0
87	0x00000000	0.0
88	0x00000000	0.0
89	0x00000000	0.0
90	0x00000000	0.0
91	0x00000000	0.0
92	0x00000000	0.0
93	0x00000000	0.0
94	0x3de97804	0.11399844
95	0x00000000	0.0
96	0x3e3ec08b	0.18628137
97	0x3e42941d	0.19001813
98	0x3e265b76	0.16245827
99	0x3e37708f	0.17914031
100	0x3e2419aa	0.16025415
101	0x3d673dad	0.056455303
102	0x3bb91675	0.005648429
103	0x00000000	0.0
104	0x00000000	0.0
105	0x00000000	0.0
106	0x00000000	0.0
107	0x00000000	0.0
108	0x00000000	0.0
109	0x00000000	0.0
110	0x00000000	0.0
111	0x3be0cfce	0.0068607097
112	0x3dea7d90	0.114497304
113	0x00000000	0.0
114	0x00000000	0.0
115	0x3d892114	0.06695762
116	0x3e89e258	0.269305
117	0x00000000	0.0
118	0x3e296f7e	0.16546437
119	0x3da520b5	0.08062879
120	0x00000000	0.0
121	0x00000000	0.0
122	0x3cffd276	0.031228285
123	0x3e27fdf0	0.16405463
124	0x3d1d0d4f	0.03834277
125	0x3c58d9ac	0.013235491
126	0x00000000	0.0
127	0x00000000	0.0
128	0x00000000	0.0
129	0x00000000	0.0
130	0x00000000	0.0
131	0x00000000	0.0
132	0x00000000	0.0
133	0x00000000	0.0
134	0x00000000	0.0
135	0x00000000	0.0
136	0x00000000	0.0
137	0x00000000	0.0
138	0x00000000	0.0
139	0x00000000	0.0
140	0x3eb1109e	0.3458299
141	0x00000000	0.0
142	0x3d19489c	0.03742276
143	0x00000000	0.0
144	0x3b92c34f	0.004478849
145	0x3dce77a1	0.10081411
146	0x3b757a9b	0.0037457112
147	0x3cbd2573	0.023089146
148	0x3e1d7c10	0.15379357
149	0x3969e99b	0.00022307636
150	0x00000000	0.0
151	0x00000000	0.0
152	0x00000000	0.0
153	0x00000000	0.0
154	0x00000000	0.0
155	0x00000000	0.0
156	0x00000000	0.0
157	0x00000000	0.0
158	0x00000000	0.0
159	0x00000000	0.0
160	0x00000000	0.0
161	0x00000000	0.0
162	0x00000000	0.0
163	0x00000000	0.0
164	0x00000000	0.0
165	0x00000000	0.0
166	0x3e12eba8	0.14347708
167	0x00000000	0.0
168	0x3e2fd58e	0.17171308
169	0x3e219d7b	0.1578273
170	0x3ddc3306	0.107519194
171	0x3e5ae57b	0.21376602
172	0x3db069b5	0.08613912
173	0x3ce3ae19	0.027792977
174	0x00000000	0.0
175	0x00000000	0.0
176	0x00000000	0.0
177	0x00000000	0.0
178	0x00000000	0.0
179	0x00000000	0.0
180	0x00000000	0.0
181	0x3caed6c2	0.021342639
182	0x00000000	0.0
183	0x00000000	0.0
184	0x3e1154f6	0.14192566
185	0x00000000	0.0
186	0x00000000	0.0
187	0x3d9b74a9	0.075906105
188	0x3eccc1e2	0.3999167
189	0x00000000	0.0
190	0x3e3c95a7	0.18416463
191	0x3d5cb46e	0.05388301
192	0x00000000	0.0
193	0x00000000	0.0
194	0x3dce9dea	0.100887135
195	0x3e406472	0.18788317
196	0x3ce5a15c	0.028031044
197	0x3d78b76f	0.06072181
198	0x00000000	0.0
199	0x00000000	0.0
200	0x00000000	0.0
201	0x00000000	0.0
202	0x00000000	0.0
203	0x00000000	0.0
204	0x00000000	0.0
205	0x3c70817c	0.014679309
206	0x00000000	0.0
207	0x3c8f5ebc	0.017501228
208	0x00000000	0.0
209	0x00000000	0.0
210	0x00000000	0.0
211	0x00000000	0.0
212	0x3e95c886	0.2925455
213	0x00000000	0.0
214	0x3d3e1fa8	0.04641691
215	0x00000000	0.0
216	0x3d85c3f2	0.06531514
217	0x3de4aa2d	0.11165271
218	0x3d74ffd4	0.05981429
219	0x3cdb5ab2	0.026776645
220	0x3e000bb5	0.12504466
221	0x3cb80b49	0.022466319
222	0x00000000	0.0
223	0x00000000	0.0
224	0x00000000	0.0
225	0x00000000	0.0
226	0x00000000	0.0
227	0x00000000	0.0
228	0x00000000	0.0
229	0x00000000	0.0
230	0x00000000	0.0
231	0x00000000	0.0
232	0x00000000	0.0
233	0x00000000	0.0
234	0x00000000	0.0
235	0x00000000	0.0
236	0x00000000	0.0
237	0x00000000	0.0
238	0x3dcef151	0.10104621
239	0x00000000	0.0
240	0x3e32ebcc	0.17472762
241	0x3e1d082d	0.1533515
242	0x3dcb918e	0.09939872
243	0x3e6f6c2b	0.23381107
244	0x3e0ce5d2	0.13759544
245	0x3cdaab5e	0.026693042
246	0x00000000	0.0
247	0x00000000	0.0
248	0x00000000	0.0
249	0x00000000	0.0
250	0x00000000	0.0
251	0x00000000	0.0
252	0x00000000	0.0
253	0x00000000	0.0
254	0x00000000	0.0
255	0x00000000	0.0

mlp2.bias f4 [24]
0	0xbdeb2c1e	-0.11483024
1	0xbd2da228	-0.042390972
2	0xbddfe619	-0.109325595
3	0xbddfe247	-0.10931831
4	0xbcfe6cd7	-0.031057758
5	0xbdc687b1	-0.0969385
6	0xbd765d85	-0.06014778
7	0x3c392e11	0.011302487
8	0xbd2151fe	-0.039384834
9	0xbd002cfc	-0.0312929
10	0xbdcc8922	-0.099870935
11	0xbda512d8	-0.08060235
12	0xbc6a2ee3	-0.014293405
13	0x3dad2489	0.08454234
14	0xbd40f0e4	-0.04710473
15	0xbdb8ae52	-0.09017624
16	0xbda7c6da	-0.08192225
17	0x3d6c8ecc	0.05775337
18	0x3d04fbcc	0.032466695
19	0xbd6672cf	-0.056261834
20	0xbd9f7761	-0.077864416
21	0xbdbc0109	-0.09179885
22	0xbdd16e18	-0.10226077
23	0x3db5601a	0.088562205

bn2.weight f4 [72]
0	0x3eecfaed	0.4628519
1	0x3f000000	0.5
2	0x3ee04875	0.4380528
3	0x3ef65b79	0.48116663
4	0x3f000000	0.5
5	0x3ee0ed44	0.4393102
6	0x3ed56116	0.41675633
7	0x3ec6abcb	0.38802943
8	0x3ed4ce31	0.41563562
9	0x3ec5d09b	0.38635716
10	0x3ed23f19	0.41063765
11	0x3ed6504d	0.4185814
12	0x3eba0e77	0.3633916
13	0x3ed1119b	0.40833744
14	0x3ed3c768	0.41363072
15	0x3eda28f5	0.42609373
16	0x3edf58c5	0.43622413
17	0x3ed3aa3b	0.41340813
18	0x3edad187	0.42737982
19	0x3eddece0	0.43344784
20	0x3ed60963	0.41804036
21	0x3eddb74e	0.43303913
22	0x3f000000	0.5
23	0x3edcc66a	0.43120128
24	0x3efb388c	0.4906658
25	0x3f000000	0.5
26	0x3f000000	0.5
27	0x3f000000	0.5
28	0x3f000000	0.5
29	0x3ef864d1	0.48514417
30	0x3ed2f0fd	0.41199484
31	0x3edb28da	0.42804605
32	0x3ed1e5c3	0.40995607
33	0x3ec2cf2b	0.38048682
34	0x3ecb477d	0.3970298
35	0x3ecab453	0.395907
36	0x3ed58bd0	0.4170823
37	0x3ed72727	0.42022058
38	0x3ecfe41d	0.40603724
39	0x3ee672e5	0.45009533
40	0x3ee9ccec	0.45664155
41	0x3ed88987	0.42292425
42	0x3ee0b5d5	0.43888727
43	0x3ed3720e	0.41297954
44	0x3f000000	0.5
45	0x3ed3c757	0.41363022
46	0x3f000000	0.5
47	0x3ee6da65	0.45088497
48	0x3edc3781	0.43011096
49	0x3ed096ab	0.4073995
50	0x3f000000	0.5
51	0x3f000000	0.5
52	0x3edba106	0.4289629
53	0x3ef1443c	0.4712237
54	0x3ec2a2f8	0.3801496
55	0x3eda892a	0.42682773
56	0x3ed51968	0.41620946
57	0x3ecd2170	0.40064573
58	0x3ecf2462	0.40457445
59	0x3ed47304	0.41494
60	0x3ed7ae6a	0.42125255
61	0x3ed50cf0	0.41611433
62	0x3ed0fd27	0.4081814
63	0x3ee35a5f	0.44404885
64	0x3ed719b5	0.420118
65	0x3ed760f0	0.42066145
66	0x3ed7a1e7	0.4211571
67	0x3ed43f3c	0.41454494
68	0x3f000000	0.5
69	0x3ed6511e	0.41858763
70	0x3eecdf9a	0.46264344
71	0x3ed7cca3	0.42148313

bn2.bias f4 [72]
0	0xbd8d24cd	-0.06891785
1	0xbd834982	-0.06410505
2	0xbd1fd655	-0.039022762
3	0xbd41cdef	-0.047315534
4	0xbd956e24	-0.07296398
5	0xbd4593fb	-0.04823683
6	0xbcb4b87a	-0.022060622
7	0x3a23823f	0.0006237365
8	0xbd3b7669	-0.04576722
9	0xbc63be53	-0.013900357
10	0xbcc68b90	-0.02423647
11	0xbc7db907	-0.0154860085
12	0xba822b53	-0.0009931125
13	0xbc2d0840	-0.010561049
14	0xbc3de0c3	-0.011589232
15	0xbd1a4cac	-0.037670776
16	0xbd6654ad	-0.056233097
17	0xbcc322b1	-0.023820253
18	0xbd2dff56	-0.042479835
19	0xbcf3e7bb	-0.029773584
20	0xbd0bc6c2	-0.034125097
21	0xbc8880d4	-0.016662993
22	0xbd906bc1	-0.070518024
23	0xbd42c737	-0.047553267
24	0xbdaad40a	-0.083412245
25	0xbd97a4ab	-0.07404455
26	0xbd8569e0	-0.06514335
27	0xbd8c38b8	-0.06846756
28	0xbd9c1fa4	-0.076232225
29	0xbd8b85be	-0.06812619
30	0xbd6a0765	-0.05713596
31	0xbd7b4cc9	-0.061352525
32	0xbd13169c	-0.035910234
33	0xbcfec957	-0.031101866
34	0xbd020bc8	-0.031749517
35	0xbd234474	-0.039860204
36	0xbd10b864	-0.0353321
37	0xbd5c0a69	-0.053720865
38	0xbcc50c32	-0.024053667
39	0xbd81d63f	-0.06339692
40	0xbd9e8462	-0.07740094
41	0xbd232448	-0.039829522
42	0xbd455437	-0.048176017
43	0xbd8049be	-0.06264065
44	0xbda37e9c	-0.07983133
45	0xbd564490	-0.05231148
46	0xbdab1a41	-0.08354617
47	0xbd8c0f81	-0.06838895
48	0xbd78495c	-0.060616836
49	0xbd1c755b	-0.038197856
50	0xbd3b8098	-0.045776933
51	0xbd80c356	-0.062872574
52	0xbd49b7f9	-0.049247716
53	0xbd4f7b1f	-0.050654527
54	0xbcf58116	-0.02996878
55	0xbd5be54d	-0.053685475
56	0xbd123996	-0.03569945
57	0xbcb325fb	-0.021868696
58	0xbc87b0f7	-0.016563876
59	0xbcf9c536	-0.030489545
60	0xbce441a0	-0.027863324
61	0xbd4c6942	-0.04990507
62	0xbc8c9853	-0.017162478
63	0xbd39777b	-0.04527996
64	0xbd4698b5	-0.048485477
65	0xbd1b01f4	-0.03784366
66	0xbd1b4101	-0.03790379
67	0xbd43a5b9	-0.047765467
68	0xbda404f6	-0.08008759
69	0xbd24cf2a	-0.04023663
70	0xbd817ce2	-0.06322648
71	0xbd362017	-0.044464197

bn2.running_mean f4 [72]
0	0xbeb36b9c	-0.35043037
1	0xbeda3d00	-0.42624664
2	0xbe27ee9f	-0.1639962
3	0x3e148f92	0.14507893
4	0xbed9c1bf	-0.4253063
5	0xbcc811f8	-0.02442263
6	0xbd8d5e28	-0.069027245
7	0x3f162795	0.5865415
8	0x3eec0c07	0.46102926
9	0x3ddf4aa6	0.1090291
10	0xbe6ef0cd	-0.23334046
11	0x3e18238f	0.14857315
12	0x3e9c45ff	0.30522153
13	0x3f061bca	0.5238615
14	0xbdb045e7	-0.08607083
15	0xbe0d0fc1	-0.13775541
16	0xbeb24adc	-0.34822738
17	0x3e9d25d6	0.3069293
18	0xbdf5be16	-0.11999147
19	0xbe8e1e72	-0.27757603
20	0x3f1c78e1	0.61121947
21	0xbe2f8e2c	-0.17144078
22	0xbe990d5d	-0.29893008
23	0xbea9b7e5	-0.33148113
24	0xbeb453a1	-0.35220054
25	0xbeda3d34	-0.4262482
26	0xbe3695bf	-0.17830561
27	0x3d044ccd	0.032299805
28	0xbed9c1bf	-0.4253063
29	0xbd797a62	-0.06090773
30	0xbde57e32	-0.112057105
31	0x3e86d509	0.26334408
32	0x3e5b3838	0.21408165
33	0x3cb20dc0	0.021735072
34	0xbe7fedc1	-0.2499304
35	0x3cadd70a	0.021220703
36	0x3ddd68a1	0.10810972
37	0x3e82421d	0.25441065
38	0xbe02e023	-0.12780814
39	0xbe107b1f	-0.14109467
40	0xbeb410d2	-0.35169083
41	0x3e4874da	0.19575825
42	0xbdfe95d5	-0.12430922
43	0xbe90da61	-0.2829161
44	0x3ef9095c	0.48639953
45	0xbe381a5e	-0.17978808
46	0xbe99a058	-0.30005145
47	0xbeabb4ba	-0.3353632
48	0xbf3caa0c	-0.7369697
49	0xbf55f400	-0.8357544
50	0xbeaf9ca2	-0.3429919
51	0xbd3f0cda	-0.046643116
52	0xbf3dd529	-0.7415338
53	0xbe17299f	-0.14761971
54	0xbe873cc8	-0.2641356
55	0x3e7c6136	0.24646458
56	0x3e45dcfe	0.19322583
57	0xbd22452b	-0.039616745
58	0xbf08101c	-0.5314958
59	0xbd965321	-0.07340074
60	0x3d35dcf8	0.044400185
61	0x3e788ab8	0.24271667
62	0xbe912d50	-0.28354883
63	0xbe46c594	-0.19411308
64	0xbf4844db	-0.78230065
65	0x3e415589	0.18880285
66	0xbe44ee2e	-0.19231483
67	0xbf128887	-0.57239574
68	0x3ef9095c	0.48639953
69	0xbe913acd	-0.28365174
70	0xbf0e7788	-0.5565114
71	0xbf3a6137	-0.7280459

bn2.running_var f4 [72]
0	0x3d876b56	0.066122696
1	0x3ca6bb43	0.020352965
2	0x3e1c71ec	0.15277833
3	0x3ea58544	0.32328236
4	0x3c91e175	0.017807702
5	0x3e51a95e	0.20474765
6	0x3e683b30	0.22678828
7	0x3ee966df	0.45586297
8	0x3ecc9e16	0.3996436
9	0x3e8fdeed	0.28099766
10	0x3e165c2f	0.14683603
11	0x3ebac3d5	0.36477533
12	0x3edfca62	0.43709093
13	0x3ec3d977	0.3825185
14	0x3e624e0e	0.22100088
15	0x3de21fef	0.11041247
16	0x3d98e46d	0.07465444
17	0x3e5b7db8	0.21434677
18	0x3e046bd3	0.12931757
19	0x3dda4bbf	0.10658979
20	0x3c89f1a8	0.016838863
21	0x3e02a309	0.12757505
22	0x3da1a78b	0.078932844
23	0x3da80d68	0.08205682
24	0x3d7fe4e4	0.062474146
25	0x3ca6b546	0.02035011
26	0x3e045876	0.1292437
27	0x3e279164	0.16364056
28	0x3c91e162	0.017807666
29	0x3e1ba7d0	0.15200734
30	0x3e2028eb	0.15640609
31	0x3de6b096	0.1126415
32	0x3e0072e6	0.1254383
33	0x3e2128f2	0.15738276
34	0x3deae547	0.114695124
35	0x3e2df8b1	0.169894
36	0x3e23b2f9	0.15986241
37	0x3ddcc4ca	0.10779722
38	0x3e18cfaa	0.14922968
39	0x3dd7a21c	0.10528967
40	0x3d895c80	0.06707096
41	0x3dd674a0	0.10471463
42	0x3dfc788e	0.123276815
43	0x3dc46f01	0.09591485
44	0x3a6a57fb	0.0008939502
45	0x3de80f75	0.11331073
46	0x3d9d5b18	0.076833904
47	0x3d971cb8	0.073785245
48	0x3eb97a5d	0.36226168
49	0x3e6f7c87	0.23387347
50	0x3e9d71c0	0.30750847
51	0x3e9122f5	0.28346983
52	0x3e28944a	0.16462818
53	0x3e85703c	0.2606219
54	0x3eb2f2a6	0.3495075
55	0x3e161f40	0.14660358
56	0x3e284455	0.16432317
57	0x3e7f15cd	0.2491066
58	0x3ecf053a	0.40433675
59	0x3ea51d98	0.3224914
60	0x3e8b519c	0.272107
61	0x3e05a411	0.13050868
62	0x3eb09325	0.34487262
63	0x3e2140eb	0.1574742
64	0x3ed5d8c3	0.4176694
65	0x3deedea7	0.11663561
66	0x3e43ef54	0.19134265
67	0x3eb908c9	0.36139515
68	0x3a6a57fb	0.0008939502
69	0x3e60bb19	0.21946372
70	0x3e9250df	0.28577325
71	0x3ecefc2d	0.4042677

mlp3.weight f4 [24, 72]
0	0x00000000	0.0
1	0x00000000	0.0
2	0x00000000	0.0
3	0x00000000	0.0
4	0x00000000	0.0
5	0x00000000	0.0
6	0x00000000	0.0
7	0x00000000	0.0
8	0x00000000	0.0
9	0x00000000	0.0
10	0x00000000	0.0
11	0x00000000	0.0
12	0x00000000	0.0
13	0x00000000	0.0
14	0x00000000	0.0
15	0x00000000	0.0
16	0x00000000	0.0
17	0x00000000	0.0
18	0x00000000	0.0
19	0x00000000	0.0
20	0x00000000	0.0
21	0x00000000	0.0
22	0x00000000	0.0
23	0x00000000	0.0
24	0x3e407e27	0.18798123
25	0x3d963481	0.07334233
26	0x3dd8f702	0.10593988
27	0x3e898e6d	0.26866475
28	0x3da4b61b	0.08042546
29	0x3e6db541	0.23213674
30	0x3e345d95	0.17613824
31	0x00000000	0.0
32	0x3cc663f6	0.024217587
33	0x00000000	0.0
34	0x3e5835f1	0.21114327
35	0x3d3ee669	0.046606455
36	0x3d3d33d7	0.046192016
37	0x00000000	0.0
38	0x3e01499f	0.1262574
39	0x3dbf73f8	0.09348291
40	0x3e2824db	0.16420309
41	0x00000000	0.0
42	0x00000000	0.0
43	0x3d8420f0	0.06451595
44	0x3daf9d35	0.08574907
45	0x3e45bac8	0.19309533
46	0x3e2404bd	0.16017433
47	0x00000000	0.0
48	0x00000000	0.0
49	0x00000000	0.0
50	0x00000000	0.0
51	0x00000000	0.0
52	0x00000000	0.0
53	0x00000000	0.0
54	0x00000000	0.0
55	0x00000000	0.0
56	0x00000000	0.0
57	0x00000000	0.0
58	0x00000000	0.0
59	0x00000000	0.0
60	0x00000000	0.0
61	0x00000000	0.0
62	0x00000000	0.0
63	0x00000000	0.0
64	0x00000000	0.0
65	0x00000000	0.0
66	0x00000000	0.0
67	0x00000000	0.0
68	0x00000000	0.0
69	0x3aef89f0	0.0018275362
70	0x00000000	0.0
71	0x00000000	0.0
72	0x00000000	0.0
73	0x00000000	0.0
74	0x00000000	0.0
75	0x00000000	0.0
76	0x00000000	0.0
77	0x00000000	0.0
78	0x00000000	0.0
79	0x00000000	0.0
80	0x00000000	0.0
81	0x00000000	0.0
82	0x00000000	0.0
83	0x00000000	0.0
84	0x00000000	0.0
85	0x00000000	0.0
86	0x00000000	0.0
87	0x00000000	0.0
88	0x00000000	0.0
89	0x00000000	0.0
90	0x00000000	0.0
91	0x00000000	0.0
92	0x00000000	0.0
93	0x00000000	0.0
94	0x00000000	0.0
95	0x00000000	0.0
96	0x3e45f624	0.19332176
97	0x3dd27792	0.102767125
98	0x3e4d9dde	0.20079753
99	0x3e49190d	0.19638462
100	0x3e07960f	0.13240837
101	0x3e802150	0.25025415
102	0x3dd7e953	0.1054255
103	0x00000000	0.0
104	0x00000000	0.0
105	0x00000000	0.0
106	0x3e844917	0.25837013
107	0x3d82fdb1	0.06396044
108	0x00000000	0.0
109	0x00000000	0.0
110	0x3e42a43a	0.1900796
111	0x3e6234fe	0.22090527
112	0x3e3c8640	0.18410587
113	0x00000000	0.0
114	0x00000000	0.0
115	0x3dd266ef	0.10273539
116	0x3dcc8500	0.09986305
117	0x3e6d66f5	0.23183806
118	0x3e4eb915	0.2018779
119	0x00000000	0.0
120	0x392e464a	0.00016620118
121	0x39109424	0.00013788097
122	0x3aa4a200	0.0012560487
123	0x3b9a7e04	0.0047147293
124	0x00000000	0.0
125	0x3b8e7039	0.004346874
126	0x00000000	0.0
127	0x00000000	0.0
128	0x00000000	0.0
129	0x00000000	0.0
130	0x3bb806d8	0.00561605
131	0x00000000	0.0
132	0x00000000	0.0
133	0x00000000	0.0
134	0x00000000	0.0
135	0x3b1f3234	0.0024291398
136	0x3a4a71ef	0.0007722666
137	0x00000000	0.0
138	0x00000000	0.0
139	0x00000000	0.0
140	0x00000000	0.0
141	0x3bb34bbc	0.0054716747
142	0x3b12eb66	0.002241814
143	0x00000000	0.0
144	0x00000000	0.0
145	0x00000000	0.0
146	0x00000000	0.0
147	0x00000000	0.0
148	0x00000000	0.0
149	0x00000000	0.0
150	0x00000000	0.0
151	0x00000000	0.0
152	0x00000000	0.0
153	0x00000000	0.0
154	0x00000000	0.0
155	0x00000000	0.0
156	0x00000000	0.0
157	0x00000000	0.0
158	0x00000000	0.0
159	0x00000000	0.0
160	0x00000000	0.0
161	0x00000000	0.0
162	0x00000000	0.0
163	0x00000000	0.0
164	0x00000000	0.0
165	0x00000000	0.0
166	0x00000000	0.0
167	0x00000000	0.0
168	0x3e81d5a3	0.25358304
169	0x3e372a84	0.17887312
170	0x3e794717	0.24343525
171	0x3e8e0859	0.27740744
172	0x3e3c5dcd	0.18395157
173	0x3e318722	0.17336705
174	0x3e7d9a3a	0.24765864
175	0x3dc6e93a	0.09712453
176	0x3dd8530b	0.10562714
177	0x3dfc6abc	0.123250455
178	0x3e758f80	0.23980522
179	0x3e23363e	0.1593866
180	0x3d56bba9	0.05242506
181	0x3e1f0466	0.15529022
182	0x3e704c0b	0.23466508
183	0x3e59d053	0.21270876
184	0x3e27a2b8	0.16370666
185	0x3cc26602	0.023730282
186	0x3e0ded53	0.13860063
187	0x3e597918	0.212376
188	0x3e133c06	0.14378366
189	0x3e695c1b	0.22789042
190	0x3e518482	0.20460704
191	0x3db91acb	0.090383135
192	0x3e5c269e	0.21499106
193	0x3e7675b5	0.24068339
194	0x3e6c4617	0.23073612
195	0x3ea974aa	0.3309682
196	0x3e5d2fa9	0.21600212
197	0x3ea92c97	0.33041832
198	0x3e89ae28	0.26890683
199	0x3df0dc98	0.11760825
200	0x3da1775d	0.07884095
201	0x3dd37e30	0.10326803
202	0x3ebffa23	0.37495527
203	0x3e6ccd75	0.2312525
204	0x3db46f8f	0.088103406
205	0x3da4e89b	0.080521785
206	0x3e3ad182	0.18243983
207	0x3e990f60	0.29894543
208	0x3e9c5c5f	0.30539224
209	0x3df3ed6f	0.11910521
210	0x3de0b752	0.109724656
211	0x3e49edeb	0.19719665
212	0x3e429eef	0.19005941
213	0x3e80f1bf	0.25184438
214	0x3e795524	0.24348885
215	0x3df485db	0.119395934
216	0x00000000	0.0
217	0x00000000	0.0
218	0x00000000	0.0
219	0x00000000	0.0
220	0x00000000	0.0
221	0x00000000	0.0
222	0x00000000	0.0
223	0x00000000	0.0
224	0x00000000	0.0
225	0x00000000	0.0
226	0x00000000	0.0
227	0x00000000	0.0
228	0x00000000	0.0
229	0x00000000	0.0
230	0x00000000	0.0
231	0x00000000	0.0
232	0x00000000	0.0
233	0x00000000	0.0
234	0x00000000	0.0
235	0x00000000	0.0
236	0x00000000	0.0
237	0x00000000	0.0
238	0x00000000	0.0
239	0x00000000	0.0
240	0x3e516636	0.20449147
241	0x3e684728	0.22683394
242	0x3e6e2f4e	0.23260233
243	0x3e72c3f1	0.23707558
244	0x3e90e8da	0.28302652
245	0x3e60bb66	0.21946487
246	0x3e42577c	0.18978685
247	0x00000000	0.0
248	0x3be8791b	0.007094515
249	0x00000000	0.0
250	0x3e8dcc5e	0.27694982
251	0x3e3e9c0b	0.18614213
252	0x3d4a2aac	0.0493571
253	0x00000000	0.0
254	0x3e4d72fa	0.20063391
255	0x3e39626c	0.18103951

mlp3.bias f4 [24]
0	0x3d96e4d0	0.07367861
1	0x3e2fc934	0.17166597
2	0x3e5e2a08	0.21695721
3	0xbdd1fa83	-0.102528594
4	0x3d03311f	0.032029267
5	0xbdbe9835	-0.09306375
6	0x3e228d5f	0.15874241
7	0x3e66e3ae	0.2254779
8	0xbe1d77b1	-0.1537769
9	0x3d967a87	0.07347589
10	0xbe3c3d52	-0.18382767
11	0x3ca68244	0.020325787
12	0xbe3bfc1a	-0.18357888
13	0x3d39aedc	0.045332775
14	0x3d4b69ee	0.04966157
15	0x3e49ce76	0.19707665
16	0x3e81472f	0.2524962
17	0xbe59d19d	-0.21271367
18	0x3dd1f441	0.10251666
19	0x3d437e62	0.04772795
20	0xbe69ebb8	-0.22843826
21	0x3da3d553	0.07999673
22	0xbe2391cf	-0.1597359
23	0x3d9edc60	0.07756877

bn3.weight f4 [72]
0	0x3ec50b0a	0.38484985
1	0x3ec39ea6	0.38206977
2	0x3ec4cb6a	0.38436443
3	0x3ec5423a	0.3852709
4	0x3ec7c6c0	0.39018822
5	0x3ec32b6f	0.38119075
6	0x3ebfccc7	0.3746092
7	0x3ebd0149	0.36915043
8	0x3ebc7a3b	0.36812004
9	0x3ebd1d2c	0.3693632
10	0x3ec5af9b	0.3861054
11	0x3ec8fa5a	0.39253503
12	0x3ec8b80c	0.39202917
13	0x3ec3f785	0.3827478
14	0x3ec20a9d	0.37898722
15	0x3ec42ba1	0.38314536
16	0x3ec6661d	0.3874978
17	0x3ebff5d1	0.3749223
18	0x3ebed1f6	0.37269562
19	0x3ec998c4	0.39374363
20	0x3ec008fd	0.37506858
21	0x3ec70cd6	0.3887698
22	0x3ec1b319	0.37831953
23	0x3ec2b40a	0.38027984
24	0x3f000000	0.5
25	0x3f000000	0.5
26	0x3f000000	0.5
27	0x3f000000	0.5
28	0x3f000000	0.5
29	0x3f000000	0.5
30	0x3f000000	0.5
31	0x3ed08d54	0.40732825
32	0x3ed1b85a	0.40960962
33	0x3ec4a131	0.3840423
34	0x3f000000	0.5
35	0x3f000000	0.5
36	0x3ee9b297	0.45644066
37	0x3ed3293e	0.41242403
38	0x3f000000	0.5
39	0x3f000000	0.5
40	0x3f000000	0.5
41	0x3eb77812	0.35833794
42	0x3ed07513	0.4071432
43	0x3f000000	0.5
44	0x3f000000	0.5
45	0x3f000000	0.5
46	0x3f000000	0.5
47	0x3ecf88b2	0.40533978
48	0x3f000000	0.5
49	0x3ef2a1b5	0.47388998
50	0x3f000000	0.5
51	0x3f000000	0.5
52	0x3f000000	0.5
53	0x3f000000	0.5
54	0x3ee8a20b	0.4543613
55	0x3ed45385	0.4146997
56	0x3ed7b143	0.42127427
57	0x3edd7c7d	0.4325904
58	0x3f000000	0.5
59	0x3ef531d2	0.47889572
60	0x3ed6ea03	0.41975412
61	0x3ed2cff9	0.41174296
62	0x3eef46db	0.46733746
63	0x3f000000	0.5
64	0x3ef2057e	0.47269815
65	0x3ecca411	0.39968923
66	0x3eda698b	0.42658648
67	0x3eef01ce	0.46681064
68	0x3ef80dea	0.48448116
69	0x3f000000	0.5
70	0x3f000000	0.5
71	0x3ee37266	0.44423217

bn3.bias f4 [72]
0	0x3da6b6a2	0.08140303
1	0x3da3eb4b	0.08003863
2	0x3dbe7332	0.092993155
3	0x3d1f630f	0.03891283
4	0x3dbfff85	0.09374908
5	0x3dca0602	0.09864427
6	0x3dd806cf	0.10548174
7	0x3dcced73	0.10006227
8	0x3dd11f50	0.102110505
9	0x3db60cea	0.08889182
10	0x3dce3daf	0.10070359
11	0x3dd654ac	0.10465369
12	0x3d557799	0.05211601
13	0x3d95fd88	0.07323748
14	0x3d85ae46	0.06527381
15	0x3d97b717	0.074079685
16	0x3dd24ee6	0.10268955
17	0x3d73f2b7	0.059557643
18	0x3d8463c3	0.064643405
19	0x3d93e1b3	0.07220783
20	0x3de08758	0.10963315
21	0x3d8c7d79	0.068598695
22	0x3dd75595	0.1051437
23	0x3cf31a27	0.029675556
24	0x3d8d3db2	0.06896533
25	0x3d58b7e3	0.052909743
26	0x3d929034	0.07156411
27	0x3d594fc2	0.05305458
28	0x3d764aa1	0.060129765
29	0x3c65703e	0.014003811
30	0x3d8b8f30	0.0681442
31	0x3da2d4e4	0.07950762
32	0x3d87b5e1	0.066264875
33	0x3d9975cf	0.07493173
34	0x3d82733f	0.06369638
35	0x3d6b06fc	0.057379708
36	0x3d2e1d55	0.042508442
37	0x3d96fb35	0.07372133
38	0x3d809b42	0.06279613
39	0x3cb1c6c4	0.021701224
40	0x3d6d1105	0.05787756
41	0x3d96c560	0.07361865
42	0x3dbca88a	0.09211834
43	0x3d42290e	0.047402434
44	0x3d8c2f2f	0.06844937
45	0x3a00808e	0.00049019686
46	0x3d1bc1d9	0.038026664
47	0x3d8f0c14	0.069847256
48	0x3dbfd753	0.09367242
49	0x3dc520cd	0.09625397
50	0x3dbfb139	0.093599744
51	0x3dd39287	0.10330682
52	0x3d7465d4	0.059667423
53	0x3dbe1db2	0.09283008
54	0x3db2c4d7	0.087289505
55	0x3da41461	0.080116995
56	0x3da8f362	0.082495466
57	0x3d80a4e6	0.06281452
58	0x3dd22b28	0.10262138
59	0x3dbd45a6	0.092418
60	0x3db58c2c	0.08864626
61	0x3d83723a	0.06418271
62	0x3d96d362	0.07364537
63	0x3dcbf264	0.09958342
64	0x3d98f7c0	0.074691296
65	0x3db4d7d5	0.08830229
66	0x3dae433c	0.08508918
67	0x3d615003	0.055007946
68	0x3dbc95b1	0.09208239
69	0x3dc630a7	0.096772484
70	0x3db73aeb	0.089467846
71	0x3db76108	0.08954054

bn3.running_mean f4 [72]
0	0xbd065dfe	-0.03280448
1	0xbca2eb9a	-0.019887734
2	0xbd044af2	-0.032298036
3	0xbcf8bf58	-0.030364677
4	0xbab9a599	-0.0014163732
5	0xbd00f9bd	-0.03148817
6	0xbccfb1c3	-0.025353318
7	0x3d8c2490	0.06842911
8	0x3d190e22	0.037366994
9	0x3dc872f0	0.097875476
10	0xbd086605	-0.03330042
11	0xbcba7732	-0.022761915
12	0xbb222cce	-0.0024745944
13	0x3e777fa8	0.2416979
14	0xbc8f7aea	-0.017514665
15	0xbceb40ac	-0.028717361
16	0xbceaae84	-0.028647669
17	0x3e7a7652	0.24459198
18	0x3e199e34	0.15001756
19	0xbccb51ed	-0.024819339
20	0xbcf064ec	-0.029344998
21	0xbcf491fb	-0.029854765
22	0xbd08f69e	-0.033438317
23	0x3e819e20	0.25315952
24	0xbe132132	-0.14368132
25	0xbe09540d	-0.13410969
26	0xbe113b72	-0.14182833
27	0xbe1637cd	-0.14669724
28	0xbe11b13c	-0.14227766
29	0xbe0e5049	-0.13897814
30	0xbe06b3ee	-0.13154575
31	0xbdd00258	-0.10156697
32	0xbdda1e2d	-0.10650287
33	0xbdb82295	-0.08990971
34	0xbe0f3557	-0.13985191
35	0xbe0da809	-0.13833632
36	0xbe0b604a	-0.1361095
37	0xbd98cc87	-0.074608855
38	0xbe0a06e1	-0.13479187
39	0xbe0e9536	-0.13924107
40	0xbe0f3d41	-0.1398821
41	0xbda568b2	-0.0807661
42	0xbdaa6840	-0.08320665
43	0xbe0a1866	-0.1348587
44	0xbe0b130f	-0.13581489
45	0xbe126c2c	-0.14299077
46	0xbe0d0dc3	-0.13774781
47	0xbd912b05	-0.070882834
48	0xbeda9b05	-0.42696396
49	0xbeb0fa10	-0.34565783
50	0xbed6f576	-0.41984147
51	0xbeddd075	-0.43323103
52	0xbebf871b	-0.37407765
53	0xbecf4876	-0.4048497
54	0xbeb58a45	-0.35457054
55	0xbeb397f8	-0.3507688
56	0xbec29a10	-0.38008165
57	0xbedbf873	-0.4296299
58	0xbed23f56	-0.41063946
59	0xbec5b5c4	-0.3861524
60	0xbea8e638	-0.32988143
61	0xbef1f9db	-0.47260937
62	0xbeb3dc79	-0.35129145
63	0xbecb23fe	-0.39675897
64	0xbec65ba2	-0.38741785
65	0xbeff1b4c	-0.49825513
66	0xbedad731	-0.42742303
67	0xbeb403fd	-0.35159293
68	0xbec0da47	-0.37666532
69	0xbed100c1	-0.40820888
70	0xbece37bb	-0.40276894
71	0xbef5b8fc	-0.47992694

bn3.running_var f4 [72]
0	0x3ecfa57b	0.4055594
1	0x3ed26d83	0.41099176
2	0x3eccf653	0.4003168
3	0x3ed7fb8d	0.42184106
4	0x3efc87f6	0.4932248
5	0x3eca2696	0.39482564
6	0x3ec78d05	0.38974777
7	0x3f0be965	0.54653007
8	0x3ef22459	0.47293356
9	0x3f10ea2f	0.56607336
10	0x3ec90ebc	0.39269054
11	0x3ed4eb3c	0.4158572
12	0x3eef6a37	0.46760723
13	0x3f697afe	0.91203296
14	0x3ed713be	0.4200725
15	0x3ece534e	0.4029793
16	0x3ecfb43e	0.405672
17	0x3f723bc3	0.9462244
18	0x3f2e9f63	0.68211955
19	0x3ecd3c2b	0.40084967
20	0x3ec7d943	0.39032945
21	0x3ed27712	0.41106468
22	0x3ec5267d	0.38505927
23	0x3f6d50f5	0.92701656
24	0x3e37946f	0.17927717
25	0x3e376260	0.17908621
26	0x3e37bfbd	0.17944236
27	0x3e37d006	0.17950448
28	0x3e390e92	0.18071964
29	0x3e386a90	0.180094
30	0x3e376d18	0.1791271
31	0x3e46a48c	0.19398707
32	0x3e436fd9	0.19085635
33	0x3e4c2cab	0.19938914
34	0x3e38444c	0.17994803
35	0x3e381b8a	0.17979255
36	0x3e37b275	0.1793917
37	0x3e55759d	0.20845647
38	0x3e37ae11	0.17937495
39	0x3e37592f	0.17905115
40	0x3e378941	0.17923452
41	0x3e55b8d0	0.20871282
42	0x3e507f5f	0.20361088
43	0x3e372f33	0.17889099
44	0x3e37745e	0.17915484
45	0x3e376f72	0.17913607
46	0x3e37fe6c	0.17968148
47	0x3e56d7e9	0.209808
48	0x3f0d5829	0.55212647
49	0x3ee36b7a	0.44417936
50	0x3f0cd2ae	0.5500897
51	0x3f102183	0.56301135
52	0x3ef55505	0.47916427
53	0x3f075e02	0.5287782
54	0x3eec3b0e	0.46138805
55	0x3f0331b7	0.51247734
56	0x3f116520	0.5679493
57	0x3f3771f3	0.7165825
58	0x3f0bd25a	0.54617846
59	0x3efac423	0.48977765
60	0x3ecd6666	0.40117186
61	0x3f584c6a	0.844916
62	0x3ee44844	0.44586384
63	0x3f031832	0.51208794
64	0x3efc7ea2	0.49315363
65	0x3f5f954a	0.8733717
66	0x3f39f78b	0.72643346
67	0x3ee48a30	0.4463668
68	0x3ef8d3ba	0.48599035
69	0x3f099858	0.53748083
70	0x3f06c06b	0.52637357
71	0x3f6151bc	0.8801534

mlp4.weight f4 [1, 72]
0	0x3d67b3bb	0.05656789
1	0x3d92113e	0.07132195
2	0x3df05a79	0.11736006
3	0x3da58ec6	0.080838725
4	0x3e055501	0.13020708
5	0x3d5cee5b	0.05393825
6	0x3de5ad09	0.112146445
7	0x3dfe94b3	0.12430706
8	0x3d6aa037	0.0572817
9	0x3e112bc8	0.14176857
10	0x00000000	0.0
11	0x00000000	0.0
12	0x3b978c1b	0.004624856
13	0x3e3a608c	0.18200892
14	0x3da7ef37	0.081999235
15	0x3dfcb20e	0.12338649
16	0x3dd6af84	0.10482696
17	0x00000000	0.0
18	0x3e007462	0.12544397
19	0x3dc4f913	0.0961782
20	0x3ca722b2	0.020402286
21	0x3e1c0245	0.15235241
22	0x3c5026ed	0.012704593
23	0x3d19c898	0.037544817
24	0x3e22bb91	0.15891863
25	0x3d79216b	0.060822885
26	0x3e1d26c0	0.15346813
27	0x3ddb3053	0.107025765
28	0x3e3f4ce2	0.18681672
29	0x3d3438e3	0.043999564
30	0x3e463f5e	0.1936011
31	0x3e030294	0.12793952
32	0x3dbf96f9	0.093549676
33	0x3e749ce0	0.23887968
34	0x3df4092d	0.11915813
35	0x3d38717e	0.04503011
36	0x3dd93d8d	0.10607443
37	0x3e787e62	0.24266961
38	0x3e1453b0	0.14485049
39	0x3e28195c	0.16415924
40	0x3d13c188	0.036073238
41	0x3dc79bc0	0.09746504
42	0x3d631087	0.055435684
43	0x3e60f80f	0.21969627
44	0x3dcaaafa	0.098958924
45	0x3e3f5e63	0.1868835
46	0x3d76f4df	0.06029212
47	0x3ad24950	0.0016043577
48	0x00000000	0.0
49	0x00000000	0.0
50	0x00000000	0.0
51	0x00000000	0.0
52	0x00000000	0.0
53	0x00000000	0.0
54	0x00000000	0.0
55	0x00000000	0.0
56	0x00000000	0.0
57	0x00000000	0.0
58	0x3b775200	0.0037738085
59	0x00000000	0.0
60	0x00000000	0.0
61	0x00000000	0.0
62	0x00000000	0.0
63	0x00000000	0.0
64	0x00000000	0.0
65	0x00000000	0.0
66	0x00000000	0.0
67	0x00000000	0.0
68	0x3c1f6216	0.009727975
69	0x00000000	0.0
70	0x00000000	0.0
71	0x00000000	0.0
