utility-model-selected/dim-3/utility-51.pt (torch, 23458 bytes, 17 tensors)

bn1.running_mean f4 [3]
0	0x3f0082e2	0.5019971
1	0x3f0004df	0.5000743
2	0x3eff6e3b	0.49888787

bn1.running_var f4 [3]
0	0x3d67521e	0.056474797
1	0x3d5c1428	0.05373016
2	0x3d58adcf	0.05290013

mlp1.weight f4 [24, 3]
0	0x3ee55e2c	0.4479841
1	0x3eaee6a2	0.34160334
2	0x3eecfa03	0.46284494
3	0x3ef72a4f	0.48274466
4	0x3e13b843	0.14425759
5	0x3ef5ba27	0.47993585
6	0x3f000000	0.5
7	0x3eed5160	0.46351147
8	0x3ed0430d	0.40676156
9	0x3d916912	0.07100119
10	0x00000000	0.0
11	0x3ebe5e29	0.37181213
12	0x3eb6128c	0.35561025
13	0x3df9f4a9	0.12204868
14	0x3e8139d9	0.25239447
15	0x3ecaa969	0.39582375
16	0x3bff37f8	0.0077886544
17	0x3ee830f3	0.45349845
18	0x3e26c186	0.16284761
19	0x3c6fd72d	0.014638704
20	0x3ec3ac56	0.3821742
21	0x3e27fbe8	0.16404688
22	0x3edbb018	0.42907786
23	0x3ec24888	0.37945962
24	0x3ea4e808	0.32208276
25	0x3d6a33d1	0.057178322
26	0x3debeea7	0.11520129
27	0x3e32edef	0.17473577
28	0x3e6cf49d	0.23140188
29	0x3e2cb277	0.16864954
30	0x3eb494ad	0.3526968
31	0x3d2bbb03	0.041926395
32	0x3ee72679	0.4514654
33	0x00000000	0.0
34	0x3e3a4ebc	0.18194097
35	0x3f000000	0.5
36	0x3ee365c6	0.44413584
37	0x3ea334bf	0.3187618
38	0x3e400e78	0.1875552
39	0x3eb898a2	0.3605395
40	0x3e6b89ca	0.23001781
41	0x3eadfa7d	0.3398017
42	0x3f000000	0.5
43	0x00000000	0.0
44	0x3dc95d4a	0.098322466
45	0x3e66b7d7	0.22531067
46	0x3df95380	0.121741295
47	0x3e27fcb8	0.16404998
48	0x00000000	0.0
49	0x3e3cb3b7	0.18427931
50	0x3f000000	0.5
51	0x3eb8740f	0.36026046
52	0x3ea80d86	0.32822818
53	0x3ecc9ec5	0.39964882
54	0x3f000000	0.5
55	0x00000000	0.0
56	0x3e10d640	0.1414423
57	0x3ef40732	0.4766174
58	0x3e88a10a	0.26685363
59	0x3ef44c9e	0.47714704
60	0x3e0a6ba0	0.13517618
61	0x3e1e2bfd	0.15446468
62	0x3e8d1d53	0.27561435
63	0x3e22b385	0.15888794
64	0x3e717a6b	0.23581855
65	0x3e5f9f52	0.2183812
66	0x00000000	0.0
67	0x3e137ecb	0.14403836
68	0x3efa9981	0.4894524
69	0x3efd87e6	0.49517745
70	0x3e1a0cbd	0.15043922
71	0x3ecacc1a	0.39608842

mlp1.bias f4 [24]
0	0xbe86db6e	-0.26339287
1	0xbe098312	-0.13428906
2	0x3e43a96f	0.19107603
3	0x3d118fc4	0.035537496
4	0xbe22b3c3	-0.15888886
5	0x3d51fdaa	0.051267304
6	0xbe4924a3	-0.19642882
7	0xbe8397b4	-0.25701678
8	0xbd3675ad	-0.044545818
9	0xbe98dc95	-0.2985579
10	0x3f10adaf	0.5651502
11	0xbf3061e3	-0.68899363
12	0x3f0c8461	0.54889494
13	0x3ef7d752	0.48406464
14	0xbedeab3d	-0.4349002
15	0xbdf30927	-0.1186698
16	0xbf3419d3	-0.70351905
17	0x3ec25fd1	0.37963727
18	0xbf221346	-0.6331066
19	0x3ecae91a	0.39630967
20	0x3eaefcd9	0.34177282
21	0x3e80a774	0.25127757
22	0xbf2ec33e	-0.68266666
23	0x39c8b174	0.00038279186

mlp2.weight f4 [24, 72]
0	0x00000000	0.0
1	0x00000000	0.0
2	0x00000000	0.0
3	0x3d5319e3	0.05153836
4	0x3ca97ccd	0.020689392
5	0x3cbc24b7	0.022966726
6	0x3d061f18	0.032744497
7	0x3cfc2624	0.030779906
8	0x3d613f2b	0.054991882
9	0x00000000	0.0
10	0x00000000	0.0
11	0x3de34c32	0.110985175
12	0x3d434c35	0.0476801
13	0x00000000	0.0
14	0x3dc38b82	0.095480934
15	0x00000000	0.0
16	0x3e828cf2	0.25498158
17	0x00000000	0.0
18	0x3e09c32b	0.13453357
19	0x00000000	0.0
20	0x00000000	0.0
21	0x00000000	0.0
22	0x3e58805a	0.21142712
23	0x3c80444f	0.015657572
24	0x3c71d7eb	0.0147609515
25	0x00000000	0.0
26	0x3cde70d3	0.027153408
27	0x3d0f0243	0.034914266
28	0x00000000	0.0
29	0x3cba2613	0.022723233
30	0x3d84ece0	0.06490493
31	0x3c69962d	0.014256996
32	0x00000000	0.0
33	0x00000000	0.0
34	0x3ceab984	0.028652914
35	0x3e073987	0.13205539
36	0x3d6e37fe	0.058158867
37	0x3d9a7e08	0.0754357
38	0x3e150faa	0.14556757
39	0x00000000	0.0
40	0x3e6c1865	0.23056181
41	0x3cc7c9cf	0.024388222
42	0x3e49de7c	0.19713777
43	0x3d07be9c	0.033140764
44	0x00000000	0.0
45	0x3cca864d	0.024722243
46	0x3e870bed	0.26376286
47	0x3c512cce	0.01276703
48	0x00000000	0.0
49	0x00000000	0.0
50	0x3c32e9e1	0.010920019
51	0x3ccbb902	0.024868492
52	0x00000000	0.0
53	0x3d475ab3	0.048670482
54	0x3d582db1	0.05277795
55	0x3d1211f5	0.035661656
56	0x00000000	0.0
57	0x00000000	0.0
58	0x3da664db	0.081247054
59	0x00000000	0.0
60	0x3c1d36af	0.009595557
61	0x3c6dfae9	0.014525154
62	0x3bb2d5b5	0.005457605
63	0x00000000	0.0
64	0x00000000	0.0
65	0x00000000	0.0
66	0x3d2fd896	0.04293116
67	0x3d4be3de	0.049777858
68	0x00000000	0.0
69	0x00000000	0.0
70	0x00000000	0.0
71	0x3b75650a	0.0037444257
72	0x00000000	0.0
73	0x00000000	0.0
74	0x00000000	0.0
75	0x3d76f7df	0.060294982
76	0x00000000	0.0
77	0x3dae66d0	0.08515704
78	0x3d5d3c26	0.05401244
79	0x00000000	0.0
80	0x00000000	0.0
81	0x00000000	0.0
82	0x3bda7503	0.006666781
83	0x3e3af9c8	0.18259346
84	0x00000000	0.0
85	0x00000000	0.0
86	0x3d56760d	0.052358676
87	0x00000000	0.0
88	0x3e96a3ba	0.29421788
89	0x00000000	0.0
90	0x3e410525	0.18849619
91	0x00000000	0.0
92	0x00000000	0.0
93	0x00000000	0.0
94	0x3e6bcac4	0.23026568
95	0x00000000	0.0
96	0x00000000	0.0
97	0x00000000	0.0
98	0x3db511bb	0.088412724
99	0x00000000	0.0
100	0x3cc8c4ab	0.024507841
101	0x3d0ef6e9	0.03490344
102	0x3d02b1f5	0.031907994
103	0x3c819c08	0.015821472
104	0x3d8813e6	0.0664442
105	0x00000000	0.0
106	0x3dc0ff11	0.0942365
107	0x3df88def	0.12136447
108	0x3d40aab7	0.047037806
109	0x3d47593b	0.04866908
110	0x3d9b2c17	0.07576769
111	0x00000000	0.0
112	0x3e629e4a	0.22130695
113	0x00000000	0.0
114	0x3e2840f8	0.16431034
115	0x3dffdeb3	0.124936484
116	0x00000000	0.0
117	0x00000000	0.0
118	0x3e71fbc5	0.23631199
119	0x3d8ef7a3	0.06980827
120	0x00000000	0.0
121	0x00000000	0.0
122	0x3aadd751	0.0013263022
123	0x00000000	0.0
124	0x00000000	0.0
125	0x3d387add	0.045039047
126	0x3d24de6f	0.04025119
127	0x00000000	0.0
128	0x00000000	0.0
129	0x00000000	0.0
130	0x3d7a09ac	0.06104438
131	0x00000000	0.0
132	0x3bd15e45	0.0063894116
133	0x3c1a6ac9	0.009424874
134	0x3b8accd4	0.004235843
135	0x00000000	0.0
136	0x00000000	0.0
137	0x3bc6813b	0.006057886
138	0x3d2c59e2	0.042077906
139	0x3d95dd3d	0.073175885
140	0x00000000	0.0
141	0x00000000	0.0
142	0x00000000	0.0
143	0x37a42cd7	1.9571204e-05
144	0x00000000	0.0
145	0x00000000	0.0
146	0x00000000	0.0
147	0x3d2c2a7d	0.042032707
148	0x00000000	0.0
149	0x3d6e4e5b	0.058180194
150	0x3d7ff2d3	0.062487435
151	0x00000000	0.0
152	0x00000000	0.0
153	0x00000000	0.0
154	0x3d44d6bd	0.048056353
155	0x3e0ed357	0.13947807
156	0x3d04bc65	0.03240623
157	0x00000000	0.0
158	0x3e025b40	0.12730122
159	0x00000000	0.0
160	0x3e6ca7ff	0.2311096
161	0x00000000	0.0
162	0x3e08b98d	0.13352032
163	0x00000000	0.0
164	0x00000000	0.0
165	0x00000000	0.0
166	0x3e6f6ede	0.23382136
167	0x00000000	0.0
168	0x00000000	0.0
169	0x00000000	0.0
170	0x3d79962e	0.060934238
171	0x3b0bbe60	0.002132319
172	0x3cb0a548	0.021563187
173	0x3d4bb5c4	0.049733892
174	0x3b941a3d	0.0045197294
175	0x3cc6bb43	0.024259215
176	0x00000000	0.0
177	0x00000000	0.0
178	0x3da09e9e	0.07842754
179	0x3e362808	0.17788708
180	0x3bd0088a	0.006348674
181	0x3ce20581	0.027590515
182	0x3db521ba	0.088443235
183	0x00000000	0.0
184	0x3e8f48fe	0.27985376
185	0x00000000	0.0
186	0x3e1312dd	0.14362665
187	0x3cf1301c	0.029441886
188	0x00000000	0.0
189	0x3ca5c3df	0.020235
190	0x3e3348ae	0.17508194
191	0x3d748420	0.059696317
192	0x00000000	0.0
193	0x00000000	0.0
194	0x3d9b3fb3	0.07580509
195	0x00000000	0.0
196	0x3b096020	0.0020961836
197	0x3d9d5242	0.07681705
198	0x3d3553c2	0.04426933
199	0x00000000	0.0
200	0x00000000	0.0
201	0x00000000	0.0
202	0x3de37611	0.11106504
203	0x00000000	0.0
204	0x3cd07649	0.025447028
205	0x3dd323c3	0.103095554
206	0x3d40fa0d	0.047113467
207	0x00000000	0.0
208	0x00000000	0.0
209	0x00000000	0.0
210	0x3d0ff8e9	0.03514949
211	0x3ca7082c	0.020389639
212	0x00000000	0.0
213	0x00000000	0.0
214	0x00000000	0.0
215	0x3d655dfc	0.055997834
216	0x00000000	0.0
217	0x00000000	0.0
218	0x00000000	0.0
219	0x3ccefe8a	0.025267858
220	0x00000000	0.0
221	0x3d29a7a7	0.04141965
222	0x3d2957fc	0.041343674
223	0x00000000	0.0
224	0x00000000	0.0
225	0x00000000	0.0
226	0x3b883d8a	0.0041577267
227	0x3e3ef97f	0.18649863
228	0x00000000	0.0
229	0x00000000	0.0
230	0x3e1abcdb	0.15111105
231	0x00000000	0.0
232	0x3e5ebf11	0.21752574
233	0x00000000	0.0
234	0x3dbf9ea0	0.09356427
235	0x00000000	0.0
236	0x00000000	0.0
237	0x00000000	0.0
238	0x3e73d700	0.23812485
239	0x00000000	0.0
240	0x3d5e9ca5	0.054348607
241	0x00000000	0.0
242	0x3d4347d2	0.047675915
243	0x3d15c387	0.036563423
244	0x00000000	0.0
245	0x3cfec2c8	0.031098738
246	0x3cc463c8	0.02397336
247	0x3d209e24	0.039213315
248	0x3cfaf71c	0.030635409
249	0x00000000	0.0
250	0x3d8d4f69	0.06899912
251	0x3e058e20	0.13042498
252	0x3d33cc99	0.04389629
253	0x3c3d2c1e	0.011546163
254	0x3e253f1a	0.16137353
255	0x3bbe4efd	0.005807756

mlp2.bias f4 [24]
0	0xbd011103	-0.031510364
1	0xbd3559ae	-0.04427498
2	0xbd7e5ca2	-0.06210006
3	0xbc0be81c	-0.008539226
4	0xbd777508	-0.060414344
5	0x3cac6326	0.021043371
6	0xbda55fe0	-0.08074927
7	0x3e094d2d	0.13408346
8	0xbbd7dba8	-0.0065874644
9	0xbcd93c0a	-0.026517887
10	0x3bebc0c9	0.0071946126
11	0x3cfac523	0.03061158
12	0x3c0a85cc	0.008454751
13	0x3a7f11a6	0.0009730108
14	0xbcd46800	-0.025928497
15	0x3b22a888	0.002481969
16	0xbca47c7b	-0.020078888
17	0xbd0df5a9	-0.034658108
18	0xbd8e0c10	-0.069358945
19	0x3dadd904	0.08488658
20	0x3d41e522	0.04733766
21	0x3b7ced36	0.0038593537
22	0xbc3145f0	-0.010819897
23	0x3ddf8a0e	0.10915004

bn2.weight f4 [72]
0	0x3ed73ddc	0.42039382
1	0x3edddcf9	0.4333265
2	0x3ed04923	0.406808
3	0x3ef37cbf	0.4755611
4	0x3edc50bc	0.43030345
5	0x3ee27ea2	0.44237238
6	0x3eedd17d	0.4644889
7	0x3ed3ea9b	0.41389927
8	0x3edbafac	0.42907465
9	0x3ecf26e2	0.40459353
10	0x3ee22fbc	0.44177043
11	0x3f000000	0.5
12	0x3ed56b24	0.41683304
13	0x3ed0aec5	0.4075834
14	0x3ef61051	0.48059323
15	0x3ed2c50f	0.4116597
16	0x3f000000	0.5
17	0x3ed08745	0.40728202
18	0x3f000000	0.5
19	0x3ed51e18	0.41624522
20	0x3ed8923b	0.42299065
21	0x3ed09064	0.4073516
22	0x3f000000	0.5
23	0x3ee19b2e	0.44063705
24	0x3ee6dfc6	0.450926
25	0x3ede2087	0.4338419
26	0x3eefa0d1	0.4680238
27	0x3ee6d186	0.4508173
28	0x3ee65ae5	0.44991222
29	0x3ee8866e	0.45415062
30	0x3eee5a34	0.46553195
31	0x3ed8b7ff	0.42327878
32	0x3ee1def6	0.44115418
33	0x3ecf801a	0.4052742
34	0x3ef37777	0.47552082
35	0x3f000000	0.5
36	0x3edbc6ae	0.42925018
37	0x3ef0a347	0.4699957
38	0x3ef82495	0.4846541
39	0x3ed22c3f	0.41049382
40	0x3f000000	0.5
41	0x3ed7ec07	0.42172262
42	0x3f000000	0.5
43	0x3ef2d6e8	0.47429585
44	0x3ed64b21	0.41854194
45	0x3ed1f9a0	0.4101076
46	0x3f000000	0.5
47	0x3ee5aac6	0.44856852
48	0x3ecc6813	0.39923152
49	0x3ed3baa6	0.4135334
50	0x3ee498c0	0.4464779
51	0x3ee5cc75	0.4488255
52	0x3ed7c570	0.4214282
53	0x3ee9f1c5	0.45692268
54	0x3eef176a	0.4669755
55	0x3ecf96dc	0.40544784
56	0x3ed6ec63	0.41977224
57	0x3ecee171	0.40406373
58	0x3ef4106a	0.47668773
59	0x3ed48088	0.41504312
60	0x3eda30a0	0.42615223
61	0x3eed8541	0.46390727
62	0x3eeca54c	0.46219862
63	0x3ed02f61	0.40661147
64	0x3edb746b	0.42862257
65	0x3ed68d95	0.41904894
66	0x3eea23e5	0.4573051
67	0x3eea3ce3	0.45749578
68	0x3ed1ae15	0.40953127
69	0x3ed3834b	0.41311106
70	0x3ed5afe5	0.4173576
71	0x3ee34e03	0.44395456

bn2.bias f4 [72]
0	0x3b4dc8da	0.0031400234
1	0xbbb01c9a	-0.0053745033
2	0x3c4fca46	0.012682503
3	0xbc645503	-0.013936284
4	0x3ad4a045	0.001622208
5	0xbc5d3d3b	-0.013503368
6	0xbc46272a	-0.012094298
7	0x3c0abf1b	0.008468415
8	0xbb9ccc60	-0.0047851056
9	0x3c0eccc5	0.008715813
10	0xbc5a1cb9	-0.013312512
11	0xbcdb952d	-0.026804531
12	0x3b4b9f86	0.0031070425
13	0x3ad198d5	0.0015990982
14	0xbc6bb35b	-0.014386023
15	0xbb061e97	-0.002046501
16	0xbd233cbf	-0.039852854
17	0x3c3377e1	0.010953874
18	0xbcb3b2e7	-0.021935893
19	0x3b2217ed	0.00247335
20	0x3c184c8b	0.009295593
21	0x3c487c9f	0.012236743
22	0xbd324072	-0.04351849
23	0xbae7da3e	-0.0017688943
24	0xbb83280e	-0.0040025776
25	0x3b9718cc	0.0046111103
26	0xbb3585f5	-0.0027698253
27	0xbb85cda8	-0.004083354
28	0xbbe8d204	-0.007105114
29	0xbb6a351d	-0.0035737224
30	0xbc497e2a	-0.012298146
31	0x3c339422	0.010960611
32	0x3bf1d188	0.0073797144
33	0x3cb5a4cb	0.022173306
34	0xbca18b5d	-0.019719774
35	0xbd0888e0	-0.03333366
36	0x3ba75f5d	0.0051078037
37	0xbcbf85bb	-0.023379197
38	0xbcbd2df9	-0.02309321
39	0xbba45f39	-0.0050162342
40	0xbd136aab	-0.0359904
41	0xbbd31bb5	-0.006442512
42	0xbcd00ef8	-0.025397763
43	0xbc3706de	-0.011171071
44	0x3c85d2d8	0.01633589
45	0x3b9820b3	0.00464257
46	0xbd1aa835	-0.03775807
47	0xbc34ea39	-0.011042171
48	0x3c9a95a0	0.018870175
49	0xbbc9459e	-0.006142332
50	0xbc329606	-0.010900026
51	0xbc2652d6	-0.010151586
52	0xbb8d6bb4	-0.0043158177
53	0xbc0ca3f3	-0.00858401
54	0xbc211b7d	-0.009833214
55	0x3bc560d5	0.006023506
56	0xbc9a5bf1	-0.01884267
57	0x3c278f23	0.010226998
58	0xbc267057	-0.01015862
59	0x3c5b336f	0.013378962
60	0x3b2df9be	0.0026546563
61	0xbc8281fe	-0.015931126
62	0xbc8dc2c1	-0.01730478
63	0x3c44299d	0.011972812
64	0xbb839612	-0.0040156925
65	0x3b5bfc33	0.003356707
66	0xbc682f03	-0.014171365
67	0xbc9de1f1	-0.019272776
68	0x3c2c2cf3	0.010508764
69	0x3ad34fa1	0.0016121754
70	0x3a3f26e5	0.00072918675
71	0xbc3f2eb9	-0.011668854

bn2.running_mean f4 [72]
0	0xbd8fce4b	-0.07021769
1	0x3a702927	0.00091614056
2	0x3e8b33c0	0.2718792
3	0x3d34b3f4	0.04411693
4	0xbdcdcbab	-0.10048612
5	0x3ddcb0fd	0.10775945
6	0xbe138c4f	-0.14408992
7	0xbdedeead	-0.116177894
8	0xbd16cd67	-0.03681698
9	0xbe756ae1	-0.23966552
10	0x3f0f5e05	0.5600284
11	0xbeb5dfab	-0.35522208
12	0x3f0edc0f	0.5580453
13	0x3efa6466	0.48904723
14	0xbe757606	-0.23970804
15	0xbdd9e9b8	-0.106402814
16	0xbeb7a098	-0.3586471
17	0x3ecda2b6	0.401632
18	0xbea8d183	-0.32972345
19	0x3eda1805	0.4259645
20	0x3eaf21d3	0.34205493
21	0x3e7e9d03	0.24864583
22	0xbeb5c8a9	-0.35504654
23	0x3daf952f	0.085733764
24	0xbe0239d8	-0.12717378
25	0xbd8f5a5a	-0.06999655
26	0x3d9a8f45	0.07546858
27	0x3cd905d7	0.026492042
28	0xbde933bf	-0.11386823
29	0x3cce9065	0.025215337
30	0xbe184e38	-0.14873588
31	0xbe11c7ee	-0.14236423
32	0xbd2c601f	-0.042083856
33	0xbe76410a	-0.24048248
34	0x3e982cda	0.2972172
35	0xbeb60ca5	-0.35556522
36	0x3e92d150	0.28675318
37	0x3e8b29fa	0.27180463
38	0xbe76f8fb	-0.24118416
39	0xbddd5666	-0.10807495
40	0xbeb7cae3	-0.35896978
41	0x3e49d31e	0.19709441
42	0xbea90600	-0.3301239
43	0x3e3760fd	0.17908092
44	0x3e88507f	0.26623914
45	0x3e47ba73	0.19504718
46	0xbeb5e515	-0.35526338
47	0xba820ac2	-0.0009921419
48	0xbea54eae	-0.3228659
49	0xbe52f4c8	-0.20601189
50	0xbc1cf9b3	-0.009581017
51	0x3c99c985	0.01877285
52	0xbe32a56c	-0.17445916
53	0xbd0626f2	-0.032751985
54	0xbe555f4a	-0.20837131
55	0xbe92a78d	-0.28643456
56	0xbd5ad83a	-0.053428866
57	0xbe9936ae	-0.2992453
58	0x3e95d50c	0.29264104
59	0xbf2f290c	-0.6842201
60	0x3e90648f	0.2820172
61	0x3e88269d	0.2659196
62	0xbed80831	-0.4219375
63	0xbdf979ec	-0.12181458
64	0xbf314aa2	-0.69254506
65	0x3e3384e8	0.17531168
66	0xbf1c35a7	-0.61019367
67	0x3e1223b0	0.14271426
68	0x3e880ffb	0.26574692
69	0x3e45feee	0.19335529
70	0xbf2a3d62	-0.6649991
71	0xbdafdaee	-0.085866794

bn2.running_var f4 [72]
0	0x3e860fb6	0.26183861
1	0x3e8f120a	0.2794345
2	0x3eee57a5	0.46551242
3	0x3e0c1582	0.1368008
4	0x3e0f27db	0.13980047
5	0x3e89667c	0.26836002
6	0x3dedf031	0.116180785
7	0x3e3d5c90	0.18492341
8	0x3dde5eaa	0.108578995
9	0x3d8e981d	0.06962607
10	0x3ea3e197	0.3200805
11	0x3d63fc4c	0.05566053
12	0x3eaa3f0e	0.33251232
13	0x3e959f75	0.2922322
14	0x3dcd7253	0.10031571
15	0x3da56b24	0.08077076
16	0x3d5d130f	0.053973254
17	0x3eb821b4	0.35963213
18	0x3d8418ac	0.06450018
19	0x3ee7a28f	0.4524121
20	0x3df56c46	0.11983542
21	0x3e040e47	0.12896071
22	0x3d58a98f	0.05289608
23	0x3e95be35	0.2924668
24	0x3e2288d5	0.1587251
25	0x3e24bf26	0.16088542
26	0x3e300590	0.17189622
27	0x3df01a21	0.11723734
28	0x3df4776f	0.11936843
29	0x3e1b5fce	0.15173265
30	0x3ddfe5e2	0.109325185
31	0x3e1018d1	0.14071967
32	0x3dd0d424	0.101967126
33	0x3d8ba4ac	0.06818518
34	0x3db2d9b4	0.0873293
35	0x3d612d2e	0.054974727
36	0x3db55560	0.088541746
37	0x3dbda53e	0.09260033
38	0x3dc87d2d	0.097895004
39	0x3da07af3	0.07835951
40	0x3d5a6f44	0.053328767
41	0x3e0217e1	0.12704422
42	0x3d829524	0.063761026
43	0x3e11cbfe	0.14237973
44	0x3d81bd75	0.06334964
45	0x3da6e13f	0.08148431
46	0x3d56f54b	0.052480023
47	0x3e250f53	0.16119127
48	0x3ed7e30c	0.4216541
49	0x3eb45a4d	0.35225144
50	0x3ea49113	0.32141933
51	0x3e01868a	0.12648979
52	0x3e3e9420	0.18611193
53	0x3e729c28	0.23692381
54	0x3e2be2b2	0.16785696
55	0x3ea0a1b0	0.31373358
56	0x3dea371d	0.11436293
57	0x3de9b8b7	0.11412185
58	0x3dc49206	0.09598164
59	0x3e93334d	0.28750077
60	0x3dc852b9	0.09781403
61	0x3dd506e0	0.10401702
62	0x3e841cb8	0.2580316
63	0x3dbc7930	0.09202802
64	0x3e92cb0e	0.28670543
65	0x3e2b1f30	0.16711116
66	0x3e8b0745	0.27153984
67	0x3e5725df	0.2101054
68	0x3d8397aa	0.06425412
69	0x3dacac38	0.084312856
70	0x3e879171	0.2647815
71	0x3e929a4d	0.28633347

mlp3.weight f4 [24, 72]
0	0x00000000	0.0
1	0x3dd01635	0.10160486
2	0x3be6cdc1	0.0070435707
3	0x3d43a6a2	0.047766335
4	0x3d45c3e9	0.048282538
5	0x3d19c6bd	0.037543047
6	0x3d46733a	0.048449732
7	0x3d680ed6	0.056654774
8	0x00000000	0.0
9	0x3c1e053e	0.0096448045
10	0x3db44943	0.08803036
11	0x3aed7ee7	0.0018119485
12	0x3d882ad8	0.06648797
13	0x3bdc9235	0.0067312964
14	0x3dbafc1d	0.09130118
15	0x3aec2aef	0.0018018166
16	0x00000000	0.0
17	0x3dd5b222	0.10434367
18	0x00000000	0.0
19	0x3d56a772	0.052405782
20	0x3d351ee1	0.0442189
21	0x3ca09648	0.01960291
22	0x3d403915	0.046929438
23	0x00000000	0.0
24	0x3db5a238	0.088688314
25	0x3d903c5c	0.07042763
26	0x3e022848	0.12710679
27	0x3dac512e	0.08413921
28	0x3d5558da	0.05208669
29	0x3dbf66dc	0.09345791
30	0x3e204630	0.15651774
31	0x3dcb8a45	0.09938482
32	0x3dd440e9	0.10363943
33	0x3de66b57	0.11250942
34	0x3e1b4d45	0.15166195
35	0x3e05420f	0.1301348
36	0x3da68e19	0.08132572
37	0x3e1d66ea	0.1537129
38	0x3d84089b	0.06446954
39	0x3e151fbb	0.14562885
40	0x3e10b72c	0.14132375
41	0x3d9e3b32	0.07726134
42	0x3db54822	0.08851649
43	0x3d81c8c1	0.06337119
44	0x3e4e1ab0	0.20127368
45	0x3dbf6631	0.09345663
46	0x3de096fb	0.10966297
47	0x3d59da04	0.05318643
48	0x00000000	0.0
49	0x00000000	0.0
50	0x00000000	0.0
51	0x00000000	0.0
52	0x00000000	0.0
53	0x00000000	0.0
54	0x00000000	0.0
55	0x00000000	0.0
56	0x00000000	0.0
57	0x00000000	0.0
58	0x00000000	0.0
59	0x00000000	0.0
60	0x00000000	0.0
61	0x00000000	0.0
62	0x00000000	0.0
63	0x00000000	0.0
64	0x00000000	0.0
65	0x00000000	0.0
66	0x00000000	0.0
67	0x00000000	0.0
68	0x00000000	0.0
69	0x00000000	0.0
70	0x00000000	0.0
71	0x00000000	0.0
72	0x3d50b256	0.050951324
73	0x3d98eb9c	0.07466814
74	0x00000000	0.0
75	0x3d85f235	0.06540338
76	0x3d0b7074	0.03404279
77	0x3d75548f	0.059895094
78	0x3d1f5772	0.038901754
79	0x3d430f53	0.047622036
80	0x3d30ba1b	0.043146234
81	0x3ca4008a	0.020019788
82	0x3d91242e	0.07086979
83	0x3cc4cf9a	0.024024773
84	0x3d98a5cb	0.074534975
85	0x00000000	0.0
86	0x3baad71c	0.0052136313
87	0x3da10fff	0.07864379
88	0x3cb0e5e5	0.021593997
89	0x3d67a9fa	0.056558587
90	0x00000000	0.0
91	0x3d954a06	0.072895095
92	0x00000000	0.0
93	0x3d9a6a81	0.07539845
94	0x00000000	0.0
95	0x3d416cca	0.04722289
96	0x3db1fd22	0.086908594
97	0x3dfce7d5	0.12348906
98	0x3d01d825	0.031700272
99	0x3d272645	0.04080798
100	0x3dbe20f6	0.092836305
101	0x3e0158d4	0.12631541
102	0x3dc29d65	0.09502677
103	0x3dd91abe	0.10600804
104	0x3d5e4893	0.05426843
105	0x3d82569a	0.06364174
106	0x3d8ef477	0.06980222
107	0x3d6cfec5	0.057860155
108	0x3de3b943	0.1111932
109	0x3e0d74fd	0.13814159
110	0x3cd5820d	0.02606299
111	0x3d19a39b	0.037509542
112	0x3db30d3f	0.08742761
113	0x3d805944	0.06267026
114	0x3d0b4161	0.033997897
115	0x3cbe332b	0.023217758
116	0x3e101406	0.14070138
117	0x3d647686	0.055777095
118	0x3df31a21	0.11870218
119	0x3d0a62c1	0.033785585
120	0x00000000	0.0
121	0x00000000	0.0
122	0x00000000	0.0
123	0x00000000	0.0
124	0x00000000	0.0
125	0x00000000	0.0
126	0x00000000	0.0
127	0x00000000	0.0
128	0x00000000	0.0
129	0x00000000	0.0
130	0x00000000	0.0
131	0x00000000	0.0
132	0x00000000	0.0
133	0x00000000	0.0
134	0x00000000	0.0
135	0x00000000	0.0
136	0x00000000	0.0
137	0x00000000	0.0
138	0x00000000	0.0
139	0x00000000	0.0
140	0x00000000	0.0
141	0x00000000	0.0
142	0x00000000	0.0
143	0x00000000	0.0
144	0x00000000	0.0
145	0x3d29f4f4	0.04149337
146	0x3d858961	0.065203436
147	0x3d8ce807	0.06880193
148	0x3d25cd67	0.04047909
149	0x3b6e00c2	0.003631637
150	0x3cb337be	0.021877166
151	0x3ccc4c4c	0.024938725
152	0x00000000	0.0
153	0x3d8273c6	0.06369738
154	0x3a29da91	0.00064794073
155	0x00000000	0.0
156	0x3d6839bf	0.056695696
157	0x00000000	0.0
158	0x3d5c5a84	0.05379726
159	0x00000000	0.0
160	0x3bd05065	0.00635724
161	0x3da5c643	0.08094456
162	0x3d75c25f	0.05999982
163	0x00000000	0.0
164	0x00000000	0.0
165	0x3d8e58d2	0.06950535
166	0x00000000	0.0
167	0x00000000	0.0
168	0x3e000862	0.12503198
169	0x3db49529	0.088175125
170	0x3e1011ae	0.14069244
171	0x3dcc6317	0.099798374
172	0x3dc58d21	0.09646059
173	0x3e1a8ee4	0.15093571
174	0x3dbd5cc0	0.09246206
175	0x3dc75d1f	0.09734558
176	0x3d427ee2	0.047484286
177	0x3d849a90	0.06474793
178	0x3e07b028	0.13250792
179	0x3dcff4f3	0.10154142
180	0x3df90495	0.12159077
181	0x3d95389d	0.07286189
182	0x3e02b01a	0.1276249
183	0x3dca7c76	0.0988702
184	0x3da1680e	0.07881175
185	0x3d5a7fcd	0.053344537
186	0x3d11b54f	0.0355733
187	0x3dd5a2db	0.10431453
188	0x3e318464	0.1733566
189	0x3c092297	0.008370063
190	0x3d872a83	0.06599905
191	0x3da80f75	0.08206073
192	0x3dffd203	0.124912284
193	0x3e546776	0.20742592
194	0x3e11065d	0.14162584
195	0x3e8f27a4	0.2795993
196	0x3e48ab99	0.1959671
197	0x3e25de85	0.16198166
198	0x3e0e6667	0.13906251
199	0x3e0642fd	0.13111492
200	0x3e3367fa	0.17520133
201	0x3e653fb9	0.2238759
202	0x3e2a6a5a	0.16642132
203	0x3e4ba254	0.19886142
204	0x3e0f0cc4	0.13969713
205	0x3e1a56e4	0.15072209
206	0x3e27e234	0.16394883
207	0x3e7078e6	0.23483619
208	0x3e5487b1	0.20754887
209	0x3e503cff	0.20335768
210	0x3e06defb	0.13170998
211	0x3dfbc308	0.12293059
212	0x3e6d5212	0.23175839
213	0x3d9f80dd	0.077882506
214	0x3e052639	0.13002862
215	0x3ddf02f6	0.10889237
216	0x3d290afd	0.041270245
217	0x3da9eb5a	0.08296843
218	0x3c9f4dba	0.019446243
219	0x3d4f65b1	0.05063409
220	0x3d98b82c	0.07457003
221	0x3d06372f	0.03276747
222	0x00000000	0.0
223	0x3d58867e	0.052862637
224	0x3d3c090f	0.045907076
225	0x3d9f3b3a	0.077749684
226	0x3ce4761c	0.02788835
227	0x3a10c6aa	0.00055227673
228	0x00000000	0.0
229	0x3d1481bd	0.03625654
230	0x3dd768f9	0.10518069
231	0x3ccb2ccb	0.024801632
232	0x3da1f8c4	0.079087764
233	0x3db86ff6	0.0900573
234	0x3a67ee70	0.00088474806
235	0x3d908257	0.0705611
236	0x3d0191b3	0.03163309
237	0x3da2a0db	0.07940837
238	0x3d9a935f	0.0754764
239	0x3da55f69	0.08074839
240	0x3dcaaaf7	0.0989589
241	0x3e2c4e94	0.1682685
242	0x3db8315f	0.08993792
243	0x3e14882a	0.14505067
244	0x3e06b6f6	0.13155732
245	0x3e0c28dd	0.13687463
246	0x3d6056fd	0.05477046
247	0x3dcea436	0.100899145
248	0x3de7969d	0.11308024
249	0x3e363ac8	0.17795861
250	0x3dda202a	0.10650666
251	0x3e224390	0.15846086
252	0x3e134d60	0.14384985
253	0x3e03110f	0.12799476
254	0x3ddb1fb8	0.10699409
255	0x3e14e43a	0.14540187

mlp3.bias f4 [24]
0	0xbd9d7eb9	-0.07690186
1	0x3e75ea2c	0.2401511
2	0x3e50a26b	0.20374458
3	0x3e52a776	0.20571694
4	0xbb82fc98	-0.0039973967
5	0x3d539906	0.051659606
6	0x3d8d1546	0.06888823
7	0x3db1c566	0.08680229
8	0x3e20f0ab	0.15716808
9	0x3e460de8	0.19341242
10	0xbdd0fea7	-0.10204821
11	0x3e6595cb	0.22420423
12	0x3e64ef5c	0.22356933
13	0x3da9c5bc	0.08289668
14	0x3d8254d8	0.06363839
15	0x3d82ba45	0.06383184
16	0x3e000b0e	0.12504217
17	0x3e022309	0.12708677
18	0x3e566f1e	0.20940825
19	0xbd311f42	-0.0432427
20	0x3e618e41	0.22026922
21	0x3e288799	0.16457976
22	0x3e8820a7	0.26587412
23	0x3e4acf69	0.19805683

bn3.weight f4 [72]
0	0x3ee590da	0.44837075
1	0x3eed47b0	0.46343756
2	0x3ee6df62	0.45092303
3	0x3ee6aeab	0.45055136
4	0x3ee88d2e	0.45420212
5	0x3eec7ac8	0.46187425
6	0x3ee4099b	0.44538578
7	0x3eeb1aa6	0.4591877
8	0x3ee13bb6	0.43990868
9	0x3ee9a411	0.45632985
10	0x3eeabb0d	0.45845833
11	0x3ee8ac21	0.45443824
12	0x3ee824b9	0.45340517
13	0x3ee82416	0.4534003
14	0x3ef1da95	0.47237077
15	0x3ee68712	0.45024925
16	0x3ee4c50a	0.4468158
17	0x3eedc3c3	0.46438417
18	0x3ee225e5	0.44169536
19	0x3ee49136	0.44642037
20	0x3ee8f0e5	0.45496288
21	0x3ee952eb	0.45571074
22	0x3ee927c4	0.4553815
23	0x3ee0c204	0.43898022
24	0x3ef64b1a	0.48104173
25	0x3ef9e89f	0.48810288
26	0x3ef487af	0.47759768
27	0x3f000000	0.5
28	0x3ef272cb	0.47353205
29	0x3f000000	0.5
30	0x3eef770b	0.4677051
31	0x3eeef32f	0.4666991
32	0x3ee15ca1	0.44015983
33	0x3efb335b	0.4906262
34	0x3ef41dd0	0.47678995
35	0x3efed590	0.4977231
36	0x3f000000	0.5
37	0x3f000000	0.5
38	0x3ef10861	0.47076705
39	0x3efea986	0.4973871
40	0x3ef36119	0.47535017
41	0x3ef7047b	0.48245606
42	0x3eeb9603	0.46012887
43	0x3ee95c1e	0.45578092
44	0x3f000000	0.5
45	0x3ee39e30	0.44456625
46	0x3ef13aae	0.47115082
47	0x3edf45cf	0.43607947
48	0x3ef7ffcf	0.48437354
49	0x3eeb36ee	0.45940346
50	0x3ef5af31	0.47985223
51	0x3f000000	0.5
52	0x3ef9d195	0.4879271
53	0x3f000000	0.5
54	0x3eecbecd	0.4623932
55	0x3ee132a2	0.43983942
56	0x3edeab26	0.4348995
57	0x3f000000	0.5
58	0x3ee84b5e	0.4537
59	0x3ee47b1c	0.44625175
60	0x3ef3c0fc	0.47608173
61	0x3f000000	0.5
62	0x3ef3a43b	0.47586235
63	0x3f000000	0.5
64	0x3ef59cbb	0.47971138
65	0x3ee5a38b	0.44851336
66	0x3ef0b706	0.47014636
67	0x3ee5c3f4	0.44876063
68	0x3f000000	0.5
69	0x3ed976f3	0.42473564
70	0x3ee93be5	0.45553508
71	0x3ed7886e	0.42096275

bn3.bias f4 [72]
0	0x3e04c9b1	0.12967564
1	0x3e0148ea	0.12625471
2	0x3e0574dd	0.13032861
3	0x3df64828	0.120254815
4	0x3e0792b0	0.1323955
5	0x3e0d09eb	0.13773315
6	0x3e07986c	0.13241738
7	0x3e06e5fd	0.13173671
8	0x3e0a0641	0.13478948
9	0x3e07321c	0.13202709
10	0x3e028733	0.12746887
11	0x3de7f689	0.1132632
12	0x3e00fa6f	0.12595533
13	0x3df5936a	0.119910076
14	0x3dfd6ef3	0.123746775
15	0x3e08b4db	0.13350241
16	0x3e07cc41	0.1326151
17	0x3df8c396	0.1214668
18	0x3e09a573	0.1344202
19	0x3e062a0b	0.13101976
20	0x3dffeae0	0.12495971
21	0x3e00d8aa	0.12582651
22	0x3dfcb121	0.12338472
23	0x3e0c9f13	0.13732557
24	0x3e0a9f40	0.13537312
25	0x3e0a1b09	0.13486876
26	0x3e009e83	0.12560467
27	0x3e03510a	0.12823883
28	0x3dfa46c4	0.12220529
29	0x3e0d4bb9	0.13798417
30	0x3e0728b4	0.13199121
31	0x3e0a2b99	0.13493194
32	0x3dfded90	0.12398827
33	0x3e0cd83d	0.13754363
34	0x3e04a62b	0.12954013
35	0x3e080749	0.13284029
36	0x3e0764cb	0.13222043
37	0x3e057620	0.13033342
38	0x3e0dc1fb	0.13843529
39	0x3e0ab14f	0.135442
40	0x3e03e081	0.1287861
41	0x3e08ca81	0.13358499
42	0x3e02d726	0.12777385
43	0x3e098faa	0.1343371
44	0x3e08e554	0.13368732
45	0x3e0179f2	0.12644175
46	0x3e0a6186	0.13513765
47	0x3e06ef95	0.13177331
48	0x3df8d1e7	0.12149411
49	0x3df14219	0.11780185
50	0x3dfc0bc5	0.12306932
51	0x3e020802	0.12698367
52	0x3e0571e7	0.13031732
53	0x3e0ac016	0.13549837
54	0x3ddf4e07	0.109035544
55	0x3dee4750	0.116346955
56	0x3dfae354	0.12250391
57	0x3e029841	0.12753393
58	0x3e01882b	0.126496
59	0x3df593e1	0.11991096
60	0x3e06ed98	0.13176572
61	0x3e02e16c	0.12781304
62	0x3dfac4c1	0.12244559
63	0x3dfb114b	0.12259158
64	0x3dfa8350	0.12232077
65	0x3df2be5e	0.11852716
66	0x3ded7e6a	0.11596377
67	0x3ded76fb	0.11594959
68	0x3e00816e	0.12549374
69	0x3dea15a2	0.114299074
70	0x3df2ae93	0.11849704
71	0x3debcac1	0.115132816

bn3.running_mean f4 [72]
0	0x3e2ed1da	0.1707224
1	0x3e37c2e6	0.17945442
2	0x3e2ea21e	0.1705403
3	0x3e3de076	0.18542656
4	0x3e32e7a6	0.1747118
5	0x3e412dc4	0.18865114
6	0x3e20ab9f	0.15690468
7	0x3ef9961f	0.48747346
8	0x3e410870	0.18850875
9	0x3e381c91	0.17979647
10	0x3e4bcbe4	0.19901997
11	0x3e49a831	0.19693066
12	0x3e3475cc	0.17623061
13	0x3e3ac420	0.18238878
14	0x3e500bdf	0.20317028
15	0x3e31d049	0.1736461
16	0x3e42e252	0.19031647
17	0x3e3a1cc4	0.18175036
18	0x3e34e99c	0.1766724
19	0x3ebb1314	0.36537993
20	0x3e38ef4c	0.18060035
21	0x3e97503d	0.29553404
22	0x3e35e8bc	0.17764562
23	0x3f137666	0.57602537
24	0xbda60b5f	-0.081076376
25	0xbda41a06	-0.08012776
26	0xbd9f3461	-0.07773662
27	0xbd9f8868	-0.07789689
28	0xbda47863	-0.080307744
29	0xbda3427d	-0.07971666
30	0xbda106bf	-0.07862615
31	0xbcf45d5f	-0.029829679
32	0xbd9dd0b9	-0.07705826
33	0xbda5419c	-0.080691546
34	0xbd983070	-0.07431114
35	0xbda496a3	-0.08036544
36	0xbda740ee	-0.08166681
37	0xbda298b5	-0.07939283
38	0xbd9c0f84	-0.07620147
39	0xbdabfc5a	-0.083977416
40	0xbd9ff60b	-0.07810601
41	0xbd9e98ee	-0.07744013
42	0xbda12ffd	-0.07870481
43	0xbd1ca25d	-0.03824078
44	0xbda5781e	-0.08079551
45	0xbd758006	-0.059936546
46	0xbd9d2df2	-0.07674779
47	0xbc6793fd	-0.014134404
48	0xbead08a3	-0.33795652
49	0xbeb950a3	-0.36194333
50	0xbebc9021	-0.36828712
51	0xbea7907c	-0.3272742
52	0xbebfa6e3	-0.37432012
53	0xbe9bc7fa	-0.30426008
54	0xbebea405	-0.37234512
55	0xbeebdcd7	-0.46066925
56	0xbea6d80e	-0.32586712
57	0xbeaf50b0	-0.34241247
58	0xbea58f69	-0.32335976
59	0xbe99d121	-0.30042365
60	0xbe9cb8a8	-0.30609632
61	0xbea172e0	-0.31532955
62	0xbebbebbb	-0.36703286
63	0xbe9e4a4a	-0.30916053
64	0xbeafcf47	-0.34337828
65	0xbeb3c6b8	-0.35112548
66	0xbec393a8	-0.3819859
67	0xbec43a6f	-0.3832583
68	0xbe8ad90b	-0.27118716
69	0xbed55778	-0.41668296
70	0xbea40ec5	-0.32042518
71	0xbf0c6a26	-0.5484947

bn3.running_var f4 [72]
0	0x3f49ed17	0.78877395
1	0x3f4f232c	0.80913043
2	0x3f458e0b	0.77169865
3	0x3f52bf33	0.82322997
4	0x3f4a95c3	0.7913477
5	0x3f57d911	0.8431559
6	0x3f3ac343	0.72954196
7	0x3fd0a4bb	1.6300272
8	0x3f5272fa	0.8220669
9	0x3f514676	0.8174814
10	0x3f587e0a	0.8456732
11	0x3f608313	0.87700003
12	0x3f4f12c5	0.80888015
13	0x3f52eac5	0.8238948
14	0x3f5dfbbb	0.86712235
15	0x3f4fbfee	0.81152236
16	0x3f551dc7	0.8324856
17	0x3f4d5323	0.8020498
18	0x3f4aa226	0.7915367
19	0x3f9e0565	1.2345396
20	0x3f549f27	0.8305535
21	0x3f8aec2a	1.0853322
22	0x3f4a23de	0.7896098
23	0x3fea3da5	1.8300062
24	0x3e433ba9	0.19065727
25	0x3e43d8ab	0.19125621
26	0x3e43adec	0.19109315
27	0x3e43ae84	0.19109541
28	0x3e42ea58	0.19034708
29	0x3e4363d6	0.19081053
30	0x3e422dd5	0.18962796
31	0x3e58f4ed	0.21187182
32	0x3e44ce02	0.1921921
33	0x3e43783b	0.19088833
34	0x3e44a3a8	0.19203055
35	0x3e440c9f	0.1914544
36	0x3e427a88	0.18992054
37	0x3e4393b7	0.19099317
38	0x3e4595f4	0.19295484
39	0x3e433211	0.19062068
40	0x3e4562a0	0.19275904
41	0x3e43f867	0.19137727
42	0x3e42e31a	0.19031945
43	0x3e553851	0.20822264
44	0x3e426e26	0.18987331
45	0x3e4e24cd	0.20131226
46	0x3e43b1dd	0.19110818
47	0x3e60d6fe	0.21957013
48	0x3f0c878e	0.5489434
49	0x3f18a97d	0.5963362
50	0x3f1f79dc	0.6229532
51	0x3f08fa78	0.53507185
52	0x3f212fcc	0.6296356
53	0x3ef8af10	0.48571062
54	0x3f21db35	0.6322511
55	0x3f8325a5	1.0245863
56	0x3f095e31	0.5365935
57	0x3f0ed610	0.55795383
58	0x3f096157	0.53664154
59	0x3ef3ab65	0.475917
60	0x3ef911ad	0.48646298
61	0x3f02184e	0.50818336
62	0x3f1fc7a1	0.62413985
63	0x3ef86acf	0.48518988
64	0x3f10f8ae	0.56629455
65	0x3f14f7c3	0.58190554
66	0x3f26a47a	0.6509472
67	0x3f483ff9	0.78222615
68	0x3ed9fe2e	0.42576736
69	0x3f49bb29	0.7880121
70	0x3f060a2c	0.5235927
71	0x3fae93b8	1.363883

mlp4.weight f4 [1, 72]
0	0x3de6ccf5	0.11269561
1	0x3dea6726	0.11445455
2	0x3e358095	0.17724831
3	0x3da84f30	0.08218229
4	0x3d0c6c49	0.034282956
5	0x3dc2a696	0.0950443
6	0x3d5bc40c	0.05365376
7	0x3c74c847	0.014940328
8	0x3dac30e0	0.0840776
9	0x3e3cbc63	0.18431239
10	0x3cb8e60e	0.022570636
11	0x3d9a5686	0.07536034
12	0x3e26667a	0.16250029
13	0x3d983380	0.07431698
14	0x3e1f5957	0.15561424
15	0x3e3f75c7	0.18697272
16	0x3e31870e	0.17336676
17	0x3cac0dc1	0.021002652
18	0x3db49b2e	0.08818661
19	0x3ce63afe	0.028104302
20	0x3e484bff	0.1956024
21	0x3dade58f	0.084910505
22	0x3dec0356	0.11524074
23	0x3e380a9c	0.17972797
24	0x00000000	0.0
25	0x3c548fa1	0.012973697
26	0x3e434006	0.19067392
27	0x00000000	0.0
28	0x3bde0e8d	0.006776637
29	0x00000000	0.0
30	0x3dd843ef	0.10559832
31	0x3d75b560	0.059987426
32	0x3c96ea2e	0.018422212
33	0x3df589e2	0.1198919
34	0x3bba50b9	0.0056858924
35	0x3a179404	0.0005782249
36	0x3e4dd903	0.20102315
37	0x3e00e30f	0.12586616
38	0x3dea9116	0.11453454
39	0x3e5f9b99	0.218367
40	0x3e152e18	0.14568365
41	0x3b8e6701	0.004345775
42	0x3e1331d9	0.14374484
43	0x3b454354	0.0030099945
44	0x3e5ebe84	0.21752363
45	0x3e0c0604	0.1367417
46	0x3de61d8a	0.11236103
47	0x3d9695ee	0.073528156
48	0x3b1325e0	0.0022452995
49	0x3c273da3	0.010207566
50	0x00000000	0.0
51	0x3cb18201	0.021668436
52	0x3d841cad	0.06450782
53	0x3c66ebb5	0.014094283
54	0x00000000	0.0
55	0x3d1ceff1	0.038314763
56	0x3c189f18	0.009315275
57	0x00000000	0.0
58	0x3c8a3501	0.016870977
59	0x3c8d8899	0.017277049
60	0x00000000	0.0
61	0x00000000	0.0
62	0x00000000	0.0
63	0x00000000	0.0
64	0x00000000	0.0
65	0x3d9da2d2	0.07697071
66	0x00000000	0.0
67	0x3cd232ab	0.025658926
68	0x00000000	0.0
69	0x00000000	0.0
70	0x3d0a7e33	0.03381176
71	0x00000000	0.0
