utility-model-selected/dim-3/utility-74.pt (torch, 23458 bytes, 17 tensors)

bn1.running_mean f4 [3]
0.5019971 0.5000743 0.49888787
00000000: e282 003f df04 003f 3b6e ff3e

bn1.running_var f4 [3]
0.056474797 0.05373016 0.05290013
00000000: 1e52 673d 2814 5c3d cfad 583d

mlp1.weight f4 [24, 3]
0.0 0.46320075 0.39957803 0.47086614 0.3631196 0.44072443 0.20222436 0.29945353
0.5 0.11134942 0.5 0.14405236 0.5 0.0 0.49593526 0.5
0.13927458 0.17596355 0.03416833 0.42012072 0.5 0.4085955 0.45150793 0.13417625
0.04965046 0.499485 0.0 0.46512827 0.45891425 0.008385053 0.33649635 0.32184732
0.38023314 0.07886082 0.0 0.47025537 0.2452456 0.3878232 0.13925542 0.4993363
0.4299981 0.5 0.498062 0.39750308 0.3808472 0.44338593 0.41987264 0.049597446
0.16000132 0.0 0.08269532 0.18345177 0.0762724 0.151495 0.38841444 0.4505839
0.07094615 0.2416111 0.3025398 0.22939557 0.4673253 0.3393321 0.23607945 0.4944333
0.10905838 0.42821807 0.23624739 0.5 0.44853753 0.20046124 0.41475406 0.4094281
00000000: 0000 0000 a628 ed3e 7e95 cc3e 5e15 f13e
00000010: d0ea b93e a2a6 e13e e713 4f3e f951 993e
00000020: 0000 003f 2a0b e43d 0000 003f 7682 133e
00000030: 0000 003f 0000 0000 3aeb fd3e 0000 003f
00000040: ff9d 0e3e ca2f 343e 17f4 0b3d 101a d73e
00000050: 0000 003f 6e33 d13e 0c2c e73e 8065 093e
00000060: 485e 4b3d 7fbc ff3e 0000 0000 4b25 ee3e
00000070: cff6 ea3e 7661 093c 4049 ac3e 2cc9 a43e
00000080: ebad c23e c881 a13d 0000 0000 50c5 f03e
00000090: aa21 7b3e c390 c63e f998 0e3e 02a9 ff3e
000000a0: b628 dc3e 0000 003f fc01 ff3e 8685 cb3e
000000b0: 67fe c23e 7b03 e33e 8cf9 d63e b126 4b3d
000000c0: 63d7 233e 0000 0000 2a5c a93d c8da 3b3e
000000d0: b434 9c3d 8121 1b3e 42de c63e efb2 e63e
000000e0: 374c 913d e668 773e 7fe6 9a3e ace6 6a3e
000000f0: 4345 ef3e f0bc ad3e d0be 713e 5d26 fd3e
00000100: 005a df3d 663f db3e d6ea 713e 0000 003f
00000110: b6a6 e53e b645 4d3e a55a d43e 8fa0 d13e

mlp1.bias f4 [24]
-0.2637041 -0.5651128 -0.6494061 0.06043176 0.26523167 -0.09522302 -0.6140949 0.34007436
0.67616874 0.36425415 -0.32793373 0.6449168 -0.116434395 0.4769478 -0.027666828 -0.1864887
0.42419922 0.16198249 -0.2543424 0.04377454 -0.15538515 -0.40977636 0.18944474 -0.42819932
00000000: 3904 87be 3cab 10bf 7a3f 26bf 4b87 773d
00000010: 72cc 873e 4904 c3bd 5335 1dbf 3a1e ae3e
00000020: 6519 2d3f 857f ba3e eee6 a7be 4419 253f
00000030: 2875 eebd 8132 f43e 8ba5 e2bc e5f6 3ebe
00000040: a430 d93e bdde 253e 2b39 82be ef4c 333d
00000050: 491d 1fbe 35ce d1be cdfd 413e f13c dbbe

mlp2.weight f4 [24, 72]
0.047097873 0.0 0.0 0.038065825 0.0 0.0 0.0 0.0
0.0 0.0 0.0 0.0 0.0 0.0 0.0 0.0
0.0 0.0 0.0 0.0 0.0 0.0 0.0 0.0
0.0902317 0.020606197 0.03516862 0.02547893 0.10814331 0.04348177 0.19576779 0.047202583
0.10435164 0.09533094 0.108151704 0.024417978 0.05690934 0.0034216936 0.15033431 0.0719989
0.06991615 0.018919263 0.055242606 0.05677309 0.1495806 0.08708776 0.0 0.18887137
0.013910071 0.051227722 0.07790318 0.10213032 0.08709748 0.0370879 0.104879506 0.057225227
0.13787161 0.09960658 0.06597487 0.053545676 0.06694368 0.08547624 0.0 0.068858065
0.05756718 0.081092976 0.049163178 0.0035246287 0.062028885 0.0 0.046776194 0.08537564
0.0 0.0 0.0 0.0 0.0 0.0 0.0 0.0
0.0 0.0 0.0 0.0 0.0 0.0 0.0 0.0
0.0 0.0 0.0 0.0 0.0 0.0 0.0 0.0
0.20167519 0.034429874 0.047978725 0.06426893 0.08653585 0.02217053 0.3302348 0.084163986
0.12512192 0.08088563 0.10212765 0.10152327 0.11423584 0.10241065 0.03671973 0.020886153
0.12309295 0.0029639178 0.07789606 0.0 0.12656206 0.020674573 0.050418742 0.15594502
0.11659194 0.06900137 0.032806296 0.03640211 0.058807995 0.04679067 0.030396763 0.11845438
0.19463508 0.0358114 0.07409713 0.03838191 0.07521993 0.08181699 0.04751136 0.027950907
0.040282022 0.0029529736 0.054095004 0.05880377 0.0047487444 0.09826752 0.06429187 0.079807706
0.0 0.0 0.0 0.0 0.0 0.0 0.0 0.0
0.0 0.0 0.0 0.0 0.0 0.0 0.0 0.0
0.0 0.0 0.0 0.0 0.0 0.0 0.0 0.0
0.1446051 0.063201495 0.081602104 0.063432455 0.04437664 0.080867186 0.24185346 0.062251203
0.19372216 0.025907103 0.11781858 0.013073137 0.12784538 0.013689922 0.032158908 0.08779508
0.061433382 0.0 0.05816305 0.029467322 0.03029132 0.036900084 0.0 0.15579797
0.06992073 0.0 0.02077192 0.09294866 0.0321084 0.07954713 0.042976633 0.061865427
0.12051224 0.017888652 0.030499289 0.06189458 0.031555213 0.049448296 0.0 0.111471064
0.0154531775 0.0 0.020918751 0.0442625 0.0 0.0 0.013151605 0.1024537
0.0 0.0 0.0 0.0 0.0 0.0 0.0 0.0
0.0 0.0 0.0 0.0 0.0 0.0 0.0 0.0
0.0 0.0 0.0 0.0 0.0 0.0 0.0 0.0
0.07077507 0.027565034 0.1260935 0.06856624 0.030673347 0.11808862 0.28445357 0.011088454
0.18201008 0.012618559 0.0 0.054888092 0.032699447 0.009681676 0.0 0.10209327
00000000: b3e9 403d 0000 0000 0000 0000 e9ea 1b3d
00000010: 0000 0000 0000 0000 0000 0000 0000 0000
00000020: 0000 0000 0000 0000 0000 0000 0000 0000
00000030: 0000 0000 0000 0000 0000 0000 0000 0000
00000040: 0000 0000 0000 0000 0000 0000 0000 0000
00000050: 0000 0000 0000 0000 0000 0000 0000 0000
00000060: 66cb b83d 54ce a83c f90c 103d 30b9 d03c
00000070: 3d7a dd3d f119 323d 5a77 483e 7f57 413d
00000080: 50b6 d53d de3c c33d a47e dd3d 3608 c83c
00000090: c519 693d 7e3e 603b 3df1 193e 2974 933d
000000a0: 3330 8f3d 92fc 9a3c 1246 623d e68a 683d
000000b0: a82b 193e 115b b23d 0000 0000 7f67 413e
000000c0: 11e7 633c 29d4 513d b48b 9f3d b429 d13d
000000d0: 2a60 b23d 7be9 173d 11cb d63d 0065 6a3d
000000e0: 372e 0d3e 89fe cb3d d51d 873d b652 5b3d
000000f0: c519 893d 2b0e af3d 0000 0000 7505 8d3d
00000100: 90cb 6b3d 1314 a63d 545f 493d 75fd 663b
00000110: 0012 7e3d 0000 0000 6598 3f3d 6cd9 ae3d
00000120: 0000 0000 0000 0000 0000 0000 0000 0000
00000130: 0000 0000 0000 0000 0000 0000 0000 0000
00000140: 0000 0000 0000 0000 0000 0000 0000 0000
00000150: 0000 0000 0000 0000 0000 0000 0000 0000
00000160: 0000 0000 0000 0000 0000 0000 0000 0000
00000170: 0000 0000 0000 0000 0000 0000 0000 0000
00000180: f183 4e3e 5706 0d3d 5785 443d 6e9f 833d
00000190: b539 b13d f99e b53c 8914 a93e 2b5e ac3d
000001a0: f61f 003e 5da7 a53d 4d28 d13d 6feb cf3d
000001b0: 7bf4 e93d adbc d13d 6d67 163d 7019 ab3c
000001c0: 2818 fc3d 4a3e 423b f887 9f3d 0000 0000
000001d0: 7c99 013e b95d a93c e283 4e3d 0db0 1f3e
000001e0: c1c7 ee3d 9750 8d3d e55f 063d 611a 153d
000001f0: a7e0 703d 93a7 3f3d a202 f93c 3698 f23d
00000200: 6b4e 473e f9ae 123d 3cc0 973d 5a36 1d3d
00000210: e80c 9a3d ab8f a73d 469b 423d 4df9 e43c
00000220: c3fe 243d ad86 413b b992 5d3d 39dc 703d
00000230: 5b9b 9b3b 7b40 c93d 75ab 833d 3972 a33d
00000240: 0000 0000 0000 0000 0000 0000 0000 0000
00000250: 0000 0000 0000 0000 0000 0000 0000 0000
00000260: 0000 0000 0000 0000 0000 0000 0000 0000
00000270: 0000 0000 0000 0000 0000 0000 0000 0000
00000280: 0000 0000 0000 0000 0000 0000 0000 0000
00000290: 0000 0000 0000 0000 0000 0000 0000 0000
000002a0: 5c13 143e c96f 813d 011f a73d e0e8 813d
000002b0: 48c4 353d b29d a53d 6fa8 773e 1efb 7e3d
000002c0: 1a5f 463e 223b d43c de4a f13d b630 563c
000002d0: e6e9 023e b24b 603c 0fb9 033d e8cd b33d
000002e0: 92a1 7b3d 0000 0000 613c 6e3d 7465 f13c
000002f0: 8125 f83c 8b24 173d 0000 0000 8189 1f3e
00000300: 9a32 8f3d 0000 0000 e029 aa3c de5b be3d
00000310: 1984 033d 9be9 a23d 4408 303d 9a66 7d3d
00000320: 1fcf f63d 398b 923c a5d9 f93c 2c85 7d3d
00000330: 0a40 013d 4c8a 4a3d 0000 0000 f14a e43d
00000340: 532f 7d3c 0000 0000 cd5d ab3c 984c 353d
00000350: 0000 0000 0000 0000 d479 573c 3fd3 d13d
00000360: 0000 0000 0000 0000 0000 0000 0000 0000
00000370: 0000 0000 0000 0000 0000 0000 0000 0000
00000380: 0000 0000 0000 0000 0000 0000 0000 0000
00000390: 0000 0000 0000 0000 0000 0000 0000 0000
000003a0: 0000 0000 0000 0000 0000 0000 0000 0000
000003b0: 0000 0000 0000 0000 0000 0000 0000 0000
000003c0: 85f2 903d 11d0 e13c a81e 013e 756c 8c3d
000003d0: ac46 fb3c 72d8 f13d e6a3 913e 59ac 353c
000003e0: da60 3a3e 13be 4e3c 0000 0000 56d2 603d
000003f0: dbef 053d e49f 1e3c 0000 0000 4716 d13d

mlp2.bias f4 [24]
-0.020033043 -0.059389457 -0.018059952 -0.113948055 0.056232262 -0.11115639 -0.072074264 -0.06026233
-0.08323833 0.04100801 -0.022154104 -0.099531814 -0.09967804 -0.019902939 -0.027525488 -0.05626401
0.07798864 -0.07923043 -0.07794215 0.022610268 0.04126338 -0.0054996675 0.02235358 -0.05797733
00000000: 561c a4bc 5c42 73bd 77f2 93bc 995d e9bd
00000010: cd53 663d f6a5 e3bd ac9b 93bd a2d5 76bd
00000020: dc78 aabd 04f8 273d 867c b5bc 56d7 cbbd
00000030: 0024 ccbd 7d0b a3bc 227d e1bc 1775 66bd
00000040: 82b8 9f3d 9043 a2bd 22a0 9fbd 2b39 b93c
00000050: ca03 293d 8e36 b4bb db1e b73c a379 6dbd

bn2.weight f4 [72]
0.435053 0.4154386 0.4235529 0.42832002 0.42428744 0.4386255 0.3744565 0.40965307
0.43703726 0.40954173 0.41687426 0.43335986 0.4148249 0.41039473 0.4107996 0.4120171
0.4325608 0.4148514 0.4135883 0.4090257 0.41417524 0.4205679 0.4227975 0.42201915
0.5 0.46251103 0.4993348 0.48665118 0.5 0.48500603 0.5 0.4757963
0.5 0.48511744 0.48558033 0.49648967 0.4981939 0.46121117 0.40498608 0.49953195
0.47810102 0.44393504 0.499716 0.46100244 0.48227972 0.4580293 0.4452642 0.5
0.49887627 0.44305333 0.46453246 0.48155507 0.5 0.4743349 0.49523565 0.47632027
0.5 0.48481435 0.4542455 0.48868182 0.49697828 0.45903763 0.42500222 0.48641884
0.48104268 0.4586329 0.4752568 0.45164117 0.44235882 0.46261737 0.44455156 0.49486002
00000000: 44bf de3e 5eb4 d43e eddb d83e c34c db3e
00000010: 343c d93e 8693 e03e c3b8 bf3e 0cbe d13e
00000020: 59c3 df3e 74af d13e 8b70 d53e 58e1 dd3e
00000030: ee63 d43e 421f d23e 5354 d23e e8f3 d23e
00000040: 9c78 dd3e 6767 d43e d8c1 d33e d16b d13e
00000050: c70e d43e ad54 d73e ea78 d83e e512 d83e
00000060: 0000 003f 3fce ec3e d0a8 ff3e 582a f93e
00000070: 0000 003f b652 f83e 0000 003f 939b f33e
00000080: 0000 003f 5061 f83e fc9d f83e e533 fe3e
00000090: 4513 ff3e df23 ec3e 565a cf3e a7c2 ff3e
000000a0: a8c9 f43e 744b e33e c7da ff3e 8308 ec3e
000000b0: 5eed f63e d182 ea3e abf9 e33e 0000 003f
000000c0: b66c ff3e e3d7 e23e 33d7 ed3e 638e f63e
000000d0: 0000 003f 06dc f23e 878f fd3e 40e0 f33e
000000e0: 0000 003f 9639 f83e de92 e83e 8134 fa3e
000000f0: f073 fe3e fb06 eb3e e499 d93e e40b f93e
00000100: 3a4b f63e eed1 ea3e dc54 f33e 833d e73e
00000110: db7c e23e 2fdc ec3e 439c e33e 4b5e fd3e

bn2.bias f4 [72]
-0.023162073 1.0944114e-05 0.008121167 -0.015978541 -0.001423065 -0.0011429283 -0.031394474 -0.0035140389
-0.024270123 -0.002966038 -0.0016407828 -0.012532788 -0.013324512 -0.0032965974 0.0013269859 -0.005144598
0.0033374082 0.003357892 5.955017e-05 -0.010137206 0.0011320179 0.0009440506 -0.01013522 -0.0030488085
-0.041503277 -0.012504255 -0.029934239 -0.028879791 -0.025743399 -0.026292257 -0.07119374 -0.038145404
-0.07148563 -0.039406877 -0.027615419 -0.022294752 -0.040478926 -0.028367741 -0.022334361 -0.048909675
-0.015371462 -0.017201638 -0.05355592 -0.025183609 -0.023336153 -0.01856969 -0.016660348 -0.0475331
-0.026253782 -0.033007253 -0.031703085 -0.032871373 -0.023260059 -0.03012742 -0.03676906 -0.03202071
-0.0559787 -0.048078142 -0.020833446 -0.026927523 -0.039995257 -0.030078268 -0.018679192 -0.04694858
-0.022597825 -0.019212672 -0.036708497 -0.024667809 -0.03293377 -0.016460015 -0.021021303 -0.047278874
00000000: 63be bdbc 9d9c 3737 a50e 053c 6ee5 82bc
00000010: 2386 baba 4fce 95ba 7e97 00bd ca4b 66bb
00000020: 23d2 c6bc dc61 42bb 890f d7ba 5356 4dbc
00000030: 0e4f 5abc ba0b 58bb 42ee ad3a 0494 a8bb
00000040: 6bb8 5a3b 1410 5c3b 82c5 7938 8616 26bc
00000050: 3860 943a 2a7a 773a 320e 26bc 85ce 47bb
00000060: 57ff 29bd a6de 4cbc a638 f5bc 5095 ecbc
00000070: d2e3 d2bc dc62 d7bc 06ce 91bd 5b3e 1cbd
00000080: 0f67 92bd 1b69 21bd bb39 e2bc 7ca3 b6bc
00000090: 3bcd 25bd 7763 e8bc 8df6 b6bc 8355 48bd
000000a0: 96d8 7bbc 73ea 8cbc 745d 5bbd db4d cebc
000000b0: 762b bfbc 761f 98bc 487b 88bc 11b2 42bd
000000c0: 2c12 d7bc 9d32 07bd 18db 01bd 22a4 06bd
000000d0: e18b bebc c7cd f6bc 279b 16bd 2628 03bd
000000e0: ec49 65bd 96ed 44bd e7aa aabc 1c97 dcbc
000000f0: 11d2 23bd b366 f6bc 1b05 99bc 274d 40bd
00000100: 131f b9bc e563 9dbc a65b 16bd 2514 cabc
00000110: 90e5 06bd 27d7 86bc de34 acbc 7ea7 41bd

bn2.running_mean f4 [72]
-0.11019334 -0.22866789 -0.3168696 0.1026939 0.3039876 -0.025427341 -0.2850239 0.36924905
0.6655558 0.40121183 -0.15398987 0.62852335 -0.053122744 0.51598597 0.09576543 -0.054166675
0.4128701 0.15334548 -0.11210859 0.07243955 -0.03055845 -0.1846268 0.25523075 -0.21169107
-0.13811648 -0.25161475 -0.32138908 0.03837088 0.124000795 -0.059951216 -0.29252627 0.1761724
0.35767594 0.18426855 -0.17709455 0.35308948 -0.07317711 0.18994734 -0.016191471 -0.094154015
0.37517792 0.14449337 -0.13792045 0.0335184 -0.08008392 -0.2088915 0.09014824 -0.22580004
-0.2908069 -0.5910495 -0.6557773 -0.00062940933 0.07657106 -0.13729034 -0.6241064 0.1547175
0.35763144 0.16003822 -0.34598154 0.35301036 -0.13258682 0.14179502 -0.13749819 -0.21711431
0.37517792 0.14427182 -0.28098387 0.010006049 -0.19700572 -0.43770385 0.025229663 -0.44623613
00000000: 0cad e1bd ea27 6abe bb3c a2be 2e51 d23d
00000010: 43a4 9b3e 004d d0bc a7ee 91be 360e bd3e
00000020: dd61 2a3f a36b cd3e 85af 1dbe e8e6 203f
00000030: 3c97 59bd a817 043f aa20 c43d e0dd 5dbd
00000040: b663 d33e 9906 1d3e 3099 e5bd 305b 943d
00000050: b755 fabc cf0e 3dbe 9bad 823e 8bc5 58be
00000060: 686e 0dbe a6d3 80be 1c8d a4be c92a 1d3d
00000070: 21f4 fd3d 688f 75bd 01c6 95be 8a66 343e
00000080: 4d21 b73e e5b0 3c3e 4658 35be 25c8 b43e
00000090: e1dd 95bd 8e81 423e faa3 84bc d2d3 c0bd
000000a0: 5217 c03e 12f6 133e 053b 0dbe 974a 093d
000000b0: 0a03 a4bd a7e7 55be a49f b83d 2038 67be
000000c0: a4e4 94be 054f 17bf 05e1 27bf f2fe 24ba
000000d0: 4ad1 9c3d d795 0cbe 70c5 1fbf 446e 1e3e
000000e0: 781b b73e 0fe1 233e 7e24 b1be c6bd b43e
000000f0: d7c4 07be b732 113e 53cc 0cbe 3753 5ebe
00000100: 5217 c03e febb 133e 1edd 8fbe 69f0 233c
00000110: debb 49be b81a e0be 70ae ce3c 1079 e4be

bn2.running_var f4 [72]
0.18832608 0.1681437 0.09069119 0.23398435 0.39448592 0.20319724 0.11094805 0.35577637
0.25537822 0.3873349 0.17394355 0.23461296 0.16346242 0.5766213 0.3537553 0.21585466
0.03164353 0.0622472 0.18517065 0.17559344 0.2368965 0.17361218 0.39117497 0.14426534
0.14216258 0.12159992 0.08141069 0.15354317 0.15448686 0.15306988 0.09654479 0.1344359
0.049328282 0.13718522 0.13250476 0.048345648 0.1345397 0.14677012 0.17353366 0.15333654
0.017326875 0.05445973 0.14327078 0.12665719 0.15798502 0.1287841 0.16254438 0.11791924
0.3279393 0.493089 0.36726698 0.20725033 0.23584759 0.24759102 0.4128765 0.17136365
0.049408432 0.17891961 0.32518715 0.04848783 0.20503514 0.24225749 0.36085328 0.30861259
0.017326875 0.054793272 0.3119216 0.15940082 0.31062087 0.3833884 0.27407178 0.3495977
00000000: 8dd8 403e dd2d 2c3e 4dbc b93d 9899 6f3e
00000010: 0ffa c93e f012 503e bb38 e33d 5228 b63e
00000020: efc0 823e c350 c63e 421e 323e 613e 703e
00000030: b162 273e 749d 133f 6a1f b53e 0109 5d3e
00000040: a59c 013d ecf6 7e3d 609d 3d3e c4ce 333e
00000050: ff94 723e 64c7 313e 1648 c83e 4bba 133e
00000060: 1193 113e 6109 f93d a6ba a63d 6c3a 1d3e
00000070: ce31 1e3e 5abe 1c3e 46b9 c53d 91a9 093e
00000080: 740c 4a3d 487a 0c3e 54af 073e 1606 463d
00000090: c6c4 093e e84a 163e cfb2 313e 4104 1d3e
000000a0: 17f1 8d3c 2a11 5f3d 93b5 123e 6cb2 013e
000000b0: d3c6 213e fbdf 033e 0972 263e a47f f13d
000000c0: a9e7 a73e 2976 fc3e 6b0a bc3e 6e39 543e
000000d0: 0882 713e 8088 7d3e 8c64 d33e f479 2f3e
000000e0: 7f60 4a3d b436 373e ee7e a63e 2d9b 463d
000000f0: bbf4 513e 5912 783e c3c1 b83e 7802 9e3e
00000100: 17f1 8d3c e96e 603d 30b4 9f3e f839 233e
00000110: b309 9f3e 7c4b c43e 2353 8c3e 78fe b23e

mlp3.weight f4 [24, 72]
0.11402717 0.20376758 0.1274571 0.14320447 0.124777675 0.11049389 0.15209207 0.19454388
0.13372666 0.09052573 0.110950164 0.10591868 0.07478352 0.017166117 0.060168028 0.027034223
0.16205306 0.17912085 0.12544002 0.16612367 0.22089325 0.11354224 0.061671484 0.08691736
0.07358965 0.06453012 0.07667298 0.10706559 0.11244114 0.048885062 0.14063871 0.10292001
0.07396435 0.108630806 0.148369 0.11622644 0.10796174 0.11735447 0.14239092 0.10661502
0.08983579 0.10670699 0.068237245 0.06451079 0.07105973 0.04515671 0.10762285 0.10933673
0.004774291 0.015054196 0.05889949 0.07973632 0.008453497 0.014350337 0.018803006 0.06688583
0.044907957 0.083455965 0.013749227 0.014323884 0.010727813 0.01757172 0.06186016 0.029916454
0.05267863 0.023088917 0.08092067 0.046872795 0.06954208 0.040090725 0.035949484 0.034629107
0.11415026 0.16039477 0.10893555 0.07563066 0.074328974 0.1105648 0.05701728 0.14429624
0.08603556 0.059691075 0.06893754 0.110064454 0.027450306 0.025650524 0.08249093 0.108096994
0.0836961 0.12043465 0.12958474 0.07727824 0.105161875 0.03845808 0.01722857 0.08198987
0.064111 0.09707687 0.090189576 0.0553703 0.07032329 0.08587208 0.014329555 0.104486085
0.09261413 0.10546795 0.10811407 0.11750739 0.055413853 0.009233755 0.12837547 0.05460205
0.0815515 0.050444648 0.10220232 0.061173804 0.042841658 0.10232094 0.08782085 0.13579418
0.0 0.0 0.0 0.0 0.0 0.0 0.0 0.0
0.0 0.0 0.0 0.0 0.0 0.0 0.0 0.0
0.0 0.0 0.0 0.0 0.0 0.0 0.0 0.0
0.040472414 0.10242853 0.08710129 0.10595709 0.10747628 0.10818348 0.11714669 0.10091988
0.11119491 0.061424486 0.108198375 0.053950798 0.0799689 0.063915424 0.058935754 0.07777165
0.1322042 0.08622851 0.15707427 0.08457599 0.15713815 0.05156801 0.08139226 0.07512059
0.037702657 0.10418917 0.04463709 0.04800285 0.10276719 0.12584794 0.116309695 0.11460151
0.113001406 0.053781647 0.038182832 0.07043094 0.10694169 0.085798115 0.062401287 0.091782734
0.1257456 0.12579535 0.010905483 0.090084754 0.038219057 0.1256868 0.03775376 0.07092111
0.0 0.0 0.0 0.0 0.0 0.0 0.0 0.0
0.0007306379 0.0 0.0067671337 0.0 0.010101449 0.01062993 0.0 0.0020412402
0.020579001 0.0 0.0 0.0 0.0 0.0 0.0 0.0
0.055054594 0.14854822 0.13068765 0.10638725 0.10357472 0.15586849 0.0760036 0.11156137
0.09126893 0.11367263 0.17014825 0.11406986 0.07380786 0.102182336 0.12912655 0.051588587
0.15735011 0.10341879 0.16114734 0.14804927 0.17241077 0.051474843 0.03669612 0.084039114
0.05833094 0.15463446 0.11883577 0.053899754 0.19791317 0.1571578 0.11550317 0.124812916
0.14392723 0.16660956 0.19239643 0.14722139 0.11763609 0.057325915 0.1432977 0.0674788
00000000: 1487 e93d 73a8 503e 1d84 023e 31a4 123e
00000010: 708b ff3d 9f4a e23d 06be 1b3e 8336 473e
00000020: a4ef 083e 8e65 b93d d739 e33d e5eb d83d
00000030: 1a28 993d f59f 8c3c c072 763d e076 dd3c
00000040: 3df1 253e 756b 373e 5973 003e 531c 2a3e
00000050: d731 623e d588 e83d 3d9b 7c3d bb01 b23d
00000060: 2cb6 963d 5e28 843d b906 9d3d 3445 db3d
00000070: 8a47 e63d b43b 483d 9803 103e bac7 d23d
00000080: 9f7a 973d d479 de3d 0bee 173e 2108 ee3d
00000090: 0b1b dd3d 8a57 f03d edce 113e fa58 da3d
000000a0: d4fb b73d 3289 da3d f8bf 8b3d 3c1e 843d
000000b0: c487 913d 3ef6 383d 5e69 dc3d efeb df3d
000000c0: a871 9c3b e0a5 763c 9740 713d cc4c a33d
000000d0: 8980 0a3c ad1d 6b3c c308 9a3c 70fb 883d
000000e0: 68f1 373d f6ea aa3d 7044 613c b9ae 6a3c
000000f0: b5c3 2f3c 91f2 8f3c 1461 7d3d 5a13 f53c
00000100: 8cc5 573d f824 bd3c bcb9 a53d b0fd 3f3d
00000110: 146c 8e3d 2c36 243d c43f 133d 40d7 0d3d
00000120: 9dc7 e93d 873e 243e 9a19 df3d 3fe4 9a3d
00000130: ca39 983d cc6f e23d f48a 693d 65c2 133e
00000140: 6933 b03d a17e 743d 202f 8d3d 7969 e13d
00000150: 77df e03c 0c21 d23c 01f1 a83d f561 dd3d
00000160: dc68 ab3d 71a6 f63d ddb1 043e 0e44 9e3d
00000170: 1c5f d73d 3886 1d3d ee22 8d3c 4eea a73d
00000180: a14c 833d 3dd0 c63d 50b5 b83d f8cb 623d
00000190: a805 903d b3dd af3d 83c6 6a3c cdfc d53d
000001a0: 7aac bd3d 95ff d73d e96a dd3d b7a7 f03d
000001b0: a3f9 623d 2d49 173c dc74 033e 66a6 5f3d
000001c0: 7904 a73d 0c9f 4e3d 734f d13d 6291 7a3d
000001d0: bc7a 2f3d a48d d13d 6bdb b33d a10d 0b3e
000001e0: 0000 0000 0000 0000 0000 0000 0000 0000
000001f0: 0000 0000 0000 0000 0000 0000 0000 0000
00000200: 0000 0000 0000 0000 0000 0000 0000 0000
00000210: 0000 0000 0000 0000 0000 0000 0000 0000
00000220: 0000 0000 0000 0000 0000 0000 0000 0000
00000230: 0000 0000 0000 0000 0000 0000 0000 0000
00000240: 67c6 253d 0dc6 d13d 2962 b23d 0800 d93d
00000250: 861c dc3d 4d8f dd3d 9bea ef3d 15af ce3d
00000260: 28ba e33d 3e98 7b3d 1c97 dd3d 83fb 5c3d
00000270: bcc6 a33d 17e6 823d 9e66 713d be46 9f3d
00000280: 8a60 073e 9398 b03d 14d8 203e 2d36 ad3d
00000290: d3e8 203e fa38 533d fcb0 a63d d3d8 993d
000002a0: 1a6e 1a3d 2261 d53d 62d5 363d a39e 443d
000002b0: 9b77 d23d 48de 003e c733 ee3d 32b4 ea3d
000002c0: 486d e73d 254a 5c3d 9a65 1c3d 193e 903d
000002d0: 3f04 db3d ecb6 af3d 7e98 7f3d 96f8 bb3d
000002e0: 74c3 003e 7fd0 003e e9ac 323c 5b7e b83d
000002f0: 968b 1c3d 0ab4 003e b0a3 1a3d 163f 913d
00000300: 0000 0000 0000 0000 0000 0000 0000 0000
00000310: 0000 0000 0000 0000 0000 0000 0000 0000
00000320: 4888 3f3a 0000 0000 d5be dd3b 0000 0000
00000330: 8c80 253c 2829 2e3c 0000 0000 54c6 053b
00000340: 4b95 a83c 0000 0000 0000 0000 0000 0000
00000350: 0000 0000 0000 0000 0000 0000 0000 0000
00000360: ed80 613d 061d 183e fcd2 053e 8fe1 d93d
00000370: fc1e d43d fd9b 1f3e c7a7 9b3d 4a7a e43d
00000380: 34eb ba3d 32cd e83d 583b 2e3e 759d e93d
00000390: 9328 973d f944 d13d c039 043e 8e4e 533d
000003a0: 6320 213e 3bcd d33d cf03 253e 3a9a 173e
000003b0: 738c 303e 49d7 523d ac4e 163d b31c ac3d
000003c0: 6cec 6e3d 7f58 1e3e 2b60 f33d fdc5 5c3d
000003d0: c0a9 4a3e f9ed 203e ed8c ec3d ea9d ff3d
000003e0: a961 133e b29b 2a3e 9203 453e 34c1 163e
000003f0: 31eb f03d 94ce 6a3d a2bc 123e 5332 8a3d

mlp3.bias f4 [24]
0.13241324 0.12711619 0.10649727 -0.027991574 0.048960846 -0.020954326 0.12956709 0.08859108
0.07766218 0.13844523 0.028364414 0.15639436 0.16764708 0.10207897 -0.07578297 0.02718338
0.04573553 0.023670904 0.08151403 0.071095124 0.01899232 0.15706126 0.11920891 0.054169472
00000000: 5697 073e bf2a 023e 3e1b da3d 964e e5bc
00000010: 2b8b 483d 68a8 abbc 3cad 043e 3d6f b53d
00000020: 590d 9f3d 96c4 0d3e 7d5c e83c d825 203e
00000030: adab 2b3e c70e d13d 1a34 9bbd aeaf de3c
00000040: 2e55 3b3d 7ce9 c13c d4f0 a63d 529a 913d
00000050: c895 9b3c abd4 203e cd23 f43d cfe0 5d3d

bn3.weight f4 [72]
0.4968147 0.5 0.5 0.5 0.5 0.5 0.5 0.5
0.5 0.5 0.5 0.5 0.47292095 0.469863 0.5 0.4857081
0.5 0.5 0.5 0.5 0.5 0.4876388 0.46507695 0.5
0.43957615 0.4618569 0.45204678 0.4842903 0.456903 0.4869624 0.46974307 0.47875318
0.5 0.47715908 0.4847172 0.4857877 0.48140427 0.46199727 0.4758664 0.451789
0.49051288 0.5 0.4572355 0.46551713 0.44905224 0.47693536 0.45163605 0.47743878
0.4180552 0.4072553 0.41615072 0.413485 0.41060242 0.42556998 0.42016658 0.41975892
0.3938332 0.42098856 0.422577 0.398026 0.39834964 0.40200636 0.41021445 0.41549605
0.42096478 0.41729593 0.41510698 0.42848524 0.42513353 0.40635616 0.40637347 0.4185735
00000000: 7f5e fe3e 0000 003f 0000 003f 0000 003f
00000010: 0000 003f 0000 003f 0000 003f 0000 003f
00000020: 0000 003f 0000 003f 0000 003f 0000 003f
00000030: b222 f23e e291 f03e 0000 003f bbae f83e
00000040: 0000 003f 0000 003f 0000 003f 0000 003f
00000050: 0000 003f cbab f93e 911e ee3e 0000 003f
00000060: 2010 e13e 8278 ec3e ad72 e73e e6f4 f73e
00000070: 31ef e93e 2353 f93e 2a82 f03e 231f f53e
00000080: 0000 003f 324e f43e da2c f83e 2ab9 f83e
00000090: 9f7a f63e e88a ec3e c3a4 f33e e350 e73e
000000a0: 8124 fb3e 0000 003f c51a ea3e 4358 ee3e
000000b0: 2dea e53e df30 f43e d73c e73e db72 f43e
000000c0: 550b d63e c483 d03e b511 d53e 4eb4 d33e
000000d0: 7b3a d23e 4fe4 d93e 1320 d73e a4ea d63e
000000e0: 81a4 c93e d08b d73e 035c d83e 10ca cb3e
000000f0: 7cf4 cb3e c7d3 cd3e a107 d23e e6bb d43e
00000100: b288 d73e d0a7 d53e e788 d43e 6b62 db3e
00000110: 1aab d93e ea0d d03e 2f10 d03e 444f d63e

bn3.bias f4 [72]
0.08395871 0.068318926 0.069088206 0.078434534 0.07296348 0.06436905 0.08241397 0.07122618
0.069721356 0.06383944 0.07350476 0.07623539 0.0858316 0.0815943 0.07099145 0.082005136
0.062284406 0.066375904 0.063346304 0.06150545 0.05734916 0.08081537 0.08829438 0.06732063
0.09728451 0.08845735 0.09297844 0.08795439 0.089208655 0.081125215 0.08506375 0.083969
0.08534127 0.081010655 0.08373074 0.08735025 0.0867416 0.085783094 0.08963381 0.08908262
0.07778887 0.08035959 0.10058169 0.086108275 0.09039725 0.088862464 0.09105688 0.08331695
0.06342523 0.07588509 0.061301965 0.060026288 0.068818964 0.05277416 0.05364678 0.056947134
0.07511011 0.066043645 0.06311213 0.06679106 0.07757665 0.0768889 0.06979771 0.065796055
0.062309172 0.06307104 0.06113621 0.05751918 0.06638732 0.06112059 0.07384999 0.059275597
00000000: 8bf2 ab3d cbea 8b3d 1e7e 8d3d 49a2 a03d
00000010: e16d 953d ecd3 833d a8c8 a83d 08df 913d
00000020: 12ca 8e3d 41be 823d aa89 963d 4d21 9c3d
00000030: 7ac8 af3d ea1a a73d f763 913d 4ff2 a73d
00000040: ef1d 7f3d 17f0 873d b5bb 813d 24ed 7b3d
00000050: f4e6 6a3d 8782 a53d afd3 b43d 66df 893d
00000060: 1a3d c73d 2129 b53d 7b6b be3d 6e21 b43d
00000070: 07b3 b63d fa24 a63d e735 ae3d f0f7 ab3d
00000080: 67c7 ae3d eae8 a53d 067b ab3d b0e4 b23d
00000090: 94a5 b13d 0caf af3d ee91 b73d f370 b63d
000000a0: c54f 9f3d 9293 a43d c6fd cd3d 8959 b03d
000000b0: 3222 b93d 86fd b53d 087c ba3d 14a2 aa3d
000000c0: 16e5 813d a469 9b3d c517 7b3d 20de 753d
000000d0: f5f0 8c3d b829 583d babc 5b3d 6641 693d
000000e0: 54d3 993d e441 873d ef40 813d c0c9 883d
000000f0: 82e0 9e3d ed77 9d3d 1af2 8e3d 15c0 863d
00000100: e737 7f3d 642b 813d f669 7a3d 3b99 6b3d
00000110: 13f6 873d 9559 7a3d aa3e 973d f8ca 723d

bn3.running_mean f4 [72]
0.28380495 0.2966157 0.204922 0.11769987 0.3049093 0.2166802 0.21120827 0.22098498
0.1286791 0.41902545 0.24474671 0.17510968 0.1350075 0.2089404 0.17091689 0.24899212
0.53582203 0.10929609 0.20009448 0.30767134 0.41158232 0.24186419 0.3114806 0.29586634
-0.030419784 -0.032085437 -0.041826434 -0.07111706 -0.022597697 -0.048296016 -0.041779615 -0.04037736
-0.0704105 -0.012228577 -0.034278058 -0.051940978 -0.055908985 -0.0473549 -0.050398074 -0.036934666
-0.006357204 -0.069647364 -0.04854483 -0.032377146 -0.022286266 -0.03855825 -0.022205213 -0.030230973
-0.43167678 -0.49378204 -0.35114914 -0.38013157 -0.377897 -0.4706249 -0.41512144 -0.41520843
-0.35544565 -0.51512915 -0.39740416 -0.40577835 -0.35860497 -0.35284048 -0.32849184 -0.43520266
-0.60166043 -0.33293205 -0.41794243 -0.42554852 -0.5134116 -0.37479767 -0.4101549 -0.49241948
00000000: e24e 913e 03de 973e 13d7 513e a10c f13d
00000010: 121d 9c3e 6ae1 5d3e fb46 583e e349 623e
00000020: 74c4 033e 818a d63e e29e 7a3e f44f 333e
00000030: 683f 0a3e 79f4 553e d604 2f3e caf7 7e3e
00000040: a22b 093f a1d6 df3d 91e5 4c3e 1987 9d3e
00000050: ebba d23e 3fab 773e 637a 9f3e cb7b 973e
00000060: e932 f9bc 056c 03bd 3252 2bbd d2a5 91bd
00000070: ce1e b9bc 0bd2 45bd 1a21 2bbd bb62 25bd
00000080: 6133 90bd 5f5a 48bc 2667 0cbd 10c0 54bd
00000090: d200 65bd 36f7 41bd 366e 4ebd ce48 17bd
000000a0: 1850 d0bb 47a3 8ebd f2d6 46bd e69d 04bd
000000b0: b091 b6bc 41ef 1dbd b5e7 b5bc f2a6 f7bc
000000c0: bd04 ddbe 00d1 fcbe d2c9 b3be 9ba0 c2be
000000d0: b77b c1be bff5 f0be cc8a d4be 3396 d4be
000000e0: f9fc b5be 81df 03bf 8f78 cbbe 2ec2 cfbe
000000f0: 129b b7be 82a7 b4be 1530 a8be e2d2 debe
00000100: 6b06 1abf 1276 aabe 8dfc d5be 7fe1 d9be
00000110: f16e 03bf 7be5 bfbe d3ff d1be 681e fcbe

bn3.running_var f4 [72]
0.82350516 0.870948 0.6659913 0.5445791 0.85969925 0.71562976 0.6789958 0.6980863
0.57016355 1.1427779 0.7416781 0.6217323 0.53698915 0.69702876 0.6095167 0.7660118
1.4760108 0.51978123 0.68034595 0.91335523 1.181824 0.7475804 0.8755867 0.85956854
0.21149385 0.21390562 0.20423836 0.1949668 0.21212055 0.20697704 0.20621566 0.20717971
0.19576715 0.21814373 0.20773456 0.20239322 0.19754551 0.2024952 0.20010675 0.20743124
0.22249933 0.19230796 0.20643651 0.21156248 0.21756287 0.20634452 0.21156964 0.21275048
0.9682851 1.1380734 0.72450864 0.68658483 0.87602067 0.99260527 0.87939787 0.8829625
0.6230229 1.337079 0.86636955 0.81257653 0.68858 0.70738816 0.63791645 0.9510748
1.6616051 0.5942909 0.85013545 0.9496218 1.24506 0.78522724 0.9597504 1.1454244
00000000: 3cd1 523f 73f6 5e3f 687e 2a3f 8969 0b3f
00000010: 4015 5c3f 8333 373f abd2 2d3f c9b5 323f
00000020: 3df6 113f 8c46 923f 9ede 3d3f d929 1f3f
00000030: 1f78 093f 7a70 323f 4909 1c3f 5919 443f
00000040: eced bc3f 6210 053f 272b 2e3f a6d1 693f
00000050: 0246 973f 6e61 3f3f 7326 603f af0c 5c3f
00000060: d891 583e 130a 5b3e dc23 513e 60a5 473e
00000070: 2136 593e caf1 533e 332a 533e eb26 543e
00000080: 2f77 483e 1261 5f3e 5eb8 543e 2b40 4f3e
00000090: 5f49 4a3e e75a 4f3e c9e8 4c3e db68 543e
000000a0: ddd6 633e 61ec 443e 1864 533e d6a3 583e
000000b0: cdc8 5e3e fa4b 533e b6a5 583e 43db 593e
000000c0: 88e1 773f 64ac 913f 6679 393f 06c4 2f3f
000000d0: e442 603f 611b 7e3f 3820 613f d509 623f
000000e0: 6e7e 1f3f 6825 ab3f 65ca 5d3f 0405 503f
000000f0: c746 303f 6417 353f 7e4e 233f a379 733f
00000100: 7aaf d43f 7323 183f 7aa2 593f 6a1a 733f
00000110: 205e 9f3f a704 493f 34b2 753f 449d 923f

mlp4.weight f4 [1, 72]
0.07471153 0.14609256 0.15681244 0.10596421 0.17340203 0.17646356 0.19145545 0.0988685
0.19423282 0.19878896 0.13224813 0.14891289 0.1635896 0.18934534 0.13315828 0.13796337
0.18691643 0.11523526 0.11572544 0.09785492 0.14371978 0.087824345 0.093396336 0.1487032
0.10134671 0.07428948 0.11884364 0.1953096 0.053787116 0.043186367 0.100076064 0.0
0.030604085 0.09378463 0.13801342 0.08612346 0.012746596 0.10700429 0.14239687 0.10795519
0.0 0.06356709 0.0 0.0 0.0 0.050406266 0.08894815 0.17627779
0.0 0.0 0.0 0.0 0.0 0.0 0.0 0.0
0.0 0.0 0.0 0.0 0.0 0.0 0.0 0.0
0.0 0.0 0.0 0.0 0.0 0.0 0.0 0.0
00000000: 5c02 993d 4a99 153e 7193 203e c403 d93d
00000010: 4d90 313e ddb2 343e e60c 443e 917b ca3d
00000020: f8e4 463e 558f 4b3e 0e6c 073e 9f7c 183e
00000030: 0884 273e bfe3 413e a55a 083e 4546 0d3e
00000040: 0567 3f3e 7700 ec3d 7601 ed3d 2968 c83d
00000050: 472b 133e 40dd b33d 9446 bf3d a745 183e
00000060: dd8e cf3d 1525 983d 4b64 f33d 3dff 473e
00000070: e14f 5c3d 30e4 303d aef4 cc3d 0000 0000
00000080: 6bb5 fa3c 2812 c03d 6453 0d3e 7f61 b03d
00000090: 19d7 503c 1125 db3d 7cd0 113e 9c17 dd3d
000000a0: 0000 0000 762f 823d 0000 0000 0000 0000
000000b0: 0000 0000 cd76 4e3d 732a b63d 2a82 343e
000000c0: 0000 0000 0000 0000 0000 0000 0000 0000
000000d0: 0000 0000 0000 0000 0000 0000 0000 0000
000000e0: 0000 0000 0000 0000 0000 0000 0000 0000
000000f0: 0000 0000 0000 0000 0000 0000 0000 0000
00000100: 0000 0000 0000 0000 0000 0000 0000 0000
00000110: 0000 0000 0000 0000 0000 0000 0000 0000
