utility-model-selected/dim-3/utility-46.pt (torch, 23458 bytes, 17 tensors)

bn1.running_mean f4 [3]
0.5019971 0.5000743 0.49888787
00000000: e282 003f df04 003f 3b6e ff3e

bn1.running_var f4 [3]
0.056474797 0.05373016 0.05290013
00000000: 1e52 673d 2814 5c3d cfad 583d

mlp1.weight f4 [24, 3]
0.18802774 0.45343226 0.09312388 0.113075815 0.22666676 0.11949157 0.37538317 0.302062
0.18620376 0.08116337 0.30642942 0.10277082 0.42113456 0.3334647 0.2678983 0.10742327
0.5 0.09960903 0.4577 0.4919047 0.1751111 0.4910725 0.49764237 0.05675021
0.5 0.29964837 0.25407112 0.02391947 0.11423464 0.5 0.18621108 0.4990591
0.26511312 0.5 0.29976106 0.008999569 0.39534733 0.3020367 0.25865823 0.14368717
0.4101046 0.26241684 0.17546505 0.4999357 0.23544724 0.42943534 0.34956917 0.28923675
0.04199529 0.39501885 0.34496576 0.31768906 0.49948254 0.16028456 0.0 0.4803533
0.19136368 0.1592326 0.45265716 0.0 0.2591135 0.11916384 0.044125333 0.17510605
0.47934228 0.42255995 0.20077841 0.4999394 0.19304751 0.40485027 0.49907547 0.16777965
00000000: 588a 403e 4628 e83e bcb7 be3d 4b94 e73d
00000010: 551b 683e ffb7 f43d 3932 c03e dfa7 9a3e
00000020: 33ac 3e3e fb38 a63d 51e4 9c3e 8279 d23d
00000030: f39e d73e e3bb aa3e f729 893e bb00 dc3d
00000040: 0000 003f d2ff cb3d a857 ea3e efda fb3e
00000050: 5350 333e db6d fb3e fbca fe3e e872 683d
00000060: 0000 003f 836b 993e 9c15 823e c4f2 c33c
00000070: daf3 e93d 0000 003f 1eae 3e3e ad84 ff3e
00000080: e8bc 873e 0000 003f 487a 993e ee72 133c
00000090: f76a ca3e 8ea4 9a3e da6e 843e bb22 133e
000000a0: 3bf9 d13e 805b 863e 1cad 333e 92f7 ff3e
000000b0: 1519 713e f3de db3e bbfa b23e d716 943e
000000c0: 4103 2c3d e93f ca3e 5a9f b03e 24a8 a23e
000000d0: 2dbc ff3e a321 243e 0000 0000 def0 f53e
000000e0: d7f4 433e df0d 233e aec2 e73e 0000 0000
000000f0: 86aa 843e 2c0c f43d c4bc 343d 004f 333e
00000100: 5a6c f53e c759 d83e db98 4d3e 0ff8 ff3e
00000110: 3fae 453e 8948 cf3e d286 ff3e 6ece 2b3e

mlp1.bias f4 [24]
-0.2871631 -0.3846943 -0.19797742 -0.36724836 0.18870193 0.26267517 -0.16188286 0.313479
0.43311724 0.51871574 -0.07966189 0.28524533 -0.2597048 0.08126825 -0.30876493 0.17819494
0.41905326 0.16250633 0.39466012 0.46991557 -0.17256741 -0.19181506 -0.25877637 -0.17126852
00000000: 0b07 93be a7f6 c4be 98ba 4abe fa07 bcbe
00000010: 143b 413e 5c7d 863e 9fc4 25be 5280 a03e
00000020: 8bc1 dd3e 8eca 043f c625 a3bd ad0b 923e
00000030: 07f8 84be f86f a63d 7016 9ebe bc78 363e
00000040: 268e d63e 0f68 263e e410 ca3e c698 f03e
00000050: 83b5 30be 2b6b 44be 567e 84be 0461 2fbe

mlp2.weight f4 [24, 72]
0.14380354 0.03811236 0.0045384085 0.10647663 0.03792706 0.065584406 0.05071021 0.10158643
0.06597228 0.038308673 0.13180643 0.04166666 0.0023303987 0.14172815 0.060770858 0.050129738
0.08751441 0.06608922 0.07685772 0.13930893 0.010095237 0.081547245 0.06445186 0.08391569
0.10900921 0.053100053 0.0050289715 0.15666507 0.035332307 0.14819384 0.14760002 0.13494143
0.0526416 0.17186004 0.20443164 0.09387438 0.013294893 0.10053785 0.11216714 0.07212261
0.11713303 0.13300775 0.15296449 0.13017319 0.010207336 0.043126084 0.1244588 0.09476801
0.1360678 0.05398534 0.011846319 0.1774161 0.02146231 0.083766945 0.042333722 0.057043742
0.061956808 0.10037148 0.17436725 0.0774991 0.016457798 0.09809664 0.18985794 0.02822051
0.09079179 0.059028883 0.11892316 0.15318303 0.006985129 0.08908689 0.19986875 0.046823423
0.13015018 0.035691094 0.0032368032 0.10843404 0.012797126 0.11838965 0.02443646 0.06996272
0.014322298 0.074151546 0.07183799 0.011203822 0.00044515345 0.110921405 0.061928283 0.03944937
0.099232614 0.07944943 0.07895117 0.13394506 0.049291555 0.075267196 0.04245495 0.0639942
0.091248296 0.02177523 0.0037002226 0.09722196 0.07186813 0.1393575 0.14527786 0.1556302
0.053997543 0.115964085 0.20916194 0.08629398 0.008932901 0.17635739 0.10305189 0.039124135
0.08683365 0.14091058 0.12924187 0.116833955 0.010168383 0.050508525 0.10006847 0.14080133
0.18834524 0.083914824 0.044818867 0.11121722 0.020692859 0.15872186 0.061222617 0.13780676
0.051770084 0.14509416 0.18689694 0.029354662 0.014879953 0.11549932 0.16991298 0.01937205
0.14945242 0.16936673 0.1898964 0.11953734 0.041991737 0.08503936 0.13233402 0.08393423
0.09881043 0.08223315 0.010336879 0.122288585 0.05028995 0.15303136 0.025836142 0.04419142
0.04173602 0.043798257 0.10318262 0.015402971 0.043643754 0.06385275 0.05148252 0.029870091
0.07541345 0.12478322 0.076769315 0.12364014 0.047966935 0.061226115 0.046960905 0.08220316
0.11459368 0.06765871 0.0063353823 0.054088037 0.07130775 0.13718742 0.06151235 0.0710606
0.10930234 0.10630347 0.21316153 0.09066099 0.0041213287 0.093231335 0.09013586 0.019297253
0.13362442 0.12845519 0.1010198 0.17199567 0.013510499 0.07331886 0.12758607 0.087735385
0.19894333 0.10359083 0.05974619 0.10985787 0.024888312 0.15757845 0.09345541 0.07187404
0.045947168 0.14882375 0.23544766 0.08825165 0.017647097 0.103636086 0.19917056 0.018509524
0.15767077 0.16180457 0.10424875 0.1705846 0.009670574 0.12350797 0.21989991 0.047295768
0.052626863 0.023403669 0.01672906 0.122514725 0.017788382 0.10470031 0.023973534 0.038387947
0.01970474 0.05979961 0.056603882 0.058141828 0.0018157806 0.10110748 0.08699719 0.018151483
0.090119705 0.08867685 0.07894921 0.15628433 0.01068309 0.06491907 0.12346843 0.09581432
0.16341421 0.02357589 0.05457072 0.041219447 0.072993636 0.17920974 0.16620207 0.07304398
0.060498785 0.10554214 0.24970913 0.07516322 0.0020487187 0.10655478 0.15052469 0.024655469
00000000: 3c41 133e b51b 1c3d eeb6 943b 6b10 da3d
00000010: 6859 1b3d 1e51 863d 82b5 4f3d 8c0c d03d
00000020: 7a1c 873d 8ee9 1c3d 44f8 063e a9aa 2a3d
00000030: 9ab9 183b 2f21 113e ddea 783d d754 4d3d
00000040: c13a b33d c959 873d 9567 9d3d 00a7 0e3e
00000050: 7e66 253c 3e02 a73d 56ff 833d fddb ab3d
00000060: 3840 df3d 717f 593d 12ca a43b cf6c 203e
00000070: 9cb8 103d 20c0 173e 7624 173e 162e 0a3e
00000080: b89e 573d 14fc 2f3e 8756 513e 3641 c03d
00000090: d3d2 593c cae6 cd3d e3b7 e53d 05b5 933d
000000a0: 71e3 ef3d 2f33 083e b9a2 1c3e 1f4c 053e
000000b0: ac3c 273c faa4 303d 41e4 fe3d bb15 c23d
000000c0: 5b55 0b3e bb1f 5d3d 1017 423c 91ac 353e
000000d0: bad1 af3c 018e ab3d 2066 2d3d b3a6 693d
000000e0: 6cc6 7d3d 908f cd3d 548d 323e d9b7 9e3d
000000f0: 81d2 863c e4e6 c83d 1f6a 423e b32e e73c
00000100: 0cf1 b93d 45c8 713d fc8d f33d 03dc 1c3e
00000110: 82e3 e43b 3073 b63d 65aa 4c3e ebc9 3f3d
00000120: 1746 053e d330 123d 8c20 543b aa12 de3d
00000130: 09ab 513c 4676 f23d f92e c83c 9d48 8f3d
00000140: 12a8 6a3c c4dc 973d cc1f 933d 3c90 373c
00000150: 7c63 e939 c32a e33d 83a8 7d3d aa95 213d
00000160: 783a cb3d 62b6 a23d 27b1 a13d e528 093e
00000170: f1e5 493d b025 9a3d 3ee5 2d3d 640f 833d
00000180: 63e0 ba3d f861 b23c 6f7f 723b 4f1c c73d
00000190: 992f 933d bcb3 0e3e b8c3 143e 865d 1f3e
000001a0: 872c 5d3d 947e ed3d 8c2e 563e e6ba b03d
000001b0: 4d5b 123c 0897 343e df0c d33d a140 203d
000001c0: d7d5 b13d dd4a 103e fb57 043e a446 ef3d
000001d0: 4a99 263c 07e2 4e3d b3f0 cc3d 392e 103e
000001e0: 93dd 403e 89db ab3d fd93 373d dbc5 e33d
000001f0: 1284 a93c fc87 223e 91c4 7a3d 371d 0d3e
00000200: de0c 543d 9093 143e e961 3f3e 3079 f03c
00000210: 0ccb 733c e88a ec3d abfd 2d3e 22b2 9e3c
00000220: 0e0a 193e 796e 2d3e 3474 423e fecf f43d
00000230: 87ff 2b3d 1e29 ae3d 9282 073e b6e5 ab3d
00000240: 1f5d ca3d db69 a83d 035c 293c 7072 fa3d
00000250: d6fc 4d3d 41b4 1c3e 51a6 d33c 1002 353d
00000260: 64f3 2a3d cd65 333d 6951 d33d be5c 7c3c
00000270: cbc3 323d 3bc5 823d 56df 523d 1fb2 f43c
00000280: 5e72 9a3d 588e ff3d 3b39 9d3d 0b37 fd3d
00000290: fa78 443d 3cc8 7a3d 145a 403d 215a a83d
000002a0: 17b0 ea3d a690 8a3d 0a99 cf3b 6b8b 5d3d
000002b0: cc09 923d dc7a 0c3e 60f4 7b3d 3888 913d
000002c0: e8d9 df3d a2b5 d93d 0447 5a3e 78ac b93d
000002d0: 360c 873b 12f0 be3d 2699 b83d 4615 9e3c
000002e0: d7d4 083e c289 033e 78e3 ce3d a21f 303e
000002f0: 245b 5d3c 3328 963d eca5 023e 9cae b33d
00000300: cdb7 4b3e 6e27 d43d 6cb8 743d 2afd e03d
00000310: 93e2 cb3c 3f5c 213e 8d65 bf3d b232 933d
00000320: 1933 3c3d 4165 183e 3119 713e 48bd b43d
00000330: a590 903c 283f d43d 5ef3 4b3e 49a1 973c
00000340: 7274 213e 19b0 253e 5e80 d53d bbad 2e3e
00000350: 5471 1e3c bff1 fc3d 712d 613e 35b9 413d
00000360: 448f 573d 0db9 bf3c 620b 893c 00e9 fa3d
00000370: f1b8 913c 1e6d d63d 2564 c43c ae3c 1d3d
00000380: d66b a13c 70f0 743d 79d9 673d 2026 6e3d
00000390: 7dff ed3a 7011 cf3d 952b b23d 6bb2 943c
000003a0: ae90 b83d 359c b53d 20b0 a13d 0009 203e
000003b0: 2108 2f3c 4af4 843d 04dd fc3d 4c3a c43d
000003c0: 0e56 273e 3a22 c13c 8c85 5f3d b9d5 283d
000003d0: b07d 953d c282 373e e030 2a3e 1598 953d
000003e0: 93cd 773d 7a26 d83d c0b3 7f3e 2def 993d
000003f0: cc43 063b 6439 da3d 2523 1a3e 44fa c93c

mlp2.bias f4 [24]
0.01161346 -0.059972152 -0.063353874 -0.033633664 -0.051602818 -0.07733372 -0.07595217 0.032542307
0.026837302 0.0055192052 -0.059380345 0.041291196 0.05461912 -0.06825837 0.013429809 0.0471443
0.0032011175 -0.0082845455 0.039435793 -0.042026844 0.021790564 0.04951361 0.022912508 -0.06779405
00000000: 6246 3e3c 5ca5 75bd adbf 81bd 74c3 09bd
00000010: 7a5d 53bd 2461 9ebd d08c 9bbd 154b 053d
00000020: e7d9 db3c 73da b43b ce38 73bd f520 293d
00000030: 4cb8 5f3d 0bcb 8bbd b408 5c3c 621a 413d
00000040: d7c9 513b e7bb 07bc 6d87 213d 5724 2cbd
00000050: 2082 b23c c8ce 4a3d 03b3 bb3c 9bd7 8abd

bn2.weight f4 [72]
0.49957684 0.48474514 0.42528582 0.49950615 0.44813034 0.4995013 0.49198458 0.48521802
0.4468138 0.45288104 0.4989839 0.4404111 0.42381483 0.49903917 0.49929556 0.4491384
0.49900636 0.49933478 0.49975887 0.4997981 0.43097612 0.4763858 0.49914807 0.48964417
0.4996374 0.48782128 0.4371207 0.49951848 0.4444118 0.5 0.5 0.5
0.48275605 0.5 0.49877188 0.49354747 0.4307286 0.49787512 0.49953946 0.43862182
0.49998754 0.4995301 0.5 0.5 0.4408213 0.4936453 0.49947056 0.49974
0.49982587 0.4986604 0.43956438 0.49976382 0.4354519 0.5 0.47674215 0.5
0.46302217 0.5 0.49902704 0.45214897 0.4444711 0.49861288 0.4994736 0.41903934
0.49999672 0.4996397 0.5 0.5 0.42262128 0.49943426 0.49947557 0.47812322
00000000: 89c8 ff3e 8430 f83e 10bf d93e 45bf ff3e
00000010: 5771 e53e a2be ff3e 67e5 fb3e 7f6e f83e
00000020: c7c4 e43e 06e0 e73e d17a ff3e 907d e13e
00000030: 42fe d83e 1082 ff3e aba3 ff3e 78f5 e53e
00000040: c37d ff3e cfa8 ff3e 65e0 ff3e 89e5 ff3e
00000050: e7a8 dc3e d7e8 f33e 5690 ff3e a4b2 fa3e
00000060: 79d0 ff3e b6c3 f93e 49ce df3e e3c0 ff3e
00000070: f289 e33e 0000 003f 0000 003f 0000 003f
00000080: cd2b f73e 0000 003f 075f ff3e 41b2 fc3e
00000090: 7688 dc3e 7de9 fe3e a3c3 ff3e 0a93 e03e
000000a0: 5efe ff3e 69c2 ff3e 0000 003f 0000 003f
000000b0: 54b3 e13e 14bf fc3e 9bba ff3e ecdd ff3e
000000c0: 2de9 ff3e 6a50 ff3e 950e e13e 0be1 ff3e
000000d0: 8df3 de3e 0000 003f 8c17 f43e 0000 003f
000000e0: 3e11 ed3e 0000 003f 7980 ff3e 1280 e73e
000000f0: b791 e33e 304a ff3e 01bb ff3e 538c d63e
00000100: 92ff ff3e c6d0 ff3e 0000 003f 0000 003f
00000110: d161 d83e d9b5 ff3e 43bb ff3e 91cc f43e

bn2.bias f4 [72]
-0.030913796 -0.030143475 -0.0341834 -0.026695825 -0.036276624 -0.032441046 -0.036730997 -0.033707425
-0.041357566 -0.041336454 -0.03193743 -0.030050442 -0.024413189 -0.02625209 -0.026364014 -0.036612406
-0.030826481 -0.028382126 -0.016975066 -0.031318776 -0.03256073 -0.027092136 -0.029364455 -0.021654343
-0.031619843 -0.032966074 -0.032597676 -0.02893089 -0.04218598 -0.03435402 -0.029924434 -0.03667668
-0.040962037 -0.039060183 -0.030496228 -0.029941227 -0.031554468 -0.015540128 -0.033692546 -0.047396254
-0.038662236 -0.04075295 -0.031637207 -0.036761567 -0.035187252 -0.03329545 -0.030437093 -0.027393512
-0.03320982 -0.03689898 -0.030198453 -0.034415625 -0.038834453 -0.03265462 -0.039916933 -0.031574786
-0.049527224 -0.03387028 -0.0417564 -0.041015644 -0.03763606 -0.04084918 -0.031323127 -0.04458416
-0.03489497 -0.031134626 -0.031986747 -0.03834611 -0.02847818 -0.038231857 -0.036226247 -0.041767918
00000000: ee3e fdbc 73ef f6bc e503 0cbd 34b1 dabc
00000010: cc96 14bd e7e0 04bd 3e73 16bd cc10 0abd
00000020: 8d66 29bd 6a50 29bd d3d0 02bd 582c f6bc
00000030: 2bfe c7bc a00e d7bc 58f9 d7bc e4f6 15bd
00000040: d187 fcbc a281 e8bc 4b0f 8bbc 1e48 00bd
00000050: 665e 05bd 54f0 ddbc ba8d f0bc 7364 b1bc
00000060: cf83 01bd 6f07 07bd 2485 05bd 7900 edbc
00000070: 35cb 2cbd cdb6 0cbd 1624 f5bc 493a 16bd
00000080: cfc7 27bd 92fd 1fbd 3ad3 f9bc 4e47 f5bc
00000090: 423f 01bd 059c 7ebc 3201 0abd 9322 42bd
000000a0: 4b5c 1ebd 91ec 26bd 0496 01bd 4c93 16bd
000000b0: 8220 10bd cf60 08bd 3657 f9bc 5c68 e0bc
000000c0: 0507 08bd 6323 17bd bf62 f7bc 66f7 0cbd
000000d0: e010 1fbd dac0 05bd f07f 23bd 9054 01bd
000000e0: 0fdd 4abd 90bb 0abd c208 2bbd 0500 28bd
000000f0: 4528 1abd 7851 27bd ae4c 00bd e19d 36bd
00000100: 07ee 0ebd 0b0e ffbc 8904 03bd d010 1dbd
00000110: 124b e9bc 0299 1cbd f961 14bd d614 2bbd

bn2.running_mean f4 [72]
-0.16674079 -0.3171683 -0.10587349 -0.28327543 0.22394903 0.2721245 -0.012331805 0.3544469
0.44809997 0.52124757 0.009490439 0.30387372 -0.12999697 0.11299583 -0.14914459 0.2216439
0.42639238 0.20530212 0.40060237 0.47131857 -0.15661353 -0.046311595 -0.12090457 -0.029762216
-0.17354846 -0.31727052 -0.12469821 -0.28346345 0.09974928 0.15122777 -0.07850722 0.14429328
0.21249469 0.29154113 -0.041947298 0.1506395 -0.15115076 0.05283331 -0.1654949 0.091270246
0.24468848 0.0826835 0.22846954 0.2809927 -0.15686753 -0.09625462 -0.14029178 -0.08526567
-0.2942416 -0.38499004 -0.2197271 -0.36748013 0.06480245 0.14158303 -0.22783242 0.10313724
0.196968 0.29088113 -0.13084318 0.13143167 -0.28139123 0.021265741 -0.32507208 0.04911101
0.23829837 0.03994541 0.22467025 0.28044686 -0.172323 -0.24227884 -0.27835518 -0.22713865
00000000: 19be 2abe e263 a2be 33d4 d8bd 7a09 91be
00000010: e552 653e e753 8b3e 570b 4abc 107a b53e
00000020: 5c6d e53e 7b70 053f c97d 1b3c 5695 9b3e
00000030: ed1d 05be 5c6a e73d 5cb9 18be 9ef6 623e
00000040: 1a50 da3e b83a 523e c11b cd3e ab50 f13e
00000050: 4c5f 20be 3ab1 3dbd d19c f7bd e4cf f3bc
00000060: b0b6 31be 4871 a2be c661 ffbd 1f22 91be
00000070: 5a49 cc3d 74db 1a3e 65c8 a0bd 9ec1 133e
00000080: 3598 593e e144 953e eed0 2bbd 3e41 1a3e
00000090: 44c7 1abe be67 583d 7f77 29be e5eb ba3d
000000a0: 9e8f 7a3e f855 a93d ebf3 693e 46de 8f3e
000000b0: e2a1 20be 2421 c5bd a6a8 0fbe c59f aebd
000000c0: d6a6 96be 6a1d c5be 2400 61be 5b26 bcbe
000000d0: 26b7 843d 24fb 103e e74c 69be 9e39 d33d
000000e0: fbb1 493e 5fee 943e c1fb 05be 0696 063e
000000f0: 8312 90be 7e35 ae3c d96f a6be a028 493d
00000100: 7d04 743e cc9d 233d f50f 663e bb96 8f3e
00000110: 7175 30be f217 78be 9284 8ebe 0997 68be

bn2.running_var f4 [72]
0.13151726 0.041343916 0.1645256 0.056804363 0.3055899 0.26000544 0.27292395 0.41805607
0.3802286 0.26588804 0.2353318 0.31210497 0.17053725 0.21591422 0.16264495 0.3231072
0.26993865 0.3105225 0.26410037 0.23323174 0.07175866 0.24098939 0.1729405 0.25077242
0.120528646 0.041165814 0.13453911 0.056473553 0.14740653 0.13321306 0.16569689 0.15212388
0.12322052 0.07908042 0.15936528 0.13944617 0.13471848 0.1407183 0.1350494 0.15188013
0.102025695 0.1536233 0.10592768 0.081297845 0.07137335 0.15825668 0.1414607 0.16164066
0.24314119 0.08064901 0.2425772 0.11317347 0.20425013 0.14794278 0.36997646 0.22239698
0.15187192 0.08029152 0.2794197 0.17010915 0.2823908 0.18646324 0.3127224 0.2207995
0.11320187 0.22015283 0.11220848 0.08228849 0.08446661 0.35448763 0.29983884 0.35046253
00000000: 76ac 063e 3d58 293d 6679 283e b1ab 683d
00000010: 4876 9c3e 6f1f 853e b0bc 8b3e 720b d63e
00000020: 53ad c23e 7a22 883e d2fa 703e 39cc 9f3e
00000030: 51a1 2e3e 9e18 5d3e 668c 263e 4f6e a53e
00000040: 6635 8a3e cefc 9e3e 2a38 873e 4dd4 6e3e
00000050: 34f6 923d ecc5 763e 5017 313e 3e65 803e
00000060: b9d7 f63d 7c9d 283d 9fc4 093e d050 673d
00000070: bdf1 163e 0169 083e 72ac 293e 5dc6 1b3e
00000080: 0a5b fc3d eaf4 a13d a730 233e faca 0e3e
00000090: a4f3 093e 7518 103e 644a 0a3e 7786 1b3e
000000a0: d9f2 d03d 6d4f 1d3e 9df0 d83d 7c7f a63d
000000b0: 312c 923d 0a0e 223e 13db 103e 2185 253e
000000c0: 01fa 783e 4f2b a53d 2866 783e 7ec7 e73d
000000d0: f226 513e 507e 173e 8e6d bd3e 09bc 633e
000000e0: 5084 1b3e e16f a43d 1910 8f3e 1831 2e3e
000000f0: 8795 903e 38f0 3e3e 271d a03e 4419 623e
00000100: 62d6 e73d be6f 613e 8fcd e53d de86 a83d
00000110: d4fc ac3d 677f b53e 7a84 993e d36f b33e

mlp3.weight f4 [24, 72]
0.0 0.0 0.0 0.0 0.0 0.0 0.0 0.0
0.0 0.0 0.0 0.0 0.0 0.0 0.0 0.0
0.0 0.0 0.0 0.0 0.0 0.0 0.0 0.0
0.13934432 0.21135557 0.111135386 0.10997134 0.1376887 0.1340795 0.17138904 0.136739
0.13999426 0.1422246 0.16163124 0.14342897 0.18834428 0.19911964 0.12920089 0.10431436
0.13401335 0.15601276 0.16665725 0.15306069 0.1425715 0.13970557 0.11376624 0.12138774
0.0 0.0 0.0 0.0 0.0 0.0 0.0 0.0
0.0 0.0 0.0 0.0 0.0 0.0 0.0 0.0
0.0 0.0 0.0 0.0 0.0 0.0 0.0 0.0
0.26880038 0.24685548 0.2723944 0.20084973 0.19409198 0.21753173 0.18704018 0.22661509
0.17540166 0.19623137 0.1615473 0.13959333 0.15166664 0.2160314 0.21011166 0.15520424
0.20065033 0.2519233 0.15581232 0.201658 0.1882143 0.16167147 0.22744076 0.17696324
0.12693283 0.14683108 0.1068728 0.13510409 0.1800167 0.1821606 0.11270207 0.09965028
0.14692734 0.100910306 0.17781675 0.09716908 0.13342376 0.10327581 0.057552613 0.13495035
0.13070753 0.17020114 0.11679801 0.08528237 0.16925564 0.15129177 0.0839169 0.09294047
0.0 0.0 0.0 0.0 0.0 0.0 0.0 0.0
0.0 0.0 0.0 0.0 0.0 0.0 0.0 0.0
0.0 0.0 0.0 0.0 0.0 0.0 0.0 0.0
0.13493676 0.17015061 0.15132366 0.17781198 0.2579495 0.16404195 0.15729518 0.17037554
0.14101511 0.20334665 0.15943031 0.10288475 0.193108 0.26289645 0.2068063 0.18215136
0.17391837 0.17340781 0.21427184 0.26335952 0.09288956 0.11698749 0.18725896 0.19439243
0.11944806 0.11916724 0.14950252 0.1305846 0.13289371 0.1296712 0.09617726 0.12854391
0.14727323 0.09538019 0.10968503 0.10948378 0.045894634 0.18818085 0.1532984 0.098312765
0.09480968 0.12427632 0.03468583 0.112815484 0.08018504 0.06755966 0.13109022 0.17094524
0.0 0.0 0.0 0.0 0.0 0.0 0.0 0.0
0.0 0.0 0.0 0.0 0.0 0.0 0.0 0.0
0.0 0.0 0.0 0.0 0.0 0.0 0.0 0.0
0.0 0.0 0.0 0.0 0.0 0.0 0.0 0.0
0.0 0.0 0.0 0.0 0.0 0.0 0.0 0.0
0.0 0.0 0.0 0.0 0.0 0.0 0.0 0.0
0.08621371 0.086649604 0.12363019 0.16462131 0.11330427 0.09060259 0.1008967 0.1264859
0.18435109 0.18083414 0.14765443 0.11433232 0.17252758 0.105067305 0.12014753 0.09019423
00000000: 0000 0000 0000 0000 0000 0000 0000 0000
00000010: 0000 0000 0000 0000 0000 0000 0000 0000
00000020: 0000 0000 0000 0000 0000 0000 0000 0000
00000030: 0000 0000 0000 0000 0000 0000 0000 0000
00000040: 0000 0000 0000 0000 0000 0000 0000 0000
00000050: 0000 0000 0000 0000 0000 0000 0000 0000
00000060: 47b0 0e3e 986d 583e f39a e33d a738 e13d
00000070: 44fe 0c3e 234c 093e 9c80 2f3e 4f05 0c3e
00000080: a85a 0f3e 53a3 113e a982 253e 0bdf 123e
00000090: 53dd 403e 05e6 4b3e 3d4d 043e c4a2 d53d
000000a0: cc3a 093e cfc1 1f3e 33a8 2a3e f1bb 1c3e
000000b0: 43fe 113e fa0e 0f3e 46fe e83d 239a f83d
000000c0: 0000 0000 0000 0000 0000 0000 0000 0000
000000d0: 0000 0000 0000 0000 0000 0000 0000 0000
000000e0: 0000 0000 0000 0000 0000 0000 0000 0000
000000f0: 0000 0000 0000 0000 0000 0000 0000 0000
00000100: 0000 0000 0000 0000 0000 0000 0000 0000
00000110: 0000 0000 0000 0000 0000 0000 0000 0000
00000120: 34a0 893e afc7 7c3e 4777 8b3e 8dab 4d3e
00000130: 0cc0 463e a3c0 5e3e 7687 3f3e c90d 683e
00000140: 7e9c 333e e0f0 483e a86c 253e 8ef1 0e3e
00000150: 804e 1b3e 5637 5d3e 8327 573e dced 1e3e
00000160: 4877 4d3e 17fc 803e 448d 1f3e 6f7f 4e3e
00000170: 40bb 403e 358d 253e 3be6 683e da35 353e
00000180: aefa 013e e35a 163e 20e0 da3d ba58 0a3e
00000190: 4c56 383e 4f88 3a3e 58d0 e63d 7215 cc3d
000001a0: 1f74 163e 10aa ce3d 9815 363e 9500 c73d
000001b0: 3da0 083e 4582 d33d 4abc 6b3d 6d30 0a3e
000001c0: 32d8 053e 3549 2e3e cc33 ef3d 86a8 ae3d
000001d0: 5a51 2d3e 3bec 1a3e a0dc ab3d 9357 be3d
000001e0: 0000 0000 0000 0000 0000 0000 0000 0000
000001f0: 0000 0000 0000 0000 0000 0000 0000 0000
00000200: 0000 0000 0000 0000 0000 0000 0000 0000
00000210: 0000 0000 0000 0000 0000 0000 0000 0000
00000220: 0000 0000 0000 0000 0000 0000 0000 0000
00000230: 0000 0000 0000 0000 0000 0000 0000 0000
00000240: dd2c 0a3e f63b 2e3e 97f4 1a3e 5814 363e
00000250: f511 843e 9dfa 273e fd11 213e ed76 2e3e
00000260: 4466 103e 1b3a 503e b341 233e 3db5 d23d
00000270: 1bbe 453e 5d9a 863e 08c5 533e e385 3a3e
00000280: a817 323e d191 313e 146a 5b3e 0fd7 863e
00000290: e23c be3d 2397 ef3d d0c0 3f3e cf0e 473e
000002a0: 2fa1 f43d f40d f43d 3017 193e f8b7 053e
000002b0: 4a15 083e 87c8 043e 95f8 c43d 04a1 033e
000002c0: cbce 163e b056 c33d 8ca2 e03d 0839 e03d
000002d0: 03fc 3b3d 7bb2 403e 41fa 1c3e 3458 c93d
000002e0: 942b c23d 9584 fe3d bb12 0e3d ce0b e73d
000002f0: 0e38 a43d b85c 8a3d 843c 063e 450c 2f3e
00000300: 0000 0000 0000 0000 0000 0000 0000 0000
00000310: 0000 0000 0000 0000 0000 0000 0000 0000
00000320: 0000 0000 0000 0000 0000 0000 0000 0000
00000330: 0000 0000 0000 0000 0000 0000 0000 0000
00000340: 0000 0000 0000 0000 0000 0000 0000 0000
00000350: 0000 0000 0000 0000 0000 0000 0000 0000
00000360: 0000 0000 0000 0000 0000 0000 0000 0000
00000370: 0000 0000 0000 0000 0000 0000 0000 0000
00000380: 0000 0000 0000 0000 0000 0000 0000 0000
00000390: 0000 0000 0000 0000 0000 0000 0000 0000
000003a0: 0000 0000 0000 0000 0000 0000 0000 0000
000003b0: 0000 0000 0000 0000 0000 0000 0000 0000
000003c0: d090 b03d 5975 b13d d331 fd3d 7d92 283e
000003d0: 120c e83d da8d b93d eea2 ce3d 8585 013e
000003e0: 88c6 3c3e 962c 393e b932 173e 1027 ea3d
000003f0: 12ab 303e 872d d73d e90f f63d c1b7 b83d

mlp3.bias f4 [24]
-0.17936653 -0.07006956 -0.060806546 0.10306164 0.18270248 0.07136362 0.21088353 -0.14115298
-0.19518383 0.015420503 0.019395595 0.0755139 -0.021897526 -0.15884468 -0.18644986 -0.14768793
0.033698615 0.22612068 0.0666014 -0.11740572 0.07635025 0.02933998 -0.037244402 -0.045443125
00000000: dcab 37be a180 8fbd 4910 79bd fb11 d33d
00000010: 5c16 3b3e 1727 923d daf1 573e 688a 10be
00000020: 45de 47be 47a6 7c3c 83e3 9e3c 08a7 9a3d
00000030: 7162 b3bc 2ea8 22be b6ec 3ebe 813b 17be
00000040: 8f07 0a3d 2e8c 673e 5166 883d 6972 f0bd
00000050: 855d 9c3d 665a f03c 968d 18bd 9222 3abd

bn3.weight f4 [72]
0.4866321 0.439066 0.44752282 0.471074 0.48985112 0.4647149 0.4325127 0.4423653
0.43741134 0.46014848 0.4465531 0.42038223 0.42928582 0.4455239 0.4669397 0.43884346
0.46786034 0.45227054 0.46526197 0.4874202 0.42352447 0.43930563 0.44448832 0.44012386
0.49814832 0.49769068 0.49647474 0.49704272 0.49727696 0.49826542 0.49780375 0.49463028
0.4957125 0.49605218 0.4983895 0.49580327 0.49592313 0.4969989 0.49306956 0.49662834
0.49712119 0.49703097 0.4947943 0.49710974 0.49633628 0.49740753 0.49551943 0.49595127
0.39867842 0.4074515 0.41425994 0.39769256 0.4104846 0.41053745 0.40743673 0.40640885
0.42133602 0.4256051 0.41078675 0.42262852 0.40429735 0.4078166 0.41032195 0.4079842
0.42179498 0.4118052 0.39386234 0.41729328 0.4059179 0.4041922 0.40918517 0.4096596
00000000: d827 f93e 42cd e03e b621 e53e 9c30 f13e
00000010: c4cd fa3e 1def ed3e 4e72 dd3e b47d e23e
00000020: 61f4 df3e 9598 eb3e 9ca2 e43e 573c d73e
00000030: 5acb db3e b51b e43e b812 ef3e 17b0 e03e
00000040: 648b ef3e 0190 e73e d136 ee3e 248f f93e
00000050: 33d8 d83e abec e03e f993 e33e ea57 e13e
00000060: 4c0d ff3e 50d1 fe3e f031 fe3e 627c fe3e
00000070: 169b fe3e a51c ff3e 22e0 fe3e 2e40 fd3e
00000080: 07ce fd3e 8dfa fd3e e92c ff3e edd9 fd3e
00000090: a3e9 fd3e a476 fe3e 9d73 fc3e 1246 fe3e
000000a0: ab86 fe3e d87a fe3e ae55 fd3e 2b85 fe3e
000000b0: ca1f fe3e 33ac fe3e b9b4 fd3e 53ed fd3e
000000c0: 941f cc3e 7c9d d03e e119 d43e 5c9e cb3e
000000d0: 0a2b d23e f731 d23e 8c9b d03e d214 d03e
000000e0: 5bb9 d73e e9e8 d93e a452 d23e c462 d83e
000000f0: 1000 cf3e 56cd d03e b815 d23e 4ee3 d03e
00000100: 83f5 d73e 22d8 d23e 53a8 c93e 77a7 d53e
00000110: 79d4 cf3e 48f2 ce3e b880 d13e e7be d13e

bn3.bias f4 [72]
-0.039787456 -0.057814144 -0.040467016 -0.063775614 -0.07399819 -0.06652029 -0.027421791 -0.03587747
-0.033466138 -0.06353945 -0.06589756 -0.0294994 -0.031907793 -0.054626763 -0.0723036 -0.043917805
-0.048249293 -0.068865985 -0.07540801 -0.07178705 -0.02624607 -0.03412256 -0.0512027 -0.0252819
-0.047420572 -0.05177022 -0.042517643 -0.056383215 -0.05476481 -0.05382501 -0.05085322 -0.033676673
-0.052938864 -0.035703827 -0.062630564 -0.03553659 -0.051247872 -0.052368544 -0.02994201 -0.03468471
-0.020586537 -0.032649294 -0.037352588 -0.020837752 -0.031799026 -0.02446074 -0.035939638 -0.028068256
-0.07309547 -0.006287421 -0.009341929 -0.05957126 -0.01689029 -0.050638884 0.031958543 -0.024638612
0.02797485 0.024243662 -0.056506626 0.018252186 -0.065347135 -0.03656566 -0.020380057 -0.022630764
-0.002334924 -0.00019432942 -0.07178786 -0.0057406523 -0.057294987 -0.03511361 -0.016665338 -0.056546032
00000000: 2cf8 22bd 86ce 6cbd bec0 25bd ca9c 82bd
00000010: 5d8c 97bd ca3b 88bd aaa3 e0bc 41f4 12bd
00000020: ca13 09bd f920 82bd 4df5 86bd baa8 f1bc
00000030: bfb1 02bd 50c0 5fbd e913 94bd 28e3 33bd
00000040: 0da1 45bd 9c09 8dbd 846f 9abd 1705 93bd
00000050: 0002 d7bc 19c4 0bbd ecb9 51bd fd1b cfbc
00000060: 133c 42bd 030d 54bd fb26 2ebd 16f2 66bd
00000070: 1151 60bd 9d77 5cbd 774b 50bd 8df0 09bd
00000080: 6cd6 58bd 2d3e 12bd 7444 80bd d18e 11bd
00000090: 4ae9 51bd 6680 56bd f248 f5bc 8e11 0ebd
000000a0: 19a5 a8bc 44bb 05bd 07ff 18bd efb3 aabc
000000b0: b23f 02bd e461 c8bc 7135 13bd 66ef e5bc
000000c0: 14b3 95bd b606 cebb e40e 19bc fe00 74bd
000000d0: 815d 8abc b86a 4fbd f6e6 023d ead6 c9bc
000000e0: 832b e53c a59a c63c 7e73 67bd 9c85 953c
000000f0: b8d4 85bd e0c5 15bd 14f4 a6bc 2764 b9bc
00000100: 8605 19bb e8c4 4bb9 8305 93bd 151c bcbb
00000110: 26ae 6abd 4ad3 0fbd bf85 88bc d09c 67bd

bn3.running_mean f4 [72]
0.8349555 0.82105976 0.8356661 0.8248124 0.83674777 0.7998028 0.7996931 0.84292936
0.85688835 0.8404709 0.83961165 0.8798503 0.8447265 0.82776934 0.86454815 0.8461307
0.8447376 0.8346391 0.857919 0.83356464 0.86044663 0.86330914 0.85632706 0.8161999
-0.021756044 -0.020481072 -0.022134513 -0.022206364 -0.020316398 -0.021065613 -0.021391818 -0.020975754
-0.021855107 -0.021054259 -0.021321794 -0.02063816 -0.02069179 -0.021921488 -0.021250512 -0.021601468
-0.020824725 -0.02117362 -0.02272139 -0.020425262 -0.022034083 -0.019435441 -0.021414544 -0.020720303
-1.0529727 -1.1109111 -1.1377791 -1.0884469 -1.1202111 -1.104943 -1.1063429 -1.0361394
-1.0570722 -1.0667207 -1.1353958 -1.0719085 -1.0162654 -1.1347781 -1.0855815 -1.0263911
-1.0735538 -1.0742817 -1.0470219 -1.1055579 -1.0705489 -1.0439816 -1.0680838 -1.1152931
00000000: a5bf 553f f930 523f 37ee 553f e826 533f
00000010: 1a35 563f e0bf 4c3f b0b8 4c3f 38ca 573f
00000020: 095d 5b3f 1a29 573f caf0 563f df3d 613f
00000030: ff3f 583f b1e8 533f 0753 5d3f 069c 583f
00000040: b940 583f e8aa 553f 94a0 5b3f 7e64 553f
00000050: 3b46 5c3f d401 5d3f 4038 5b3f 7af2 503f
00000060: bb39 b2bc ecc7 a7bc 7053 b5bc 1fea b5bc
00000070: 936e a6bc cb91 acbc e53d afbc 58d5 abbc
00000080: 7b09 b3bc fb79 acbc 0bab aebc 5c11 a9bc
00000090: d481 a9bc b194 b3bc 8e15 aebc 90f5 b0bc
000000a0: 9d98 aabc 4d74 adbc 3522 babc e152 a7bc
000000b0: d280 b4bc 1337 9fbc 8e6d afbc a0bd a9bc
000000c0: cfc7 86bf 5632 8ebf bfa2 91bf 3a52 8bbf
000000d0: 1463 8fbf c66e 8dbf a59c 8dbf 37a0 84bf
000000e0: 244e 87bf 4e8a 88bf a654 91bf 4c34 89bf
000000f0: fc14 82bf 6940 91bf 56f4 8abf c960 83bf
00000100: 366a 89bf 1082 89bf d004 86bf ec82 8dbf
00000110: bf07 89bf 30a1 85bf f8b6 88bf edc1 8ebf

bn3.running_var f4 [72]
2.6066391 2.497193 2.5949256 2.5379055 2.5678954 2.4016716 2.4165506 2.6116245
2.6950755 2.6044993 2.5841913 2.7902658 2.631183 2.549387 2.7307982 2.6492896
2.634007 2.5787482 2.7060525 2.5604532 2.7065716 2.7021086 2.6973767 2.4649673
0.23284286 0.23307206 0.23313265 0.23309486 0.2330952 0.23292117 0.23287524 0.2330106
0.23303643 0.2329362 0.23334661 0.2332229 0.23278221 0.23320287 0.23309793 0.23285252
0.23300189 0.23306362 0.233041 0.23306088 0.23322326 0.23296735 0.23300141 0.23315342
3.2165375 3.5511734 3.6781056 3.390989 3.5984492 3.5193856 3.529939 3.1331642
3.2239444 3.294459 3.658278 3.3022072 3.0480332 3.6574953 3.391963 3.072337
3.346953 3.3398912 3.1545417 3.5196574 3.2711058 3.2048666 3.3086936 3.5638912
00000000: 2dd3 2640 03d2 1f40 4313 2640 0b6d 2240
00000010: 6658 2440 fdb4 1940 c4a8 1a40 db24 2740
00000020: 1e7c 2c40 1eb0 2640 6463 2540 b793 3240
00000030: 4d65 2840 2829 2340 66c5 2e40 f68d 2940
00000040: 9293 2840 360a 2540 f72f 2d40 77de 2340
00000050: 7838 2d40 59ef 2c40 d2a1 2c40 06c2 1d40
00000060: 5c6e 6e3e 71aa 6e3e 53ba 6e3e 6bb0 6e3e
00000070: 82b0 6e3e e382 6e3e d976 6e3e 559a 6e3e
00000080: 1aa1 6e3e d486 6e3e 6af2 6e3e fcd1 6e3e
00000090: 765e 6e3e bccc 6e3e 39b1 6e3e e470 6e3e
000000a0: 0c98 6e3e 3ba8 6e3e 4da2 6e3e 83a7 6e3e
000000b0: 14d2 6e3e fe8e 6e3e ec97 6e3e c5bf 6e3e
000000c0: c0db 4d40 6d46 6340 1566 6b40 f705 5940
000000d0: fe4c 6640 9d3d 6140 85ea 6140 c385 4840
000000e0: 1b55 4e40 6bd8 5240 3a21 6a40 5d57 5340
000000f0: fa12 4340 6714 6a40 ec15 5940 2ba1 4440
00000100: 7a34 5640 c7c0 5540 03e4 4940 1142 6140
00000110: cc59 5140 891c 4d40 a3c1 5340 cb16 6440

mlp4.weight f4 [1, 72]
0.00017566948 0.0 0.0 0.0 0.0 0.019469166 0.057840947 0.023109889
0.0 0.027252516 0.039112102 0.055702426 0.0 0.0 0.0 0.0
0.0 0.02529135 0.0 0.0 0.04893639 0.0 0.0 0.0
0.054394837 0.23835109 0.05330841 0.0 0.26212132 0.020335093 0.23404603 0.02714735
0.05857291 0.061056927 0.094558306 0.034731876 0.09425108 0.18026495 0.10853302 0.1557414
0.06344624 0.0 0.005681211 0.1737471 0.0 0.124685585 0.08076149 0.093493655
0.07752848 0.12541333 0.091152094 0.01657121 0.0 0.0 0.0 0.08669551
0.036048908 0.035947144 0.07286639 0.030153813 0.03309653 0.17945711 0.07829834 0.08852442
0.0 0.0 0.021552002 0.13977642 0.050436404 0.03771949 0.07648596 0.06285771
00000000: eb33 3839 0000 0000 0000 0000 0000 0000
00000010: 0000 0000 cd7d 9f3c a1ea 6c3d f350 bd3c
00000020: 0000 0000 ab40 df3c 0334 203d 3a28 643d
00000030: 0000 0000 0000 0000 0000 0000 0000 0000
00000040: 0000 0000 ce2f cf3c 0000 0000 0000 0000
00000050: 8671 483d 0000 0000 0000 0000 0000 0000
00000060: 1fcd 5e3d 4f12 743e eb59 5a3d 0000 0000
00000070: c434 863e c895 a63c c3a9 6f3e 1f64 de3c
00000080: 26ea 6f3d d416 7a3d c9a7 c13d 0343 0e3d
00000090: b606 c13d 6097 383e 8f46 de3d ac7a 1f3e
000000a0: 1af0 813d 0000 0000 7429 ba3b c3ea 313e
000000b0: 0000 0000 285b ff3d 4866 a53d 9a79 bf3d
000000c0: 40c7 9e3d 5a6c 003e f3ad ba3d 59c0 873c
000000d0: 0000 0000 0000 0000 0000 0000 6a8d b13d
000000e0: 05a8 133d 503d 133d f93a 953d 2105 f73c
000000f0: 3a90 073d 9bc3 373e e15a a03d 4b4c b53d
00000100: 0000 0000 0000 0000 d38d b03c 8d21 0f3e
00000110: 6796 4e3d c07f 1a3d aca4 9c3d 8bbb 803d
