utility-model-selected/dim-3/utility-84.pt (torch, 23458 bytes, 17 tensors)

bn1.running_mean f4 [3]
0	0x3f0082e2	0.5019971
1	0x3f0004df	0.5000743
2	0x3eff6e3b	0.49888787

bn1.running_var f4 [3]
0	0x3d67521e	0.056474797
1	0x3d5c1428	0.05373016
2	0x3d58adcf	0.05290013

mlp1.weight f4 [24, 3]
0	0x3ebd69e3	0.36994848
1	0x3e0f2b0c	0.13981265
2	0x3e74d43b	0.23909084
3	0x3e9ab5a1	0.30216697
4	0x3e20b229	0.15692963
5	0x3e2fcbf0	0.1716764
6	0x3d9b5bbc	0.07585856
7	0x3ec77e69	0.3896363
8	0x3d7fe408	0.062473327
9	0x3ed93efe	0.42430872
10	0x3eb449b2	0.35212475
11	0x3e9bd848	0.30438447
12	0x3ecadefe	0.39623255
13	0x3e9db3b0	0.30801153
14	0x00000000	0.0
15	0x3ea369fc	0.31916797
16	0x3e232535	0.15932162
17	0x3df0d42a	0.11759217
18	0x00000000	0.0
19	0x3ebf8a6d	0.37410298
20	0x00000000	0.0
21	0x3ef7c3d4	0.48391593
22	0x3effa348	0.4992926
23	0x3e9efc85	0.31052032
24	0x3ef70501	0.48246005
25	0x3d91fb54	0.07128015
26	0x3ce8b5ba	0.028406966
27	0x3e37517d	0.17902179
28	0x3d96d5cc	0.07364997
29	0x3e9a4bf5	0.30136076
30	0x3db7d838	0.08976787
31	0x3ed58a46	0.41707057
32	0x3ea74bba	0.32674962
33	0x3e3cc5d4	0.1843484
34	0x3ea86ee8	0.32897115
35	0x3e6e0188	0.23242772
36	0x00000000	0.0
37	0x3ef0a89f	0.47003648
38	0x3eb4f575	0.3534352
39	0x3ef7ef8f	0.48424956
40	0x3da52c8f	0.080651395
41	0x3d16377c	0.036674008
42	0x3e9190f8	0.28430915
43	0x3ea93ce6	0.33054274
44	0x00000000	0.0
45	0x3ecc6275	0.39918867
46	0x3e8ac087	0.27100012
47	0x3e95c820	0.29254246
48	0x3efc6b6a	0.493007
49	0x3e8dfc82	0.2773171
50	0x00000000	0.0
51	0x3ef789e9	0.48347405
52	0x3d98d09c	0.07461664
53	0x3a1fa51d	0.00060899724
54	0x3dfe4764	0.124159604
55	0x3ebb15b5	0.3654
56	0x3a3201fe	0.0006790458
57	0x3e774e23	0.241509
58	0x3e7be11f	0.24597596
59	0x3e922e2a	0.28550845
60	0x3dc81542	0.097696796
61	0x3ee6b268	0.45057988
62	0x3f000000	0.5
63	0x3e4af7c8	0.19821084
64	0x3ef0bc5b	0.47018704
65	0x3ecd2949	0.4007056
66	0x3ece6a7f	0.40315625
67	0x3e8d06ce	0.27544254
68	0x3eecca9e	0.46248335
69	0x3e4df2ba	0.20112124
70	0x3ea39f09	0.31957272
71	0x3ee73ddf	0.4516439

mlp1.bias f4 [24]
0	0x3d84ebaa	0.06490262
1	0x3d28ec17	0.041240778
2	0xbdc8482d	-0.097793914
3	0x3f063ab3	0.5243332
4	0x3e4586ca	0.19289699
5	0x3f06afca	0.5261198
6	0xbf2856fb	-0.6575772
7	0x3d876c8a	0.06612499
8	0xbe8e81e2	-0.27833468
9	0xbe33e805	-0.17568977
10	0x3e9e7d82	0.3095513
11	0xbe7ffc43	-0.24998574
12	0x3f080193	0.531274
13	0xbe931340	-0.28725624
14	0x3ef999b1	0.4875007
15	0xbdbc9c78	-0.092095315
16	0x3eaead8b	0.34116778
17	0xbe066815	-0.13125642
18	0xbe14e9d9	-0.14542331
19	0x3ca13566	0.019678783
20	0x3ed5afb0	0.417356
21	0x3ef936f0	0.48674726
22	0xbe51f40e	-0.20503256
23	0x3e9be30a	0.30446655

mlp2.weight f4 [24, 72]
0	0x00000000	0.0
1	0x00000000	0.0
2	0x3d44476d	0.04791968
3	0x00000000	0.0
4	0x3d05675c	0.032569274
5	0x00000000	0.0
6	0x3e8a691b	0.27033314
7	0x00000000	0.0
8	0x3cbc37ec	0.022975884
9	0x00000000	0.0
10	0x3b32f896	0.0027308813
11	0x00000000	0.0
12	0x3c674a03	0.014116767
13	0x3d427110	0.047471106
14	0x00000000	0.0
15	0x00000000	0.0
16	0x3d6daab8	0.05802414
17	0x3d6904c1	0.0568893
18	0x3dfb0187	0.12256151
19	0x00000000	0.0
20	0x3be7dacc	0.007075643
21	0x00000000	0.0
22	0x00000000	0.0
23	0x00000000	0.0
24	0x3ceef470	0.029169291
25	0x3d710253	0.058840107
26	0x3de99c68	0.11406785
27	0x00000000	0.0
28	0x3dc66e77	0.09689038
29	0x00000000	0.0
30	0x3e310604	0.17287451
31	0x3e109d8e	0.14122602
32	0x3cc82c3e	0.024435159
33	0x3a16bc21	0.0005750079
34	0x3d91b7ef	0.07115161
35	0x00000000	0.0
36	0x3de40b17	0.11134928
37	0x3c6fd3ec	0.014637928
38	0x3d6e85f7	0.058233228
39	0x3d7607a3	0.060065877
40	0x3d8aaab5	0.06770841
41	0x3dc9545f	0.09830546
42	0x3dbedc9e	0.09319423
43	0x3d88b689	0.06675441
44	0x3e0ff623	0.14058737
45	0x3d4726d6	0.04862102
46	0x3d0de095	0.034638006
47	0x3c5eccd3	0.013598639
48	0x00000000	0.0
49	0x3b58c54f	0.003307659
50	0x3d949877	0.07255643
51	0x00000000	0.0
52	0x3d8b6ef2	0.068082705
53	0x00000000	0.0
54	0x3de88f4a	0.11355455
55	0x3ce5b0c6	0.028038394
56	0x38587dae	5.161546e-05
57	0x00000000	0.0
58	0x3cf67773	0.030086255
59	0x00000000	0.0
60	0x3dfba773	0.12287798
61	0x3c83ee3b	0.016104808
62	0x3d6980fc	0.057007775
63	0x3bba952f	0.0056940536
64	0x3d2f1e73	0.042753648
65	0x3bbcd355	0.0057624974
66	0x3d8a205c	0.06744453
67	0x3c0234f4	0.007947195
68	0x3dfc6e17	0.123256855
69	0x3d349821	0.044090394
70	0x3d003a18	0.031305403
71	0x3c542c5c	0.012950029
72	0x00000000	0.0
73	0x00000000	0.0
74	0x3dd9d4f2	0.10636319
75	0x00000000	0.0
76	0x3e1da847	0.15396224
77	0x00000000	0.0
78	0x3e7b7402	0.24555972
79	0x3d201860	0.039085746
80	0x3d2bcb8e	0.04194217
81	0x00000000	0.0
82	0x3d4e4e6d	0.05036776
83	0x00000000	0.0
84	0x3c829d41	0.015944125
85	0x3dd9444f	0.10608732
86	0x3e141406	0.14460763
87	0x00000000	0.0
88	0x3d3de73e	0.046363108
89	0x3cb2c29e	0.021821316
90	0x3e2136d1	0.15743567
91	0x00000000	0.0
92	0x00000000	0.0
93	0x3d3769c8	0.044778615
94	0x00000000	0.0
95	0x00000000	0.0
96	0x3c6066c7	0.013696379
97	0x3cb02507	0.021502031
98	0x3df17480	0.11789799
99	0x00000000	0.0
100	0x3e068186	0.13135347
101	0x3b2d826e	0.0026475447
102	0x3e312861	0.1730056
103	0x3e2fd1ed	0.17169924
104	0x3d328791	0.043586317
105	0x00000000	0.0
106	0x3db5f07d	0.0888376
107	0x3b96cb84	0.0046018977
108	0x3df2d803	0.11857607
109	0x3d8c9af5	0.06865493
110	0x3e2c82f0	0.16846824
111	0x3cba4528	0.022738054
112	0x3e30959c	0.17244571
113	0x3dd345e1	0.10316063
114	0x3defddc4	0.1171222
115	0x00000000	0.0
116	0x3e0d793b	0.13815777
117	0x3e2fd0c3	0.1716948
118	0x00000000	0.0
119	0x3da2ff1f	0.07958817
120	0x3d19051f	0.0373584
121	0x3ce1e43b	0.02757465
122	0x3d8b29c8	0.067950785
123	0x00000000	0.0
124	0x3e1feb51	0.1561711
125	0x00000000	0.0
126	0x3d558759	0.05213103
127	0x3e21cc6c	0.15800637
128	0x3c94f265	0.018181989
129	0x00000000	0.0
130	0x3db938e1	0.09044052
131	0x00000000	0.0
132	0x3e00b913	0.125706
133	0x3c841267	0.016122056
134	0x3e2fadef	0.17156194
135	0x3d6444eb	0.055729788
136	0x3e1e6a27	0.15470181
137	0x3d9cb371	0.07651413
138	0x3de0cc8c	0.10976514
139	0x00000000	0.0
140	0x3e05184b	0.12997548
141	0x3da4f25d	0.080540396
142	0x00000000	0.0
143	0x39acf97e	0.00032992283
144	0x00000000	0.0
145	0x00000000	0.0
146	0x3d7c1dc2	0.061551817
147	0x00000000	0.0
148	0x3d80e6a1	0.06293989
149	0x00000000	0.0
150	0x3e5fc473	0.21852283
151	0x3b72b606	0.0037034764
152	0x3dad7cd1	0.084710725
153	0x00000000	0.0
154	0x00000000	0.0
155	0x00000000	0.0
156	0x3d948c8e	0.07253371
157	0x3d8cc5ec	0.06873688
158	0x00000000	0.0
159	0x00000000	0.0
160	0x3cf41ab4	0.02979789
161	0x3ce3eaaa	0.027821857
162	0x3e00dffa	0.1258544
163	0x00000000	0.0
164	0x3c10f12e	0.008846564
165	0x3cc0933c	0.023507707
166	0x00000000	0.0
167	0x00000000	0.0
168	0x00000000	0.0
169	0x3cdab452	0.026697312
170	0x3e02efaf	0.12786745
171	0x3b0ae93c	0.0021196147
172	0x3d97e5fc	0.07416913
173	0x00000000	0.0
174	0x3e73cb96	0.2380813
175	0x3de4e701	0.11176873
176	0x3c8dbe3c	0.017302625
177	0x00000000	0.0
178	0x3dbe6e48	0.09298378
179	0x3d2da7ca	0.042396344
180	0x3de34e20	0.110988855
181	0x3c704442	0.014664711
182	0x3da6ef32	0.08151092
183	0x3c4fa990	0.012674704
184	0x3ddc3db2	0.10753955
185	0x3dba5414	0.09098068
186	0x3d9d8012	0.07690443
187	0x3d1ae118	0.037812322
188	0x3d80161a	0.062542155
189	0x3dcbfd0d	0.09960375
190	0x3c94ad92	0.018149171
191	0x3c3930e0	0.011303157
192	0x3c9b2cb6	0.018942218
193	0x3ba66017	0.005077373
194	0x3dc63b98	0.09679335
195	0x3b8de482	0.004330219
196	0x3ca7a799	0.020465659
197	0x00000000	0.0
198	0x3cade5e7	0.02122779
199	0x00000000	0.0
200	0x3b957cab	0.0045619807
201	0x00000000	0.0
202	0x3debba02	0.115100875
203	0x3c46f152	0.012142496
204	0x3db9b7bf	0.0906825
205	0x3c199ce2	0.009375783
206	0x3d5c7b33	0.05382843
207	0x3ca3a93a	0.019978154
208	0x3d260f8a	0.040542163
209	0x3da955ca	0.08268316
210	0x3da84ed7	0.082181625
211	0x3bb84b0b	0.00562418
212	0x3e10f66a	0.141565
213	0x3cb9f444	0.022699483
214	0x3d3e6a8b	0.046488326
215	0x3c2c1339	0.01050263
216	0x3b840cda	0.0040298523
217	0x00000000	0.0
218	0x3dda2cb4	0.10653058
219	0x00000000	0.0
220	0x3bc860b0	0.0061150417
221	0x00000000	0.0
222	0x3e51b588	0.20479405
223	0x00000000	0.0
224	0x3cd9db85	0.026593933
225	0x00000000	0.0
226	0x3d2e8f52	0.04261715
227	0x00000000	0.0
228	0x3d250afe	0.040293686
229	0x3c3c0b09	0.01147724
230	0x3d6f00ac	0.05835025
231	0x00000000	0.0
232	0x00000000	0.0
233	0x3c432e35	0.011912872
234	0x3e01b528	0.12666762
235	0x00000000	0.0
236	0x3d5c34b5	0.053761203
237	0x00000000	0.0
238	0x00000000	0.0
239	0x00000000	0.0
240	0x3bf1084a	0.0073557245
241	0x3bb5d2b3	0.005548799
242	0x3d7048fa	0.058663346
243	0x00000000	0.0
244	0x3df0a58e	0.11750327
245	0x00000000	0.0
246	0x3e8db8b9	0.27679995
247	0x3dfade33	0.122494124
248	0x3db9d4e1	0.090738066
249	0x00000000	0.0
250	0x3dd82228	0.1055339
251	0x00000000	0.0
252	0x3d8c5a32	0.06853141
253	0x3d9c1606	0.07621388
254	0x3d4a9c87	0.049465682
255	0x3d4de720	0.050269246

mlp2.bias f4 [24]
0	0xbda1b921	-0.07896639
1	0x3d328bc6	0.04359033
2	0xbdb41234	-0.087925345
3	0xbd95c71d	-0.073133685
4	0x3dd886df	0.105725996
5	0xbd9f1dd5	-0.07769362
6	0xbcdf7dc2	-0.027281646
7	0xbd8b5a56	-0.068043396
8	0xbdbee1eb	-0.09320434
9	0xbd96f3cb	-0.073707186
10	0xbd83ee5d	-0.064419486
11	0xbd180a06	-0.037118934
12	0x3d17c0d9	0.03704915
13	0xbda2e1c8	-0.079532206
14	0xbd6da595	-0.05801924
15	0xbd4389a4	-0.047738686
16	0xbdbfefbb	-0.09371897
17	0xbdd9a0cc	-0.10626373
18	0xbd57330d	-0.05253892
19	0xbdbb2cda	-0.09139414
20	0x3dbc43a4	0.09192589
21	0x3d5e3f36	0.0542595
22	0x3d9009d4	0.070331246
23	0xbdce8af7	-0.10085099

bn2.weight f4 [72]
0	0x3ece113c	0.40247524
1	0x3eccef01	0.40026096
2	0x3ef6507a	0.48108274
3	0x3ec68003	0.3876954
4	0x3ef80c96	0.48447102
5	0x3ed46e30	0.41490316
6	0x3f000000	0.5
7	0x3ede8e05	0.43467727
8	0x3ef6969c	0.4816178
9	0x3ebdb290	0.37050295
10	0x3ee622fe	0.44948572
11	0x3ed825d0	0.4221635
12	0x3ef07f5b	0.46972165
13	0x3ef5711c	0.47937858
14	0x3ee9d4fa	0.456703
15	0x3ec371b5	0.3817269
16	0x3ef1a583	0.47196588
17	0x3eee3661	0.46525863
18	0x3ef578e3	0.47943792
19	0x3ec61b95	0.38692918
20	0x3ee735b5	0.45158163
21	0x3edde82c	0.43341196
22	0x3ebf860e	0.37406963
23	0x3eccda0c	0.40010107
24	0x3edb640a	0.4284976
25	0x3ee18279	0.44044855
26	0x3efa2773	0.48858222
27	0x3ed6c178	0.4194448
28	0x3efd06be	0.49419206
29	0x3ed1c0ea	0.40967494
30	0x3f000000	0.5
31	0x3ef32f7e	0.4749717
32	0x3efa8293	0.48927745
33	0x3ec03313	0.37538967
34	0x3f000000	0.5
35	0x3ee40863	0.4453765
36	0x3f000000	0.5
37	0x3ef2ecfc	0.4744643
38	0x3f000000	0.5
39	0x3ee877ef	0.45404002
40	0x3f000000	0.5
41	0x3ef3b4c5	0.47598854
42	0x3ef84c28	0.48495603
43	0x3ee37b9c	0.44430244
44	0x3f000000	0.5
45	0x3f000000	0.5
46	0x3ee0b5c3	0.43888673
47	0x3ee84753	0.45366916
48	0x3ed83d90	0.42234468
49	0x3edae4bb	0.42752632
50	0x3ef9a636	0.4875962
51	0x3ed47f10	0.4150319
52	0x3efcb17e	0.49354166
53	0x3ed21c5c	0.4103726
54	0x3ef967ea	0.48712093
55	0x3eea8c5e	0.45810217
56	0x3eec9b0b	0.46212038
57	0x3ec2dc51	0.38058713
58	0x3f000000	0.5
59	0x3ede144a	0.43374854
60	0x3f000000	0.5
61	0x3ee8818f	0.45411345
62	0x3f000000	0.5
63	0x3ed9407c	0.4243201
64	0x3f000000	0.5
65	0x3eed0ef0	0.4630046
66	0x3ef85ac6	0.48506755
67	0x3ec2dcc4	0.38059056
68	0x3f000000	0.5
69	0x3efb0989	0.49030712
70	0x3ed67a9b	0.41890416
71	0x3edcc99c	0.43122566

bn2.bias f4 [72]
0	0xbcfa2234	-0.030533887
1	0xbca767e6	-0.020435285
2	0xbd1c3b77	-0.038142648
3	0xbcd87e0c	-0.026427291
4	0xbd008d2e	-0.03138464
5	0xbce634c6	-0.028101336
6	0xbd38c786	-0.045112155
7	0xbd00cf74	-0.031447843
8	0xbd1db448	-0.038502008
9	0xbb8e3a03	-0.0043404116
10	0xbd0bead3	-0.034159493
11	0xbcc8bfce	-0.024505522
12	0xbd27b1c0	-0.040941
13	0xbd0e15d4	-0.034688786
14	0xbd3ceff7	-0.046127286
15	0xbc86dbcf	-0.016462235
16	0xbd17e4e1	-0.03708351
17	0xbd00866a	-0.031378187
18	0xbd14f97e	-0.036370747
19	0xbce12574	-0.02748368
20	0xbcf19dca	-0.029494185
21	0xbcf0edc8	-0.029410258
22	0xbc8d520b	-0.017251035
23	0xbc963b10	-0.01833871
24	0xbcce5aff	-0.025189875
25	0xbcf8b37c	-0.030359022
26	0xbd12aaa9	-0.035807285
27	0xbcbdb168	-0.023155883
28	0xbd29f896	-0.041496836
29	0xbca802c4	-0.020509131
30	0xbd391f21	-0.045195702
31	0xbd2552af	-0.040362056
32	0xbd131338	-0.035907
33	0xb9f0a0cd	-0.00045896173
34	0xbd0d38e9	-0.034478102
35	0xbd069215	-0.03285416
36	0xbd2b1b0d	-0.041773845
37	0xbcf57565	-0.029963205
38	0xbd4fdaf5	-0.050745923
39	0xbcef91cd	-0.029244328
40	0xbd0f9c49	-0.035061155
41	0xbcb11b24	-0.021619387
42	0xbd1e42f2	-0.038638063
43	0xbcd22244	-0.025651105
44	0xbd2d05ae	-0.042241745
45	0xbd29c55e	-0.04144799
46	0xbc5478b0	-0.012968227
47	0xbd1a460f	-0.03766447
48	0xbcc6aeec	-0.024253331
49	0xbcee8d6d	-0.029120171
50	0xbd1117bc	-0.035423025
51	0xbcfa0370	-0.030519217
52	0xbd23bfbd	-0.039977778
53	0xbced001d	-0.028930718
54	0xbd34114c	-0.043961808
55	0xbd13790a	-0.036004104
56	0xbd2dc6b3	-0.042425822
57	0xbc9dc72d	-0.019260013
58	0xbd1890ba	-0.037247397
59	0xbcfe1184	-0.031014211
60	0xbd15c3fb	-0.036563855
61	0xbcd7eaee	-0.02635714
62	0xbd79e642	-0.061010607
63	0xbcd5106c	-0.026008807
64	0xbd24f2aa	-0.040270485
65	0xbc96e15c	-0.018418007
66	0xbd230dbf	-0.03980803
67	0xbcc557ed	-0.024089778
68	0xbd19580f	-0.037437495
69	0xbd5e03b7	-0.05420276
70	0xbcb2063f	-0.021731494
71	0xbd0fcda3	-0.03510822

bn2.running_mean f4 [72]
0	0x3db6a476	0.08918087
1	0x3d55a78e	0.052161746
2	0xbd8c2543	-0.068430446
3	0x3f085181	0.53249365
4	0x3e535a1e	0.20639846
5	0x3f06a1cb	0.52590626
6	0xbed1c901	-0.40973666
7	0x3e2e12ce	0.16999361
8	0xbe2735be	-0.16329095
9	0xbe0f5a28	-0.13999236
10	0x3ea5309b	0.32263646
11	0xbe2bb0ac	-0.16766614
12	0x3f073961	0.5282193
13	0xbe2db759	-0.16964473
14	0x3ef8c0a7	0.48584482
15	0xbc39563f	-0.011312067
16	0x3eb0fec1	0.34569362
17	0xbd7d33fd	-0.061817158
18	0xbddf74a0	-0.10910916
19	0x3d3a8e79	0.04554603
20	0x3ee3bd1a	0.4448021
21	0x3f01666d	0.50546914
22	0xbd5ff1d1	-0.054673973
23	0x3ea6038a	0.32424575
24	0x3d36e8b0	0.0446555
25	0x3d0123b8	0.031528205
26	0xbd993b09	-0.07481963
27	0x3e8508a3	0.25983152
28	0x3defd5f7	0.117107324
29	0x3eb4d4eb	0.35318694
30	0xbed1c901	-0.40973666
31	0x3cc0e3c1	0.023546102
32	0xbe2aa43f	-0.16664217
33	0xbe121582	-0.14266017
34	0x3e3aa875	0.18228324
35	0xbe31da7c	-0.17368501
36	0x3e8aa32f	0.27077624
37	0xbe313320	-0.17304659
38	0x3e9f3d92	0.31101662
39	0xbd62f454	-0.05540879
40	0x3e38ab56	0.1803411
41	0xbd9c8c96	-0.07644002
42	0xbde60c4e	-0.11232816
43	0x3c4eb545	0.01261646
44	0x3e4dacb5	0.20085414
45	0x3e767fd0	0.24072194
46	0xbddb7cdb	-0.10717174
47	0x3e2d2393	0.16908102
48	0x3cbe5b20	0.023236811
49	0x3cacf84f	0.021114497
50	0xbde25b13	-0.11052527
51	0x3e7e900d	0.24859639
52	0x3dce334c	0.10068378
53	0x3eb4b45f	0.35293862
54	0xbf286752	-0.65782654
55	0xbda5635d	-0.08075593
56	0xbe90d3e5	-0.28286663
57	0xbe37027c	-0.17872041
58	0x3e2c59c5	0.1683112
59	0xbe83c669	-0.25737312
60	0x3e871be5	0.2638847
61	0xbe9752b6	-0.2955529
62	0x3e9f0854	0.3106104
63	0xbe0983e5	-0.1342922
64	0x3e2c6ed3	0.16839151
65	0xbe1398ee	-0.14413807
66	0xbe1c5d02	-0.15269855
67	0xbc6a6130	-0.014305398
68	0x3e3111ba	0.17291918
69	0x3e65972c	0.22420949
70	0xbe83d871	-0.2575107
71	0x3e162bd1	0.14665152

bn2.running_var f4 [72]
0	0x3e3ead9d	0.18620916
1	0x3e09c12f	0.134526
2	0x3e04f470	0.1298387
3	0x3ec2cf55	0.38048807
4	0x3e6c8b4a	0.2310001
5	0x3e134d0d	0.14384861
6	0x3cb270cb	0.0217823
7	0x3ecc4353	0.39895114
8	0x3e0117ca	0.12606731
9	0x3dc24c8e	0.09487258
10	0x3e890824	0.26764023
11	0x3df0e41d	0.11762259
12	0x3ead042e	0.3379225
13	0x3dffa91b	0.12483426
14	0x3e464d77	0.19365488
15	0x3e5dca9f	0.21659325
16	0x3e9ac7f6	0.30230683
17	0x3e2760fb	0.16345589
18	0x3de684eb	0.11255821
19	0x3e2b26e0	0.16714048
20	0x3ed35aed	0.41280308
21	0x3ec89438	0.39175582
22	0x3e7b539e	0.24543616
23	0x3e9da288	0.30788064
24	0x3e0583f3	0.13038616
25	0x3de0d2a8	0.109776795
26	0x3df8abfc	0.121421784
27	0x3dd813c1	0.10550643
28	0x3e061c18	0.13096654
29	0x3d297290	0.04136902
30	0x3cb270cb	0.0217823
31	0x3e3241d4	0.17407924
32	0x3df7f0cc	0.12106475
33	0x3dba27ab	0.09089597
34	0x3df7ac4a	0.120934084
35	0x3ddc50e4	0.10757616
36	0x3dce0fe4	0.10061625
37	0x3df51aa4	0.11967972
38	0x3d870d2a	0.06594308
39	0x3e18bae3	0.14915042
40	0x3e031d33	0.12804107
41	0x3e135a46	0.14389905
42	0x3ddd77fa	0.10813899
43	0x3dfe231a	0.12409039
44	0x3e08b45e	0.13350055
45	0x3debf1e4	0.11520746
46	0x3e1e963b	0.15486996
47	0x3e05e137	0.13074194
48	0x3e241967	0.16025315
49	0x3dfcf319	0.12351055
50	0x3e23386c	0.15939492
51	0x3e0284da	0.12745991
52	0x3e1f419c	0.15552372
53	0x3d2b7062	0.041855223
54	0x3e0d7b48	0.1381656
55	0x3eaf7732	0.34270626
56	0x3e7021ac	0.23450345
57	0x3e009046	0.12555036
58	0x3e13c1bb	0.14429371
59	0x3e43f534	0.19136506
60	0x3de78f8d	0.11306677
61	0x3e74350a	0.23848358
62	0x3d88a4a0	0.06672025
63	0x3e819827	0.25311396
64	0x3e16e243	0.1473475
65	0x3e604dec	0.21904725
66	0x3e17ed97	0.14836727
67	0x3e2460cd	0.16052552
68	0x3e3cf4ae	0.18452713
69	0x3e15cb5d	0.14628358
70	0x3eb61638	0.35563827
71	0x3e2d8c32	0.16948012

mlp3.weight f4 [24, 72]
0	0x3d5bea29	0.05369011
1	0x3d3249b4	0.04352732
2	0x3df00935	0.11720506
3	0x3d0c5af5	0.03426643
4	0x3de9abc3	0.11409714
5	0x3cc0f906	0.023556244
6	0x3d8d55c4	0.06901124
7	0x3d05deab	0.032683056
8	0x3d00f87e	0.03148698
9	0x3dcaa6ef	0.09895121
10	0x3d3f4612	0.046697684
11	0x3d592f83	0.053023826
12	0x3d146e43	0.036237966
13	0x3db71e99	0.08941383
14	0x3d1bb486	0.038013957
15	0x3cf45f05	0.029830465
16	0x3d1d4bc9	0.038402352
17	0x3d9bf66c	0.076153606
18	0x3d1da931	0.03849143
19	0x3d40a33d	0.047030676
20	0x3d120a39	0.03565428
21	0x3e08226d	0.13294382
22	0x3d28f763	0.04125155
23	0x3d424fa0	0.047439218
24	0x3e242fc4	0.16033846
25	0x3e1c245f	0.1524825
26	0x3e50a340	0.20374775
27	0x3e59f92f	0.21286462
28	0x3deff9eb	0.1171759
29	0x3e4d3d01	0.20042802
30	0x3e06107e	0.13092229
31	0x3e2bc44d	0.16774102
32	0x3e0cf697	0.13765942
33	0x3e514c43	0.20439248
34	0x3e181d84	0.1485501
35	0x3e210b10	0.15726876
36	0x3e4575b3	0.1928318
37	0x3df607c5	0.12013201
38	0x3dfa11be	0.12210415
39	0x3e43088b	0.19046228
40	0x3e0a078f	0.13479446
41	0x3e062d46	0.13103208
42	0x3e457ce4	0.19285923
43	0x3dfcf3b3	0.123511694
44	0x3e5c43b2	0.21510199
45	0x3e50014d	0.20312996
46	0x3e32339d	0.17402501
47	0x3de2f379	0.11081595
48	0x3de193e4	0.11014536
49	0x3d97d4a1	0.074136026
50	0x3e208ec8	0.15679467
51	0x3e4dc95d	0.20096345
52	0x3d846461	0.06464458
53	0x3e41fef5	0.18944915
54	0x3db5c8e1	0.08876205
55	0x3dfc6e5d	0.123257376
56	0x3e18d5c4	0.14925295
57	0x3e2905fb	0.16506188
58	0x3debbec1	0.11510993
59	0x3e019b36	0.12656865
60	0x3db4bbb3	0.08824863
61	0x3dcee901	0.10103036
62	0x3da7e4f8	0.08197969
63	0x3e3bfe93	0.18358831
64	0x3dfd609d	0.12371943
65	0x3e055916	0.13022265
66	0x3db5e07e	0.08880709
67	0x3de51606	0.11185841
68	0x3d865e0f	0.06560909
69	0x3de2c577	0.1107282
70	0x3dc6af5e	0.097014174
71	0x3e4ef231	0.20209576
72	0x3d5b0358	0.053469986
73	0x3c4724c8	0.012154765
74	0x3cd95c49	0.026533263
75	0x3da40f85	0.080107726
76	0x3c461d8b	0.0120920045
77	0x3baf436d	0.005348614
78	0x3d8f463d	0.06995819
79	0x3d280eff	0.041029926
80	0x3c4153e0	0.0117997825
81	0x3d1d0551	0.03833515
82	0x3d2d55d2	0.042318173
83	0x3d9fb3ec	0.07797989
84	0x3d32724c	0.043566033
85	0x3d87d833	0.066330336
86	0x3d9a7b35	0.07543031
87	0x3dbdb8ba	0.092637494
88	0x3ddf52db	0.10904475
89	0x3dd3e94f	0.103472345
90	0x3d8305df	0.06397604
91	0x3df1adcd	0.11800728
92	0x3d57ff93	0.05273397
93	0x3d6d1943	0.05788542
94	0x3d43220a	0.047639884
95	0x3c775cb2	0.015097784
96	0x3e40168e	0.18758604
97	0x3e237156	0.15961203
98	0x3e36a006	0.17834482
99	0x3de3ee2b	0.11129411
100	0x3df4243a	0.11920972
101	0x3e30712c	0.17230672
102	0x3dbaa86d	0.09114156
103	0x3e3bc77b	0.18337815
104	0x3df3b5bf	0.118999
105	0x3e1612ea	0.14655653
106	0x3daa01be	0.083011135
107	0x3e0f5df2	0.14000681
108	0x3df8fac1	0.121572025
109	0x3e4009d7	0.18753754
110	0x3de60e3b	0.11233183
111	0x3e1a378d	0.15060253
112	0x3e09e956	0.13467917
113	0x3dcfbea2	0.10143782
114	0x3e04c4c2	0.12965682
115	0x3e0ba5e6	0.13637504
116	0x3e482eba	0.19549075
117	0x3e175ace	0.14780733
118	0x3e1393af	0.14411806
119	0x3dd0efda	0.10201998
120	0x3dade2fd	0.0849056
121	0x3dce1c90	0.100640416
122	0x3e2a054d	0.16603585
123	0x3ddccc61	0.1078117
124	0x3e09c1c9	0.1345283
125	0x3d951a8f	0.07280456
126	0x3d911178	0.0708341
127	0x3de7cb21	0.11318041
128	0x3e1c7c98	0.15281904
129	0x3e2e554a	0.17024723
130	0x3d7d5cb2	0.06185598
131	0x3de05513	0.109537266
132	0x3e160438	0.14650047
133	0x3d8f565a	0.06998892
134	0x3de6213b	0.11236807
135	0x3dfdfe21	0.12401987
136	0x3e1e34d1	0.15449835
137	0x3e1a7370	0.15083098
138	0x3d831d52	0.06402077
139	0x3e32765a	0.1742796
140	0x3e089be0	0.13340712
141	0x3df294b8	0.11844772
142	0x3d7040e0	0.05865562
143	0x3dc66a6d	0.09688268
144	0x3cb953cc	0.022622965
145	0x3dc67e90	0.09692109
146	0x3caecd90	0.021338254
147	0x3d525e91	0.051359717
148	0x3ccb101f	0.02478796
149	0x3ada5bc9	0.0016659434
150	0x3da8e7e6	0.08247356
151	0x3c0a5b44	0.008444611
152	0x3d4d4101	0.05011082
153	0x3c873f56	0.016509693
154	0x3de65ee5	0.112485684
155	0x3bff37d3	0.007788637
156	0x3c233a9f	0.009962707
157	0x3ce43233	0.027855968
158	0x3d95cef3	0.07314863
159	0x3c70a228	0.014687099
160	0x3d23ba6c	0.039972708
161	0x3c5cb749	0.013471433
162	0x3bf62dc9	0.0075127822
163	0x3cc36997	0.02385406
164	0x3dcf2c55	0.101158775
165	0x3dea76b2	0.114484206
166	0x00000000	0.0
167	0x3d4eef35	0.050521094
168	0x3db980cb	0.090577684
169	0x3e061ac9	0.13096155
170	0x3df9171e	0.121626124
171	0x3de00eeb	0.109403454
172	0x3d507f97	0.05090293
173	0x3dab8bcb	0.08376273
174	0x3df8498f	0.12123405
175	0x3dea9909	0.114549704
176	0x3d9d310d	0.07675371
177	0x3dbaf6f4	0.09129134
178	0x3ddfc6f8	0.10926622
179	0x3d6c140f	0.057636317
180	0x3e0edad0	0.13950658
181	0x3e1fb94a	0.15598026
182	0x3dcc83dd	0.099860884
183	0x3df633df	0.120216124
184	0x3e19dbe7	0.15025292
185	0x3d857bc5	0.06517748
186	0x3e21d243	0.15802865
187	0x3dc260dc	0.09491131
188	0x3dba1d72	0.090876475
189	0x3dd64f60	0.10464358
190	0x3d9d4860	0.0767982
191	0x3dc7e477	0.09760373
192	0x00000000	0.0
193	0x00000000	0.0
194	0x00000000	0.0
195	0x00000000	0.0
196	0x00000000	0.0
197	0x00000000	0.0
198	0x00000000	0.0
199	0x00000000	0.0
200	0x00000000	0.0
201	0x00000000	0.0
202	0x00000000	0.0
203	0x00000000	0.0
204	0x00000000	0.0
205	0x00000000	0.0
206	0x00000000	0.0
207	0x00000000	0.0
208	0x00000000	0.0
209	0x00000000	0.0
210	0x00000000	0.0
211	0x00000000	0.0
212	0x00000000	0.0
213	0x00000000	0.0
214	0x00000000	0.0
215	0x00000000	0.0
216	0x3d0b6586	0.034032367
217	0x3d0d8059	0.03454623
218	0x3cd2c66a	0.025729377
219	0x3da2655d	0.0792949
220	0x3cc6e35e	0.024278339
221	0x3c4adb85	0.012381439
222	0x3cc011f0	0.023446053
223	0x3dabd88d	0.08390913
224	0x3db356b4	0.08756772
225	0x3d5111c0	0.05104232
226	0x3d312174	0.043244794
227	0x3dc23974	0.094836146
228	0x3ca705d1	0.020388516
229	0x3d4cce53	0.050001454
230	0x3d37b4e5	0.04485025
231	0x3d490f5c	0.049086913
232	0x3ce4f177	0.02794717
233	0x3d5e81db	0.05432306
234	0x3cd9ba07	0.026577963
235	0x3dec3f8a	0.115355566
236	0x3cdfdfd7	0.027328415
237	0x3d139070	0.03602642
238	0x3b5c5538	0.003362013
239	0x3d4cf126	0.050034665
240	0x3e292082	0.16516307
241	0x3dcbfcea	0.09960349
242	0x3dcd0153	0.10010018
243	0x3dbf97c4	0.09355119
244	0x3e094b84	0.13407713
245	0x3de2ab57	0.11067837
246	0x3e292aa1	0.16520168
247	0x3e13833a	0.14405528
248	0x3dc1ff74	0.09472552
249	0x3dc23362	0.09482457
250	0x3dd78c75	0.10524837
251	0x3e2223ea	0.15834013
252	0x3e52fa70	0.20603347
253	0x3dbea62c	0.093090385
254	0x3e16140c	0.14656085
255	0x3e2602f0	0.16212058

mlp3.bias f4 [24]
0	0x3e1f00d6	0.15527663
1	0x3d4c7f19	0.049925897
2	0x3e3c6e5e	0.18401477
3	0x3e33bf0b	0.17553346
4	0x3e81ca91	0.25349858
5	0xbc69c318	-0.014267705
6	0x3e7a7d88	0.24461949
7	0xbde68546	-0.11255889
8	0x3db3fb96	0.087882206
9	0x3e44b9de	0.19211528
10	0xbc9ac13b	-0.018890968
11	0x3e4c4bb7	0.19950758
12	0x3e45de16	0.19323
13	0xbd2aea4c	-0.04172735
14	0x3e4621d7	0.19348846
15	0x3d96aa23	0.0735667
16	0x3d8ec251	0.06970657
17	0x3db5aa6d	0.08870397
18	0x3cee1543	0.029062873
19	0xbccb6a1d	-0.024830872
20	0x3d38ad35	0.045087058
21	0xbc07fab0	-0.008299515
22	0xbdef554d	-0.11686192
23	0x3e73db6a	0.23814169

bn3.weight f4 [72]
0	0x3ef1b8f8	0.47211432
1	0x3eebeded	0.4607996
2	0x3eef8818	0.4678352
3	0x3eedf6bb	0.46477303
4	0x3eec17de	0.4611196
5	0x3ee3a09c	0.44458473
6	0x3ef217b3	0.47283706
7	0x3eebc708	0.46050286
8	0x3eebe504	0.46073163
9	0x3ef0f69e	0.47063154
10	0x3ef609a1	0.4805422
11	0x3eec180e	0.46112102
12	0x3eed0e56	0.463
13	0x3eef01fd	0.46681204
14	0x3ee7622b	0.45192084
15	0x3eebd16b	0.4605821
16	0x3ef070a4	0.46960938
17	0x3ef070ec	0.46961153
18	0x3eea3734	0.45745242
19	0x3ef58e1f	0.47959992
20	0x3eefd69d	0.46843424
21	0x3efa147c	0.48843753
22	0x3ee651ca	0.44984275
23	0x3eee6f70	0.46569395
24	0x3f000000	0.5
25	0x3f000000	0.5
26	0x3f000000	0.5
27	0x3f000000	0.5
28	0x3f000000	0.5
29	0x3f000000	0.5
30	0x3f000000	0.5
31	0x3f000000	0.5
32	0x3f000000	0.5
33	0x3f000000	0.5
34	0x3f000000	0.5
35	0x3f000000	0.5
36	0x3f000000	0.5
37	0x3f000000	0.5
38	0x3efcee4f	0.49400565
39	0x3f000000	0.5
40	0x3f000000	0.5
41	0x3f000000	0.5
42	0x3f000000	0.5
43	0x3f000000	0.5
44	0x3f000000	0.5
45	0x3f000000	0.5
46	0x3efec495	0.49759355
47	0x3f000000	0.5
48	0x3edf40f2	0.43604237
49	0x3ed4fdf4	0.416
50	0x3ef27b36	0.47359627
51	0x3ee13a67	0.4398987
52	0x3ecfbd3c	0.40574062
53	0x3eda94ce	0.42691654
54	0x3ed5da46	0.41768092
55	0x3ee12b0a	0.4397815
56	0x3edc76cd	0.43059388
57	0x3ee624ad	0.44949856
58	0x3ed7a6f3	0.4211956
59	0x3ed4ddd9	0.41575506
60	0x3ed862a2	0.4226275
61	0x3ee13999	0.43989256
62	0x3edb9569	0.42887428
63	0x3ee157f3	0.44012412
64	0x3eebaeb4	0.46031725
65	0x3ede958d	0.43473473
66	0x3ed41c2c	0.41427743
67	0x3eef33d4	0.4671923
68	0x3ed5cb4c	0.41756666
69	0x3ee3ca9c	0.44490516
70	0x3ed0b8d9	0.40766028
71	0x3ee3767f	0.44426343

bn3.bias f4 [72]
0	0x3df1d48a	0.11808117
1	0x3df528e1	0.11970688
2	0x3dcee47b	0.10102173
3	0x3de62c20	0.11238885
4	0x3dca6242	0.098820224
5	0x3dd45e3d	0.10369537
6	0x3dde8217	0.108646564
7	0x3de1ce2b	0.110256515
8	0x3df5b5ce	0.11997567
9	0x3dcdfc5e	0.10057901
10	0x3df52f2d	0.11971889
11	0x3ddc3055	0.10751406
12	0x3df5230c	0.11969575
13	0x3ddb89db	0.10719653
14	0x3de3c47a	0.11121459
15	0x3de5dde3	0.11223962
16	0x3debd0ff	0.11514472
17	0x3df0599a	0.1173584
18	0x3df482e6	0.119390294
19	0x3de46547	0.111521296
20	0x3deabff2	0.11462392
21	0x3dd0e399	0.10199661
22	0x3de74c28	0.112938225
23	0x3ddddd59	0.10833234
24	0x3de48a53	0.11159196
25	0x3dc4ac06	0.09603123
26	0x3ddde5d6	0.10834853
27	0x3dda5ef9	0.10662646
28	0x3dd0242d	0.1016315
29	0x3dd0764b	0.101788126
30	0x3dd1942d	0.102333404
31	0x3de1fcd2	0.1103455
32	0x3ddce6e9	0.1078623
33	0x3dcf3439	0.101173826
34	0x3dd062c6	0.101750895
35	0x3ddfb6eb	0.10923561
36	0x3dc7a6e2	0.09748627
37	0x3de3f8a5	0.111314096
38	0x3dd9d3e4	0.10636118
39	0x3dd71384	0.10501769
40	0x3de5f841	0.11228991
41	0x3ddcd195	0.10782162
42	0x3dd82ba3	0.10555198
43	0x3dd65a44	0.104664356
44	0x3dbe90c9	0.09304959
45	0x3dc7d671	0.09757698
46	0x3dd9a5fb	0.106273614
47	0x3dde96e6	0.10868625
48	0x3d8be6f4	0.0683116
49	0x3d887172	0.06662263
50	0x3d80a579	0.062815614
51	0x3d6ee48f	0.05832344
52	0x3d87543f	0.066078655
53	0x3d6befa8	0.0576016
54	0x3d8ceefa	0.06881519
55	0x3d93ed7d	0.07223032
56	0x3d8c8985	0.06862167
57	0x3d863a78	0.06554121
58	0x3d80ee16	0.06295411
59	0x3d88c79f	0.066787
60	0x3d822afb	0.06355854
61	0x3d801389	0.06253726
62	0x3d84de34	0.064876944
63	0x3d875467	0.06607895
64	0x3d88d178	0.06680578
65	0x3d8ae1cb	0.06781348
66	0x3d7611eb	0.06007568
67	0x3d91644a	0.07099207
68	0x3d8266e9	0.06367285
69	0x3d93c271	0.07214821
70	0x3d8c02b2	0.068364516
71	0x3d86d459	0.06583471

bn3.running_mean f4 [72]
0	0x3e342c06	0.17594919
1	0x3efa5c93	0.48898754
2	0x3e396fd1	0.18109061
3	0x3e4833d0	0.19551015
4	0x3f110b6e	0.56658065
5	0x3e5870be	0.21136758
6	0x3e4f1e95	0.2022651
7	0x3e41df35	0.18932803
8	0x3e33da9a	0.17563859
9	0x3e40016b	0.18750541
10	0x3e45ad32	0.1930435
11	0x3e56a9be	0.20963189
12	0x3eecbfc1	0.46240047
13	0x3e38f056	0.18060431
14	0x3e471dd5	0.19444974
15	0x3e48784f	0.19577144
16	0x3e340f44	0.17583948
17	0x3e3abb4b	0.18235509
18	0x3e58e2fa	0.21180335
19	0x3e3b7d8a	0.18309608
20	0x3f07c84c	0.53040004
21	0x3ed5c6d1	0.41753247
22	0x3ee7721b	0.45204243
23	0x3e3cdbb8	0.18443191
24	0xbd1dcf27	-0.038527634
25	0x3c03b9b6	0.008039882
26	0xbd281730	-0.04103774
27	0xbd23967d	-0.03993844
28	0x3c7c1844	0.015386645
29	0xbd0aa25f	-0.033846255
30	0xbd1c1a93	-0.03811128
31	0xbd20b79c	-0.039237604
32	0xbd27c216	-0.04095658
33	0xbd27816c	-0.04089491
34	0xbd0e0330	-0.03467101
35	0xbd0fafde	-0.03507983
36	0xbb8a50e6	-0.0042210696
37	0xbd1d7aa4	-0.038447037
38	0xbd22d2c4	-0.039751783
39	0xbd1bc2ea	-0.03802768
40	0xbd2428c4	-0.04007794
41	0xbd303a18	-0.043024153
42	0xbd0385f2	-0.032110162
43	0xbd282b34	-0.041056827
44	0x3c68093f	0.014162361
45	0xbaa58192	-0.0012627116
46	0xbba97937	-0.0051719206
47	0xbd2cf6fc	-0.04222773
48	0xbed081f8	-0.40724158
49	0xbf1d117c	-0.61354804
50	0xbeda0f3d	-0.4258975
51	0xbedbfe9b	-0.42967686
52	0xbf234ff0	-0.6379385
53	0xbee4c50f	-0.44681594
54	0xbec4d5f0	-0.3844447
55	0xbed29dfe	-0.41136163
56	0xbedac822	-0.42730814
57	0xbed8b938	-0.4232881
58	0xbed357c5	-0.412779
59	0xbecdd57f	-0.40201947
60	0xbf1bf7a9	-0.60924774
61	0xbed54b35	-0.4165894
62	0xbed16f09	-0.40905026
63	0xbecc62fe	-0.39919275
64	0xbedb6f9f	-0.42858598
65	0xbee7f3e8	-0.45303273
66	0xbed64588	-0.41849923
67	0xbedeb898	-0.4350021
68	0xbf1c72d1	-0.61112696
69	0xbf070f48	-0.5275769
70	0xbf0d49b0	-0.55190563
71	0xbee5111c	-0.44739616

bn3.running_var f4 [72]
0	0x3f16470f	0.58702177
1	0x3f99d4dc	1.2018085
2	0x3f1bbfdc	0.6083963
3	0x3f24013e	0.64064395
4	0x3fb2dd28	1.3973742
5	0x3f275d06	0.6537632
6	0x3f269cb9	0.6508289
7	0x3f1f201f	0.6215839
8	0x3f1867e7	0.5953354
9	0x3f202ae6	0.6256546
10	0x3f1e43bb	0.618221
11	0x3f28d194	0.6594479
12	0x3f9bad2d	1.2162224
13	0x3f18b4a7	0.59650654
14	0x3f228273	0.634803
15	0x3f22f224	0.6365073
16	0x3f17a728	0.59239435
17	0x3f1e08e0	0.6173229
18	0x3f27848a	0.65436614
19	0x3f1dd861	0.61658293
20	0x3fa6ba58	1.3025618
21	0x3f8997f5	1.0749499
22	0x3f97c70d	1.185762
23	0x3f1f2c4a	0.62176955
24	0x3e51b655	0.2047971
25	0x3e61bf7b	0.220457
26	0x3e51e638	0.20497978
27	0x3e52d914	0.20590621
28	0x3e634a1a	0.22196236
29	0x3e549a9b	0.20762102
30	0x3e5247d7	0.20535217
31	0x3e51c9cc	0.20487136
32	0x3e5175f9	0.20455159
33	0x3e52139c	0.20515293
34	0x3e51b668	0.20479739
35	0x3e525f57	0.20544182
36	0x3e606a90	0.2191565
37	0x3e515fdf	0.20446728
38	0x3e521f92	0.20519856
39	0x3e514d71	0.20439698
40	0x3e516f00	0.204525
41	0x3e525290	0.20539308
42	0x3e527c2c	0.2055518
43	0x3e51d235	0.20490344
44	0x3e62141e	0.22077987
45	0x3e5d8972	0.21634462
46	0x3e5ebaea	0.2175099
47	0x3e5287ed	0.20559664
48	0x3f601618	0.8753371
49	0x3fe7b4f1	1.8102094
50	0x3f6ae9df	0.9176311
51	0x3f6d66ae	0.927348
52	0x3ffbc981	1.9670869
53	0x3f80bedf	1.0058249
54	0x3f4ef669	0.8084474
55	0x3f621790	0.88317204
56	0x3f6bd4fa	0.9212185
57	0x3f680a1f	0.90640444
58	0x3f699fb7	0.9125933
59	0x3f5feabd	0.8746756
60	0x3fd90125	1.6953474
61	0x3f68b082	0.9089433
62	0x3f5f9c32	0.8734771
63	0x3f5ba022	0.8579122
64	0x3f6f1919	0.9339767
65	0x3f7c9df9	0.9867855
66	0x3f70dbc6	0.9408535
67	0x3f71af2e	0.9440793
68	0x3fee4812	1.8615744
69	0x3fb754ef	1.4322795
70	0x3fbc71ad	1.4722191
71	0x3f7822cc	0.96928096

mlp4.weight f4 [1, 72]
0	0x3e41a692	0.18911198
1	0x3e1a3fab	0.1506335
2	0x3e2a201d	0.16613813
3	0x3dc7d3d6	0.097572014
4	0x3d96534b	0.073401056
5	0x3d08c0ba	0.033386923
6	0x3e246263	0.16053157
7	0x3d4a2900	0.049355507
8	0x3db4bd83	0.08825209
9	0x3da13d2d	0.078729965
10	0x3d118068	0.03552285
11	0x3de4909a	0.11160393
12	0x3e353c99	0.17698897
13	0x3d95baf4	0.07311049
14	0x3d175e4a	0.036955155
15	0x3da02cce	0.07821046
16	0x3e155dd6	0.14586577
17	0x3db45c12	0.088066235
18	0x3e2b8469	0.16749729
19	0x3df75e9f	0.120785944
20	0x3de4f496	0.111794636
21	0x3e0fccf0	0.14043021
22	0x3cfffe11	0.031249078
23	0x3d74f857	0.059807148
24	0x3e61202b	0.21984927
25	0x3e3374ea	0.17525068
26	0x3e2884db	0.1645693
27	0x3e3cb565	0.18428572
28	0x3e3c1c6a	0.18370214
29	0x3e175e97	0.14782177
30	0x3e073d50	0.13206983
31	0x3daaa96e	0.083330974
32	0x3e1eef3b	0.15520947
33	0x3e290800	0.16506958
34	0x3d7a741e	0.061145894
35	0x3d3b5ce7	0.045742895
36	0x3e020a2f	0.12699197
37	0x3d281c3d	0.041042555
38	0x3dd0de40	0.10198641
39	0x3dc80c70	0.09767997
40	0x3e158aaa	0.14603677
41	0x3d9e8299	0.07739753
42	0x3e6ce531	0.23134305
43	0x3daca905	0.084306754
44	0x3df5315d	0.11972306
45	0x3d581fa7	0.05276456
46	0x3e0ae980	0.13565636
47	0x3df2944a	0.1184469
48	0x00000000	0.0
49	0x00000000	0.0
50	0x00000000	0.0
51	0x00000000	0.0
52	0x00000000	0.0
53	0x00000000	0.0
54	0x00000000	0.0
55	0x00000000	0.0
56	0x00000000	0.0
57	0x00000000	0.0
58	0x00000000	0.0
59	0x00000000	0.0
60	0x00000000	0.0
61	0x00000000	0.0
62	0x00000000	0.0
63	0x00000000	0.0
64	0x00000000	0.0
65	0x00000000	0.0
66	0x00000000	0.0
67	0x00000000	0.0
68	0x00000000	0.0
69	0x00000000	0.0
70	0x00000000	0.0
71	0x00000000	0.0
