utility-model-selected/dim-3/utility-23.pt (torch, 23458 bytes, 17 tensors)

bn1.running_mean f4 [3]
000000 e2 82 00 3f df 04 00 3f 3b 6e ff 3e
       0.5019971 0.5000743 0.49888787

bn1.running_var f4 [3]
000000 1e 52 67 3d 28 14 5c 3d cf ad 58 3d
       0.056474797 0.05373016 0.05290013

mlp1.weight f4 [24, 3]
000000 c5 4a 8e 3e 86 e4 2d 3e 80 1f cb 3e 13 d7 95 3e
       0.2779142 0.16981706 0.3967247 0.2926565
000010 8e 89 ed 3d 00 00 00 3f d1 1c a7 3e b4 c3 87 3d
       0.11598502 0.5 0.32639173 0.06629124
000020 f5 00 81 3e c8 da 5f 3e b3 1a b4 3e 00 00 00 3f
       0.25196043 0.21860802 0.3517662 0.5
000030 91 0e 92 3e d2 96 34 3e 60 eb 91 3e 31 33 52 3e
       0.28526738 0.17635658 0.2849989 0.2052734
000040 00 00 00 00 3b 5b c0 3e 0b d1 3c 3e 0f cd 6d 3e
       0.0 0.37569603 0.18439119 0.23222755
000050 00 00 00 3f ae db 8e 3e 35 fd b8 3e 7e ff cf 3e
       0.5 0.27901977 0.36130682 0.40624613
000060 b9 2a cd 3e b0 3f e0 3d e5 36 e1 3d 7d 64 8c 3e
       0.40071657 0.109496474 0.109967984 0.27420416
000070 f5 79 07 3e 8e 3f df 3e 58 d4 2d 3e 00 00 00 3f
       0.13230117 0.43603176 0.16975534 0.5
000080 1e 99 5d 3e 76 54 e8 3e 64 6a f8 3c 00 00 00 3f
       0.21640441 0.4537694 0.030324169 0.5
000090 99 53 b1 3e 00 00 00 3f 66 bd 2c 3e 58 da 6c 3d
       0.34634092 0.5 0.16869125 0.057825416
0000a0 55 3b 5d 3d 3e f9 d0 3e 13 fb b3 3d 52 0a 68 3a
       0.05401166 0.40815157 0.08788123 0.00088516355
0000b0 0f d6 ee 3e 8c fb 80 3e 1b d3 cc 3e 00 00 00 3f
       0.4664769 0.25191915 0.4000481 0.5
0000c0 9b bb ac 3e 00 00 00 3f 4b 37 d6 3e 05 15 be 3e
       0.33736882 0.5 0.4183906 0.37125412
0000d0 39 5f 75 3d bb e3 f5 3e cf 39 84 3e de 5c aa 3b
       0.059905265 0.48025307 0.25825354 0.005199059
0000e0 22 45 c3 3e f3 8a e3 3e 00 00 00 00 37 cd 6b 3e
       0.38138682 0.44441947 0.0 0.23027502
0000f0 d0 36 5a 3e f6 09 e9 3e 2b 89 40 3e 8d cd d3 3e
       0.21309972 0.45515412 0.18802325 0.4136776
000100 6b cd 90 3e 95 1d a3 3e 53 2a f3 3e ef 88 c8 3e
       0.2828172 0.31858507 0.47493228 0.39166972
000110 25 bb da 3e f5 a2 c2 3e 69 7e 53 3d eb 23 a7 3d
       0.42720905 0.3801495 0.051634226 0.08161148

mlp1.bias f4 [24]
000000 8e 44 b8 3e ba 65 0d bf 7c 08 46 3e 89 7f d7 3e
       0.35989803 -0.5523335 0.19339174 0.4208949
000010 af 65 9c be b4 e6 7a 3e ad df c9 3e c0 db 3b 3e
       -0.30546328 0.24502069 0.39428464 0.18345547
000020 38 ee ce be f8 b1 d0 3e 73 af 0d bf 58 9e 06 be
       -0.4041612 0.4076078 -0.5534584 -0.13146341
000030 d1 16 cd be d3 ca 79 be 86 f8 b6 3e ab 43 ca 3e
       -0.4005647 -0.24393778 0.35736483 0.39504752
000040 e6 88 b7 be 84 21 c3 be a4 18 9f 3e e9 ee 80 bd
       -0.35846633 -0.38111508 0.31073487 -0.062955685
000050 80 35 ea be 4d 56 ad 3e bf 58 ca be 80 1b 8e 3b
       -0.45743942 0.33854905 -0.39520833 0.0043367743

mlp2.weight f4 [24, 72]
000000 7b 23 3c 3e 41 4d d8 3d c3 20 2e 3e 99 79 f2 3d
       0.1837291 0.1056161 0.17004685 0.11839599
000010 49 62 8c 3c ef 0a 17 3e 8c b4 6a 3d bc b6 ac 3d
       0.01713671 0.14750265 0.05730109 0.08433291
000020 a4 5f ce 3c 32 01 3a 3e 0a d8 22 3e 3d 90 8a 3d
       0.02519209 0.18164518 0.15902725 0.067657925
000030 c7 83 b5 3d 00 00 00 00 b6 8b 0a 3e d2 02 34 3d
       0.08863025 0.0 0.13529858 0.043948002
000040 c1 9b 15 3e 05 b9 ea 3c e3 66 fe 3d 76 f0 3e 3d
       0.14610197 0.028652677 0.12421968 0.04661604
000050 dd e4 90 3d 59 fe 09 3e e6 99 8b 3d 26 31 e0 3d
       0.07074902 0.13475932 0.06816463 0.10946874
000060 d5 ac 1b 3e 11 9d eb 3d d1 d4 fd 3d 3f 4e 3c 3d
       0.15202649 0.115045674 0.12394107 0.04597306
000070 64 79 0f 3d 5c b9 0d 3e 7a c8 b6 3d e4 37 3c 3d
       0.035027876 0.1384024 0.089249566 0.04595174
000080 d6 ad 37 3c 42 d8 fb 3d 44 bc e3 3d 4a 5c b2 3d
       0.011210879 0.12297107 0.11119893 0.08709009
000090 24 5e bb 3d 55 21 7d 3c 4f 0b 09 3d c5 e0 06 3d
       0.09148815 0.0154498415 0.03345805 0.0329292
0000a0 f9 11 8f 3d a4 57 b3 3d 3c 46 eb 3d 87 cf ef 3d
       0.0698585 0.087569505 0.114880055 0.117095046
0000b0 0d 8a da 3d c5 bf 0f 3e 34 3e 2f 3e e9 ea 14 3e
       0.10670862 0.14037998 0.17113572 0.14542736
0000c0 00 00 00 00 00 00 00 00 00 00 00 00 00 00 00 00
       0.0 0.0 0.0 0.0
0000d0 00 00 00 00 6d 8b 8f 3d 00 00 00 00 00 00 00 00
       0.0 0.07009015 0.0 0.0
0000e0 ee 3a 43 3b 00 00 00 00 00 00 00 00 11 4c 04 3c
       0.0029789764 0.0 0.0 0.008074776
0000f0 f7 9c c6 3c 10 37 a2 3d cc d0 f3 3c 00 00 00 00
       0.024244769 0.079206586 0.029762648 0.0
000100 00 00 00 00 8c c9 0c 3c 00 00 00 00 9f 38 83 3c
       0.0 0.008592974 0.0 0.01601821
000110 00 00 00 00 0c 18 cb 3c 00 00 00 00 a4 be 2c 3a
       0.0 0.02479174 0.0 0.0006589687
000120 bf 6f 17 3e 1b 7b 33 3c 67 72 0e 3e 17 34 b5 3d
       0.14788722 0.010954644 0.13910829 0.08847826
000130 fc 0a a4 3c e6 97 9c 3d dd ba 01 3e 94 2e 61 3d
       0.020024769 0.0764616 0.12668939 0.05497606
000140 00 00 00 00 99 37 35 3e 6c df 78 3d 00 00 00 00
       0.0 0.1769699 0.060759947 0.0
000150 8b 48 b8 3d 00 00 00 00 98 8e 1e 3e 2d b8 91 3d
       0.089982115 0.0 0.15484083 0.07115207
000160 f2 8e 68 3d c8 a3 82 3d 9e e7 dc 3d 14 54 c8 3d
       0.05677695 0.06378895 0.10786365 0.09781662
000170 6d af 41 3d 47 5e d7 3c 45 77 41 3d 89 a3 5d 3d
       0.04728644 0.026290072 0.047232885 0.054111037
000180 2b 63 32 3e 95 a3 b1 3c ce 74 d3 3d 64 8c be 3d
       0.17420642 0.021684447 0.10325013 0.09304121
000190 31 6a ee 3b 53 7d 03 3e 12 38 04 3e 1e 8e c8 3d
       0.0072758426 0.12840776 0.12912014 0.09792732
0001a0 fa c3 0f 3c 16 65 89 3e a6 e5 18 3e 23 6a 28 3d
       0.008774752 0.26834935 0.14931354 0.041116845
0001b0 bc 24 f1 3d 00 00 00 00 2a 86 06 3e 06 01 c1 3d
       0.11774585 0.0 0.13137117 0.09424023
0001c0 ff c5 cf 3d e9 af d5 3c 1f 07 03 3e 8f b8 80 3d
       0.10145187 0.026084857 0.12795685 0.06285202
0001d0 a2 3f 7a 3d 34 fc b6 3d 17 0a b3 3d 26 68 8e 3d
       0.06109584 0.08934823 0.08742159 0.069534585
0001e0 00 00 00 00 00 00 00 00 00 00 00 00 00 00 00 00
       0.0 0.0 0.0 0.0
0001f0 00 00 00 00 19 3d 8c 3d 00 00 00 00 00 00 00 00
       0.0 0.06847591 0.0 0.0
000200 00 00 00 00 00 00 00 00 00 00 00 00 00 00 00 00
       0.0 0.0 0.0 0.0
000210 00 00 00 00 1d 7b 90 3c 00 00 00 00 00 00 00 00
       0.0 0.01763683 0.0 0.0
000220 00 00 00 00 00 00 00 00 0b 8a 1b 3d ad 2b 9e 3d
       0.0 0.0 0.037973445 0.07723174
000230 00 00 00 00 00 00 00 00 00 00 00 00 00 00 00 00
       0.0 0.0 0.0 0.0
000240 d5 7f 5e 3e 9b 6c 85 3d cd 1e 17 3e 36 48 10 3d
       0.21728452 0.065148555 0.14757843 0.035225116
000250 e5 c9 e7 3c 9a 5c ef 3d 2e 47 85 3d 3a 75 74 3d
       0.028294513 0.11687584 0.06507717 0.05968211
000260 0e 90 4c 3c e5 9d 48 3e 68 48 98 3d f3 4e 89 3d
       0.012485517 0.19591482 0.074356854 0.067045115
000270 ab e4 81 3d c0 81 5e 3c c3 8b b0 3d 2a 5b 7a 3d
       0.06342443 0.0135807395 0.086204074 0.061122097
000280 28 f2 59 3d 43 62 e8 3d a6 29 7f 3e d0 c7 1b 3e
       0.053209454 0.11346867 0.24918231 0.15212941
000290 6f 8c 21 3d da 28 ad 3c 21 aa 54 3d cc 07 fc 3d
       0.03944057 0.021137644 0.05192006 0.12306175
0002a0 fc c7 38 3e 21 72 12 3e d9 93 3d 3e 38 b0 cb 3d
       0.18045038 0.14301349 0.1851343 0.099457204
0002b0 60 6d 20 3d c5 a8 07 3e f9 03 91 3d 76 a9 a5 3d
       0.039166808 0.13247974 0.07080836 0.08088963
0002c0 ac 8a a6 3c 4b a0 54 3e c9 64 99 3d c2 ea f2 3d
       0.020329796 0.20764272 0.07489926 0.11861183
0002d0 a8 7a 84 3d 7f 1c 0a 3d e7 1b 26 3e 6e 40 85 3c
       0.06468707 0.033718582 0.16221581 0.016266074
0002e0 15 fc 13 3d 4e 94 12 3e 8a 4d 64 3e da ef 0d 3e
       0.036129076 0.14314386 0.22295204 0.13861027
0002f0 97 ff 23 3d 20 0d f2 3d aa 4b 15 3e de 59 ec 3d
       0.04003867 0.1181891 0.14579645 0.11540578
000300 00 00 00 00 00 00 00 00 15 58 b4 3c 00 00 00 00
       0.0 0.0 0.022014657 0.0
000310 00 00 00 00 88 33 f5 3d 00 00 00 00 00 00 00 00
       0.0 0.119727194 0.0 0.0
000320 00 00 00 00 00 00 00 00 00 00 00 00 ea a3 7b 3d
       0.0 0.0 0.0 0.061435618
000330 00 00 00 00 00 00 00 00 d2 be 0d 3d 00 00 00 00
       0.0 0.0 0.03460581 0.0
000340 00 00 00 00 ed 46 a2 3d ad a4 f0 3d be 06 b4 3d
       0.0 0.07923684 0.117501594 0.087903485
000350 00 00 00 00 00 00 00 00 00 00 00 00 32 6f c5 3c
       0.0 0.0 0.0 0.024100874
000360 27 89 5e 3e 35 45 f9 3d b9 ba ec 3d 62 69 08 3e
       0.21732007 0.12171403 0.11559052 0.1332145
000370 d4 ae ef 3b 86 2a e3 3d 62 9c ae 3d e0 92 4d 3d
       0.0073145423 0.11092095 0.085259214 0.0501889
000380 a8 d0 59 3d ab 83 5f 3e f0 97 9e 3d 8c 31 a2 3c
       0.053177506 0.21827571 0.077438235 0.019799016
000390 66 e1 fc 3d 86 87 be 3c 34 bb b1 3d 56 c4 f1 3d
       0.12347679 0.023257982 0.08678284 0.11805026
0003a0 f4 e1 4c 3d c8 d3 e4 3c aa 5f 58 3e 3c 51 66 3d
       0.050020173 0.027933016 0.21130243 0.056229815
0003b0 0f 1b 01 3e 88 cb 1e 3d d6 ca fe 3d fe 61 7a 3d
       0.12607978 0.03876832 0.12441032 0.06112861
0003c0 3a d2 26 3e a5 95 53 3d 38 dc e6 3d bf b5 48 3d
       0.16291133 0.051656384 0.11272472 0.04900145
0003d0 70 4a 08 3d 17 ea 1e 3e 3a 1f 18 3e 97 48 ea 3d
       0.033274114 0.15518986 0.14855662 0.11439627
0003e0 00 00 00 00 08 70 23 3e f4 30 cd 3d e1 8b cc 3c
       0.0 0.15960705 0.10019103 0.024969043
0003f0 ca b4 13 3e 48 11 99 3d 8e db 0d 3e 56 eb b8 3d
       0.14424434 0.07473999 0.13853285 0.09029262

mlp2.bias f4 [24]
000000 c5 de 5a 3c 26 36 00 3d e4 a5 d9 bd 46 58 1d 3d
       0.013358776 0.03130164 -0.10627344 0.038414262
000010 3a 1a b9 bc 0a 0c f5 3d ce b2 88 bd 41 ab e1 3d
       -0.022595514 0.11965187 -0.06674729 0.11018992
000020 88 9b a8 bb e1 3e ea bd 02 d5 9d bd 16 99 3c 3d
       -0.005145494 -0.114377744 -0.07706644 0.04604443
000030 1e 7d 86 3d cc ed ec 3d 5e fe ae 3d 0f df 9f 3d
       0.06566833 0.11568794 0.085446104 0.07806217
000040 90 dc 8e 3d 75 5b 26 bd 9a 79 cc 3d 7a 63 75 3d
       0.06975663 -0.040614564 0.09984131 0.05990932
000050 69 08 90 bd cc f0 c2 3c ba 9f 5b 3d 1d 87 9d 3d
       -0.07032854 0.023796462 0.053619124 0.076917864

bn2.weight f4 [72]
000000 00 00 00 3f 80 81 fb 3e 00 00 00 3f 54 93 fd 3e
       0.5 0.49122238 0.5 0.49526465
000010 7f 20 e8 3e 00 00 00 3f b0 ce fd 3e 6a 50 ff 3e
       0.45337293 0.5 0.49571753 0.4986604
000020 cd 61 e3 3e 00 00 00 3f 00 00 00 3f de 51 f3 3e
       0.44410554 0.5 0.5 0.47523397
000030 00 00 00 3f 4b 90 e6 3e 00 00 00 3f d8 16 fe 3e
       0.5 0.45031962 0.5 0.49626803
000040 00 00 00 3f df fb f7 3e 00 00 00 3f 9f ca ff 3e
       0.5 0.4843435 0.5 0.49959275
000050 00 00 00 3f 82 99 fe 3e 00 00 00 3f 71 97 f5 3e
       0.5 0.49726492 0.5 0.47967103
000060 00 00 00 3f ac 5c fd 3e 00 00 00 3f df 0f fe 3e
       0.5 0.49484766 0.5 0.49621484
000070 48 40 eb 3e 00 00 00 3f 00 00 00 3f 8e bb ff 3e
       0.4594748 0.5 0.5 0.4994778
000080 51 0f e2 3e 00 00 00 3f 00 00 00 3f 7e e6 f5 3e
       0.4415231 0.5 0.5 0.48027414
000090 00 00 00 3f 66 78 e6 3e 00 00 00 3f 31 94 fd 3e
       0.5 0.45013732 0.5 0.49527124
0000a0 00 00 00 3f 04 5e fa 3e 00 00 00 3f fb d6 ff 3e
       0.5 0.48899853 0.5 0.49968705
0000b0 00 00 00 3f e2 fd fc 3e 00 00 00 3f 78 85 fe 3e
       0.5 0.49412447 0.5 0.49711204
0000c0 94 a2 d6 3e 41 6c ae 3e 34 9f e0 3e ff e6 d8 3e
       0.41920912 0.34066966 0.43871462 0.42363736
0000d0 1e f0 d3 3e ee 68 ed 3e 80 55 de 3e 8a 16 d8 3e
       0.41394132 0.46369117 0.43424606 0.42204696
0000e0 33 84 df 3e d4 02 ce 3e 56 03 d9 3e 13 78 d4 3e
       0.43655547 0.40236533 0.42385358 0.4149786
0000f0 23 69 d8 3e 50 8f e6 3e bb f5 ea 3e c6 d0 da 3e
       0.42267713 0.45031214 0.45890602 0.42737406
000100 d2 15 d5 3e 2d 94 c5 3e 81 7f e4 3e f0 27 ed 3e
       0.4161821 0.38589612 0.44628528 0.46319532
000110 c4 1e d7 3e fb 43 d8 3e 0d b4 d6 3e a0 26 e6 3e
       0.4201566 0.42239365 0.41934243 0.44951344

bn2.bias f4 [72]
000000 c5 e9 3f 3d 36 6e 2b 3d 6c 98 da 3c b7 e1 13 3d
       0.0468538 0.041853152 0.026684009 0.03610393
000010 96 3a d0 3c ee 0f 9a 3c b7 71 35 3d 19 42 1e 3d
       0.025418561 0.018806424 0.0442979 0.038637254
000020 4d c3 60 3c 82 a1 26 3d 49 e4 07 3d 31 0d 88 3c
       0.013718438 0.04068137 0.033176694 0.016607853
000030 bc 06 f6 3c df ad 80 3c 1c 52 91 3c ac 06 05 3d
       0.030032508 0.015707908 0.017739348 0.032477066
000040 80 23 fd 3c 56 97 c3 3c 45 5c af 3c a3 10 6f 3c
       0.030900717 0.023875874 0.021406302 0.014591369
000050 c7 7e 03 3d c6 1c e5 3c 41 c3 0e 3d 57 27 9f 3c
       0.032103326 0.027967822 0.034854177 0.019427938
000060 66 ad c5 3c d0 98 11 3d e7 c7 a9 3c 41 ae ab 3c
       0.024130534 0.035546124 0.020725204 0.020957114
000070 f4 a4 b3 3c 55 1a 87 3c 49 97 c6 3c a1 d7 ec 3c
       0.021929242 0.016492048 0.02424206 0.028911414
000080 9b df 44 3c 56 7e b8 3c 5e a5 0e 3d 52 7c 87 3c
       0.012016202 0.02252118 0.034825675 0.016538773
000090 c5 e0 ce 3c 59 41 7e 3c 3e 13 8a 3c 26 4a d9 3c
       0.025253663 0.01551851 0.016854879 0.026524615
0000a0 fb 5a 0f 3d b8 06 9a 3c 40 82 9b 3c fd 75 84 3c
       0.034998875 0.018802032 0.018983006 0.016169542
0000b0 36 79 1b 3d 84 32 d8 3c 4e 45 00 3d fb 2e 86 3c
       0.037957393 0.026391275 0.031316094 0.016379824
0000c0 41 8a 36 3c ac c2 a4 3c b4 a3 71 3c f4 d2 32 3c
       0.011141361 0.020112358 0.0147485025 0.010914553
0000d0 1e 2e 96 3c 46 6e 85 3c 09 a5 20 3c 97 4c 85 3c
       0.018332537 0.016287934 0.009804972 0.016271872
0000e0 ac ea 80 3c 87 f6 39 3c 8d bc 8c 3c 46 eb 97 3c
       0.0157369 0.011350281 0.017179752 0.018544804
0000f0 ad c2 1f 3c 7e 34 95 3c a2 5c 72 3c f7 81 16 3c
       0.009751004 0.018213507 0.014792593 0.0091862595
000100 13 b4 96 3c 50 1f 88 3c 46 c7 7a 3c 35 06 6f 3c
       0.018396413 0.016616493 0.0153063 0.014588882
000110 08 53 82 3c a8 b9 5d 3c 0e 20 6c 3c 6e 9c 7b 3c
       0.015908733 0.013533033 0.014411939 0.01535712

bn2.running_mean f4 [72]
000000 63 df b9 3e 55 24 90 be f4 7c 4c 3e 2d 98 e2 3e
       0.36303243 -0.2815272 0.19969541 0.44256726
000010 46 80 54 be fa 72 7d 3e 65 8a cf 3e 7d 91 67 3e
       -0.20752057 0.24750891 0.40535274 0.22614093
000020 93 34 87 be 15 c1 d3 3e 7a 31 8d be f8 50 62 ba
       -0.26407298 0.41358247 -0.2757681 -0.0008633281
000030 1d 30 34 be 05 b9 30 be 76 f3 b5 3e c2 69 dc 3e
       -0.17596479 -0.1725808 0.35537308 0.43049437
000040 09 7e ef bd 4f 23 3c be e2 08 a2 3e 0d d6 16 bc
       -0.11693961 -0.18372844 0.31647402 -0.009206307
000050 cb 15 7e be d4 66 b7 3e 80 b2 08 be 01 6b 85 3c
       -0.24813001 0.3582064 -0.13349342 0.016286375
000060 2a 80 5d 3e da 68 93 be e3 f8 10 3e 51 82 58 3e
       0.21630922 -0.28790933 0.14157443 0.21143462
000070 2e 99 59 be 31 c6 2e 3e 85 5e 5b 3e 5f d2 d0 3d
       -0.2124984 0.17067792 0.21422775 0.10196375
000080 4a 8f 87 be 88 37 75 3e df 49 8f be 36 3c 8a bd
       -0.26476508 0.23946965 -0.27986047 -0.067497656
000090 d0 97 47 be 25 fb 31 be 77 32 62 3e 03 26 46 3e
       -0.19491506 -0.1738096 0.22089563 0.19350438
0000a0 21 be 24 be 25 6b 50 be ca ad 52 3e fd 2b 26 bd
       -0.16088153 -0.20353372 0.20574108 -0.040569294
0000b0 ed 57 81 be 60 3e 39 3e 41 f7 34 be bb 46 0b 3b
       -0.25262395 0.180902 -0.17672445 0.0021251875
0000c0 35 76 55 3e ae a4 0e bf 99 1e 0b 3e a1 eb 41 3e
       0.20845874 -0.5572003 0.13585891 0.18937542
0000d0 ac 08 9f be b8 86 2a 3e 9a a5 4e 3e d7 63 7c 3d
       -0.31061304 0.16652954 0.2018036 0.061618652
0000e0 d6 52 cf be 5a 9b 6e 3e af e4 0a bf c7 c1 46 be
       -0.40492886 0.2330145 -0.54255193 -0.19409858
0000f0 30 76 d1 be ac b9 7b be ab 26 61 3e c5 e9 26 3e
       -0.40910482 -0.24582547 0.21987407 0.16300113
000100 3a 1f cd be 04 8d c9 be 72 e7 4d 3e 3f 4a be bd
       -0.40062886 -0.393654 0.2010782 -0.09291505
000110 45 53 e7 be ee c3 25 3e 06 3a de be bf e4 25 bc
       -0.45180717 0.16188022 -0.43403643 -0.010125338

bn2.running_var f4 [72]
000000 8b a4 81 3e 06 50 db 3d 8e 76 2a 3e 52 7c c4 3e
       0.2532085 0.10708623 0.16646788 0.383761
000010 9a c2 d8 3d cc 8a 35 3e c1 8c a2 3e 91 31 9d 3e
       0.10583992 0.17728728 0.31748012 0.3070188
000020 fe bd a1 3d 11 3c 8a 3e 0f 6b cc 3d ac 77 88 3e
       0.07897566 0.26998952 0.09981357 0.26653802
000030 22 b2 2d 3e 8c 74 db 3d bc 7f 5e 3e 3a 4d d4 3e
       0.16962484 0.10715589 0.21728414 0.4146517
000040 e5 3c 6f 3e 70 bc 23 3e ab 73 53 3e 56 52 3b 3e
       0.23363073 0.15989852 0.20649593 0.18293127
000050 01 44 dd 3d 93 6f a8 3e 18 0b 6d 3e 17 d8 0f 3e
       0.10803986 0.32897624 0.23148763 0.14047275
000060 d5 a7 da 3d 12 61 c2 3d e2 b4 d8 3d 29 75 01 3e
       0.10676543 0.09491171 0.10581376 0.1264235
000070 f5 17 c7 3d 25 32 d1 3d cd be f2 3d 15 d4 15 3e
       0.09721366 0.102146424 0.118527986 0.14631684
000080 ad 2c 9f 3d ed 83 d1 3d 41 33 bc 3d ae 64 21 3e
       0.07772193 0.10230241 0.091894634 0.15761063
000090 f2 12 0b 3e 32 9b d7 3d 00 a3 c6 3d 9e 2e 0a 3e
       0.13581446 0.10527648 0.096990585 0.13494346
0000a0 bb 18 1c 3e 4e 8f ff 3d 98 3f cd 3d af 87 0e 3e
       0.15243809 0.12478505 0.10021895 0.13918947
0000b0 af e9 cb 3d 7c 22 03 3e 39 ad 18 3e d6 87 fd 3d
       0.09956681 0.12806123 0.14909829 0.12379424
0000c0 dc 56 f7 3d e6 93 ac 3e 69 9a ea 3d 85 27 2b 3e
       0.12077114 0.33706588 0.11455233 0.16714294
0000d0 c5 46 41 3e 03 44 de 3d a1 fe 0f 3e cc 3b 5a 3e
       0.18874653 0.10852816 0.14061977 0.21311873
0000e0 fb cf 3e 3e dc 8b e9 3d 47 63 a7 3e d2 13 aa 3e
       0.18634026 0.11403629 0.3269293 0.33218247
0000f0 ce 19 c0 3e 0e 2f 2f 3e cf ff c9 3d fe 28 44 3e
       0.37519687 0.17107794 0.09863245 0.19156262
000100 e2 2d eb 3e b8 33 a9 3e 1b e3 dc 3d 1e e0 50 3e
       0.45933443 0.3304727 0.107855044 0.20397994
000110 b6 84 90 3e 84 e1 25 3e 7c 15 f2 3e 0d 6a 0d 3e
       0.2822625 0.16199309 0.47282016 0.13809986

mlp3.weight f4 [24, 72]
000000 c5 ed 81 3c 08 8c 45 3d e1 9f c3 3c b3 1a 81 3a
       0.015860448 0.048229247 0.023879947 0.0009849876
000010 42 a3 8d 3c f0 30 1f 3d b5 2c 56 3d 49 28 89 3b
       0.017289761 0.03886503 0.05228873 0.0041857106
000020 d7 ed 48 3d a1 0c 8e 3c cb 56 c6 3c a2 59 d4 3c
       0.049054947 0.017340006 0.024211308 0.025921647
000030 71 c5 89 3b cc 67 70 3c c7 4a 89 3d bf 85 95 3d
       0.004204445 0.014673185 0.06703716 0.07300901
000040 ce f3 cf 3c 17 e5 58 3d 78 e3 35 3d 8d 4e 70 3d
       0.02538481 0.052952852 0.044406384 0.05866866
000050 ab bd 20 3a 14 2e 6b 3b 0e 3b 02 3d 1f d2 83 3d
       0.00061317784 0.003588562 0.0317946 0.06436562
000060 1a 50 a4 3c 00 00 00 00 06 a0 b6 3d 00 00 00 00
       0.020057727 0.0 0.08917241 0.0
000070 d0 26 ce 3d 9b 3b ab 3c e6 c7 fa 3d 00 00 00 00
       0.10065997 0.020902446 0.12245159 0.0
000080 00 00 00 00 38 c0 c4 3d 9d 7a bd 3d 00 00 00 00
       0.0 0.09606975 0.09251902 0.0
000090 00 00 00 00 00 00 00 00 67 c7 54 3d 00 00 00 00
       0.0 0.0 0.051947977 0.0
0000a0 2a 57 88 3d fd 0f 9d 3d b7 b6 5f 3c e8 e4 51 3d
       0.0665725 0.07669065 0.013654402 0.051243693
0000b0 00 00 00 00 00 00 00 00 00 00 00 00 3e a2 7b 3c
       0.0 0.0 0.0 0.015358506
0000c0 43 85 e6 3d 40 8d 16 3e c8 94 f3 3d 92 dc fe 3d
       0.112558864 0.1470232 0.11893612 0.12444414
0000d0 f9 eb 31 3e 2f 72 0a 3e c2 88 a6 3d c1 e0 07 3e
       0.17375173 0.1352012 0.08131553 0.1326933
0000e0 02 6d e1 3d d2 3b b9 3d 9d 09 e0 3d ec 31 e1 3d
       0.1100712 0.09044613 0.109393336 0.1099585
0000f0 7a 0a 18 3e 9c 67 36 3e e6 9c 29 3e 68 d9 3e 3e
       0.14847746 0.17812961 0.16563758 0.18637621
000100 e0 ab 3e 3e dc 5b 66 3e 74 5b 0c 3e e9 e2 f0 3d
       0.18620253 0.22495979 0.13706762 0.1176203
000110 ca 9e 02 3e 15 f8 03 3e 7e 99 be 3d 1e 84 46 3e
       0.12755886 0.12887605 0.0930662 0.19386336
000120 c2 2d d1 3a 8a 23 dc 39 cb 02 b1 3a 28 0d d7 39
       0.0015959071 0.0004198815 0.0013504861 0.00041017798
000130 ef 44 d9 3a 54 2f 0e 3a 92 b3 ed 3a b6 65 23 3a
       0.001657633 0.00054239226 0.0018135181 0.00062331127
000140 cb 6c e6 38 7e c6 ea 3a c9 db 08 3b c9 97 b3 39
       0.00010987519 0.0017911938 0.0020882955 0.0003425463
000150 c5 ba f3 39 85 45 10 3a 6b 1e 78 3a 91 a2 47 3a
       0.00046487726 0.0005503523 0.0009464982 0.0007615472
000160 3f 39 ae 3a cd ce d7 3a 16 2c 4c 3a d6 d9 d8 39
       0.0013292207 0.001646483 0.0007788552 0.0004136103
000170 50 48 08 3a 0a af 14 3a 79 6b 38 3a 23 64 eb 39
       0.00051987637 0.0005671835 0.00070350576 0.000448973
000180 40 64 eb 3d 9c d3 89 3d 71 c5 14 3c 69 e3 4b 3d
       0.114937305 0.067298144 0.009080277 0.049777422
000190 d8 8f 97 3d 7a 26 a9 3c 88 96 ae 3d 3c 61 41 3d
       0.07400483 0.02064823 0.08524805 0.04721187
0001a0 00 00 00 00 62 3b db 3d da 68 36 3d 81 19 3d 3d
       0.0 0.10704686 0.044533588 0.0461669
0001b0 76 ab ad 3d ad 73 02 3d d3 98 7a 3d 13 f3 1d 3b
       0.08479969 0.0318486 0.0611809 0.0024101182
0001c0 e4 9d ec 3d 07 23 ef 3d 00 00 00 00 d5 ca 8c 3d
       0.11553553 0.11676603 0.0 0.06874625
0001d0 f0 98 fb 3c dd 66 fb 3c a8 bf a4 3c 5c 1a 37 3d
       0.030712575 0.030688697 0.02011092 0.044702873
0001e0 b1 fe e2 3d fd 94 6f 3e cd bb 21 3e 3f 55 40 3e
       0.11083735 0.23396678 0.15794297 0.18782519
0001f0 9f 8d d3 3d cc aa 6e 3e 5d 90 01 3e 68 1f 0f 3e
       0.103297465 0.23307341 0.12652726 0.13976824
000200 c1 bd 0d 3e d6 18 3e 3e 29 66 59 3e b4 f2 bb 3d
       0.13841917 0.18564162 0.21230377 0.09177151
000210 5b 4d 7f 3e 15 56 11 3e 02 c4 59 3e 68 a0 3e 3e
       0.24931853 0.14192994 0.21266177 0.18615878
000220 31 ff 77 3e 0b e0 75 3e 4a 36 09 3e e6 00 4e 3e
       0.24218442 0.24011247 0.13399616 0.2011753
000230 bb 25 3c 3e 5b 4b 02 3e c1 91 e8 3d 1d ad 54 3e
       0.18373768 0.12724058 0.11355925 0.20769162
000240 08 60 0e 3e ef 02 84 3d 9b 57 bf 3d f4 54 13 3e
       0.1390382 0.06445872 0.09342881 0.14387876
000250 a0 1e 94 3d 32 c7 98 3d e0 6b 01 3e c7 e5 ce 3d
       0.07232404 0.074598685 0.12638807 0.1010242
000260 93 c5 74 3d a0 4b 9e 3d 66 01 fb 3d 80 b8 a8 3d
       0.059758734 0.07729268 0.12256126 0.082383156
000270 5b d9 4b 3d 2a 21 07 3e a8 42 a4 3d 0d 55 7e 3d
       0.049767833 0.13196245 0.08020526 0.06209283
000280 12 f1 16 3d 30 6f 57 3d a0 4e f0 3d 7b ca 4a 3d
       0.036850996 0.05259627 0.117337465 0.049509507
000290 af 6d 11 3d b0 03 82 3d f8 72 23 3d 61 11 2a 3d
       0.035504993 0.063483596 0.039904565 0.04152048
0002a0 dc d5 1f 3e 7d 54 a2 3d cb 64 15 3e e4 f9 4c 3d
       0.15608925 0.07926271 0.1458923 0.050043
0002b0 70 56 fb 3d 3c 1c 16 3d b9 30 a3 3e 82 ef 5e 3d
       0.12272346 0.03664802 0.3187311 0.05442763
0002c0 0f 97 46 3d 9d e6 71 3d 51 03 5c 3e 56 81 bc 3b
       0.048483904 0.05905782 0.2148564 0.0057527227
0002d0 c0 1e 22 3d 15 e6 39 3d d1 73 9b 3d fa d7 8c 3d
       0.039580107 0.04538544 0.075904496 0.06877132
0002e0 62 62 84 3d f1 3e 07 3e 9f 87 5b 3d f9 fa 9c 3d
       0.064640775 0.13207604 0.053596135 0.07665057
0002f0 f3 07 9b 3d 36 93 3e 3d fd e5 dc 3c c0 ca a6 3d
       0.075698756 0.04652711 0.026965136 0.0814414
000300 d0 fc 58 3e 4a 9b 7c 3e fc 8b 3f 3e 32 60 2a 3e
       0.2119019 0.24668613 0.18705744 0.16638258
000310 cd d4 70 3e e3 7f 28 3e f6 30 53 3e fb 05 83 3e
       0.23518677 0.16455035 0.20624146 0.255905
000320 69 17 18 3e bf 18 6c 3e 76 a0 21 3e 7a 2b 02 3e
       0.1485268 0.23056315 0.15783867 0.12711897
000330 7a f9 7f 3e 41 1b 74 3e f8 94 28 3e 57 9e 71 3e
       0.24997512 0.23838522 0.16463077 0.23595558
000340 96 04 1e 3e 79 d8 74 3e 64 c3 20 3e b4 ed 2b 3e
       0.15431437 0.23910703 0.15699536 0.16789895
000350 50 91 32 3e f1 64 52 3e 6b 32 1f 3e 3d 66 41 3e
       0.17438245 0.20546319 0.15546577 0.18886657
000360 fd 23 8f 3a 00 00 00 00 ae 92 2e 3a 00 00 00 00
       0.001092076 0.0 0.000665943 0.0
000370 df 6c 9e 3a 00 00 00 00 ac 85 df 3a 00 00 00 00
       0.001208689 0.0 0.0017053387 0.0
000380 00 00 00 00 01 bf cf 3a fe 17 ff 3a 00 00 00 00
       0.0 0.001584977 0.0019462106 0.0
000390 00 00 00 00 00 00 00 00 e2 15 80 37 2b 6a 7a 39
       0.0 0.0 1.5268979e-05 0.00023881409
0003a0 a5 70 24 3a c2 d1 a9 3a 6d 90 8d 38 00 00 00 00
       0.0006272889 0.001295619 6.750305e-05 0.0
0003b0 00 00 00 00 00 00 00 00 00 00 00 00 00 00 00 00
       0.0 0.0 0.0 0.0
0003c0 60 3e db 3b 00 00 00 00 99 0a bf 3c 00 00 00 00
       0.0066907853 0.0 0.023320483 0.0
0003d0 12 6e a0 3b 00 00 00 00 de bd 6d 3d 00 00 00 00
       0.004895934 0.0 0.0580424 0.0
0003e0 00 00 00 00 96 6e aa 3d b3 5d e5 3d 00 00 00 00
       0.0 0.08321874 0.11199512 0.0
0003f0 02 6d da 3c 00 00 00 00 00 00 00 00 f4 13 21 3d
       0.026663307 0.0 0.0 0.03932567

mlp3.bias f4 [24]
000000 92 ce 9d bc b9 11 ae 3d aa dc d4 3c ac 8a d4 bd
       -0.01926354 0.08499474 0.025984127 -0.10378012
000010 64 ee e9 bd 3b 09 da bc a7 af 69 3d e8 68 c7 bd
       -0.114224225 -0.02661573 0.05705228 -0.09736806
000020 01 85 fd bd 40 39 97 bd 0d 29 de 3d c8 f4 0b bc
       -0.12378884 -0.073839664 0.108476736 -0.008542247
000030 c7 ea 5f bd 10 b0 9a bb 7c ef 13 be d4 48 83 bd
       -0.05466726 -0.0047206953 -0.14446825 -0.06410375
000040 81 56 27 be cf 4b 5a 3c 80 2f 26 3d 4e dd be bd
       -0.16341592 0.013323738 0.040572643 -0.09319554
000050 b7 b7 1d 3d b5 da bc 3d d0 32 54 3d 2d 98 89 3b
       0.038505282 0.092214026 0.05180627 0.004199049

bn3.weight f4 [72]
000000 b6 39 c5 3e 30 26 cb 3e e1 0d c3 3e 68 59 cd 3e
       0.38520592 0.39677572 0.38096526 0.40107274
000010 10 1c c7 3e 70 ac c3 3e c9 96 ce 3e 70 a3 c8 3e
       0.38888597 0.38217497 0.40349415 0.39187193
000020 3a 9d c8 3e ed 3c cf 3e e4 b7 ce 3e 22 19 c0 3e
       0.39182454 0.4047617 0.40374672 0.37519175
000030 8d 71 c1 3e 2f 03 bb 3e f3 f8 c7 3e ca 6c c3 3e
       0.37781945 0.36525866 0.3905712 0.38168937
000040 09 17 c4 3e 39 2e c6 3e b4 01 c9 3e 0c 92 c1 3e
       0.38298824 0.3870714 0.39259112 0.37806737
000050 a5 c1 c5 3e dc fe c2 3e 70 e7 c2 3e 40 37 ce 3e
       0.38624302 0.38085067 0.38067198 0.40276527
000060 e4 dc e8 3e 85 a5 d7 3e a9 46 e9 3e c7 96 dc 3e
       0.45481026 0.4211847 0.45561722 0.43083784
000070 32 8b fd 3e 3c d5 dd 3e 00 00 00 3f f8 41 e6 3e
       0.4952026 0.43326747 0.5 0.44972205
000080 07 d8 de 3e 42 7a eb 3e b1 d4 ff 3e ab 65 d6 3e
       0.4352419 0.45991713 0.49966958 0.41874442
000090 e7 2a de 3e 63 88 e0 3e 4e d6 df 3e d2 0a e7 3e
       0.43392107 0.43854055 0.4371819 0.45125443
0000a0 a3 6d e9 3e 29 82 e1 3e 03 18 dd 3e 1e 49 dc 3e
       0.4559146 0.44044617 0.43182382 0.43024534
0000b0 63 0f da 3e cd 36 e4 3e 1d fe df 3e ad 09 d8 3e
       0.42589864 0.4457306 0.4374856 0.42194882
0000c0 c1 75 ff 3e 00 00 00 3f ed bb ff 3e 00 00 00 3f
       0.49894527 0.5 0.49948063 0.5
0000d0 00 00 00 3f 00 00 00 3f af f3 f9 3e 00 00 00 3f
       0.5 0.5 0.48818728 0.5
0000e0 99 29 fa 3e 00 00 00 3f 00 00 00 3f b8 af fa 3e
       0.48859861 0.5 0.5 0.48962188
0000f0 00 00 00 3f 00 00 00 3f 00 00 00 3f 00 00 00 3f
       0.5 0.5 0.5 0.5
000100 00 00 00 3f 00 00 00 3f fc f3 fd 3e 00 00 00 3f
       0.5 0.5 0.49600208 0.5
000110 e2 36 fd 3e 00 00 00 3f 14 ea ff 3e 00 00 00 3f
       0.49455935 0.5 0.49983275 0.5

bn3.bias f4 [72]
000000 f1 fb 8d 3c bb c7 57 bb de 73 da 3b a1 fb e3 ba
       0.01733205 -0.0032925445 0.0066666445 -0.0017393717
000010 35 27 99 3c fa b7 11 ba 1f 90 ef 3c da 94 57 3c
       0.018695453 -0.00055587257 0.029243527 0.013158048
000020 6a 61 8b bb 07 d0 2b 3c bb 86 ed 3b 16 44 84 bb
       -0.004253556 0.010486609 0.007248727 -0.004036437
000030 a4 99 c9 3c af f4 35 3b f5 c7 6e 3c c4 ed aa 3c
       0.024609394 0.002776425 0.014574041 0.020865329
000040 aa 30 af ba 7e f1 c4 bc e3 5b 4b 3c 9d d3 14 3c
       -0.0013365943 -0.024040934 0.012412044 0.009083656
000050 e4 f4 f4 3b 7e ec 87 3c 3d 6b 8e b9 1b 7a 11 3c
       0.0074754823 0.01659226 -0.0002716425 0.00887921
000060 f7 75 ef bc 74 56 19 bd 26 d6 69 bc 4b 99 92 bc
       -0.029231055 -0.037435964 -0.014272248 -0.017895361
000070 9c 8a 47 3b 04 54 a0 bc 46 c3 87 3c 87 89 17 bc
       0.0030447608 -0.019571312 0.016572606 -0.009249098
000080 61 d3 92 bc 39 a6 14 bd 60 03 3a bc f2 1c cd bc
       -0.017923059 -0.036291335 -0.011353344 -0.025038216
000090 29 8e b8 bc b7 77 ad bc 45 d5 fd bc 51 1b 49 bc
       -0.022528725 -0.021175249 -0.030985484 -0.012274579
0000a0 cf 16 10 bd 0d 99 25 bd 1a 4d e8 bc bc 42 db bc
       -0.035178002 -0.040429164 -0.028357077 -0.02676522
0000b0 56 80 ba bc 83 ee 8d bc 3a 86 a1 bc ec ed 0b bd
       -0.022766273 -0.017325645 -0.019717325 -0.034162447
0000c0 b5 22 49 3c 38 f9 bd 3c 86 3b c8 3c 51 1d cf 3c
       0.012276341 0.023190126 0.024442445 0.025282534
0000d0 41 13 d4 3c 74 0d 41 3c 47 e2 48 3c 4a 8a b7 3c
       0.025888087 0.011782993 0.01226098 0.022404809
0000e0 ef 21 bc 3c 31 d9 a0 3c ff 32 03 3d 39 a2 f6 3b
       0.0229654 0.019634815 0.032031056 0.0075266627
0000f0 b0 63 e7 3c f6 6f 8d 3c 0b 0f 16 3d b9 75 a6 3c
       0.028245777 0.017265301 0.03663544 0.020319806
000100 ea cc af 3c 14 0d d3 3c 2d bc fe 3c 3e 58 f4 3c
       0.021460015 0.025763072 0.031095589 0.029827233
000110 31 25 0a 3d 0e ea d4 3c d6 e3 85 3c 71 69 7c 3c
       0.033726875 0.025990512 0.016343992 0.015405999

bn3.running_mean f4 [72]
000000 79 16 32 3f e7 5c 1d 3f 9d 87 38 3f b6 25 41 3f
       0.6956554 0.6146988 0.7208193 0.7544817
000010 27 b0 4d 3f 1f c9 27 3f 05 86 75 3f bc 9f 48 3f
       0.8034691 0.6554126 0.9590762 0.78368735
000020 3a 97 2a 3f 8f 5c 55 3f 7c c7 4f 3f e3 4a 24 3f
       0.66637003 0.8334436 0.81163764 0.6417677
000030 2c af 18 3f 5a e4 1e 3f 3e c9 27 3f 56 d7 3d 3f
       0.5964229 0.62067187 0.65541446 0.741567
000040 07 b6 3c 3f 3a 44 37 3f 63 25 42 3f 7a 31 1b 3f
       0.7371525 0.7158848 0.758383 0.6062237
000050 5e bf 29 3f 94 df 19 3f 5b 46 31 3f 71 f3 19 3f
       0.6630763 0.6010678 0.6924798 0.6013709
000060 f7 14 9f 3a 11 9f 1b 3d a4 a2 9f 39 16 4c b4 3c
       0.0012136985 0.037993494 0.0003044802 0.022008937
000070 86 ba a9 3a 20 56 24 3d f5 d2 0f bc ac a5 fe 3c
       0.0012949265 0.040121198 -0.008778323 0.031084858
000080 5f 2e f8 3c cc e4 66 bc a4 01 2b bc 3a e0 ea 3c
       0.030295549 -0.014092635 -0.010437403 0.028671373
000090 78 bc 06 3d 77 4c 18 3d 44 35 ee 3c be d0 94 3c
       0.03289458 0.037182298 0.029078133 0.018165942
0000a0 43 5e be 3c 42 e2 c2 3a 53 54 f5 3c d4 0f 18 3d
       0.023238307 0.0014868455 0.029947435 0.03712447
0000b0 90 75 36 3c e9 c4 fa 3c 65 ad f1 3c 6a 86 13 3d
       0.0111364275 0.030611472 0.029501626 0.03601686
0000c0 48 92 0e bf 5c 30 e2 be 86 68 33 bf 63 ff 10 bf
       -0.5569196 -0.4417752 -0.70081365 -0.5663969
0000d0 5f 4b 30 bf 86 b6 c9 be df a6 5f bf be 04 05 bf
       -0.6886501 -0.39397067 -0.87364 -0.5196036
0000e0 d1 b2 07 bf 3a 8c 4e bf fd 66 40 bf ed dc ec be
       -0.5300723 -0.8068272 -0.7515715 -0.46262303
0000f0 84 cd cc be e6 07 bd be 6d 17 de be 53 08 07 bf
       -0.40000546 -0.3692009 -0.43377247 -0.52747077
000100 41 85 05 bf 55 c3 1f bf cc 1a 04 bf dd ca d1 be
       -0.52156454 -0.6240743 -0.5160339 -0.40975085
000110 1a 90 19 bf 47 46 e4 be 8a f5 ff be c7 0b c8 be
       -0.59985507 -0.44584867 -0.4999202 -0.39071485

bn3.running_var f4 [72]
000000 5a e3 04 40 8a 8e bb 3f 71 8a 06 40 d8 62 08 40
       2.0763764 1.4652874 2.1021998 2.131033
000010 f8 5c 1f 40 72 9b cd 3f 4d 3a 57 40 c8 fe 09 40
       2.4900494 1.6063063 3.3629334 2.1561756
000020 e5 76 d6 3f 43 5d 35 40 7b 1b 2c 40 23 fd ce 3f
       1.6755034 2.8338172 2.6891773 1.6171001
000030 ab e1 b9 3f ba 7f c0 3f ba 5c d7 3f 51 a7 04 40
       1.4521993 1.5038979 1.6825173 2.0727122
000040 c3 75 02 40 c4 f3 08 40 8a 0e 02 40 5b 29 b9 3f
       2.0384376 2.1398783 2.0321374 1.4465746
000050 9a dd e9 3f 0c d9 bc 3f 15 7d e5 3f f2 0b bb 3f
       1.8270752 1.4753737 1.7928797 1.461302
000060 32 f3 63 3e 5c 6e 5e 3e aa d1 66 3e 65 6f 63 3e
       0.2226074 0.21721786 0.22540918 0.22210462
000070 ac ef 67 3e d9 53 5d 3e 55 85 6b 3e ab 9a 61 3e
       0.22650021 0.21614017 0.23000081 0.22031657
000080 cd 17 61 3e 98 7b 69 3e 55 bd 68 3e 10 f2 5e 3e
       0.21981736 0.22801054 0.22728474 0.21772027
000090 b6 c4 5c 3e e1 e8 5b 3e dc 53 5e 3e 3d f9 62 3e
       0.21559414 0.21475555 0.21711677 0.2216539
0000a0 03 50 63 3e 63 7a 65 3e 45 ac 61 3e e2 67 5c 3e
       0.22198491 0.22409968 0.22038372 0.21524003
0000b0 58 4f 63 3e 95 75 5d 3e be 0c 60 3e a9 ec 5b 3e
       0.22198236 0.21626885 0.21879861 0.21476997
0000c0 b9 e6 c2 3f 6e 17 af 3f a9 07 05 40 38 99 da 3f
       1.5226661 1.3679025 2.0785925 1.7078009
0000d0 92 69 00 40 4d 1e 9b 3f ce b4 2a 40 16 7f cc 3f
       2.0064435 1.2118622 2.6672854 1.5976284
0000e0 c3 58 d3 3f 3c 07 16 40 6d f5 08 40 2e 4d b1 3f
       1.6511463 2.3441916 2.1399796 1.3851678
0000f0 da a1 98 3f 49 cf 8e 3f 53 8a a4 3f a8 6d c3 3f
       1.1924393 1.1157008 1.2854713 1.526784
000100 24 95 c5 3f f1 c1 df 3f 35 b3 ca 3f fe 63 a0 3f
       1.5436139 1.7481061 1.583594 1.2530515
000110 f2 c3 e2 3f 2b 82 ab 3f 8b 91 c3 3f c6 52 97 3f
       1.7716048 1.3399099 1.5278791 1.1822135

mlp4.weight f4 [1, 72]
000000 00 00 00 00 00 00 00 00 00 00 00 00 00 00 00 00
       0.0 0.0 0.0 0.0
000010 00 00 00 00 00 00 00 00 00 00 00 00 00 00 00 00
       0.0 0.0 0.0 0.0
000020 00 00 00 00 00 00 00 00 00 00 00 00 00 00 00 00
       0.0 0.0 0.0 0.0
000030 00 00 00 00 00 00 00 00 00 00 00 00 00 00 00 00
       0.0 0.0 0.0 0.0
000040 00 00 00 00 00 00 00 00 00 00 00 00 00 00 00 00
       0.0 0.0 0.0 0.0
000050 00 00 00 00 00 00 00 00 00 00 00 00 00 00 00 00
       0.0 0.0 0.0 0.0
000060 3e db a6 3c 00 00 00 00 f8 85 b9 3d 00 00 00 00
       0.020368215 0.0 0.09058756 0.0
000070 00 00 00 00 8c b3 98 3d 00 00 00 00 c3 50 84 3d
       0.0 0.07456121 0.0 0.064607166
000080 b8 af 24 3c 00 00 00 00 00 00 00 00 41 43 81 3d
       0.01005166 0.0 0.0 0.06311656
000090 00 00 00 00 b3 3e 09 3e 00 00 00 00 00 00 00 00
       0.0 0.13402824 0.0 0.0
0000a0 00 00 00 00 01 5b 1b 3e e5 0b 51 3d 13 5c da 3d
       0.0 0.15171434 0.051036734 0.10662093
0000b0 00 00 00 00 00 00 00 00 6a de 01 3d 00 00 00 00
       0.0 0.0 0.03170625 0.0
0000c0 37 8c e4 3d 29 6a 96 3d e1 96 9d 3d bf 7e 15 3e
       0.11159556 0.07344467 0.076947935 0.14599131
0000d0 60 08 1a 3e cf 76 1d 3e 85 c0 9c 3d 84 66 39 3e
       0.15042257 0.15377353 0.07653908 0.18105513
0000e0 cf 37 1d 3e 68 2a 19 3e 64 8f fb 3d fd f6 18 3e
       0.1535332 0.14957583 0.12283209 0.14937969
0000f0 c2 18 f8 3d d7 0d 26 3e fb 05 0e 3e c7 73 59 3e
       0.12114097 0.16216217 0.13869469 0.21235572
000100 88 22 ff 3d 00 24 21 3e 63 46 39 3e 64 36 57 3e
       0.12457758 0.15736389 0.18093257 0.21016842
000110 4c d8 fe 3d d5 84 e0 3d c7 5b cd 3d 36 21 dd 3d
       0.12443599 0.10962836 0.10027271 0.1079735
