utility-model-selected/dim-3/utility-56.pt (torch, 23458 bytes, 17 tensors)

bn1.running_mean f4 [3]
0	0x3f0082e2	0.5019971
1	0x3f0004df	0.5000743
2	0x3eff6e3b	0.49888787

bn1.running_var f4 [3]
0	0x3d67521e	0.056474797
1	0x3d5c1428	0.05373016
2	0x3d58adcf	0.05290013

mlp1.weight f4 [24, 3]
0	0x3e7ebf69	0.24877705
1	0x3e44b213	0.19208555
2	0x00000000	0.0
3	0x3ef61cf9	0.4806898
4	0x3e9d7145	0.3075048
5	0x3e32a4d7	0.17445694
6	0x3dcde500	0.10053444
7	0x3db8f965	0.09031943
8	0x3e373e7d	0.17894931
9	0x3e8d2282	0.2756539
10	0x3ee0edd8	0.4393146
11	0x3e9e635d	0.30935183
12	0x3f000000	0.5
13	0x3edad59c	0.42741096
14	0x3ea3419e	0.31886
15	0x3efc92ce	0.49330753
16	0x3e89ff66	0.26952666
17	0x00000000	0.0
18	0x3e68e7f0	0.22744727
19	0x3ddc4335	0.10755006
20	0x00000000	0.0
21	0x3f000000	0.5
22	0x3ecda07a	0.40161496
23	0x3ea5fe3c	0.32420528
24	0x3ecfd70d	0.40593758
25	0x3e74c624	0.2390371
26	0x00000000	0.0
27	0x3f000000	0.5
28	0x00000000	0.0
29	0x3ea47969	0.3212388
30	0x3ee4ece8	0.44711995
31	0x3e89763a	0.26848012
32	0x3ebfbc35	0.37448278
33	0x3effea8f	0.49983642
34	0x3da3e24d	0.08002148
35	0x00000000	0.0
36	0x3de9b59e	0.11411594
37	0x3efc6085	0.4929239
38	0x3e9b9330	0.30385733
39	0x3e8d66dd	0.2761754
40	0x3e3af253	0.18256502
41	0x3edef491	0.43545964
42	0x3efb5874	0.49090922
43	0x3e559272	0.20856646
44	0x00000000	0.0
45	0x3eb2bd74	0.34910166
46	0x3ccd4f9b	0.025062373
47	0x3ea57974	0.32319224
48	0x3ea88123	0.32911023
49	0x3eac3649	0.33635166
50	0x3ee77da7	0.45213053
51	0x3eff5984	0.49872983
52	0x3ee098d8	0.4386661
53	0x00000000	0.0
54	0x3effb185	0.49940124
55	0x3edb5dd7	0.42845032
56	0x00000000	0.0
57	0x3ee1cb3c	0.44100368
58	0x3ef19875	0.47186628
59	0x3e420c4f	0.18950008
60	0x3efd2a99	0.49446562
61	0x3ec864d7	0.39139435
62	0x00000000	0.0
63	0x3ebf3958	0.37348437
64	0x3efdf25f	0.49598977
65	0x3e62b456	0.22139105
66	0x3e9fc66d	0.31206074
67	0x3e9f289f	0.3108568
68	0x3ee61cff	0.44943997
69	0x3e77ac79	0.24186887
70	0x3e16c0cb	0.14721982
71	0x00000000	0.0

mlp1.bias f4 [24]
0	0x3ea8625b	0.3288754
1	0x3e8153b5	0.25259176
2	0xbda44afd	-0.080221154
3	0x3f06a93c	0.5260198
4	0x3d608aa5	0.05481972
5	0x3ed173a5	0.40908542
6	0xbde2cc6c	-0.11074147
7	0xbe1efe8d	-0.15526791
8	0x3d94fadf	0.07274412
9	0x3f2ca6bf	0.67441934
10	0xbe7cc35d	-0.246839
11	0xbef12782	-0.47100455
12	0x3f1ee796	0.6207212
13	0x3e83aede	0.2571935
14	0x3e1ec6ff	0.15505598
15	0x3f300a9b	0.6876618
16	0xbec0506c	-0.37561357
17	0x3e015417	0.12629734
18	0x3ef00f24	0.4688655
19	0x3e88b14b	0.26697764
20	0x3edcacd2	0.431006
21	0xbf00a13e	-0.50246036
22	0x3d45a197	0.048249807
23	0xbdc71670	-0.097210765

mlp2.weight f4 [24, 72]
0	0x3ce5077c	0.02795767
1	0x00000000	0.0
2	0x00000000	0.0
3	0x00000000	0.0
4	0x00000000	0.0
5	0x3e19c2f7	0.1501578
6	0x3d956487	0.07294565
7	0x00000000	0.0
8	0x3dd12a14	0.10213104
9	0x00000000	0.0
10	0x00000000	0.0
11	0x3bde18f8	0.006777879
12	0x00000000	0.0
13	0x00000000	0.0
14	0x3e05c5f2	0.13063791
15	0x00000000	0.0
16	0x00000000	0.0
17	0x00000000	0.0
18	0x3d7cb230	0.06169337
19	0x00000000	0.0
20	0x3d3b0644	0.045660272
21	0x00000000	0.0
22	0x00000000	0.0
23	0x3a8d8f4c	0.0010800152
24	0x3d02865d	0.03186642
25	0x00000000	0.0
26	0x00000000	0.0
27	0x00000000	0.0
28	0x00000000	0.0
29	0x3e27a4e5	0.16371496
30	0x3c85689c	0.016285233
31	0x00000000	0.0
32	0x3e191c66	0.1495224
33	0x00000000	0.0
34	0x00000000	0.0
35	0x3c06f7e7	0.008237815
36	0x00000000	0.0
37	0x00000000	0.0
38	0x3e6448d5	0.22293408
39	0x00000000	0.0
40	0x00000000	0.0
41	0x3d2689ea	0.04065887
42	0x3df60bd1	0.120139726
43	0x00000000	0.0
44	0x3d3170be	0.04332041
45	0x00000000	0.0
46	0x00000000	0.0
47	0x3a3a5352	0.00071077526
48	0x3dc818f6	0.09770386
49	0x00000000	0.0
50	0x00000000	0.0
51	0x00000000	0.0
52	0x00000000	0.0
53	0x3e61980b	0.22030656
54	0x3c908631	0.017642112
55	0x00000000	0.0
56	0x3e0bcf00	0.13653183
57	0x00000000	0.0
58	0x00000000	0.0
59	0x3d927546	0.071512744
60	0x00000000	0.0
61	0x00000000	0.0
62	0x3e237ca2	0.15965512
63	0x00000000	0.0
64	0x00000000	0.0
65	0x3d9d238d	0.076727964
66	0x3db7126d	0.08939061
67	0x00000000	0.0
68	0x3dffa3bc	0.12482402
69	0x00000000	0.0
70	0x00000000	0.0
71	0x3acc969a	0.0015608848
72	0x3c0184f4	0.007905234
73	0x00000000	0.0
74	0x00000000	0.0
75	0x00000000	0.0
76	0x00000000	0.0
77	0x3dc5b22a	0.09653123
78	0x3ce18843	0.027530795
79	0x00000000	0.0
80	0x3e009892	0.12558201
81	0x00000000	0.0
82	0x00000000	0.0
83	0x3bcd6a82	0.0062688002
84	0x00000000	0.0
85	0x00000000	0.0
86	0x3e0605c5	0.13088138
87	0x00000000	0.0
88	0x00000000	0.0
89	0x3a59478d	0.0008288555
90	0x3da3f0e4	0.080049306
91	0x00000000	0.0
92	0x3d392936	0.045205317
93	0x00000000	0.0
94	0x00000000	0.0
95	0x3b2bbc98	0.002620494
96	0x3d9f6948	0.07783753
97	0x00000000	0.0
98	0x00000000	0.0
99	0x00000000	0.0
100	0x00000000	0.0
101	0x3e17febb	0.14843266
102	0x3d0b50cd	0.034012605
103	0x00000000	0.0
104	0x3e254ade	0.16141841
105	0x00000000	0.0
106	0x00000000	0.0
107	0x3ce49b82	0.027906183
108	0x00000000	0.0
109	0x00000000	0.0
110	0x3e221065	0.15826567
111	0x00000000	0.0
112	0x00000000	0.0
113	0x3ce5143c	0.02796375
114	0x3dc44ab7	0.09584563
115	0x00000000	0.0
116	0x3d41e396	0.047336183
117	0x00000000	0.0
118	0x00000000	0.0
119	0x3b084c6e	0.0020797509
120	0x3dcb413b	0.09924551
121	0x00000000	0.0
122	0x00000000	0.0
123	0x00000000	0.0
124	0x00000000	0.0
125	0x3e83ec7f	0.2576637
126	0x3daaf410	0.083473325
127	0x00000000	0.0
128	0x3e2469c2	0.16055968
129	0x00000000	0.0
130	0x00000000	0.0
131	0x3da4ac60	0.080406904
132	0x00000000	0.0
133	0x00000000	0.0
134	0x3e2e3630	0.17012858
135	0x00000000	0.0
136	0x00000000	0.0
137	0x3d4220ee	0.047394685
138	0x3e312dab	0.17302577
139	0x00000000	0.0
140	0x3d04f8ea	0.032463945
141	0x00000000	0.0
142	0x00000000	0.0
143	0x3b594c43	0.0033157028
144	0x3c8d2fff	0.0172348
145	0x00000000	0.0
146	0x00000000	0.0
147	0x00000000	0.0
148	0x00000000	0.0
149	0x3e2b409f	0.1672387
150	0x3d1c553a	0.038167216
151	0x00000000	0.0
152	0x3e103ef1	0.1408651
153	0x00000000	0.0
154	0x00000000	0.0
155	0x3d1736c3	0.03691746
156	0x00000000	0.0
157	0x00000000	0.0
158	0x3dfbfd49	0.1230417
159	0x00000000	0.0
160	0x00000000	0.0
161	0x3c684a58	0.014177881
162	0x3d4527ed	0.04813378
163	0x00000000	0.0
164	0x3dbb363b	0.09141203
165	0x00000000	0.0
166	0x00000000	0.0
167	0x3b8bf9b2	0.0042717094
168	0x3dc1641f	0.09442925
169	0x00000000	0.0
170	0x00000000	0.0
171	0x00000000	0.0
172	0x00000000	0.0
173	0x3e1511be	0.1455755
174	0x3d51c3db	0.051212173
175	0x00000000	0.0
176	0x3d82ae88	0.063809454
177	0x00000000	0.0
178	0x00000000	0.0
179	0x3c7dd090	0.01549162
180	0x00000000	0.0
181	0x00000000	0.0
182	0x3e13f5ff	0.14449309
183	0x00000000	0.0
184	0x00000000	0.0
185	0x3d8a5166	0.06753807
186	0x3e1e543d	0.15461822
187	0x00000000	0.0
188	0x3d783a21	0.06060231
189	0x00000000	0.0
190	0x00000000	0.0
191	0x3b882de0	0.0041558594
192	0x3d936c71	0.07198418
193	0x00000000	0.0
194	0x00000000	0.0
195	0x00000000	0.0
196	0x00000000	0.0
197	0x3e7238fc	0.2365455
198	0x3d84e8b4	0.06489697
199	0x00000000	0.0
200	0x3e0ad801	0.13558961
201	0x00000000	0.0
202	0x00000000	0.0
203	0x3dc1c93e	0.09462212
204	0x00000000	0.0
205	0x00000000	0.0
206	0x3e3f5df0	0.18688178
207	0x00000000	0.0
208	0x00000000	0.0
209	0x3dc08573	0.094004534
210	0x3d558b45	0.05213477
211	0x00000000	0.0
212	0x3cefe6a5	0.029284785
213	0x00000000	0.0
214	0x00000000	0.0
215	0x3b89e2bb	0.0042079366
216	0x3b0241e5	0.0019875702
217	0x00000000	0.0
218	0x00000000	0.0
219	0x00000000	0.0
220	0x00000000	0.0
221	0x3e1b4183	0.1516171
222	0x3d836373	0.06415453
223	0x00000000	0.0
224	0x3cff3584	0.031153448
225	0x00000000	0.0
226	0x00000000	0.0
227	0x3c346d53	0.011012393
228	0x00000000	0.0
229	0x00000000	0.0
230	0x3dc24561	0.09485889
231	0x00000000	0.0
232	0x00000000	0.0
233	0x3c0756a2	0.008260401
234	0x3d76538a	0.060138263
235	0x00000000	0.0
236	0x00000000	0.0
237	0x00000000	0.0
238	0x00000000	0.0
239	0x3b335251	0.0027362297
240	0x3db566cc	0.088574976
241	0x00000000	0.0
242	0x00000000	0.0
243	0x00000000	0.0
244	0x00000000	0.0
245	0x3e5672e1	0.2094226
246	0x3c8698be	0.016430255
247	0x00000000	0.0
248	0x3e18e476	0.14930901
249	0x00000000	0.0
250	0x00000000	0.0
251	0x3c27028d	0.010193479
252	0x00000000	0.0
253	0x00000000	0.0
254	0x3e3862e7	0.18006478
255	0x00000000	0.0

mlp2.bias f4 [24]
0	0x3d5f385f	0.05449712
1	0x3d5e2ef0	0.05424398
2	0x3d933fb2	0.07189883
3	0x3d1c17dc	0.03810869
4	0x3d68a3c8	0.05679682
5	0x3da27951	0.079332955
6	0x3d94f7a6	0.07273798
7	0x3d8594db	0.065225326
8	0x3d916bc7	0.07100635
9	0x3d6d9bc1	0.058009867
10	0x3d72b3c7	0.05925348
11	0x3d8dfc9e	0.069329485
12	0x3d86dda8	0.06585246
13	0x3cbcc593	0.02304343
14	0x3d5f2df8	0.0544872
15	0x3d32a8e6	0.043618105
16	0x3cf8f8e6	0.030392122
17	0x3d78f7ca	0.060783185
18	0x3cbc0273	0.022950387
19	0x3d8b3cdb	0.06798717
20	0x3d6b76da	0.057486393
21	0x3d6eed8d	0.058332015
22	0x3c62a222	0.013832601
23	0x3d05c3be	0.032657377

bn2.weight f4 [72]
0	0x3ee83f5d	0.45360842
1	0x3ec86099	0.39136198
2	0x3ec4c55f	0.38431832
3	0x3ec89ead	0.3918356
4	0x3ec5f279	0.38661554
5	0x3ef52af1	0.47884324
6	0x3edec26f	0.43507716
7	0x3ec49e41	0.38401988
8	0x3ef21299	0.47279814
9	0x3ed487fb	0.41509995
10	0x3ec0bb5d	0.37642947
11	0x3ed8ee90	0.4236951
12	0x3eca0453	0.39456424
13	0x3ec85dcc	0.3913406
14	0x3ef139f6	0.47114533
15	0x3ecccaf4	0.3999859
16	0x3ec4322b	0.38319525
17	0x3ede2ebc	0.4339503
18	0x3efaf70c	0.49016607
19	0x3ecd064b	0.40043864
20	0x3eed9f4a	0.4641059
21	0x3ecfe96b	0.4060777
22	0x3ec47d87	0.3837702
23	0x3ecd4d6e	0.40098137
24	0x3ef5f324	0.48037064
25	0x3ec37eac	0.3818258
26	0x3ec74603	0.38920602
27	0x3ec4d544	0.3844396
28	0x3ebde779	0.37090662
29	0x3eff277f	0.4983482
30	0x3edcfcdb	0.43161663
31	0x3eb9ebb6	0.36312646
32	0x3ef25421	0.4732981
33	0x3ed64120	0.4184656
34	0x3ec139f2	0.3773952
35	0x3ed1f338	0.41005874
36	0x3ebd5b02	0.36983496
37	0x3ecc3fdd	0.39892474
38	0x3ef7e4fe	0.48416895
39	0x3ed5d51a	0.41764146
40	0x3ec7b7fb	0.39007553
41	0x3ee9812c	0.45606363
42	0x3eeefff4	0.46679652
43	0x3ecd7c52	0.4013391
44	0x3eeecfe5	0.46642986
45	0x3eca8762	0.39556414
46	0x3ec78b39	0.38973406
47	0x3eca459b	0.3950623
48	0x3ef62f12	0.48082787
49	0x3ec45415	0.383454
50	0x3ec52d33	0.38511047
51	0x3ec2acd7	0.3802249
52	0x3ec1b14f	0.37830588
53	0x3eff71a6	0.49891394
54	0x3ee251d3	0.44203052
55	0x3eb8746e	0.3602633
56	0x3ef38f7a	0.475704
57	0x3ed668e5	0.41876903
58	0x3ec679db	0.38764843
59	0x3ef2e02e	0.4743666
60	0x3ec04c52	0.37558228
61	0x3eca68a5	0.39532962
62	0x3ef9d5ed	0.48796025
63	0x3ed9aec7	0.42516157
64	0x3ebeb0ac	0.37244165
65	0x3ee56c09	0.44808987
66	0x3ef04ca6	0.46933478
67	0x3ecb1ade	0.39668936
68	0x3ef23c86	0.473118
69	0x3ec6fe46	0.3886587
70	0x3ec63279	0.38710383
71	0x3ecad526	0.39615744

bn2.bias f4 [72]
0	0x3d667984	0.05626823
1	0x3c58e6b7	0.0132386
2	0x3b9ac801	0.0047235494
3	0x3c9aa6f4	0.018878438
4	0x3cd800cd	0.02636757
5	0x3d59f213	0.053209376
6	0x3d895078	0.06704801
7	0x3cb0a4f6	0.021563035
8	0x3d541270	0.051775396
9	0x3c9534ae	0.018213596
10	0x3ca80834	0.020511724
11	0x3d498c11	0.049205843
12	0x3cdbeadf	0.026845394
13	0x3ca46f3d	0.020072574
14	0x3d83e2b1	0.06439722
15	0x3cd03920	0.025417864
16	0x3c236f89	0.0099753225
17	0x3d3ad2df	0.04561126
18	0x3d00c1ba	0.031434752
19	0x3cadb4b1	0.021204324
20	0x3d4a798b	0.04943232
21	0x3c972be2	0.018453542
22	0x3c8f1581	0.017466309
23	0x3cfef735	0.031123737
24	0x3d2e9f73	0.04263253
25	0x3b5850ac	0.0033007069
26	0x3b00fe0c	0.0019682674
27	0x3c06efba	0.008235866
28	0x3c83669f	0.016040144
29	0x3d2100ea	0.039307512
30	0x3d2210cf	0.03956681
31	0x3c9db1e9	0.019249873
32	0x3d53b9ef	0.051690992
33	0x3cdf0457	0.02722375
34	0x3cc2e101	0.02378893
35	0x3d5b37ef	0.05352014
36	0x3c81a860	0.015827358
37	0xbb9a4bdc	-0.00470875
38	0x3d26cb7b	0.040721398
39	0x3c87694f	0.016529707
40	0xbc818c73	-0.015814042
41	0x3d2ce6d5	0.042212326
42	0x3d4e6c6a	0.05039636
43	0x3cedd218	0.029030845
44	0x3d446d14	0.047955588
45	0x3cdf3b65	0.027250001
46	0x3c6ae778	0.014337413
47	0x3cba9454	0.022775806
48	0x3d107eab	0.03527705
49	0x3b1f09bb	0.0024267274
50	0x3b26f2c5	0.0025474292
51	0x3d1444e3	0.036198508
52	0x3c10ced4	0.008838374
53	0x3d2362e8	0.039889246
54	0x3d6fbb91	0.058528487
55	0x3c92f015	0.017936746
56	0x3d65025e	0.05591046
57	0x3ceb6650	0.02873531
58	0x3c1fafcd	0.009746504
59	0x3d4080ab	0.046997707
60	0x3c98d380	0.018655539
61	0x3bb7b72e	0.0056065535
62	0x3d601649	0.054708753
63	0x3c3d2d0c	0.011546385
64	0x3d117ede	0.03552138
65	0x3d275b70	0.040858686
66	0x3d1e2252	0.03860695
67	0x3cf41548	0.029795304
68	0x3d0f5a75	0.034998376
69	0x3bd6423c	0.0065386575
70	0x3c0096ab	0.007848422
71	0x3cfbd2d5	0.030740181

bn2.running_mean f4 [72]
0	0x3ea86eaf	0.32896945
1	0x3e8dd082	0.2769814
2	0xbda08442	-0.07837726
3	0x3f08ef80	0.5349045
4	0x3e1abbfd	0.15110774
5	0x3ed4c469	0.415561
6	0xbde1316d	-0.10995755
7	0xbab1dd1c	-0.0013569924
8	0x3dbf86f6	0.09351914
9	0x3f2cde7d	0.6752699
10	0xbdbd5a2a	-0.09245713
11	0xbe894b67	-0.2681534
12	0x3f1fe345	0.6245616
13	0x3e8cf6bc	0.27531993
14	0x3e34b691	0.17647769
15	0x3f3010da	0.68775713
16	0xbe28e9a4	-0.16495377
17	0x3e41e62e	0.18935463
18	0x3ef905e0	0.48637295
19	0x3e9d7725	0.30754963
20	0x3ee3397b	0.44379792
21	0xbe6726ec	-0.22573441
22	0x3deed976	0.11662571
23	0xbdb94d2b	-0.09047922
24	0x3e883d34	0.26609194
25	0x3e066a50	0.13126493
26	0xbda10701	-0.07862664
27	0x3e8a051e	0.2695703
28	0x3ca47c89	0.020078914
29	0x3e5fdf7c	0.21862596
30	0xbde1639c	-0.11005327
31	0xbd9b26fc	-0.07575795
32	0x3d3ec0d0	0.0465706
33	0x3eab9234	0.33509982
34	0xbe0699ea	-0.13144651
35	0xbe897db1	-0.26853707
36	0x3e9f8df0	0.31162977
37	0x3e1aff6e	0.15136501
38	0x3db400ef	0.087892406
39	0x3ec5aa68	0.38606572
40	0xbe43fe63	-0.1914001
41	0x3d77ad02	0.060467727
42	0x3e6658f8	0.22494876
43	0x3e010b07	0.12601863
44	0x3e59c41f	0.2126622
45	0xbe75823f	-0.23975466
46	0x3cc9659c	0.024584584
47	0xbdba38c9	-0.09092862
48	0x3e882e9b	0.26598057
49	0x3ddad27f	0.1068468
50	0xbda4d052	-0.080475464
51	0x3e857691	0.2606702
52	0xbd9c1e18	-0.076229274
53	0x3e58e442	0.21180823
54	0xbde95ed7	-0.113950424
55	0xbe6b2a51	-0.22965361
56	0x3cc3b175	0.023888329
57	0x3eaa6a55	0.3328425
58	0xbe925891	-0.28583196
59	0xbef37fbf	-0.475584
60	0x3e9dd017	0.30822822
61	0x3e08652b	0.13319843
62	0x3d84e598	0.06489104
63	0x3ec58250	0.38575983
64	0xbecddb4a	-0.40206367
65	0xbb5048d6	-0.0031781695
66	0x3e55917b	0.20856278
67	0x3daed241	0.085361965
68	0x3e49eacd	0.19718476
69	0xbf04376b	-0.5164706
70	0xbd33688a	-0.043800868
71	0xbdc992de	-0.09842466

bn2.running_var f4 [72]
0	0x3dcf0bd4	0.10109678
1	0x3ea32493	0.3186384
2	0x3d4ae229	0.04953209
3	0x3eb56781	0.3543053
4	0x3ebeadab	0.37241873
5	0x3e9e1ce8	0.3088143
6	0x3d7b3ac2	0.061335333
7	0x3e95eabc	0.2928065
8	0x3e473f80	0.19457817
9	0x3eb22670	0.3479495
10	0x3e5e130c	0.21686953
11	0x3dafe2b0	0.08588159
12	0x3eb250af	0.34827182
13	0x3e8a44da	0.27005655
14	0x3e817a5e	0.2528867
15	0x3e6857c7	0.22689734
16	0x3e3b03de	0.18263194
17	0x3eacd5f3	0.3375698
18	0x3ed04e29	0.4068463
19	0x3ec489b9	0.38386324
20	0x3ebf80a6	0.37402838
21	0x3e18e957	0.14932762
22	0x3e93edd7	0.28892395
23	0x3d997bd3	0.07494321
24	0x3d6b12e3	0.05739106
25	0x3e13f2dc	0.14448112
26	0x3d49815b	0.04919563
27	0x3dcce676	0.100048944
28	0x3e30c8bb	0.17264073
29	0x3deb52c9	0.114903994
30	0x3d7ab669	0.061209116
31	0x3e2c13cd	0.16804428
32	0x3e0d7dfa	0.13817587
33	0x3d93f6e8	0.07224828
34	0x3e1893a4	0.1490007
35	0x3dae8866	0.0852211
36	0x3da9d68a	0.08292873
37	0x3e034f97	0.1282333
38	0x3e191542	0.14949515
39	0x3d2b8526	0.041875027
40	0x3e08e603	0.13368993
41	0x3e25e527	0.16200696
42	0x3dff7fb3	0.124755286
43	0x3e1b700a	0.15179458
44	0x3e00b5c4	0.12569338
45	0x3dfac292	0.122441426
46	0x3e1f38fd	0.15549083
47	0x3d984326	0.074346825
48	0x3d6bd346	0.057574533
49	0x3e3cf8ca	0.1845428
50	0x3d5112d1	0.051043335
51	0x3df0438f	0.11731636
52	0x3ea6bc58	0.3256557
53	0x3e0155ee	0.12630436
54	0x3d846a46	0.064655825
55	0x3ec4b02f	0.38415667
56	0x3e2ccba0	0.16874552
57	0x3d9ce612	0.0766107
58	0x3eaf4484	0.3423196
59	0x3e83ed39	0.25766924
60	0x3db78ab6	0.08962004
61	0x3e2252cb	0.15851896
62	0x3e3adda0	0.18248606
63	0x3d2e2107	0.042511966
64	0x3ec136ad	0.37737027
65	0x3e858d95	0.2608458
66	0x3e1d811a	0.1538128
67	0x3e61dbed	0.22056551
68	0x3e1c2c1e	0.15251204
69	0x3ed3decf	0.41380927
70	0x3e855122	0.26038462
71	0x3da6e978	0.081499994

mlp3.weight f4 [24, 72]
0	0x00000000	0.0
1	0x00000000	0.0
2	0x00000000	0.0
3	0x3694cd02	4.4346098e-06
4	0x00000000	0.0
5	0x00000000	0.0
6	0x00000000	0.0
7	0x00000000	0.0
8	0x00000000	0.0
9	0x3844ac3c	4.6890447e-05
10	0x00000000	0.0
11	0x00000000	0.0
12	0x00000000	0.0
13	0x00000000	0.0
14	0x00000000	0.0
15	0x00000000	0.0
16	0x00000000	0.0
17	0x00000000	0.0
18	0x00000000	0.0
19	0x00000000	0.0
20	0x00000000	0.0
21	0x00000000	0.0
22	0x00000000	0.0
23	0x37b34b42	2.1373507e-05
24	0x3c034020	0.008010894
25	0x3d98a5fd	0.07453535
26	0x3c0d007b	0.008606072
27	0x3cc70335	0.024293521
28	0x3bd6f6a1	0.006560162
29	0x3c13eda3	0.009028825
30	0x3cca87be	0.02472293
31	0x3d3be448	0.045872003
32	0x3c67f993	0.014158624
33	0x3c3a0259	0.011353099
34	0x3d1568c7	0.036476877
35	0x3d810f0c	0.06301698
36	0x3db78e67	0.08962708
37	0x3c108629	0.008821049
38	0x3d404afe	0.046946518
39	0x3d43e236	0.047823153
40	0x3c075bbb	0.008261616
41	0x3d15a59a	0.036534883
42	0x3c0a0c6c	0.008425813
43	0x3d85260c	0.065013975
44	0x3b8dab7d	0.0043234215
45	0x3bff82e8	0.0077975877
46	0x3c02ebb4	0.007990766
47	0x3d9dc8ec	0.077043384
48	0x3e7e4bc2	0.24833587
49	0x3e3a5ab4	0.18198663
50	0x3e48245a	0.19545117
51	0x3e886aad	0.26643887
52	0x3e75d914	0.2400859
53	0x3e588a1f	0.21146439
54	0x3e4b41c6	0.1984931
55	0x3ea19ff5	0.3156735
56	0x3e9a2c71	0.3011203
57	0x3e933c06	0.28756732
58	0x3e13d696	0.14437327
59	0x3ea633b8	0.32461333
60	0x3e9607e2	0.2930289
61	0x3e891018	0.2677009
62	0x3e3a2309	0.18177427
63	0x3ea85e74	0.32884562
64	0x3e933bc5	0.28756538
65	0x3e64ba9e	0.22336814
66	0x3ea14fb1	0.31506112
67	0x3e7e7ce5	0.24852331
68	0x3ea14232	0.31495816
69	0x3e955bf3	0.29171714
70	0x3ea9d631	0.33171228
71	0x3e2f3bb0	0.17112613
72	0x39b28c64	0.00034055405
73	0x39cbb4b1	0.00038853803
74	0x39d3af73	0.00040375776
75	0x39bfe07c	0.00036597613
76	0x39d8142b	0.00041213757
77	0x39cabba7	0.00038668254
78	0x39b7ed64	0.0003508135
79	0x39e17127	0.0004299965
80	0x39e7249b	0.00044087027
81	0x39739102	0.00023228306
82	0x39d7d546	0.00041166897
83	0x39d780ca	0.0004110395
84	0x39ef834d	0.0004568346
85	0x39f42f93	0.00046574752
86	0x39c5d7fb	0.00037735686
87	0x39cf9a2d	0.00039596987
88	0x3a0eeba8	0.00054519856
89	0x39eb18cc	0.00044841168
90	0x39e2b021	0.00043237305
91	0x39b6310f	0.00034750297
92	0x399a3559	0.00029412916
93	0x39bafb6e	0.00035664014
94	0x3a036557	0.0005012354
95	0x39abd19c	0.00032771833
96	0x3e0aad69	0.13542713
97	0x3dfaaf3e	0.12240456
98	0x3e30b7b1	0.17257573
99	0x3de9f435	0.11423532
100	0x3dce4990	0.10072625
101	0x3e408c9a	0.18803635
102	0x3e2e256f	0.17006467
103	0x3e131cf5	0.14366515
104	0x3e244fd2	0.16046074
105	0x3e287fe0	0.1645503
106	0x3e04b53d	0.12959762
107	0x3e158854	0.14602786
108	0x3e2d3749	0.16915621
109	0x3e10a83b	0.14126675
110	0x3dec17f2	0.11528005
111	0x3e45d169	0.19318165
112	0x3db576ad	0.08860526
113	0x3e0d3058	0.13787973
114	0x3e305aa4	0.17222077
115	0x3e427e0c	0.18993396
116	0x3de561aa	0.112002686
117	0x3df64086	0.120240256
118	0x3e4048cd	0.18777771
119	0x3dca170b	0.09867676
120	0x00000000	0.0
121	0x00000000	0.0
122	0x00000000	0.0
123	0x00000000	0.0
124	0x00000000	0.0
125	0x00000000	0.0
126	0x00000000	0.0
127	0x00000000	0.0
128	0x00000000	0.0
129	0x00000000	0.0
130	0x00000000	0.0
131	0x00000000	0.0
132	0x00000000	0.0
133	0x00000000	0.0
134	0x00000000	0.0
135	0x00000000	0.0
136	0x00000000	0.0
137	0x00000000	0.0
138	0x00000000	0.0
139	0x00000000	0.0
140	0x00000000	0.0
141	0x00000000	0.0
142	0x00000000	0.0
143	0x00000000	0.0
144	0x39386215	0.00017584146
145	0x3940eb56	0.00018398216
146	0x391bd684	0.00014861865
147	0x39979351	0.00028910724
148	0x39134b2a	0.00014047013
149	0x3913d8af	0.00014099733
150	0x391bc31e	0.00014854639
151	0x392beec2	0.00016396775
152	0x3925b401	0.00015802683
153	0x39e62140	0.00043893792
154	0x391f19cf	0.00015173036
155	0x393acefd	0.00017815451
156	0x3905c777	0.00012758175
157	0x39347057	0.00017207988
158	0x394c230c	0.00019468012
159	0x395497c6	0.00020274436
160	0x395c86d9	0.0002103107
161	0x39279b71	0.00015984268
162	0x3995e82d	0.0002859248
163	0x39378f0e	0.00017505532
164	0x39192529	0.0001460506
165	0x392bfade	0.00016401286
166	0x399ff59f	0.00030509845
167	0x39c85df7	0.00038216982
168	0x3c799cea	0.015235165
169	0x3caf5902	0.021404747
170	0x3c288a93	0.010286945
171	0x3c1dd1d6	0.009632548
172	0x3c045d43	0.008078876
173	0x3cf25596	0.029581826
174	0x3d0cc413	0.03436668
175	0x3d2d44bf	0.04230189
176	0x3c2084d4	0.009797294
177	0x3c12576e	0.008931978
178	0x3c1939b9	0.009352141
179	0x3c276523	0.010216984
180	0x3c176bfe	0.009242056
181	0x3c25ff3f	0.010131656
182	0x3daaac66	0.08333664
183	0x3d420f9f	0.04737818
184	0x3cdadb54	0.026715912
185	0x3d59a81f	0.05313885
186	0x3c2232cf	0.009899809
187	0x3c2ef52a	0.010678569
188	0x3baf7c39	0.0053553847
189	0x3c171990	0.009222403
190	0x3cc3f267	0.023919297
191	0x3cec344e	0.028833535
192	0x3e7d902f	0.24762033
193	0x3ead80e0	0.33887386
194	0x3e9ee605	0.31034866
195	0x3ea6f229	0.3260663
196	0x3e6ebf70	0.23315215
197	0x3e9073c5	0.28213325
198	0x3ea5e4f0	0.32401228
199	0x3ecf0f64	0.4044143
200	0x3eb96a06	0.36213702
201	0x3eba8a50	0.3643365
202	0x3e608769	0.21926655
203	0x3ee150b8	0.44006896
204	0x3eb355ad	0.35026303
205	0x3ea9f5a0	0.3319521
206	0x3e8c1186	0.2735712
207	0x3ed32168	0.41236424
208	0x3ea0069a	0.31255037
209	0x3ed137f1	0.40862992
210	0x3edefda4	0.43552887
211	0x3ecce966	0.4002182
212	0x3ed4beee	0.41551918
213	0x3ecd5a4b	0.4010795
214	0x3ee66745	0.45000663
215	0x3e835bcc	0.25655973
216	0x00000000	0.0
217	0x00000000	0.0
218	0x00000000	0.0
219	0x00000000	0.0
220	0x00000000	0.0
221	0x00000000	0.0
222	0x00000000	0.0
223	0x00000000	0.0
224	0x00000000	0.0
225	0x00000000	0.0
226	0x00000000	0.0
227	0x00000000	0.0
228	0x00000000	0.0
229	0x00000000	0.0
230	0x00000000	0.0
231	0x00000000	0.0
232	0x00000000	0.0
233	0x00000000	0.0
234	0x00000000	0.0
235	0x00000000	0.0
236	0x00000000	0.0
237	0x00000000	0.0
238	0x00000000	0.0
239	0x00000000	0.0
240	0x3de3c6bd	0.11121891
241	0x3e29ae22	0.16570333
242	0x3e492dda	0.19646397
243	0x3e1306f6	0.14358124
244	0x3e19afe3	0.15008502
245	0x3e2ee1c8	0.17078316
246	0x3e5d8465	0.21632536
247	0x3e24d742	0.1609774
248	0x3e346cef	0.1761968
249	0x3e1934eb	0.14961593
250	0x3e6372ce	0.22211763
251	0x3e29a76d	0.16567774
252	0x3e56fbb3	0.20994453
253	0x3e29bdde	0.16576335
254	0x3e21dffe	0.15808102
255	0x3e601dcf	0.21886371

mlp3.bias f4 [24]
0	0x3ea57b80	0.32320786
1	0xbe32cc96	-0.17460856
2	0x3e85acdf	0.26108453
3	0x3e25f286	0.16205797
4	0x3e2595bb	0.16170399
5	0xbdae94e7	-0.085244946
6	0xbeb3727f	-0.3504829
7	0xbe5919f6	-0.2120131
8	0xbe8fdc30	-0.28097677
9	0xbe62c954	-0.22147113
10	0xbe206413	-0.15663175
11	0xbe870216	-0.2636878
12	0xbe807a4d	-0.25093308
13	0xbe7d5ce6	-0.24742469
14	0x3de6e9bc	0.1127505
15	0x3e1674c5	0.14692982
16	0xbe35cb6d	-0.17753382
17	0x3e7baf51	0.24578597
18	0xbe7167dc	-0.23574775
19	0xbec1579e	-0.3776216
20	0x3e638eac	0.22222394
21	0xbe8342cf	-0.25636908
22	0xbe58755b	-0.21138518
23	0xbe831b94	-0.25606978

bn3.weight f4 [72]
0	0x3ed37fda	0.4130848
1	0x3ed89465	0.42300716
2	0x3ede4bb3	0.4341713
3	0x3edb49e8	0.42829823
4	0x3ed8000f	0.42187545
5	0x3ed3c4e1	0.41361144
6	0x3ed7e127	0.42163965
7	0x3ed8ed89	0.42368725
8	0x3edcebf8	0.4314878
9	0x3ed3c721	0.4136286
10	0x3ed9a7fa	0.42510968
11	0x3edba90d	0.42902413
12	0x3ed2359f	0.41056535
13	0x3ed727fa	0.42022687
14	0x3ed89453	0.42300662
15	0x3ed76005	0.42065445
16	0x3ed64a68	0.41853642
17	0x3ed580ed	0.41699925
18	0x3ed540e1	0.4165106
19	0x3ed2127e	0.41029733
20	0x3ed39143	0.41321763
21	0x3ed264fa	0.41092664
22	0x3ede61c9	0.4343398
23	0x3ed50fca	0.4161361
24	0x3ef1568f	0.4713635
25	0x3ef2a6f8	0.47393012
26	0x3ef9c68e	0.48784298
27	0x3ef8cfd0	0.48596048
28	0x3ef20fe1	0.4727774
29	0x3ef583aa	0.47952014
30	0x3ef70554	0.48246253
31	0x3efe7877	0.49701282
32	0x3ef6df42	0.48217207
33	0x3ef38879	0.47565058
34	0x3efc8b15	0.4932486
35	0x3ef79aa0	0.48360157
36	0x3efb9905	0.49140182
37	0x3efabb42	0.4897099
38	0x3efb5e05	0.4909517
39	0x3ef224e2	0.47293764
40	0x3ef55a49	0.47920445
41	0x3efeb25e	0.49745458
42	0x3ef65c21	0.48117164
43	0x3ef1f109	0.47254208
44	0x3eea258f	0.4573178
45	0x3ef94d95	0.48692003
46	0x3ef8b6af	0.48576877
47	0x3ef7f0e4	0.48425972
48	0x3ec7f4b5	0.39053884
49	0x3ebf3aa1	0.37349418
50	0x3ec1bd47	0.3783972
51	0x3ec7e3b2	0.39040905
52	0x3ec0c5e2	0.37650973
53	0x3ebfbc34	0.37448275
54	0x3ecad6e3	0.3961707
55	0x3ecc2ca1	0.398778
56	0x3ecde29c	0.40211952
57	0x3ecadf13	0.39623317
58	0x3ec41215	0.38295045
59	0x3ed7e4c3	0.4216672
60	0x3ec5d45d	0.38638583
61	0x3ec597f3	0.3859249
62	0x3ec4169a	0.38298494
63	0x3ec7f912	0.39057213
64	0x3ec56833	0.3855606
65	0x3ec4fc82	0.38473898
66	0x3eca4b7d	0.39510718
67	0x3ebf3e59	0.37352255
68	0x3ecc7921	0.39936164
69	0x3ec5a33d	0.38601103
70	0x3ec104ad	0.3769888
71	0x3ec0dc07	0.37667868

bn3.bias f4 [72]
0	0xbdf80a41	-0.12111331
1	0xbdf3a0b3	-0.11895885
2	0xbe035fb7	-0.12829481
3	0xbdf6b3e1	-0.12046028
4	0xbe117fa4	-0.14208847
5	0xbdf79124	-0.1208823
6	0xbdf0f6c7	-0.11765819
7	0xbdf3fc8a	-0.119134024
8	0xbe0cac6c	-0.13737649
9	0xbdb59d42	-0.08867885
10	0xbe0b4bf1	-0.13603188
11	0xbe0088ee	-0.12552235
12	0xbe0e35da	-0.1388773
13	0xbe18ff4a	-0.14941135
14	0xbde6c272	-0.11267556
15	0xbe0661e2	-0.13123277
16	0xbe1824a8	-0.14857733
17	0xbe0d106f	-0.137758
18	0xbe120ae0	-0.14261961
19	0xbe009b6c	-0.12559289
20	0xbdeabdaa	-0.11461957
21	0xbdf1f635	-0.118145384
22	0xbe120166	-0.14258346
23	0xbdf4fe86	-0.11962609
24	0xbe69566f	-0.22786878
25	0xbe65f21b	-0.22455637
26	0xbe6cf889	-0.23141684
27	0xbe6cdb5e	-0.23130557
28	0xbe7750e1	-0.24151947
29	0xbe660e19	-0.22466315
30	0xbe62fceb	-0.22166793
31	0xbe64cc23	-0.22343497
32	0xbe6dfef8	-0.23241794
33	0xbe722f96	-0.23650965
34	0xbe6713bc	-0.22566122
35	0xbe6f6ff3	-0.23382549
36	0xbe692b5a	-0.22770444
37	0xbe648f6c	-0.22320336
38	0xbe575e6a	-0.2103211
39	0xbe57f66c	-0.21090096
40	0xbe6c3fef	-0.23071264
41	0xbe652725	-0.22378214
42	0xbe70b956	-0.235082
43	0xbe6c2718	-0.23061788
44	0xbe6c38a8	-0.23068488
45	0xbe6b7571	-0.22994019
46	0xbe68ef68	-0.22747576
47	0xbe5ead16	-0.21745715
48	0x3d930cda	0.071801856
49	0x3db16663	0.08662107
50	0x3da5e8fd	0.081010796
51	0x3e0944d6	0.13405165
52	0x3d714dcb	0.05891208
53	0x3d85189b	0.06498834
54	0x3df6ef55	0.12057368
55	0x3e3ad228	0.18244231
56	0x3e72bbd4	0.23704463
57	0x3e30c0d1	0.17261054
58	0x3d17f642	0.037100084
59	0x3e5d58df	0.21615933
60	0x3e10fe75	0.14159568
61	0x3dc8b6b8	0.09800476
62	0x3dbcaa31	0.09212149
63	0x3e77de43	0.2420588
64	0x3e00f8a5	0.1259485
65	0x3e0150c5	0.12628467
66	0x3e1f675e	0.15566775
67	0x3debe2dc	0.11517879
68	0x3e3c00c2	0.18359664
69	0x3e15812c	0.14600056
70	0x3e155a89	0.14585318
71	0x3d586621	0.052831773

bn3.running_mean f4 [72]
0	0x3ecbe67d	0.39824286
1	0x3ecc71c3	0.39930543
2	0x3ed73d5a	0.42038995
3	0x3ec3d533	0.38248596
4	0x3ecf4b64	0.40487206
5	0x3edbd00d	0.42932168
6	0x3ed0fc01	0.40817264
7	0x3ecfcfff	0.40588376
8	0x3ed0cbbe	0.40780443
9	0x3ecb202d	0.39672986
10	0x3ecbb749	0.39788273
11	0x3ed465ea	0.41484004
12	0x3ed1034f	0.40822837
13	0x3ebc34ab	0.36758932
14	0x3ec76779	0.3894613
15	0x3ec42f2a	0.38317233
16	0x3ebdaf34	0.37047732
17	0x3ed1825b	0.40919766
18	0x3ebbc09e	0.36670393
19	0x3ed012c1	0.40639308
20	0x3ec7d55e	0.39029974
21	0x3ec8ebed	0.39242497
22	0x3eab86f8	0.3350141
23	0x3ebf5599	0.37369993
24	0x3dbbea6b	0.09175571
25	0x3db9d8a7	0.09074526
26	0x3dba2d8e	0.0909072
27	0x3dbc25c5	0.091868915
28	0x3dbb6dc8	0.091517985
29	0x3dba49ef	0.09096133
30	0x3db67e4a	0.089108065
31	0x3db75747	0.08952194
32	0x3db9d5ec	0.090740055
33	0x3dbca125	0.092104234
34	0x3db83d43	0.0899606
35	0x3dbc3615	0.09190003
36	0x3db9829c	0.09058115
37	0x3db7e313	0.08978858
38	0x3db81400	0.0898819
39	0x3dbd2d6f	0.092371814
40	0x3dbca007	0.0921021
41	0x3dbbc9b5	0.09169332
42	0x3dbb9810	0.09159863
43	0x3dbc1255	0.09183184
44	0x3db59a30	0.088672996
45	0x3db699af	0.089160316
46	0x3db3bbeb	0.08776077
47	0x3dbbcc8a	0.09169872
48	0xbe11a958	-0.14224756
49	0xbe135003	-0.14385991
50	0xbe0ff700	-0.14059067
51	0xbe146986	-0.14493379
52	0xbe0ebe12	-0.13939694
53	0xbe101e83	-0.1407414
54	0xbe08661e	-0.13320205
55	0xbe0d5660	-0.1380248
56	0xbe0c23c9	-0.13685526
57	0xbe0c9805	-0.13729866
58	0xbe0e380a	-0.13888565
59	0xbe0f8a01	-0.14017488
60	0xbe0dc6fe	-0.13845441
61	0xbe1518f2	-0.14560297
62	0xbe0ac378	-0.13551128
63	0xbe1013ee	-0.14070103
64	0xbe10ebbb	-0.14152424
65	0xbe137139	-0.1439866
66	0xbe12952b	-0.14314716
67	0xbe0bd9fd	-0.13657375
68	0xbe087904	-0.13327414
69	0xbe0a1fd5	-0.13488705
70	0xbe08b0ac	-0.13348645
71	0xbe0ed6d0	-0.13949132

bn3.running_var f4 [72]
0	0x3f1954d3	0.59895056
1	0x3f1aeb8b	0.6051566
2	0x3f253eb5	0.6454881
3	0x3f11a537	0.5689272
4	0x3f1cedc2	0.6130029
5	0x3f2a04d6	0.6641363
6	0x3f21a6f2	0.63145363
7	0x3f1edb57	0.62053436
8	0x3f1f04d3	0.62116736
9	0x3f18670c	0.5953224
10	0x3f1ac6bf	0.6045951
11	0x3f21042c	0.6289699
12	0x3f1f3f9c	0.62206435
13	0x3f0d93d8	0.55303717
14	0x3f16f4cb	0.58967274
15	0x3f11d83f	0.5697059
16	0x3f0bf8eb	0.54676694
17	0x3f1ec1a7	0.6201424
18	0x3f0b547e	0.544258
19	0x3f1df0a4	0.61695313
20	0x3f19f307	0.60136455
21	0x3f18ad0b	0.5963904
22	0x3f00c828	0.50305414
23	0x3f0e6184	0.5561755
24	0x3e54e8a2	0.20791867
25	0x3e54c289	0.20777334
26	0x3e54ecf3	0.20793514
27	0x3e553d67	0.20824204
28	0x3e55141d	0.20808454
29	0x3e551399	0.20808257
30	0x3e544eb9	0.20733155
31	0x3e54c8dc	0.20779747
32	0x3e54e665	0.20791014
33	0x3e54f590	0.207968
34	0x3e54ba1c	0.2077412
35	0x3e551e9a	0.20812455
36	0x3e550ab5	0.20804866
37	0x3e54b62f	0.20772623
38	0x3e54c4b7	0.20778166
39	0x3e54d274	0.20783406
40	0x3e55027d	0.2080173
41	0x3e552c44	0.20817667
42	0x3e54c7ec	0.20779389
43	0x3e551069	0.20807041
44	0x3e54198e	0.20712873
45	0x3e54abb2	0.20768622
46	0x3e542759	0.20718135
47	0x3e54f7d8	0.2079767
48	0x3f2d9ccf	0.67817396
49	0x3f2e4e69	0.68088394
50	0x3f2bb123	0.67067164
51	0x3f2feb64	0.6871855
52	0x3f2b2320	0.6685047
53	0x3f2baf92	0.67064774
54	0x3f249e78	0.64304304
55	0x3f28b2fd	0.65898114
56	0x3f28be5e	0.6591548
57	0x3f2a05bd	0.66415006
58	0x3f29896d	0.6622532
59	0x3f2bb07b	0.6706616
60	0x3f295588	0.66146135
61	0x3f2e8643	0.6817362
62	0x3f26eadd	0.6520212
63	0x3f2d7390	0.6775446
64	0x3f2d68c3	0.6773798
65	0x3f2ec37d	0.6826704
66	0x3f2dd751	0.6790667
67	0x3f28fc30	0.6600981
68	0x3f2473a3	0.6423895
69	0x3f257b80	0.6464157
70	0x3f23aec3	0.6393854
71	0x3f2b16de	0.6683177

mlp4.weight f4 [1, 72]
0	0x00000000	0.0
1	0x00000000	0.0
2	0x00000000	0.0
3	0x00000000	0.0
4	0x00000000	0.0
5	0x00000000	0.0
6	0x00000000	0.0
7	0x00000000	0.0
8	0x00000000	0.0
9	0x00000000	0.0
10	0x00000000	0.0
11	0x00000000	0.0
12	0x00000000	0.0
13	0x00000000	0.0
14	0x00000000	0.0
15	0x00000000	0.0
16	0x00000000	0.0
17	0x00000000	0.0
18	0x00000000	0.0
19	0x00000000	0.0
20	0x00000000	0.0
21	0x00000000	0.0
22	0x00000000	0.0
23	0x00000000	0.0
24	0x3e7e5c8e	0.24839994
25	0x3d48aac6	0.048990987
26	0x3ea1f1b2	0.3162971
27	0x00000000	0.0
28	0x00000000	0.0
29	0x00000000	0.0
30	0x3dc2298a	0.09480579
31	0x3e4914b9	0.19636811
32	0x3e10ca1f	0.14139603
33	0x3e0efa55	0.13962682
34	0x3e8e5057	0.2779567
35	0x3e33dbf7	0.17564379
36	0x3e6420a4	0.22278076
37	0x3e5f17c4	0.2178641
38	0x00000000	0.0
39	0x3cceaf36	0.025230031
40	0x3dbe8c42	0.09304096
41	0x39da0d08	0.0004158991
42	0x3e32c3bf	0.17457484
43	0x3dccf489	0.10007579
44	0x3ca5d299	0.020242022
45	0x3e4f8922	0.20267156
46	0x3e123ed7	0.14281784
47	0x3e710601	0.23537447
48	0x00000000	0.0
49	0x00000000	0.0
50	0x00000000	0.0
51	0x3d230f20	0.039809346
52	0x3d5dfd63	0.054196727
53	0x00000000	0.0
54	0x3e53abab	0.20670955
55	0x3e1a5720	0.15072298
56	0x3d846af1	0.0646571
57	0x3e0e08bd	0.13870521
58	0x3e645b5c	0.22300476
59	0x3e2cf4ce	0.1689026
60	0x3e31ec9f	0.1737542
61	0x3dd52e86	0.10409264
62	0x3d1949b4	0.037423804
63	0x3e129160	0.14313269
64	0x3e2f810e	0.17139074
65	0x3e1acd85	0.15117462
66	0x3dd7e394	0.10541454
67	0x3dd62d3e	0.10457848
68	0x3d92a1db	0.07159778
69	0x3e4d2e56	0.20037207
70	0x3d0fef65	0.035140414
71	0x3de0c3cc	0.10974845
