utility-model-selected/dim-3/utility-17.pt (torch, 23458 bytes, 17 tensors)

bn1.running_mean f4 [3]
0.5019971 0.5000743 0.49888787
00000000: e282 003f df04 003f 3b6e ff3e

bn1.running_var f4 [3]
0.056474797 0.05373016 0.05290013
00000000: 1e52 673d 2814 5c3d cfad 583d

mlp1.weight f4 [24, 3]
0.23234877 0.2926525 0.5 0.36641327 0.3914284 0.5 0.49926335 0.057517447
0.2905316 0.44279486 0.21694711 0.5 0.5 0.019591574 0.44498655 0.11925775
0.0 0.32310334 0.16909513 0.39959708 0.37863618 0.050023045 0.33322188 0.41974875
0.5 0.39478233 0.23007919 0.33548424 0.09309498 0.49893665 0.32431063 0.26192003
0.49987757 0.399507 0.23247659 0.49556756 0.41872177 0.0 0.42096505 0.22254059
0.48577657 0.09311643 0.36056474 0.098067686 0.47620994 0.20641233 0.23507942 0.48092315
0.032320574 0.44325936 0.49844155 0.3658707 0.3873205 0.448619 0.13974407 0.004700116
0.25306535 0.035697456 0.0 0.5 0.36779436 0.00014858562 0.34785748 0.48511338
0.12374293 0.33296767 0.46184123 0.017739967 0.22702654 0.48856944 0.0 0.481207
00000000: d6ec 6d3e 8cd6 953e 0000 003f 859a bb3e
00000010: 4e69 c83e 0000 003f 729f ff3e 6a97 6b3d
00000020: 8fc0 943e 02b6 e23e 6227 5e3e 0000 003f
00000030: 0000 003f 827e a03c 47d5 e33e 683d f43d
00000040: 0000 0000 cd6d a53e 4627 2d3e fd97 cc3e
00000050: 9adc c13e f7e4 4c3d 0f9c aa3e 4fe9 d63e
00000060: 0000 003f e920 ca3e e199 6b3e 97c4 ab3e
00000070: 95a8 be3d a074 ff3e 0b0c a63e 621a 863e
00000080: f4ef ff3e 2e8c cc3e 580e 6e3e 08bb fd3e
00000090: b362 d63e 0000 0000 bb88 d73e aee1 633e
000000a0: b5b7 f83e d4b3 be3d f19b b83e b6d7 c83d
000000b0: cad1 f33e c15d 533e a9b8 703e 8f3b f63e
000000c0: 9462 043d e4f2 e23e bb33 ff3e 6853 bb3e
000000d0: df4e c63e 64b1 e53e 1219 0f3e 6e03 9a3b
000000e0: c891 813e 7f37 123d 0000 0000 0000 003f
000000f0: 8b4f bc3e a6cd 1b39 601a b23e c860 f83e
00000100: ef6c fd3d bd7a aa3e 7476 ec3e 6853 913c
00000110: a579 683e c625 fa3e 0000 0000 c460 f63e

mlp1.bias f4 [24]
0.061288368 -0.521768 -0.57140756 0.33964914 -0.42412734 0.28262022 0.16700695 0.57483935
0.5020718 0.027023545 0.47650564 0.1550447 -0.040744893 0.4315283 0.37306345 0.354567
-0.21353847 -0.26163375 0.20815389 -0.10600797 -0.0014937717 -0.3409224 0.5779726 -0.38664025
00000000: 8309 7b3d 9692 05bf c447 12bf 7ee6 ad3e
00000010: 3827 d9be 99b3 903e df03 2b3e ac28 133f
00000020: c787 003f 7b60 dd3c 8cf8 f33e 0ac4 1e3e
00000030: 1ee4 26bd 47f1 dc3e 2c02 bf3e ce89 b53e
00000040: d4a9 5abe dcf4 85be 4b26 553e b51a d9bd
00000050: a9ca c3ba 618d aebe 03f6 133f b6f5 c5be

mlp2.weight f4 [24, 72]
0.0 0.00039188008 0.0093065975 0.0 0.01146828 0.052004497 7.494896e-05 0.0
0.0031646106 0.0 0.0 0.0 0.066464484 0.00011745556 0.0 0.0
0.0 0.0005382239 0.0 0.084402815 0.0003044579 0.0 0.0048692045 0.055239074
0.000780445 0.001579237 0.019206656 0.0016161487 0.06610145 0.17201942 0.01028154 0.114178844
0.005333294 0.07645232 0.0027593544 0.084778115 0.10427245 0.013378197 0.017110147 0.046383914
0.0 0.0049864254 0.07925913 0.13075686 0.116096355 0.0038339063 0.00403596 0.10117619
0.04238512 0.0009996584 0.005987715 0.0010396899 0.026053026 0.25667945 0.0073932125 0.07830168
0.0027573607 0.036624458 0.0 0.06230915 0.15923074 0.01362701 0.0193398 0.04353253
0.0 0.0007900295 0.08020379 0.1072768 0.09044125 0.0070977192 0.0019971642 0.1838701
0.0 0.0 0.022684729 0.0 0.0355307 0.10721346 0.003619988 0.0
0.009076642 0.0 0.0 0.0 0.061266486 0.0076702107 0.023933113 0.013022982
0.0 0.004094513 0.06458339 0.10583827 0.15756147 0.0 0.01863299 0.09859844
0.009240709 0.0 0.059839487 0.019311396 0.04643869 0.18098974 0.019309476 0.08548144
0.0019056764 0.046247628 0.0 0.015809536 0.08756334 0.016535945 0.06989153 0.055000544
0.0 0.026927533 0.10838256 0.11458045 0.053719934 0.0 0.0068095154 0.13956475
0.0011191353 0.0036081206 0.0044045583 0.0005619167 0.019732958 0.18164688 0.01624919 0.0868191
0.0 0.013843887 0.0 0.0049540806 0.059554156 0.017473074 0.060812175 0.016765565
0.057510708 0.0034742025 0.055760495 0.14151442 0.116811834 0.003304587 0.0035605356 0.14065489
0.0029145896 0.00041053482 0.023063198 0.0013967884 0.07151799 0.112132266 0.0045658704 0.011010228
0.0039606784 0.0 0.0024702002 0.0018992138 0.084309876 0.004047852 0.0 0.011449437
0.0 0.0052714325 0.017473139 0.1485677 0.0737279 0.0032839417 0.0014307578 0.10229953
0.03008124 0.00066837174 0.027191876 0.0 0.054724082 0.20090112 0.058042716 0.076823674
0.0 0.051149845 0.046517625 0.08626952 0.0628213 0.005272086 0.10907574 0.0060095806
0.031215131 0.011492347 0.027746674 0.18943575 0.014540054 0.0038927107 0.0 0.11806039
0.0094971545 0.0038894315 0.0011603566 0.0 0.013329765 0.20383327 0.011170074 0.062995315
0.0 0.007865714 0.0013708539 0.0020549973 0.02005635 0.0067422003 0.056469135 0.051652204
0.07332282 0.0031151257 0.07142477 0.2013038 0.088008285 0.024602247 0.0 0.14387693
0.0005799082 0.0050860895 0.009151592 0.0053352853 0.0002431335 0.11639626 0.005845326 0.037714213
0.010541693 0.0 0.007503635 0.002591026 0.069276035 0.008920077 0.007558249 0.0006092359
0.0011423563 0.0033256677 0.0012433161 0.16305052 0.0 0.0038946604 0.0038744144 0.0
0.061770387 0.0070619793 0.011344562 0.016768452 0.0019035375 0.20010303 0.013129577 0.17476806
0.0 0.099508986 0.07749197 0.01255051 0.032734614 0.0 0.13979927 0.08986127
00000000: 0000 0000 4175 cd39 b37a 183c 0000 0000
00000010: 74e5 3b3c ab02 553d eb2d 9d38 0000 0000
00000020: 5b65 4f3b 0000 0000 0000 0000 0000 0000
00000030: 881e 883d 7952 f638 0000 0000 0000 0000
00000040: 0000 0000 9817 0d3a 0000 0000 62db ac3d
00000050: a69f 9f39 0000 0000 d98d 9f3b 5e42 623d
00000060: c796 4c3a 67fe ce3a 4757 9d3c f4d4 d33a
00000070: 3260 873d dc25 303e e873 283c 99d6 e93d
00000080: eac2 ae3b 0993 9c3d 49d6 343b 26a0 ad3d
00000090: cb8c d53d 3a30 5b3c 942a 8c3c 0ffd 3d3d
000000a0: 0000 0000 2b65 a33b 9c52 a23d 20e5 053e
000000b0: edc3 ed3d 4642 7b3b 1640 843b 7635 cf3d
000000c0: 059c 2d3d f806 833a 9834 c43b 3446 883a
000000d0: 286d d53c 7d6b 833e c342 f23b a25c a03d
000000e0: d6b4 343b 8703 163d 0000 0000 e137 7f3d
000000f0: 620d 233e d343 5f3c 806e 9e3c 2b4f 323d
00000100: 0000 0000 fb19 4f3a e241 a43d f0b3 db3d
00000110: 4339 b93d fc93 e83b dbe2 023b 7248 3c3e
00000120: 0000 0000 0000 0000 53d5 b93c 0000 0000
00000130: a488 113d bb92 db3d 523d 6d3b 0000 0000
00000140: 32b6 143c 0000 0000 0000 0000 0000 0000
00000150: 91f2 7a3d 6456 fb3b 600f c43c 585e 553c
00000160: 0000 0000 442b 863b 4c44 843d bcc1 d83d
00000170: cb57 213e 0000 0000 36a4 983c fbed c93d
00000180: 5866 173c 0000 0000 401a 753d ef32 9e3c
00000190: 7f36 3e3d 6055 393e e82e 9e3c e510 af3d
000001a0: e4c7 f93a 276e 3d3d 0000 0000 0083 813c
000001b0: 6954 b33d 6476 873c 4a23 8f3d 4048 613d
000001c0: 0000 0000 2197 dc3c adf7 dd3d 28a9 ea3d
000001d0: 6f09 5c3d 0000 0000 5b22 df3b 10ea 0e3e
000001e0: f3af 923a 3876 6c3b 1d54 903b 974d 133a
000001f0: 03a7 a13c a401 3a3e 051d 853c 36ce b13d
00000200: 0000 0000 78d1 623c 0000 0000 d755 a23b
00000210: 0fef 733d b123 8f3c 3016 793d f057 893c
00000220: 5990 6b3d 72af 633b 1e65 643d 28e9 103e
00000230: 0b3b ef3d c591 583b e057 693b d607 103e
00000240: b302 3f3b 0d3d d739 08ef bc3c 7114 b73a
00000250: 0678 923d 9aa5 e53d 4c9d 953b 3e64 343c
00000260: 94c8 813b 0000 0000 15e3 213b 0aef f83a
00000270: a8aa ac3d d8a3 843b 0000 0000 6b96 3b3c
00000280: 0000 0000 fbbb ac3b d423 8f3c 2222 183e
00000290: a7fe 963d 6637 573b 4488 bb3a 6a82 d13d
000002a0: ef6c f63c ab35 2f3a 7fc1 de3c 0000 0000
000002b0: 5c26 603d 06b9 4d3e 33be 6d3d bb55 9d3d
000002c0: 0000 0000 8082 513d 4489 3e3d 13ae b03d
000002d0: 74a8 803d 76c1 ac3b 1a63 df3d 04ec c43b
000002e0: e0b6 ff3c 664a 3c3c fe4c e33c 72fb 413e
000002f0: 6839 6e3c d91c 7f3b 0000 0000 a5c9 f13d
00000300: f499 1b3c d5e5 7e3b 1b17 983a 0000 0000
00000310: 1665 5a3c abb9 503e b002 373c b003 813d
00000320: 0000 0000 32df 003c 39ae b33a 22ad 063b
00000330: 374d a43c aded dc3b 2e4c 673d 4391 533d
00000340: 462a 963d 2327 4c3b 2647 923d 9522 4e3e
00000350: b03d b43d a78a c93c 0000 0000 7954 133e
00000360: fb04 183a 36a9 a63b 8ff0 153c 9ed3 ae3b
00000370: a7f1 7e39 2a61 ee3d 268a bf3b 387a 1a3d
00000380: 11b7 2c3c 0000 0000 0de1 f53b 34ce 293b
00000390: 98e0 8d3d 8425 123c 30ab f73b 21b5 1f3a
000003a0: 1ebb 953a 72f3 593b c4f6 a23a b7f6 263e
000003b0: 0000 0000 8f3d 7f3b e3e9 7d3b 0000 0000
000003c0: f202 7d3d 2d68 e73b 8bde 393c fe5d 893c
000003d0: 1f80 f93a cfe7 4c3e 701d 573c 66f6 323e
000003e0: 0000 0000 5ecb cb3d 1cb4 9e3d a7a0 4d3c
000003f0: bb14 063d 0000 0000 8a27 0f3e 2f09 b83d

mlp2.bias f4 [24]
-0.09569169 -0.062663354 -0.010782945 0.058620498 -0.043166302 0.13149196 0.12457518 -0.020741576
-0.052482482 0.17574465 0.030128818 -0.056461014 -0.072773926 0.119763166 -0.08179798 -0.06266799
-0.06640633 0.26057762 -0.079267964 -0.026304804 -0.06784703 -0.0029777607 0.09514928 -0.0070688357
00000000: 01fa c3bd a555 80bd f3aa 30bc 0c1c 703d
00000010: 26cf 30bd d4a5 063e 4621 ff3d 3dea a9bc
00000020: dff7 56bd 68f6 333e b6d0 f63c aa43 67bd
00000030: 7f0a 95bd 6446 f53d b385 a7bd 1358 80bd
00000040: 0b00 88bd 6e6a 853e 3e57 a2bd 2c7d d7bc
00000050: 62f3 8abd 8926 43bb a0dd c23d b1a1 e7bb

bn2.weight f4 [72]
0.3800512 0.3795025 0.3982404 0.35516804 0.3889267 0.45903307 0.3827538 0.41755697
0.37953523 0.3852052 0.35755625 0.36012596 0.43324158 0.38723773 0.35117596 0.40054747
0.38377106 0.38287377 0.37698925 0.4817677 0.42256728 0.37090063 0.40171307 0.4598037
0.4061404 0.3757534 0.42512733 0.3750755 0.44988042 0.49299145 0.38572955 0.5
0.39857295 0.474811 0.41625363 0.44611144 0.49667788 0.3982648 0.44926763 0.47378558
0.38783154 0.37546813 0.48037603 0.5 0.49679416 0.38361645 0.4126796 0.5
0.38436297 0.37910408 0.3679312 0.35723978 0.40348938 0.49223682 0.3755854 0.5
0.39831698 0.46622327 0.40816253 0.4023632 0.49712178 0.3943087 0.44943038 0.46644694
0.42348418 0.37277287 0.4817569 0.49132746 0.4905162 0.37309378 0.40140313 0.49664062
00000000: 1296 c23e 274e c23e 2ae6 cb3e 96d8 b53e
00000010: 6721 c73e 6206 eb3e 4ef8 c33e 07ca d53e
00000020: 7152 c23e 9e39 c53e 9d11 b73e 6e62 b83e
00000030: d7d1 dd3e 0644 c63e 56cd b33e 8f14 cd3e
00000040: a47d c43e 0808 c43e bc04 c13e 42aa f63e
00000050: bd5a d83e b0e6 bd3e 56ad cd3e 646b eb3e
00000060: a2f1 cf3e c062 c03e 4aaa d93e e509 c03e
00000070: ba56 e63e 6069 fc3e 587e c53e 0000 003f
00000080: c111 cc3e 6d1a f33e 321f d53e b868 e43e
00000090: 904c fe3e 5de9 cb3e 6806 e63e 0694 f23e
000000a0: db91 c63e 5c3d c03e d9f3 f53e 0000 003f
000000b0: ce5b fe3e 6069 c43e be4a d33e 0000 003f
000000c0: 39cb c43e ee19 c23e 7a61 bc3e 22e8 b63e
000000d0: 2996 ce3e 7706 fc3e bb4c c03e 0000 003f
000000e0: 34f0 cb3e d1b4 ee3e aefa d03e 8d02 ce3e
000000f0: bf86 fe3e d4e2 c93e bd1b e63e 22d2 ee3e
00000100: ebd2 d83e 16dc be3e d7a8 f63e 468f fb3e
00000110: f024 fb3e 2606 bf3e b684 cd3e ae47 fe3e

bn2.bias f4 [72]
0.032925267 0.05413952 0.019372387 0.03681415 0.028583826 0.024214445 0.0240071 0.051550917
0.01790062 0.046607066 0.055636197 0.03680492 0.017653307 0.020571267 0.028698722 0.028055966
0.03866042 0.032899 0.020887345 0.019423153 0.013030622 0.03214775 0.010512368 0.014028363
0.01870012 0.031958673 0.015845753 0.02714251 0.0127315875 0.02423347 0.0041913833 0.02214718
-0.0088215405 0.019089282 0.014877352 -0.00224312 0.009956457 0.014454041 0.01236346 0.024481585
0.032890722 0.00651099 0.030534955 0.029848179 0.024174297 0.020211224 -0.0017314949 0.01141888
-0.017154008 0.008664367 0.00017390386 -0.0037193038 -0.0047671907 0.027214399 0.0036095877 0.023436407
-0.0006112189 0.007620299 0.029733349 0.0045663496 0.019793158 0.016532997 0.018324135 0.014603642
0.03685938 0.015021815 0.01805444 0.03227776 0.0061043627 -0.013351739 -0.016569685 0.012816553
00000000: a5dc 063d 67c1 5d3d d7b2 9e3c 6fca 163d
00000010: a128 ea3c 5f5d c63c 8aaa c43c 0e27 533d
00000020: 52a4 923c 0de7 3e3d c8e2 633d c1c0 163d
00000030: ab9d 903c 1385 a83c 9519 eb3c a0d5 e53c
00000040: 635a 1e3d 1ac1 063d f01b ab3c 4e1d 9f3c
00000050: 647e 553c 5cad 033d 113c 2c3c 38d7 653c
00000060: fe30 993c 19e7 023d f4ce 813c f859 de3c
00000070: 2698 503c 4585 c63c df57 893b 016e b53c
00000080: 3988 10bc 2061 9c3c 23c0 733c 4f01 13bb
00000090: 6820 233c a4d0 6c3c 1c90 4a3c 9b8d c83c
000000a0: 6cb8 063d 255a d53b 7124 fa3c 2b84 f43c
000000b0: 2d09 c63c 0292 a53c 54f3 e2ba 4116 3b3c
000000c0: 9086 8cbc fdf4 0d3c f659 3639 90bf 73bb
000000d0: 1836 9cbb bbf0 de3c d58e 6c3b b5fd bf3c
000000e0: 353a 20ba b3b3 f93b 5a93 f33c 51a1 953b
000000f0: 4325 a23c 3570 873c 7f1c 963c 1d44 6f3c
00000100: dcf9 163d 0f1e 763c e8e6 933c af35 043d
00000110: 1b07 c83b 41c1 5abc 26bd 87bc 85fc 513c

bn2.running_mean f4 [72]
0.1272182 -0.20810154 -0.29001328 0.3790147 -0.18746391 0.27851543 0.19970061 0.57294226
0.5182115 0.09239559 0.4909228 0.21436417 0.034412555 0.43746302 0.3906246 0.37439665
-0.057382062 -0.079528734 0.20856865 -0.041839547 0.040206987 -0.16509156 0.5790653 -0.16147695
0.03392902 -0.23421882 -0.2946672 0.16307111 -0.21256596 0.22099367 0.095627666 0.31244963
0.23239148 0.012807658 0.23664911 0.07618544 -0.025825342 0.23838104 0.20046219 0.20053536
-0.104601234 -0.12924364 0.1846796 -0.064708695 -0.003722575 -0.18562135 0.32266808 -0.1928913
-0.030374618 -0.54718524 -0.57252544 0.12507705 -0.44963485 0.22082104 0.059643075 0.30993932
0.21612069 -0.052818444 0.22016501 0.014484903 -0.10094726 0.23397376 0.18416716 0.18631269
-0.26118365 -0.31067005 0.18453428 -0.12380929 -0.045548867 -0.36134294 0.3218541 -0.41926265
00000000: 7d45 023e 9218 55be 9f7c 94be 370e c23e
00000010: 8af6 3fbe 9399 8e3e 517e 4c3e 58ac 123f
00000020: 82a9 043f e639 bd3d 3c5a fb3e 4882 5b3e
00000030: 2ef4 0c3d 27fb df3e f3ff c73e ebb0 bf3e
00000040: 7409 6bbd f6df a2bd 0593 553e f25f 2bbd
00000050: 15b0 243d c30d 29be a03d 143f 375a 25be
00000060: 28f9 0a3d 0fd7 6fbe 9fde 96be 1dfc 263e
00000070: e4aa 59be 2a4c 623e 70d8 c33d 66f9 9f3e
00000080: 08f8 6d3e 36d7 513c 2554 723e 1d07 9c3d
00000090: ab8f d3bc 291a 743e f645 4d3e 2459 4d3e
000000a0: 2c39 d6bd 7258 04be a61c 3d3e fe85 84bd
000000b0: 72f6 73bb 8613 3ebe c034 a53e 4c85 45be
000000c0: 31d4 f8bc 5514 0cbf 0791 12bf 3314 003e
000000d0: 8a36 e6be e91e 623e 4c4c 743d 5eb0 9e3e
000000e0: be4e 5d3e 2758 58bd f072 613e 1652 6d3c
000000f0: 70bd cebd d196 6f3e 5196 3c3e c1c8 3e3e
00000100: ddb9 85be 2510 9fbe 8ef6 3c3e ba8f fdbd
00000110: 7391 3abd f101 b9be 10ca a43e 98a9 d6be

bn2.running_var f4 [72]
0.28776687 0.18008675 0.09621282 0.41855517 0.17394361 0.11731413 0.27463847 0.2911368
0.4331118 0.26758373 0.3928261 0.34977815 0.23980576 0.29325452 0.33486253 0.30686095
0.23286891 0.24247679 0.08347655 0.17772168 0.19642738 0.16587216 0.263515 0.19193882
0.15576 0.12802678 0.08754808 0.14443032 0.12795146 0.07176483 0.14398244 0.080068
0.12094682 0.15333597 0.118859984 0.15578856 0.14999142 0.106238514 0.1243631 0.121431276
0.15510346 0.1542728 0.06384905 0.14760938 0.13610281 0.12971625 0.067817554 0.13486685
0.2540694 0.48441178 0.32751194 0.21302241 0.39223856 0.07204411 0.2014954 0.084854476
0.15192963 0.24856523 0.15041515 0.25693163 0.2533727 0.113960326 0.15339196 0.1464537
0.36318052 0.39266768 0.064069636 0.21486028 0.19211648 0.32260942 0.06936774 0.39852864
00000000: 2e56 933e a968 383e 3a0b c53d dd4c d63e
00000010: 461e 323e 6442 f03d 6a9d 8c3e e20f 953e
00000020: d4c0 dd3e bc00 893e 8120 c93e 1f16 b33e
00000030: a48f 753e 7525 963e 1a73 ab3e e11c 9d3e
00000040: 3075 6e3e d64b 783e c1f5 aa3d acfc 353e
00000050: 4224 493e 64da 293e 70eb 863e 9c8b 443e
00000060: 8d7f 1f3e 7419 033e 684c b33d 8be5 133e
00000070: b505 033e 70f9 923d 2270 133e b1fa a33d
00000080: f7b2 f73d 1b04 1d3e dd6c f33d 0987 1f3e
00000090: 5a97 193e 9493 d93d 15b2 fe3d f6b0 f83d
000000a0: 71d3 1e3e b0f9 1d3e 4ac3 823d ea26 173e
000000b0: 895e 0b3e 56d4 043e eee3 8a3d 891a 0a3e
000000c0: 6215 823e d204 f83e a5af a73e 8c22 5a3e
000000d0: 7ed3 c83e dd8b 933d cf54 4e3e 2fc8 ad3d
000000e0: 7193 1b3e e287 7e3e 6e06 1a3e 8b8c 833e
000000f0: 11ba 813e 0864 e93d c812 1d3e f5f7 153e
00000100: ccf2 b93e bd0b c93e f136 833d 5504 5c3e
00000110: 2fba 443e 102d a53e ac10 8e3d f20b cc3e

mlp3.weight f4 [24, 72]
0.0 0.0 0.0 0.0 0.0 0.0 0.0 0.0
0.0 0.0 0.0 0.0 0.0 0.0 0.0 0.0
0.0 0.0 0.0 0.0 0.0 0.0 0.0 0.0
0.17386319 0.12861341 0.22055624 0.24623053 0.07421812 0.20207787 0.11705744 0.11454783
0.13042645 0.24367173 0.11408871 0.11065128 0.12623541 0.15177223 0.08968027 0.14142609
0.091781825 0.22598644 0.2058688 0.1100779 0.09523253 0.15101185 0.17815207 0.09031619
0.22207265 0.2977248 0.17141084 0.15432644 0.20417725 0.1349488 0.09493621 0.2943561
0.13814884 0.1587242 0.12446383 0.2095971 0.2424332 0.099522635 0.22232057 0.22870229
0.17141284 0.11342952 0.29095095 0.17576522 0.20615815 0.18257295 0.10175456 0.1887887
0.0 0.0 0.0 0.0 0.0 0.0 0.0 0.0
0.0 0.0 0.0 0.0 0.0 0.0 0.0 0.0
0.0 0.0 0.0 0.0 0.0 0.0 0.0 0.0
0.16443041 0.16121659 0.2132129 0.232328 0.07433508 0.17455514 0.07363001 0.12830073
0.09503544 0.25227794 0.11888534 0.1960057 0.1492493 0.1039811 0.14855883 0.20977737
0.1302774 0.20328714 0.22478494 0.1738803 0.14827806 0.12482593 0.16625847 0.15845205
0.28918532 0.2359843 0.24519993 0.1608486 0.1815151 0.1468011 0.19426624 0.27669513
0.16855346 0.13600618 0.15262488 0.2509688 0.21569788 0.14800687 0.24968503 0.29430437
0.2077176 0.13305338 0.2090199 0.20155561 0.26846665 0.17917517 0.24300797 0.1831221
0.0 0.0 0.0 0.0 0.0 0.0 0.0 0.0
0.0 0.0 0.0 0.0 0.0 0.0 0.0 0.0
0.0 0.0 0.0 0.0 0.0 0.0 0.0 0.0
0.13973148 0.16110997 0.19032992 0.19435206 0.07009637 0.16915944 0.040868424 0.20165175
0.18147402 0.25221536 0.0576702 0.1566599 0.11628651 0.15816844 0.16931145 0.13803299
0.090678066 0.16617358 0.21059166 0.10614261 0.1700308 0.18106973 0.1845489 0.14021614
0.2076936 0.31657088 0.22264788 0.16096951 0.1983775 0.18928573 0.11618398 0.24241306
0.20495893 0.21058843 0.18856777 0.24640499 0.23258086 0.20143874 0.2928321 0.2055601
0.26660663 0.19880827 0.32292926 0.16576806 0.21610148 0.19781895 0.12643677 0.21869414
0.0 0.0 0.0 0.0 0.0 0.0 0.0 0.0
0.0 0.0 0.0 0.0 0.0 0.0 0.0 0.0
0.0 0.0 0.0 0.0 0.0 0.0 0.0 0.0
0.18910843 0.15424131 0.049303956 0.06173114 0.119746946 0.058220472 0.018868638 0.14532202
0.025863342 0.04190145 0.06481859 0.13662484 0.15157405 0.055275198 0.0860401 0.13283192
00000000: 0000 0000 0000 0000 0000 0000 0000 0000
00000010: 0000 0000 0000 0000 0000 0000 0000 0000
00000020: 0000 0000 0000 0000 0000 0000 0000 0000
00000030: 0000 0000 0000 0000 0000 0000 0000 0000
00000040: 0000 0000 0000 0000 0000 0000 0000 0000
00000050: 0000 0000 0000 0000 0000 0000 0000 0000
00000060: 3109 323e 3cb3 033e 7fd9 613e db23 7c3e
00000070: abff 973d 80ed 4e3e d0bb ef3d 0d98 ea3d
00000080: 838e 053e 1585 793e 57a7 e93d 239d e23d
00000090: db43 013e 2e6a 1b3e 4aaa b73d 00d2 103e
000000a0: 1cf8 bb3d fd68 673e 45cf 523e 8670 e13d
000000b0: 4609 c33d daa2 1a3e 7f6d 363e b2f7 b83d
000000c0: 0367 633e 636f 983e 5386 2f3e c007 1e3e
000000d0: d713 513e 0530 0a3e ea6d c23d d8b5 963e
000000e0: e476 0d3e 9988 223e e4e6 fe3d 9fa0 563e
000000f0: 6940 783e 86d2 cb3d 01a8 633e ef30 6a3e
00000100: d986 2f3e bc4d e83d 86f7 943e ccfb 333e
00000110: 1f1b 533e 67f4 3a3e b264 d03d d351 413e
00000120: 0000 0000 0000 0000 0000 0000 0000 0000
00000130: 0000 0000 0000 0000 0000 0000 0000 0000
00000140: 0000 0000 0000 0000 0000 0000 0000 0000
00000150: 0000 0000 0000 0000 0000 0000 0000 0000
00000160: 0000 0000 0000 0000 0000 0000 0000 0000
00000170: 0000 0000 0000 0000 0000 0000 0000 0000
00000180: 7260 283e f615 253e 7c54 5a3e 64e7 6d3e
00000190: fe3c 983d 95be 323e 55cb 963d 4461 033e
000001a0: f1a1 c23d 932a 813e 287a f33d b8b5 483e
000001b0: cfd4 183e 0bf4 d43d ce1f 183e e1cf 563e
000001c0: 7067 053e 812a 503e 062e 663e ad0d 323e
000001d0: 34d6 173e bda4 ff3d a93f 2a3e 4141 223e
000001e0: 1910 943e dea5 713e b115 7b3e 7fb5 243e
000001f0: 18df 393e 0753 163e bbed 463e fcaa 8d3e
00000200: 4799 2c3e 3445 0b3e b249 1c3e fc7e 803e
00000210: e8df 5c3e 1d8f 173e 6fad 7f3e 10af 963e
00000220: ecb3 543e 253f 083e 5009 563e 9864 4e3e
00000230: 7674 893e b279 373e 15d7 783e 5c84 3b3e
00000240: 0000 0000 0000 0000 0000 0000 0000 0000
00000250: 0000 0000 0000 0000 0000 0000 0000 0000
00000260: 0000 0000 0000 0000 0000 0000 0000 0000
00000270: 0000 0000 0000 0000 0000 0000 0000 0000
00000280: 0000 0000 0000 0000 0000 0000 0000 0000
00000290: 0000 0000 0000 0000 0000 0000 0000 0000
000002a0: c515 0f3e 03fa 243e d9e5 423e 3a04 473e
000002b0: b08e 8f3d 2238 2d3e a665 273d cc7d 4e3e
000002c0: 53d4 393e 5f22 813e 9637 6c3d 746b 203e
000002d0: 9f27 ee3d e8f6 213e fb5f 2d3e 8558 0d3e
000002e0: 6cb5 b93d 6829 2a3e 57a5 573e 4c61 d93d
000002f0: 8e1c 2e3e 586a 393e 63fa 3c3e d294 0f3e
00000300: a2ad 543e 9415 a23e cefd 633e 31d5 243e
00000310: 7923 4b3e 1ed4 413e def1 ed3d 213b 783e
00000320: c1e0 513e 7ea4 573e e917 413e 9751 7c3e
00000330: ad29 6e3e f545 4e3e 17ee 953e 597e 523e
00000340: aa80 883e 6594 4b3e fc56 a53e 1abf 293e
00000350: b549 5d3e 0d91 4a3e a478 013e 5bf1 5f3e
00000360: 0000 0000 0000 0000 0000 0000 0000 0000
00000370: 0000 0000 0000 0000 0000 0000 0000 0000
00000380: 0000 0000 0000 0000 0000 0000 0000 0000
00000390: 0000 0000 0000 0000 0000 0000 0000 0000
000003a0: 0000 0000 0000 0000 0000 0000 0000 0000
000003b0: 0000 0000 0000 0000 0000 0000 0000 0000
000003c0: a4a5 413e 6ff1 1d3e f2f2 493d cbd9 7c3d
000003d0: e33d f53d 9778 6e3d 6792 9a3c 4ccf 143e
000003e0: 5cdf d33c dba0 2b3d 9cbf 843d 62e7 0b3e
000003f0: 3a36 1b3e 3f68 623d cb35 b03d 1705 083e

mlp3.bias f4 [24]
0.1183114 0.15904921 0.094839916 0.07050588 0.20375906 0.22509313 0.07260949 0.17285854
0.043608326 -0.039244078 0.26342848 0.2536169 0.0917551 0.2128667 0.21765745 0.05128245
0.18374354 0.056744143 0.15560438 0.17802106 0.08415664 0.03635152 0.22159135 0.0626692
00000000: 3f4d f23d ccdd 223e 6e3b c23d 6365 903d
00000010: 37a6 503e d07e 663e 49b4 943d d401 313e
00000020: a59e 323d 66be 20bd 19e0 863e 13da 813e
00000030: 19ea bb3d baf9 593e 98e1 5e3e 8c0d 523d
00000040: 4427 3c3e 8c6c 683d c156 1f3e 274b 363e
00000050: 515a ac3d 55e5 143d d8e8 623e b658 803d

bn3.weight f4 [72]
0.3445049 0.37013873 0.37694797 0.38365275 0.3695274 0.3726004 0.35440782 0.37441996
0.35195604 0.377922 0.3735303 0.35317788 0.34004882 0.33534077 0.35874382 0.3384288
0.36676818 0.37739888 0.34615934 0.35038096 0.36513868 0.3491867 0.3699476 0.35562873
0.5 0.5 0.49069208 0.483843 0.5 0.48775655 0.47359088 0.5
0.5 0.49156958 0.46059433 0.5 0.5 0.4834854 0.5 0.49997783
0.5 0.48807198 0.5 0.5 0.5 0.5 0.4875058 0.5
0.5 0.5 0.48032054 0.47555807 0.48218286 0.4904756 0.44600916 0.5
0.5 0.46637723 0.42540333 0.5 0.5 0.43929884 0.5 0.5
0.48761016 0.5 0.5 0.49758267 0.5 0.5 0.4484697 0.5
00000000: f262 b03e d382 bd3e 53ff c03e 226e c43e
00000010: b232 bd3e 7bc5 be3e f174 b53e f9b3 bf3e
00000020: 9533 b43e fe7e c13e 5d3f bf3e bbd3 b43e
00000030: e11a ae3e c9b1 ab3e 45ad b73e 8a46 ad3e
00000040: 0ac9 bb3e 6d3a c13e cc3b b13e 2265 b33e
00000050: 75f3 ba3e 99c8 b23e c669 bd3e f814 b63e
00000060: 0000 003f 0000 003f fe3b fb3e 45ba f73e
00000070: 0000 003f 3abb f93e 817a f23e 0000 003f
00000080: 0000 003f 02af fb3e 05d3 eb3e 0000 003f
00000090: 0000 003f 668b f73e 0000 003f 18fd ff3e
000000a0: 0000 003f 92e4 f93e 0000 003f 0000 003f
000000b0: 0000 003f 0000 003f 5c9a f93e 0000 003f
000000c0: 0000 003f 0000 003f 93ec f53e 597c f33e
000000d0: ace0 f63e 9e1f fb3e 505b e43e 0000 003f
000000e0: 0000 003f ffc8 ee3e 77ce d93e 0000 003f
000000f0: 0000 003f c7eb e03e 0000 003f 0000 003f
00000100: 0aa8 f93e 0000 003f 0000 003f 28c3 fe3e
00000110: 0000 003f 0000 003f d29d e53e 0000 003f

bn3.bias f4 [72]
0.13076073 0.13560972 0.13002042 0.13473943 0.13113879 0.13476351 0.12724808 0.1339653
0.13616627 0.13145825 0.13305604 0.13637768 0.1238165 0.12931423 0.12874326 0.12655264
0.13776897 0.1331544 0.13127531 0.13418825 0.13384679 0.1259776 0.126464 0.1306067
0.14337887 0.14941402 0.14546162 0.14433113 0.14430727 0.14418596 0.1420025 0.14640361
0.14125496 0.14271082 0.15298216 0.14472365 0.15017146 0.14016084 0.14004031 0.14373137
0.1449043 0.13936707 0.1440629 0.13462955 0.14193553 0.1451555 0.14308505 0.13952626
0.12295222 0.11876288 0.111582816 0.11281662 0.121515654 0.10975725 0.112765044 0.11835782
0.11711024 0.112974964 0.11493556 0.121073395 0.123420686 0.1192294 0.120867744 0.11585848
0.11791051 0.10827892 0.12101796 0.11905153 0.11889975 0.12530576 0.11305559 0.11857058
00000000: 24e6 053e 46dd 0a3e 1324 053e 22f9 093e
00000010: 3f49 063e 72ff 093e 524d 023e 332e 093e
00000020: 2c6f 0b3e fe9c 063e d83f 083e 97a6 0b3e
00000030: 8193 fd3d f36a 043e 46d5 033e 0497 013e
00000040: 4f13 0d3e a159 083e 096d 063e a568 093e
00000050: 220f 093e 4600 013e c77f 013e c3bd 053e
00000060: e9d1 123e fdff 183e e4f3 143e 8acb 133e
00000070: 49c5 133e 7ca5 133e 1a69 113e d4ea 153e
00000080: 24a5 103e c922 123e 5ba7 1c3e 7032 143e
00000090: 8cc6 193e 5386 0f3e ba66 0f3e 512e 133e
000000a0: cb61 143e 3eb6 0e3e 3a85 133e 54dc 093e
000000b0: 8c57 113e a5a3 143e e384 123e f9df 0e3e
000000c0: 60ce fb3d f439 f33d 8885 e43d 660c e73d
000000d0: 33dd f83d 69c8 e03d 5cf1 e63d 9665 f23d
000000e0: 7ed7 ef3d 6b5f e73d 5663 eb3d 54f5 f73d
000000f0: fcc3 fc3d 8b2e f43d 8289 f73d 3647 ed3d
00000100: 117b f13d 57c1 dd3d 44d8 f73d 4ad1 f33d
00000110: b681 f33d 2750 003e b089 e73d 22d5 f23d

bn3.running_mean f4 [72]
0.25688553 0.294094 0.33622044 0.40967944 0.2843507 0.61365634 0.57776713 0.3029542
0.24030481 0.7504073 0.39253572 0.2866131 0.26381418 0.5260705 0.27327856 0.26495463
0.2821327 0.9858916 0.28080353 0.27032852 0.28283435 0.29376623 0.52475923 0.23608294
0.0030235904 0.0027297027 0.018636864 0.06315035 0.0062865834 0.079754785 0.052714393 0.003583335
0.013007769 0.083813876 0.04106529 0.0006161027 0.0073037753 0.044324145 0.0007334337 0.018727642
0.0006521779 0.102715574 -0.00070858136 0.013105536 0.0052031674 0.021158934 0.020175634 0.02681648
-0.30252165 -0.29977503 -0.2729388 -0.22834963 -0.2729605 -0.32652727 -0.35424554 -0.26850167
-0.23463534 -0.40143666 -0.26801834 -0.29483932 -0.28443557 -0.31517643 -0.30360708 -0.26160842
-0.2982374 -0.52507097 -0.310492 -0.23705378 -0.29619396 -0.22801603 -0.3478109 -0.1763059
00000000: 8086 833e 7d93 963e 1625 ac3e 81c1 d13e
00000010: 6a96 913e 9518 1d3f 8ce8 133f d01c 9b3e
00000020: 7712 763e b11a 403f 71fa c83e f4be 923e
00000030: a712 873e 8eac 063f 2beb 8b3e 22a8 873e
00000040: b273 903e 6463 7c3f 7bc5 8f3e 8068 8a3e
00000050: aacf 903e 8768 963e 9f56 063f babf 713e
00000060: 6e27 463b d0e4 323b 56ac 983c f854 813d
00000070: afff cd3b 7a56 a33d 0ceb 573d 63d6 6a3b
00000080: 8a1e 553c 9ca6 ab3d 1434 283d f481 213a
00000090: 8254 ef3b 3c8d 353d e743 403a b66a 993c
000000a0: ebf6 2a3a 8b5c d23d 17c0 39ba 9ab8 563c
000000b0: 557f aa3b 8055 ad3c 5f47 a53c 3cae db3c
000000c0: 1ee4 9abe 1d7c 99be a2be 8bbe 7cd4 69be
000000d0: 7bc1 8bbe 952e a7be ac5f b5be 0d79 89be
000000e0: 3f44 70be 1b89 cdbe b339 89be 2ef5 96be
000000f0: 8aa1 91be ce5e a1be 6372 9bbe 8af1 85be
00000100: 93b2 98be 0d6b 06bf cff8 9ebe 3abe 72be
00000110: bca6 97be 097d 69be 4514 b2be 8989 34be

bn3.running_var f4 [72]
0.611358 0.709955 0.7449812 0.7268716 0.66732174 1.1090552 1.2049437 0.7265282
0.546564 1.4328448 0.7772648 0.69309413 0.6147831 1.1113175 0.65806764 0.5778442
0.68154824 1.9342021 0.68156326 0.61166775 0.66535187 0.6351524 1.2535108 0.49782276
0.20677194 0.20732477 0.20864096 0.20799913 0.20599099 0.213835 0.21505857 0.20635472
0.20294733 0.21652465 0.2094619 0.20704678 0.20648354 0.21382515 0.20690997 0.20572813
0.20732069 0.21754937 0.20789348 0.20409167 0.20722404 0.20481032 0.2150915 0.19815813
0.7811448 0.7695747 0.75497293 0.82446456 0.7114671 1.2229964 1.1573974 0.69232005
0.6419304 1.5363086 0.8332867 0.7505567 0.74729824 0.97489625 0.77594 0.7352579
0.7559705 2.2603695 0.78494376 0.64569247 0.77037346 0.65441424 0.9466188 0.55585074
00000000: f581 1c3f 9cbf 353f 17b7 3e3f 4214 3a3f
00000010: 99d5 2a3f 85f5 8d3f 983b 9a3f c1fd 393f
00000020: 9eeb 0b3f 7567 b73f d3fa 463f 9e6e 313f
00000030: 6d62 1d3f a73f 8e3f 1f77 283f 99ed 133f
00000040: f279 2e3f ef93 f73f ee7a 2e3f 4296 1c3f
00000050: 8054 2a3f 5999 223f 0b73 a03f a0e2 fe3e
00000060: 06bc 533e f24c 543e faa5 553e b9fd 543e
00000070: 4def 523e 90f7 5a3e 5038 5c3e a74e 533e
00000080: 6dd1 4f3e a3b8 5d3e 2e7d 563e 1204 543e
00000090: 6c70 533e fbf4 5a3e 35e0 533e 65aa 523e
000000a0: e04b 543e 43c5 5e3e 07e2 543e 68fd 503e
000000b0: 8a32 543e ccb9 513e f240 5c3e f7e9 4a3e
000000c0: 1bf9 473f d902 453f e845 413f 1c10 533f
000000d0: b522 363f 258b 9c3f 9925 943f e33b 313f
000000e0: 8d55 243f c3a5 c43f 4752 553f 7c24 403f
000000f0: f04e 3f3f cd92 793f 01a4 463f dd39 3c3f
00000100: 4887 413f e5a9 1040 13f2 483f 1a4c 253f
00000110: 3237 453f b187 273f 9c55 723f 3c4c 0e3f

mlp4.weight f4 [1, 72]
0.104362406 0.20180085 0.21550407 0.10353206 0.09128167 0.16415265 0.21864076 0.23154543
0.21922357 0.08219702 0.15264201 0.17566705 0.050379496 0.12210433 0.030066159 0.12364398
0.17224984 0.16153638 0.18603602 0.07030182 0.12586254 0.24179041 0.20852639 0.24793403
0.2147732 0.18845096 0.20811355 0.09498011 0.01725682 0.1833257 0.11741761 0.23213305
0.18311833 0.0 0.092396006 0.14061473 0.031916376 0.122044414 0.018417148 0.1021421
0.20191953 0.1298946 0.08540102 0.0 0.1272373 0.1678377 0.21022283 0.15123864
0.0 0.0 0.0 0.0 0.0 0.0 0.0 0.0
0.0 0.0 0.0 0.0 0.0 0.0 0.0 0.0
0.0 0.0 0.0 0.0 0.0 0.0 0.0 0.0
00000000: f5bb d53d e2a4 4e3e 19ad 5c3e 9e08 d43d
00000010: e2f1 ba3d a217 283e 5de3 5f3e 3f1a 6d3e
00000020: 257c 603e e956 a83d 304e 1c3e 10e2 333e
00000030: bb5a 4e3d d611 fa3d 4e4d f63c 0e39 fd3d
00000040: 4362 303e cb69 253e 3a80 3e3e 67fa 8f3d
00000050: 1ce2 003e e897 773e f187 553e 6be2 7d3e
00000060: 81ed 5b3e 4af9 403e b81b 553e ef84 c23d
00000070: 2d5e 8d3c bbb9 3b3e a578 f03d 49b4 6d3e
00000080: 5f83 3b3e 0000 0000 1e3a bd3d 4ffd 0f3e
00000090: bfba 023d 6cf2 f93d 8fdf 963c e12f d13d
000000a0: fec3 4e3e 1703 053e bbe6 ae3d 0000 0000
000000b0: 7f4a 023e a5dd 2b3e a744 573e 4dde 1a3e
000000c0: 0000 0000 0000 0000 0000 0000 0000 0000
000000d0: 0000 0000 0000 0000 0000 0000 0000 0000
000000e0: 0000 0000 0000 0000 0000 0000 0000 0000
000000f0: 0000 0000 0000 0000 0000 0000 0000 0000
00000100: 0000 0000 0000 0000 0000 0000 0000 0000
00000110: 0000 0000 0000 0000 0000 0000 0000 0000
