utility-model-selected/dim-3/utility-20.pt (torch, 23458 bytes, 17 tensors)

bn1.running_mean f4 [3]
00000000: e282 003f df04 003f 3b6e ff3e
0.5019971 0.5000743 0.49888787

bn1.running_var f4 [3]
00000000: 1e52 673d 2814 5c3d cfad 583d
0.056474797 0.05373016 0.05290013

mlp1.weight f4 [24, 3]
00000000: 0000 003f e7bc 2f3e fb37 353e 7453 db3e
00000010: 6287 183e 5d7a 9d3e 4e25 833e eda2 423d
00000020: b6bb e03d 83ed d23e fbe4 713e d2a9 5d3e
00000030: 3933 4f3e df74 cf3e bfa1 2d3d decb ae3e
00000040: 0000 0000 7802 ab3e 41f9 fe3e 9054 c93e
00000050: fd40 ce3e a2d5 af3d 1688 d03e 5f7b e33c
00000060: b250 703e a058 cd3d 5ac0 523e f1b9 0a3e
00000070: f15d c03e 98b5 803e 440a 143e 3c65 fd3d
00000080: a13e ae3e b307 283e 602c 0f3e ba63 363e
00000090: 94b4 873e 6180 f43d cf25 aa3e e317 b53e
000000a0: c67b c23c 41d2 ce3e 1494 b83d ed08 aa3e
000000b0: 579f db3e cb16 803d e22e a93e 2300 0d3e
000000c0: 6f34 e53e 382e e83c 4955 c53e f4ff f03e
000000d0: 8e8c d43e 5c8a fc3e 53b9 e43e b3ea 953e
000000e0: 0000 003f d07c 483e 6f50 593e 72b0 333e
000000f0: 0000 003f c21f b13e 50b5 443e a7ca ba3e
00000100: 6b35 6e3e fa1a e63e 1caa 5e3e 2e8b dd3c
00000110: b148 b63e cfc3 963e a5c4 923d 7441 943e
0.5 0.17161904 0.17697136 0.42837107 0.14895394 0.30757418 0.256144 0.04751866
0.10973303 0.41196832 0.23622505 0.21646813 0.20234384 0.40518853 0.04239058 0.34139913
0.0 0.3340032 0.4979954 0.3932233 0.40283957 0.08585669 0.40728825 0.027768789
0.23468283 0.100266695 0.20581189 0.13547494 0.37571672 0.25138545 0.14457041 0.123728245
0.34032157 0.16409187 0.13981771 0.1781148 0.26504958 0.11938549 0.3323197 0.35369787
0.02374066 0.40394786 0.09012619 0.33209935 0.42895004 0.062543474 0.3304358 0.13769583
0.44766566 0.028342351 0.3854163 0.47070277 0.41513485 0.4932431 0.4467264 0.29280624
0.5 0.19578862 0.21222089 0.17547777 0.5 0.34594542 0.1920979 0.36482736
0.23262565 0.44942456 0.21744579 0.027043905 0.35602334 0.29446265 0.07166413 0.28956187

mlp1.bias f4 [24]
00000000: f2d1 ebbe adf0 8d3e 2a63 30be cbe5 323e
00000010: 42a5 013f 04c3 9e3e 64b2 82be b270 333f
00000020: cb2d adbd 69ca 833e 8748 eabe d568 043f
00000030: 2118 7bbe 9c3c 1ebe 385b 153f 0f78 ea3e
00000040: f24c bbbd bb42 ea3e b723 97be c913 c0bd
00000050: 8436 1dbf e26b e53c 6bd8 22bc 24ad 5c3e
-0.46058613 0.27722684 -0.17225328 0.17470472 0.5064279 0.3100816 -0.25526726 0.70093834
-0.08456 0.25740364 -0.4575846 0.5172246 -0.24520923 -0.15452808 0.58342314 0.45794722
-0.091455355 0.45754036 -0.29519436 -0.09378774 -0.6141131 0.028005544 -0.009939293 0.21550423

mlp2.weight f4 [24, 72]
00000000: 6da9 a33d 0a54 123d 5c44 923d d44d c83c
00000010: a26b 183c 32b9 dc3d aee4 363d 0000 0000
00000020: 091e b93c aa7c 073d f076 013d 9188 043d
00000030: ebf8 d13b 4540 aa3d 4edb 6e3b aa13 bd37
00000040: 84cb 723d ae47 cf3c 30c4 ba3b 0000 0000
00000050: 301f 8c3d b52e cd3b ca10 a13d 9778 a73d
00000060: 2934 da3c c559 393e ae32 2b3d e2a9 513c
00000070: e741 af3c 1aec 223e 73cb 8a3c e3b6 823d
00000080: 17f6 e83c b2db 813d 80e7 233d 740f ca3d
00000090: d2a8 5f3d 5710 133e 8605 093d dcc4 453d
000000a0: b45e 2c3e cfdf 1a3e 3593 b83d dfbb 963c
000000b0: 806b c13d 16ee db3d fe3d 1c3e 00dc 5a3e
000000c0: d327 303d 0cef a53d 0fdc ad3d 9d77 5e3c
000000d0: a64e b13c f9d4 4e3e 3c35 6c3d 0f8a 763d
000000e0: 1db3 be3d 6bc8 073c 1324 1d3c fe40 c43d
000000f0: 34df d63c c05d 353e 9c06 ac3c d0db 8d3c
00000100: 177e d13d 528f c23d 71a4 863d a3f4 e53c
00000110: bc88 a83c 99c5 3d3d b7b5 d93d 8027 493e
00000120: 16ee fb3c 7f0a c83d 484f b53c 926c 703c
00000130: a707 0839 b591 843d 0000 0000 4047 5737
00000140: 6421 403d caf7 213d 6c5e c93c 969f db3c
00000150: a7ab af3c a6a6 233d 519a 473d c7b5 8f3c
00000160: 5831 e93c 0dc1 533d 3231 3c3c 816e df3b
00000170: 1cd5 dd3c 6448 1d3d 8e81 803d aacc 703d
00000180: 20bd dd3d cd43 083e 403d bb3c 30df bd3d
00000190: 7a42 753d 8b21 2d3e 0000 0000 ce1e 1d3d
000001a0: 9d2b cf3d f691 9b3c 39b3 903d 7475 c13d
000001b0: b4aa c13c e42b 0b3e b679 533d 7867 ea3c
000001c0: 73ea c63d bc34 a03d 473a 9f3d de93 3d3d
000001d0: 99cc ab3d 3b99 bd3d 318e a13d 038a 6b3e
000001e0: 1e56 e93c 1455 003e 31bb c53c cc4f 683d
000001f0: aaf5 ba3c ac68 4b3e f6ea d53c 52ad 1c3d
00000200: a571 8a3d e19f 9f3c de40 013d 3420 803d
00000210: 709d 433d 2deb 1d3e 9edc ad3b cf3a e83c
00000220: 2fba 373e 749c da3d 3b3d ee3d 11c6 dc3b
00000230: b3bb 293d 7a5d de3d ae82 073e 078f 633e
00000240: d1ac 8e3d a34d 173d 9e9b e83c b1c6 833d
00000250: a1b2 ed3c b138 ac3d 0e57 773b 48d4 f03c
00000260: 1a4f 023d 6d28 2e3b 1016 713d 25d6 583d
00000270: c123 b73c 849c 083d 30f1 5c3d 0000 0000
00000280: 943d d23c 23f7 c33c a903 543d 08a1 fc3b
00000290: eb78 4c3d a41e d43c 1927 353d 4213 c83d
000002a0: aa30 ac3d 3aa5 133e f33d c63c 5e76 863b
000002b0: dbde a23d 90e0 183e 217b 903d 372b 023d
000002c0: 85ce 353d f50c ad3c 8561 453d da95 a03d
000002d0: 55e7 e03c cb55 013e 322e 5c3d 3f46 863d
000002e0: dc0e e03d 3a3a c33d 3318 c43d b2c4 063c
000002f0: be2d 263d 602a b33d c200 fa3d e1f4 603e
00000300: 4d31 763d ea97 1c3e 8ce9 5b3d 4dd6 253b
00000310: d18c 903c 6b78 653e 7c39 f73c 7839 053d
00000320: 678f 973d 13d8 aa3c 1e6a 023d 766d 5c3c
00000330: b41d 403d 1766 333e 0000 0000 40fe e43c
00000340: 3a47 5b3e dabf da3d c3b9 803d 82f3 203d
00000350: 245f 4a3d b5bc 283e 6ef8 023e b963 4c3e
00000360: de16 893d b65d 803d 684a 0c3d b34b 993d
00000370: 352d 243a 9a18 7c3d 7c46 3b3d 390e 0c3d
00000380: 6f1e 0c3d 3096 9c3b dd50 e03c 3dfa 953d
00000390: 317f c63c 14fd 0f3d d4a9 823c 26b4 3839
000003a0: f421 be3c 126f a53d d8f5 e73c 3fed f93b
000003b0: c2f5 3f3d 2bc0 f53c 8891 aa3d 4fac 6f3d
000003c0: b613 ce3d 2a08 4e3e c7a8 273d 8828 943b
000003d0: 0c54 573d 02be 4b3e 0000 0000 1b2c 233d
000003e0: 330f c63d ff20 b13c 6fb8 903d 6db9 d33d
000003f0: 6338 543d 7551 c33d 0000 0000 ecfd f13c
0.079913 0.035724677 0.07141945 0.024451174 0.009303005 0.10777511 0.04465168 0.0
0.02259733 0.033077873 0.03160757 0.032356802 0.006407847 0.0831304 0.0036446634 2.2539713e-05
0.05927612 0.025302734 0.005699657 0.0 0.06841886 0.0062616714 0.078645304 0.081772976
0.0266362 0.1810065 0.04179638 0.012796851 0.02139373 0.15910378 0.016942715 0.06382539
0.028437657 0.06340732 0.040015697 0.09866229 0.05460436 0.14361702 0.033452533 0.048283443
0.16833001 0.15124439 0.090124525 0.01840013 0.09444332 0.10738771 0.15258023 0.21372986
0.04300673 0.08102235 0.084892385 0.013578323 0.021643948 0.2019843 0.057667956 0.060190257
0.09311507 0.008287529 0.00959112 0.09582709 0.026229478 0.17711544 0.020999245 0.017316729
0.10229128 0.094999924 0.065743335 0.028070753 0.020573013 0.046331022 0.106303625 0.19643974
0.030753177 0.09767627 0.02213253 0.014674323 0.00012972821 0.06473104 0.0 1.2831588e-05
0.046906844 0.03954295 0.024581157 0.026809495 0.021444155 0.03995385 0.048731152 0.017542733
0.028465912 0.05169778 0.011486338 0.006818593 0.027079158 0.038399115 0.062747106 0.058788933
0.10827088 0.13307114 0.022856355 0.09271085 0.05987785 0.16907327 0.0 0.038359456
0.101157404 0.018990498 0.07065434 0.094462305 0.023640968 0.13590962 0.051629744 0.02861379
0.097126864 0.07822558 0.077747874 0.046283595 0.08388633 0.09257742 0.07888449 0.23001866
0.028483447 0.12532455 0.024137111 0.056716725 0.02282222 0.19864148 0.026113015 0.03825123
0.06759957 0.019485416 0.031556003 0.06256142 0.047757566 0.15421744 0.0053058406 0.028348355
0.17942117 0.10674372 0.116327725 0.0067374785 0.04143877 0.10857673 0.13233444 0.2222253
0.06966556 0.036939275 0.028394517 0.06434382 0.029015841 0.084092505 0.0037741098 0.029398099
0.03181372 0.0026574389 0.05885893 0.0529386 0.022355916 0.03335239 0.05394095 0.0
0.025664128 0.023921555 0.051761303 0.007709626 0.049920004 0.025893517 0.04422674 0.09769298
0.084077194 0.14418498 0.024199462 0.004103466 0.079526626 0.14929414 0.07054735 0.031779494
0.044386405 0.021124342 0.048188705 0.07841082 0.027454058 0.12630384 0.053754993 0.06556367
0.10940334 0.0953259 0.09574928 0.008225607 0.040570967 0.08748317 0.12207176 0.21968414
0.06010561 0.15292326 0.053689525 0.0025304735 0.017645271 0.22409217 0.030178778 0.03252551
0.07400399 0.020854985 0.031839482 0.013453832 0.046903327 0.17519413 0.0 0.027953267
0.2141389 0.10681124 0.06285431 0.039294727 0.04940714 0.16478236 0.12790081 0.19959916
0.06693815 0.06267874 0.034250647 0.074851416 0.000626284 0.0615469 0.045721516 0.03419325
0.03420871 0.004778646 0.027382309 0.0732312 0.024230571 0.035153463 0.015950121 0.00017614718
0.02320955 0.080778256 0.02831547 0.007627159 0.046865232 0.02999886 0.08328539 0.058513936
0.10062353 0.20120302 0.040932443 0.0045214333 0.052570388 0.19896701 0.0 0.039836984
0.09670868 0.02162218 0.07066428 0.103381015 0.051811587 0.09537021 0.0 0.029540025

mlp2.bias f4 [24]
00000000: a218 32bd fccf 51bd faa4 5dbc d216 cfbc
00000010: 04db 923d c29f 1ebc 9375 10bc a407 833d
00000020: 9768 233b 36f2 313d 5ae5 323b 7a9c 49bb
00000030: b747 a9bc f4e7 853d ec33 c23c 5ab1 a73d
00000040: 60f0 c23d e0de 1e3d 71a6 18bd 015d 2a3d
00000050: 3d95 58bb 5bb2 733d e3f0 ff3c 5657 743c
-0.043480523 -0.05122374 -0.013528103 -0.025279436 0.0717068 -0.009681644 -0.008817094 0.06397942
0.0024934167 0.04344388 0.0027297349 -0.0030763433 -0.02066408 0.06538382 0.023706399 0.08188124
0.09518504 0.03878677 -0.037268106 0.0415926 -0.0033047937 0.059496265 0.031242793 0.014913401

bn2.weight f4 [72]
00000000: d50e f73e cb28 fa3e deb8 f23e ef33 ef3e
00000010: e6c4 d63e e796 ff3e 8121 dc3e 40e5 ce3e
00000020: 3779 f03e c464 ce3e 73c8 e83e d561 e03e
00000030: f3a3 e43e a11c ff3e 3285 db3e dc18 c93e
00000040: bd5b fc3e 2098 e63e f240 e93e d8e7 d13e
00000050: a702 ee3e 3784 e63e 8b82 ff3e 1758 ff3e
00000060: 3423 fa3e b540 fe3e f72f f13e 71c2 f03e
00000070: 2f65 e83e c7c1 ff3e bdd9 e83e c4a2 eb3e
00000080: 3e08 f33e 56c3 db3e b8b8 ec3e 05e3 ec3e
00000090: 21b5 e33e ddba ff3e e1e9 dd3e b1cb e33e
000000a0: 24bb ff3e 0000 003f 5ee2 fa3e 1baf d73e
000000b0: 4294 f33e f386 ff3e 5093 ff3e 2b6d ff3e
000000c0: 7b44 f83e 0d5d fe3e 0b1a f43e 0d84 e83e
000000d0: cd43 e63e afd2 ff3e 2b35 ec3e ae0e ea3e
000000e0: 4dec f33e 7502 e13e 36cd e03e 32ce ec3e
000000f0: ce08 eb3e 7ca3 ff3e 4655 dd3e 9df5 e03e
00000100: 06c6 ff3e ee8f fb3e db68 fe3e 46be d33e
00000110: 1713 e63e da8c fe3e 098d ff3e 8e76 ff3e
0.48253503 0.48859248 0.47406667 0.4671931 0.41947097 0.49919817 0.4299431 0.4040928
0.4696748 0.40311253 0.4546543 0.4382464 0.44656333 0.4982653 0.42875057 0.3927678
0.4928874 0.45037937 0.45557362 0.40997195 0.464864 0.45022747 0.49904284 0.49871895
0.48854983 0.49658743 0.47106907 0.47023347 0.45389697 0.49952528 0.4547862 0.46022618
0.47467226 0.42922467 0.4623468 0.46266952 0.44474128 0.49947253 0.43342498 0.44491342
0.49947464 0.5 0.4900083 0.42125782 0.4757405 0.49907646 0.49917078 0.49887976
0.48489746 0.49680367 0.4767612 0.45413247 0.44973603 0.49965426 0.46134314 0.45714325
0.4764122 0.43947187 0.43906564 0.46251065 0.45905155 0.49929416 0.4322912 0.43937388
0.49955767 0.49133247 0.49689373 0.41356105 0.4493644 0.49716836 0.4991229 0.49895138

bn2.bias f4 [72]
00000000: e028 363d 56a3 3c3d d888 263d 5f5e 3f3d
00000010: 04ba 393d 623e 133d 5351 603d 680f 3d3d
00000020: 3971 503d f6a5 513d 85f3 573d e9d2 3c3d
00000030: 79de 403d 571a 403d 3186 4d3d 44ad 3a3d
00000040: b675 1b3d 07e4 423d 665f 413d 8efb 553d
00000050: 5ba5 493d 401c 483d ee09 1c3d 6ff3 423d
00000060: ea33 3d3d b61b 203d 3a76 2b3d 3a8a 263d
00000070: 97a1 1a3d ac6e 153d 17a4 433d 39e9 163d
00000080: c392 4c3d 6232 3d3d 936b 473d 9a88 0f3d
00000090: 86b4 523d bc4d 253d 890b 2a3d fe18 283d
000000a0: 7bcc 263d 9a19 133d 7423 2d3d f05b 3b3d
000000b0: 1009 403d 4b53 233d 8aca 243d f296 203d
000000c0: 9cf0 2f3d 9c03 243d bbe0 243d 5ffa 1e3d
000000d0: c159 2c3d 1a94 163d 66c4 183d 22eb 273d
000000e0: 277e 423d 95ae 293d 0b92 313d d1dc 0d3d
000000f0: d674 4d3d bcec 1b3d 398a 273d 955f 373d
00000100: 9ba6 1b3d 2d5e 133d 543e 083d a8fb 3d3d
00000110: 3659 2c3d 1d58 283d 39db 203d 77e8 1d3d
0.044472575 0.046054207 0.040657848 0.04672086 0.045343414 0.035948165 0.054765057 0.04615727
0.050889228 0.051183663 0.052722473 0.046099577 0.047087166 0.04690012 0.050176803 0.045575395
0.037954055 0.047580745 0.04721012 0.052241854 0.04922996 0.048855066 0.038095407 0.047595438
0.046192087 0.039088927 0.041860797 0.040659167 0.03775176 0.036482498 0.04776391 0.036843512
0.04994465 0.046190627 0.048686575 0.035042383 0.05144169 0.040357336 0.041514907 0.04103946
0.04072235 0.035913087 0.04227014 0.045741975 0.046883643 0.039874356 0.04023222 0.039206453
0.042954072 0.040042505 0.040253382 0.03881299 0.042077783 0.036762334 0.037296675 0.040995724
0.04748359 0.04142626 0.043352168 0.034634415 0.05016025 0.038067564 0.040903304 0.04476889
0.038000684 0.035978485 0.033262566 0.046382576 0.042077266 0.041099656 0.039271567 0.038551774

bn2.running_mean f4 [72]
00000000: d342 78be 69da 953e eca1 21be 90be 473e
00000010: fe7e 023f 5d6a a13e ea58 5abd 5015 333f
00000020: 000c 90bd 9a1a 873e 8dab a1be d195 043f
00000030: e168 29be 7ca0 8bbd bd58 163f bf7d e93e
00000040: f329 8abb 2510 003f a033 b2bd 0e9c 9bbd
00000050: 92c8 90be 5169 cb3d 72ee 453c ae31 623e
00000060: e6f6 7dbe 305a 243e e6da 21be 31a3 d43d
00000070: d3bf 9f3e 5bf9 4e3e 64c0 f0bd d6de cf3e
00000080: 92bd 98bd e82c 2a3e e2e3 a1be a98c c93e
00000090: 1925 31be 4680 c7bd 7238 a13e d342 a53e
000000a0: faaa 5fbd 0f78 443e 99b3 0fbe 9b5f a4bd
000000b0: 2c52 94be b81d 643c f8ab 20bc 74d9 1f3e
000000c0: fbf9 eebe a57c 143e d8a4 30be b770 ab3d
000000d0: 6287 9f3e 78a8 483e 47ac a3be d3de cf3e
000000e0: a85a b6bd f67c 203e b999 e9be 478a c93e
000000f0: 7673 81be 5ff9 3bbe 6ebe 9f3e 512a a53e
00000100: e2f4 11be 83a1 173e a1b7 b1be 8686 c9bd
00000110: c26a 1ebf c8bd 6abd 0494 02bd 5458 1a3e
-0.24244241 0.29268196 -0.15784425 0.19506288 0.50975025 0.3152646 -0.05330745 0.69954395
-0.07033539 0.26387483 -0.31576195 0.517911 -0.16543914 -0.06817719 0.58729154 0.4560375
-0.0042164265 0.50024635 -0.08701253 -0.075981244 -0.28278023 0.09932197 0.012080776 0.22089264
-0.24801216 0.16050029 -0.1580616 0.10382689 0.31201038 0.20212309 -0.117554456 0.40599698
-0.07458033 0.16618693 -0.31619173 0.39365128 -0.17299308 -0.09741263 0.31488377 0.32277545
-0.054606415 0.19186424 -0.14033355 -0.08026048 -0.28968942 0.013923101 -0.009806626 0.15610296
-0.46675095 0.14500673 -0.17250383 0.08371108 0.31157976 0.19595516 -0.31967375 0.4059969
-0.0890401 0.15672669 -0.45625094 0.3936331 -0.25283402 -0.18356846 0.31199974 0.32258847
-0.14253572 0.14807706 -0.3471041 -0.098401114 -0.6188165 -0.057309896 -0.03187944 0.15072757

bn2.running_var f4 [72]
00000000: f64e e63d 1fe4 8c3e db54 8c3d f130 7a3e
00000010: 4994 583e f252 5d3e 71ea 8e3e 5f41 343e
00000020: 921f c03d 1050 5b3e 7b17 713d d76d a43d
00000030: 2979 ef3d b0c3 383e 63f1 9a3e 2d4b 093e
00000040: 7a22 673e 24d2 0a3f 62e4 813e 55aa c83d
00000050: 4fa4 e33d 49d5 8e3e 5d82 163e 7e63 2c3e
00000060: 68b2 d13d b337 023e 09a8 8b3d 1a67 0b3e
00000070: de50 883d 6270 d53d 1aab 273e 7774 d63c
00000080: ab54 b43d e9a6 ea3d 0caf 6d3d a33e c83c
00000090: 8079 d63d ea53 0a3e 2ae7 a33d 80aa 4e3d
000000a0: 93d1 173e fd9a 133e 8988 1f3e 6741 bc3d
000000b0: 5841 c73d 1881 1d3e f385 f33d f720 d13d
000000c0: c479 9b3e cfd0 1c3e 0cb4 a43d 8e7c 2b3e
000000d0: 5611 8a3d 1844 ea3d 0642 e13e be74 d63c
000000e0: f71b d43d e5ea 043e c9fe 1c3e 3f84 c83c
000000f0: f807 3d3e d0af 743e 9570 af3d 7712 503d
00000100: f682 873e 2ba6 6b3e d5ec db3e a195 e43d
00000110: beec cd3e 8146 853e e6da 153e 135b e23d
0.11245529 0.27517793 0.068521224 0.24432732 0.21150316 0.21613672 0.2791324 0.17603062
0.093810216 0.2141726 0.058860283 0.08028763 0.11693031 0.18043399 0.30262288 0.13407584
0.22571746 0.542269 0.25369555 0.09798113 0.11115324 0.278971 0.14698167 0.16834828
0.102391064 0.1271656 0.068191595 0.13613549 0.06656049 0.10421826 0.16373864 0.026178582
0.08805212 0.11457617 0.058028266 0.02444393 0.10472393 0.13508573 0.080030754 0.05045557
0.1482604 0.14414592 0.15579428 0.09192162 0.0972926 0.15381277 0.11890783 0.10211366
0.30366337 0.15314029 0.08042154 0.16746733 0.06741588 0.11438769 0.43995684 0.026178714
0.10356896 0.1298023 0.15331568 0.024477122 0.18460071 0.23895192 0.08566395 0.05079886
0.26467103 0.23012607 0.42954126 0.11161352 0.40219682 0.26030353 0.14634284 0.11052527

mlp3.weight f4 [24, 72]
00000000: 5b39 e43b 6554 233c 01b6 e03b 245e fc3b
00000010: 5906 133c dd7b 193c 2818 0b3c 317d 1b3c
00000020: 8500 023c c422 243c 25ee 173c 0293 c73b
00000030: 6461 443c 337e 193c 984f 003c 0cc1 0c3c
00000040: 9580 093c 8cae 113c 1245 093c fb53 033c
00000050: 1db7 0b3c d051 1c3c aa7f 133c 5575 253c
00000060: 73e7 fb3c 85fa bb3d 5fac c23d 0e01 e73d
00000070: f9cb fd3d 1f18 093e 0cde 393d 4b5e 013e
00000080: 67d7 083d 05b9 0f3e cae9 113e 7390 be3d
00000090: ba6b 2f3e db58 2d3e fe4f 5a3d f113 173e
000000a0: 1152 0e3e dba3 eb3d c2af 2a3d 7cf9 013e
000000b0: 6d18 c83d 0bf8 c83d 8fba 873d c667 e33d
000000c0: 0000 0000 0000 0000 0000 0000 0000 0000
000000d0: 0000 0000 0000 0000 0000 0000 0000 0000
000000e0: 0000 0000 0000 0000 0000 0000 0000 0000
000000f0: 0000 0000 0000 0000 0000 0000 0000 0000
00000100: 0000 0000 0000 0000 0000 0000 0000 0000
00000110: 0000 0000 0000 0000 0000 0000 0000 0000
00000120: 9c4e dd3d a7a7 9a3d ad10 633d 15a9 813d
00000130: a276 f13d dd30 053e af30 f83d 5cbf eb3d
00000140: e945 673d c075 ff3d 012f e13d 0c69 a43d
00000150: b3cf 8d3d 694a ca3d 8f72 a73d 0f7a 853d
00000160: 42ac 803d fb7d a23d 2698 673d eab8 d23d
00000170: 7c24 703d 367c f43d e6da c13d ac3e a93d
00000180: 8ecd 1b3e 9052 353e d3ec 453e bda1 c13d
00000190: a9d5 273e cc85 f33d fbdd 353e 517a 0f3e
000001a0: a187 ee3d 449a cc3d 28fa e93d f442 333e
000001b0: b96e 293e 860e 1d3e 60ed 323e 40cc 073e
000001c0: b611 083e 3929 dc3d c91a 313e a677 bf3d
000001d0: b98f be3d 3033 953d feb3 143e e5dc 0c3e
000001e0: 0000 0000 0000 0000 0000 0000 0000 0000
000001f0: 0000 0000 0000 0000 0000 0000 0000 0000
00000200: 0000 0000 0000 0000 0000 0000 0000 0000
00000210: 0000 0000 0000 0000 0000 0000 0000 0000
00000220: 0000 0000 0000 0000 0000 0000 0000 0000
00000230: 0000 0000 0000 0000 0000 0000 0000 0000
00000240: cdfe 663d a5d2 a13d 4985 0e3e 8adf 113e
00000250: f639 9a3d 2819 083e 6522 073e 45de ca3d
00000260: 5f9d e63d c8e1 c83d 28e6 073e 0e25 3e3d
00000270: 7246 183e 3eb3 be3d d1f6 843d 4ac9 893d
00000280: 6761 8c3d 4f9c d33d 1c27 d33d 5445 823d
00000290: f5fe 743d 295f 013e b1a4 8b3d e42f 8f3d
000002a0: a392 b23d 08c3 2f3e 48d2 433e cfdf 1a3e
000002b0: d275 123e 1bc3 ed3d 1a3f ee3d 9d27 c93d
000002c0: ffa1 063e cc07 b03d 83c1 ee3d 66fc 083e
000002d0: cd18 0b3e 045b 303e 7050 303e 98cf 053e
000002e0: f86b 303e 0857 a63d 11a1 043e e7ad af3d
000002f0: f9f8 e93d 95c4 ca3d 4e11 b53d ff7f d33d
00000300: 0000 0000 0000 0000 0000 0000 0000 0000
00000310: 0000 0000 0000 0000 0000 0000 0000 0000
00000320: 0000 0000 0000 0000 0000 0000 0000 0000
00000330: 0000 0000 0000 0000 0000 0000 0000 0000
00000340: 0000 0000 0000 0000 0000 0000 0000 0000
00000350: 0000 0000 0000 0000 0000 0000 0000 0000
00000360: b24e d13a ddd6 f13a b72b bc3a b2d7 cc3a
00000370: 3715 d83a d791 e83a fdca d03a 20cc e03a
00000380: 8656 ca3a 63b3 e03a a615 f03a fd6c b53a
00000390: 637d d43a 37b7 e73a 2bb8 d03a 06af ce3a
000003a0: ecdf d33a 8921 dd3a 3591 c53a e06e bc3a
000003b0: 93df c73a 82db dc3a 8bdf d43a 614a e33a
000003c0: c587 d03d 5a57 7c3c 4f5d b13d 85e8 0f3d
000003d0: 60fb 1a3d 91a9 d53c 3e10 5b3d 7e7a bd3d
000003e0: 1e4b 9b3d d9b0 0b3e 56c3 503d baa5 393d
000003f0: 9eb5 5e3d 5a4e 873d e90a ac3d 93ae 473d
0.006964845 0.009968852 0.006857634 0.007701652 0.008973681 0.00936791 0.008489646 0.009490297
0.007934694 0.010018054 0.009273087 0.0060905227 0.01198611 0.009368467 0.007831477 0.008590948
0.008392473 0.008891713 0.008378284 0.008015628 0.008527544 0.00954099 0.009002605 0.010098775
0.030750012 0.09178642 0.095055334 0.11279498 0.1239242 0.13388108 0.045377776 0.12633626
0.03340855 0.14035423 0.1424934 0.09304895 0.17130938 0.16928427 0.053298943 0.14753701
0.13898493 0.11505862 0.041671522 0.12692827 0.09770284 0.098129354 0.0662738 0.111037776
0.0 0.0 0.0 0.0 0.0 0.0 0.0 0.0
0.0 0.0 0.0 0.0 0.0 0.0 0.0 0.0
0.0 0.0 0.0 0.0 0.0 0.0 0.0 0.0
0.10806009 0.075515084 0.055435825 0.06331078 0.117902055 0.13006921 0.12118661 0.11511108
0.056463156 0.12473631 0.109952934 0.080278486 0.06924381 0.09877474 0.08176147 0.065174215
0.062828556 0.07934185 0.056541584 0.10289176 0.058628544 0.11937754 0.0946558 0.08263907
0.15215132 0.17707276 0.19328623 0.09454677 0.16390099 0.11890754 0.1776046 0.14011504
0.11646963 0.09990361 0.11424667 0.1750601 0.16546144 0.15337572 0.17473364 0.13261509
0.13288006 0.1075005 0.17295374 0.09348993 0.09304757 0.07285154 0.14521787 0.1375614
0.0 0.0 0.0 0.0 0.0 0.0 0.0 0.0
0.0 0.0 0.0 0.0 0.0 0.0 0.0 0.0
0.0 0.0 0.0 0.0 0.0 0.0 0.0 0.0
0.05639534 0.079015054 0.13918032 0.1424543 0.075305864 0.13290846 0.13196714 0.09905676
0.11260485 0.09808689 0.13271391 0.046422057 0.14870623 0.093115315 0.06492389 0.06727846
0.068545155 0.10332548 0.10310194 0.063608795 0.05981346 0.12633957 0.06818522 0.06991556
0.08719375 0.17164242 0.19123185 0.15124439 0.14302757 0.11609479 0.116331294 0.09822009
0.13147734 0.08595237 0.11658003 0.13377532 0.1358368 0.1722222 0.17218184 0.13067472
0.17228687 0.08122069 0.12952067 0.08578091 0.11424441 0.09900776 0.08841191 0.10327148
0.0 0.0 0.0 0.0 0.0 0.0 0.0 0.0
0.0 0.0 0.0 0.0 0.0 0.0 0.0 0.0
0.0 0.0 0.0 0.0 0.0 0.0 0.0 0.0
0.0015968888 0.0018450875 0.001435629 0.0015628247 0.0016485815 0.0017743659 0.0015929636 0.0017150678
0.0015437163 0.0017143305 0.0018316999 0.0013841685 0.0016211685 0.0017678504 0.0015924027 0.0015768714
0.0016164756 0.0016870956 0.0015073182 0.0014376305 0.0015249125 0.0016850086 0.0016240937 0.0017340892
0.10182146 0.015401686 0.08660375 0.035133857 0.037837386 0.026081832 0.053482287 0.09251879
0.07582687 0.13641681 0.050967537 0.045324065 0.054372422 0.06606741 0.084005184 0.04875047

mlp3.bias f4 [24]
00000000: 1059 4cbe 7202 0fbe cc32 61bd 29e3 88bc
00000010: ac9c 3f3d 9063 b7bc 1591 05be 0110 c9bd
00000020: 38f2 083e fb73 623e 16e7 c5bd 56c1 2ebe
00000030: a8ac 943d 6a21 43bd ef5f 8fbd b28f 663e
00000040: a4ce ac3e 2b26 953d 4cc4 a6bc 5b92 eb3d
00000050: 5711 6e3e 9518 913e 28ab 19be 99f9 a1bb
-0.1995585 -0.13965777 -0.054980084 -0.01670988 0.046780273 -0.022386342 -0.13043626 -0.09817506
0.13373649 0.22114556 -0.09663217 -0.1706594 0.07259494 -0.047639288 -0.0700072 0.22515753
0.33751404 0.072826706 -0.020357274 0.115025245 0.23248802 0.28339067 -0.15006697 -0.0049430844

bn3.weight f4 [72]
00000000: 8fa8 d73e abe3 ea3e 347e d93e c0e4 e03e
00000010: cace e33e 792e e13e 1742 db3e 6eab e33e
00000020: 1aa0 e33e 7532 e03e 2582 dd3e 6ab9 d83e
00000030: bab9 d73e 2b7b df3e 4cbd d83e 908d da3e
00000040: 4b04 db3e f49d df3e 20db db3e 9a84 d83e
00000050: 72f3 e23e 7264 dc3e eccf e33e 113d df3e
00000060: 0000 003f 0000 003f 08e5 ff3e 0000 003f
00000070: 0000 003f 0000 003f c5fc ff3e febb ff3e
00000080: 46e4 ff3e 0000 003f 0000 003f 09e2 ff3e
00000090: d6f2 ff3e 0000 003f 0000 003f 0000 003f
000000a0: 0000 003f 0000 003f 0000 003f 0000 003f
000000b0: 0835 ff3e 0000 003f f5c8 ff3e 60c6 ff3e
000000c0: 9759 cf3e ee94 c73e cb99 c93e f337 cd3e
000000d0: 1475 cc3e 391d ce3e f928 c93e 2227 cc3e
000000e0: bef8 c13e 2dc9 d83e f2f1 ce3e b775 ae3e
000000f0: c8e2 cc3e 36ae cc3e b551 cc3e 7f37 d03e
00000100: cf43 c43e 1fe5 cf3e aeaf c83e 7a9f d13e
00000110: 2977 ca3e b200 d03e d172 cc3e d558 d13e
0.42120788 0.45876822 0.42479098 0.43924522 0.44493705 0.43980768 0.4282386 0.44466728
0.44458085 0.43788496 0.43263355 0.4232896 0.42133886 0.43648657 0.42331922 0.4268613
0.42776713 0.43675196 0.42940617 0.42288667 0.4432636 0.43045384 0.4449457 0.43601277
0.5 0.5 0.49979424 0.5 0.5 0.5 0.49997535 0.49948114
0.49978846 0.5 0.5 0.4997714 0.49989957 0.5 0.5 0.5
0.5 0.5 0.5 0.5 0.49845147 0.5 0.49958006 0.49956036
0.4049804 0.38980812 0.39375147 0.40081748 0.39933074 0.4025667 0.39289072 0.39873606
0.37885088 0.42340985 0.40418965 0.34074184 0.4001677 0.39976662 0.39906088 0.4066734
0.38332984 0.40604493 0.39196533 0.40941983 0.39544037 0.4062553 0.39931348 0.40888086

bn3.bias f4 [72]
00000000: afc4 e3bb 3609 17ba 240e a23b 4417 a53b
00000010: dac6 96bb 806b 42bc 5556 423a 2a37 09bc
00000020: 20db 26bc 5f13 33bc a9fc 62bc 9bf3 763b
00000030: b9ab 4b3c 50eb 2439 9a23 9cba 01b3 f93a
00000040: afcc 833b 99dc 533b 0d71 d1bb a3bc 133c
00000050: 2340 2fbc a930 2dbc 9fab 963a 1f64 14bc
00000060: 2016 ab3b fcec 8abc 9730 d3bc 9db6 003c
00000070: 6c23 5dbc 3977 ce3b 31ab cbbc 6cb3 0dbb
00000080: 40dd bcba 2a4f 073c 9a21 a7bb 273d 23bc
00000090: bc47 15bb 274a d3bb 16ef 1fbb 76ef ccbb
000000a0: 86c6 4e3b 418b 973b 30c2 0fbb 0d7d aebb
000000b0: 427c 0a3c ae13 9a3c 3e5f 153c a620 783a
000000c0: 6b07 bc3d 5d1b 623d 42ec 0c3d df96 a43d
000000d0: 8596 1b3d 56ed 043d 94e5 043d 34ae 1a3d
000000e0: 2971 133d a23c fb3d d40d a63d 8d69 b93d
000000f0: f431 1f3d 9cd8 ad3d ed58 bd3c 6196 6a3d
00000100: cd2c 713d 1389 9b3d 4a41 dc3c da74 a63d
00000110: a552 033d d963 a23d 1036 303d 2ba0 6f3d
-0.0069509367 -0.00057615654 0.0049455334 0.005038174 -0.0046013417 -0.01186645 0.0007413377 -0.008374969
-0.010184079 -0.010929911 -0.013854184 0.0037681821 0.012431079 0.0001572792 -0.0011912466 0.001905054
0.004022203 0.0032327531 -0.0063916505 0.0090171425 -0.010696444 -0.0105706835 0.0011495239 -0.009057074
0.0052211434 -0.016958706 -0.025780005 0.007856038 -0.013497215 0.0063008335 -0.024861904 -0.0021621836
-0.0014409199 0.00825862 -0.005100441 -0.00996331 -0.0022778353 -0.0064480486 -0.002440398 -0.006254132
0.0031551435 0.0046247547 -0.0021935813 -0.005324966 0.008452477 0.018808212 0.009116946 0.0009465314
0.09181102 0.055201877 0.034405 0.08036589 0.037985343 0.032452904 0.032445505 0.03776379
0.03599659 0.12267424 0.08108106 0.09053335 0.038866 0.084885806 0.023113692 0.05727232
0.058880616 0.07594504 0.026886601 0.081277564 0.032061238 0.07929201 0.043020308 0.058502357

bn3.running_mean f4 [72]
00000000: 4be3 363f 6024 353f 5b51 403f 2565 4a3f
00000010: 4a3a 4b3f e73d 463f 46af 3c3f 8c05 4c3f
00000020: 3491 3e3f 0f3f 533f 1e49 473f 5c8b 323f
00000030: 3b9a 403f 5a83 543f 2904 463f e59c 543f
00000040: 1eed 533f f031 563f 68b8 3c3f 20ee 493f
00000050: 81f3 453f af3f 553f 2a9a 503f fe3f 4a3f
00000060: 24e1 153d 87f2 1d3d 54f0 203d a1c1 303d
00000070: e82b 233d 8de4 253d 8b54 1f3d 70a9 223d
00000080: 86fb 1c3d 0f39 2f3d c0a2 2b3d 1cf7 0e3d
00000090: bacf 263d 589d 253d 47d8 283d afbf 213d
000000a0: 91dc 2b3d 6849 343d 1df5 233d a1f2 273d
000000b0: b485 273d 17dc 2f3d 32a9 2a3d cb93 263d
000000c0: f192 08bf 2f88 08bf 8434 08bf 5b38 12bf
000000d0: 6d22 fabe 6ac7 0bbf d3f6 03bf 1aa4 febe
000000e0: 83fc 02bf 2e5f 09bf 908d 09bf 2b3b f6be
000000f0: f309 0abf ab97 05bf e090 03bf 1c9e 01bf
00000100: f564 fbbe 8086 0cbf afae 0abf aff8 02bf
00000110: 2897 09bf f362 06bf dcea 09bf 2253 09bf
0.7144057 0.7075863 0.7512414 0.79060584 0.7938582 0.77438205 0.73704946 0.79695964
0.7444031 0.82518095 0.7784594 0.69743896 0.75235337 0.83012927 0.773501 0.830519
0.8278369 0.8366995 0.7371888 0.78878975 0.7732468 0.833003 0.81485236 0.79003894
0.036591664 0.03856137 0.039291695 0.04315341 0.039836794 0.040501166 0.038898986 0.03971237
0.03832581 0.042779025 0.041903257 0.03490363 0.040725447 0.040433258 0.041221883 0.039489444
0.041958395 0.04401532 0.04002868 0.041002873 0.040898994 0.042934503 0.041665263 0.04066829
-0.53349215 -0.533328 -0.5320513 -0.5711724 -0.4885439 -0.54601157 -0.515485 -0.49734575
-0.5116655 -0.5366086 -0.5373163 -0.48092017 -0.5392143 -0.5218455 -0.51392937 -0.5063188
-0.49100462 -0.5489273 -0.54172796 -0.5116071 -0.5374627 -0.52494735 -0.5387399 -0.53642476

bn3.running_var f4 [72]
00000000: 150e d93f 6173 d33f 76a5 e53f ca0e f33f
00000010: 2c61 fc3f 3a75 f13f c0ee e13f 3448 fe3f
00000020: 9a64 e53f e568 0240 7a8f f03f d366 d63f
00000030: 2fa9 e43f b5b8 0640 427d f03f fa49 0740
00000040: 9948 0640 51dd 0340 242e df3f a071 f63f
00000050: 8f56 f03f f42d 0640 f98a 0140 2c1a f63f
00000060: 5f7a 653e 8bf7 643e 197d 653e 814c 663e
00000070: 105f 653e 2fca 653e 850d 653e c96f 653e
00000080: c471 653e a625 663e 38a9 653e 7b63 643e
00000090: acaa 653e c331 663e 9859 653e 5426 663e
000000a0: f781 653e 85a8 663e d579 653e f9ab 653e
000000b0: 0a8f 653e 64e7 653e 13e5 653e 8df6 653e
000000c0: 0570 dc3f 6bd2 e03f 77f3 e03f 5288 f93f
000000d0: 92db c73f 8c7f e73f 0f66 d53f 3beb cb3f
000000e0: 6f87 d13f 3861 e43f 44df e43f 5332 bf3f
000000f0: 1322 e43f 1acd d83f 07a3 d63f b9f0 ce3f
00000100: 9cf4 c93f 106d ea3f 1782 e43f 34d0 d33f
00000110: 1c5d e33f d5f8 dd3f a288 e43f 6d12 e23f
1.6957422 1.6519586 1.794112 1.8988888 1.9717155 1.88639 1.7650986 1.9865785
1.7921326 2.0376523 1.8793786 1.675013 1.7864131 2.1050236 1.8788226 2.1138902
2.098181 2.060383 1.7435956 1.9253426 1.8776416 2.0965548 2.0241072 1.9226737
0.22409962 0.22360055 0.22411002 0.22490121 0.22399545 0.22440408 0.22368439 0.22405924
0.2240668 0.22475299 0.22427833 0.22303574 0.22428387 0.2247992 0.22397459 0.22475559
0.22412859 0.22525223 0.22409756 0.22428884 0.22417846 0.2245155 0.22450666 0.22457333
1.7221686 1.7564214 1.75743 1.9494727 1.5613883 1.8085799 1.6671771 1.5931162
1.6369456 1.7842169 1.7880635 1.4937233 1.7822899 1.6937592 1.6768502 1.6167213
1.5777774 1.8314533 1.78522 1.6547914 1.776279 1.7341563 1.7854197 1.7661873

mlp4.weight f4 [1, 72]
00000000: 0000 0000 0000 0000 0000 0000 0000 0000
00000010: 0000 0000 0000 0000 0000 0000 0000 0000
00000020: 0000 0000 0000 0000 0000 0000 0000 0000
00000030: 0000 0000 0000 0000 0000 0000 0000 0000
00000040: 0000 0000 0000 0000 0000 0000 0000 0000
00000050: 0000 0000 0000 0000 0000 0000 0000 0000
00000060: 0000 0000 fb1a ca3d ec3a 2f3e 17b3 bf3d
00000070: 81aa 433e 8e1c 1e3e f66b 153e 7507 ad3d
00000080: 9271 8d3e e93b 8c3e 9386 033e 0000 0000
00000090: 5fb9 083d 7f1b 263e da56 223d 9563 013e
000000a0: b7e0 7d3c 0000 0000 c76a 983d 0000 0000
000000b0: cc9a 223e 9e57 823e 805a 233e 8dd7 b63d
000000c0: a442 f53d 24a2 243e dc5e 2f3e 060d 4c3d
000000d0: 473c 0f3e 0000 0000 3376 453e 9363 b83d
000000e0: 0000 0000 0000 0000 13ba 4f3e 6c04 183e
000000f0: 6161 ed3c ae3d 273e c1a7 7d3d 0000 0000
00000100: fb63 6f3d ebf9 343e e9d8 fc3d 71eb 2f3e
00000110: 0000 0000 0000 0000 7b4b 693e 7a03 3f3d
0.0 0.0 0.0 0.0 0.0 0.0 0.0 0.0
0.0 0.0 0.0 0.0 0.0 0.0 0.0 0.0
0.0 0.0 0.0 0.0 0.0 0.0 0.0 0.0
0.0 0.09868427 0.1711232 0.093603306 0.19108011 0.1544058 0.14591965 0.08448688
0.2762571 0.27389458 0.12844305 0.0 0.03337991 0.16221426 0.03963361 0.12635644
0.015495471 0.0 0.07442241 0.0 0.15879363 0.25457472 0.15952492 0.08927832
0.11975601 0.16077477 0.1712603 0.049817108 0.13987838 0.0 0.1928337 0.09003367
0.0 0.0 0.20285825 0.14845437 0.028977098 0.16332123 0.06192756 0.0
0.05844496 0.17673461 0.1234606 0.17179658 0.0 0.0 0.227827 0.046634175
