utility-model-selected/dim-3/utility-37.pt (torch, 23458 bytes, 17 tensors)

bn1.running_mean f4 [3]
00000000: e282 003f df04 003f 3b6e ff3e
0.5019971 0.5000743 0.49888787

bn1.running_var f4 [3]
00000000: 1e52 673d 2814 5c3d cfad 583d
0.056474797 0.05373016 0.05290013

mlp1.weight f4 [24, 3]
00000000: 0ccd 8e3d 7bd4 a03e ff6c 583e b525 f13e
00000010: 3d3d e13e c400 f43c d2d9 463e 407f a23e
00000020: a13d 4d3e c309 f23e 35d9 c13e 4635 de3e
00000030: 9971 eb3e 0000 003f 1070 4b3e 9c68 033a
00000040: 1eda 8b3e 0000 0000 49f5 c53e 4abc da3d
00000050: f3fb 8b3e 0000 003f e663 533e 1920 783e
00000060: 5a27 343e ba41 953e 9755 e43e 59af 2c3e
00000070: 1ffa d63e 6370 e93c 16a7 513e 185f ff3e
00000080: 2e1e 003e 55e6 6e3d 5e78 ff3e 7937 883e
00000090: e69e 2e3d 25ed 883e 8bb7 913d 1707 f13e
000000a0: 0000 003f 6b99 cc3e 0ead eb3e b996 ae3e
000000b0: 36a5 bf3e 79e0 6e3d bc60 553e 43b3 983e
000000c0: 3470 8b3d 0000 003f 9ed2 d13c b11a 9c3e
000000d0: 9036 0e3e 0000 0000 148f ef3d 8580 cf3d
000000e0: ac66 ca3d 0f2d de3c 24cc ac3e efe5 ec3d
000000f0: 7165 fa3e 0000 003f 7022 cb3e 590d 7d3e
00000100: 1e4d ea3e 0bd1 b83e 2ea6 a93d 9761 bd3d
00000110: 0000 003f b700 943e 49bd 693e 0000 0000
0.06972703 0.3141211 0.21135329 0.4709908 0.43992034 0.029785521 0.1941903 0.3173771
0.20043041 0.47273073 0.37861028 0.4340002 0.45985106 0.5 0.19866967 0.00050128414
0.27314848 0.0 0.386637 0.106804445 0.2734066 0.5 0.20643577 0.24230994
0.17593136 0.29151708 0.4459655 0.16863765 0.41987702 0.028495973 0.20473894 0.49877238
0.12511513 0.05832513 0.4989652 0.26604822 0.042632006 0.26743427 0.07115086 0.47075722
0.5 0.399608 0.46030468 0.34099367 0.37430733 0.058319543 0.20837682 0.29824266
0.068085104 0.5 0.025613125 0.30489114 0.13888001 0.0 0.11697212 0.10131935
0.09882864 0.027121095 0.33749497 0.11567294 0.4890552 0.5 0.3967471 0.24712123
0.4576196 0.36096987 0.082836494 0.092471294 0.5 0.28906795 0.22826113 0.0

mlp1.bias f4 [24]
00000000: 3f03 0c3f 7f53 3d3d d353 b9bb f112 13bf
00000010: fa5a 833d aebc 8d3d 093c 253f 291d c03e
00000020: 5482 373e b394 8cbd 58b1 9abd b37d 603e
00000030: e012 2bbe 3270 01bf f58f 273f 32ce b63e
00000040: edc9 033f e049 993e 6db6 52be d80d 5bbe
00000050: 47b6 04bf 5f92 143c 0fc7 bdbd e4dc c4be
0.54692453 0.046222206 -0.0056557446 -0.5745078 0.06413837 0.069207534 0.6454473 0.37522247
0.1792081 -0.068642996 -0.07553357 0.2192295 -0.16706419 -0.5056182 0.65454036 0.3570419
0.5147999 0.29939175 -0.20577402 -0.21392 -0.51840633 0.009068101 -0.09266483 -0.38449776

mlp2.weight f4 [24, 72]
00000000: c10f d53c 1135 dc3d 0000 0000 0000 0000
00000010: 7b8d 0d3d d3c1 b23d 0000 0000 0000 0000
00000020: f3f8 ef3c e72c 0b3d 0000 0000 487e 823c
00000030: be39 973d 0000 0000 0000 0000 0000 0000
00000040: 4d35 0c3e e782 003d 0000 0000 0000 0000
00000050: 0000 0000 1dee 9f3b 0000 0000 3c1d 9c3d
00000060: 71ff 2f3e 817b f23d 0000 0000 0000 0000
00000070: 5aff dd3d 92e4 1e3e da59 333e 7111 553d
00000080: 2e5f 963c f2fe f93d 1d30 6a3d 7cd6 0c3e
00000090: 8af3 3e3b 0000 0000 1a02 f13d 95b3 2f3d
000000a0: d1e6 d63d e310 163d 0000 0000 0000 0000
000000b0: 0000 0000 b491 843d ead7 563c 9a21 d03d
000000c0: 26a0 043e 2338 2e3d 0000 0000 0000 0000
000000d0: f314 a83d c918 d03d 5ad2 213e 0000 0000
000000e0: a9cb 2c3c 8894 db3d 7eaa 033d 6bd9 6c3d
000000f0: 148f 293c 0000 0000 9002 b03d b3e2 d53c
00000100: 1653 0e3e dca6 523c 0000 0000 c293 973d
00000110: 0000 0000 0000 0000 c9c6 8c3d 9348 6a3b
00000120: 0000 0000 2d82 0f3d 3cc6 d73b 0000 0000
00000130: 0000 0000 5fbc 173e 0000 0000 9ac3 473d
00000140: f481 f33c 5b7f 6b3d deb8 de3d c854 9b3d
00000150: c12a a23c 0000 0000 0000 0000 b841 0c3c
00000160: 345d df3d 4a08 1a3a 0000 0000 9258 903d
00000170: 0000 0000 0000 0000 0000 0000 cd0f 653d
00000180: 7cbe bd3d 60fa 213e 0000 0000 0000 0000
00000190: 8247 1c3e bd43 e53d b0e4 a73d c099 923d
000001a0: 408b cd3c 5e22 663d fa8d 843d ae9c 8b3d
000001b0: 0429 b23c 0000 0000 a9a5 f43d a935 0b3d
000001c0: cb8d 043e a37f ca3d 0000 0000 1c5f 993d
000001d0: 0000 0000 9ac9 8c3c 62cb 123d 0364 fb3c
000001e0: ad50 a03d f890 0f3d 0000 0000 0000 0000
000001f0: 1e78 a23d 8a22 933d 1de6 f93d 0000 0000
00000200: 8431 353d 97e6 c43d 6afc a23d b9eb 813d
00000210: dc33 0b3d 0000 0000 117b d03d 95fc 133d
00000220: 42d8 213e 3fbc c03d 0000 0000 0939 853d
00000230: e694 943b 0000 0000 fbaa 823d 8795 d23a
00000240: 0000 0000 a679 a83d 0000 0000 0000 0000
00000250: 86fb cb3c 8032 283d 0000 0000 0000 0000
00000260: 0000 0000 45dd ac3c d243 713d 42b5 5f3d
00000270: c96f 583b 0000 0000 0000 0000 0000 0000
00000280: a6b9 833d 1754 143d b7d2 b43b a249 bd3c
00000290: 0000 0000 6e41 f039 0000 0000 2141 653d
000002a0: 8428 c03d 3f19 a73d d25b 403c 0000 0000
000002b0: 1968 1d3e 976e d73d 5e7c 003e 52b7 2c3c
000002c0: a1d2 3c3d 98f5 d73d 4b83 ce3d c3c2 0d3e
000002d0: 011a 793b 0000 0000 53e7 f73d 7d5f fb3c
000002e0: 5a49 e83d bf88 263d 0000 0000 0000 0000
000002f0: 0000 0000 044f 803d b7f4 803c 0e2e 5c3d
00000300: eb2c a53d 7255 1e3d 0000 0000 0000 0000
00000310: 38ac 223d 8ee0 633d 8801 fa3d bb73 2f3d
00000320: b8e5 9b3c 28d6 283e b56a 0c3e 71a6 ef3d
00000330: 7349 dd3d 89b9 0a3c 6af9 c83d acc3 0d3d
00000340: 1ca4 053e 615b 5c3c 0000 0000 3003 913d
00000350: eab9 b33b b298 863d 6d48 653c 21c1 d739
00000360: 0000 0000 41ad 0e3d 0000 0000 0000 0000
00000370: 99fa 7239 dced 193e 155b bb3b 0000 0000
00000380: 0000 0000 bdb5 9b3d 1279 ea39 edf3 b53c
00000390: 0263 5c3d 0000 0000 0000 0000 2989 153d
000003a0: f755 323d 00a9 153a 0000 0000 0000 0000
000003b0: 0000 0000 0000 0000 0000 0000 7366 813d
000003c0: e94f d53d 9160 983d 44e4 3d3d 0000 0000
000003d0: 5969 423d 67e8 2b3d bb5f 043e ead9 7b3c
000003e0: 863d 773d f8f3 dc3d f55f fc3d a498 ad3d
000003f0: 5617 813d 0000 0000 104f 233e c609 083d
0.026008489 0.10752309 0.0 0.0 0.034558754 0.08728375 0.0 0.0
0.029293513 0.03397837 0.0 0.015929356 0.0738406 0.0 0.0 0.0
0.13692208 0.03137484 0.0 0.0 0.0 0.0048806802 0.0 0.076227635
0.17187287 0.11839963 0.0 0.0 0.1083972 0.1551688 0.17514744 0.052018587
0.018355932 0.1220683 0.05717479 0.13753694 0.002913686 0.0 0.11767979 0.042895872
0.104932435 0.0366372 0.0 0.0 0.0 0.06473103 0.013113001 0.10162659
0.12951717 0.042534005 0.0 0.0 0.08207121 0.101609774 0.15802899 0.0
0.010546603 0.107216895 0.032145016 0.057824533 0.010349054 0.0 0.08594239 0.026109075
0.13898882 0.012857165 0.0 0.074012294 0.0 0.0 0.06873853 0.0035748824
0.0 0.035036255 0.0065849107 0.0 0.0 0.14817952 0.0 0.048770525
0.029725052 0.057494503 0.10875104 0.0758453 0.019795777 0.0 0.0 0.00856059
0.10906449 0.0005875869 0.0 0.070481434 0.0 0.0 0.0 0.055923272
0.09264848 0.15818167 0.0 0.0 0.15261653 0.11194561 0.081979156 0.07158232
0.025090814 0.05618512 0.064723924 0.06816994 0.021748073 0.0 0.1194566 0.03398672
0.12944715 0.09887626 0.0 0.07488844 0.0 0.017185975 0.035838492 0.030687338
0.07827888 0.035050362 0.0 0.0 0.07933067 0.07184322 0.12202094 0.0
0.044236675 0.09614294 0.079583004 0.06343789 0.033985004 0.0 0.10179723 0.036129553
0.15805152 0.09410905 0.0 0.06505019 0.0045343516 0.0 0.06380268 0.0016066291
0.0 0.082263276 0.0 0.0 0.02490021 0.041063786 0.0 0.0
0.0 0.021101603 0.05890257 0.05461622 0.0033025614 0.0 0.0 0.0
0.06431894 0.036213007 0.005518283 0.0231064 0.0 0.00045825116 0.0 0.055970315
0.09382728 0.08159112 0.011740642 0.0 0.15371741 0.1051914 0.12547442 0.010541754
0.04609931 0.1054489 0.10083636 0.13843827 0.0038009884 0.0 0.121046685 0.03068518
0.11342116 0.040657755 0.0 0.0 0.0 0.06265071 0.01574169 0.05375486
0.08065208 0.038655706 0.0 0.0 0.03971502 0.055634074 0.12207323 0.04283498
0.019030437 0.16487944 0.1371258 0.11701668 0.10805025 0.008467087 0.09813197 0.034610435
0.13050884 0.013449521 0.0 0.07080686 0.005484809 0.06572093 0.013994318 0.00041151888
0.0 0.034833197 0.0 0.0 0.00023172273 0.15032142 0.005717645 0.0
0.0 0.07603023 0.00044722162 0.02221104 0.05380536 0.0 0.0 0.03650776
0.043539014 0.0005709082 0.0 0.0 0.0 0.0 0.0 0.06318369
0.10415632 0.074402936 0.04636027 0.0 0.04746375 0.041969683 0.12927143 0.015371779
0.060361408 0.10788721 0.1232299 0.084763795 0.06303279 0.0 0.15948129 0.033212446

mlp2.bias f4 [24]
00000000: f432 02bc f313 9ebc b39c 743c 9b4d 32bb
00000010: 5fac 38bd fa31 2cbc 409f cebc 4802 e13c
00000020: eda8 373c f8cd cd3c 6aaf 1a3d 3498 2f3b
00000030: a347 45bc cf3b f6bc c1ce 933c a04e a43d
00000040: 029a 25bc 1d92 1abe a7a0 fc3c 505f d73c
00000050: 54f5 613d 44f3 3cbd a476 16bb b805 c8bc
-0.0079467185 -0.019296622 0.014929938 -0.00272069 -0.04508626 -0.010509962 -0.02522242 0.027466908
0.011209709 0.025122628 0.037764944 0.00267936 -0.012041005 -0.030057816 0.018042924 0.08022809
-0.010107519 -0.150948 0.030838324 0.026290566 0.055165604 -0.046130434 -0.00229589 -0.02441679

bn2.weight f4 [72]
00000000: 02c4 d03e 3e9d fa3e f86a d63e 20f1 c83e
00000010: 482a d53e d737 ff3e 4d49 ca3e cab0 ce3e
00000020: ce08 d73e c66b fa3e e4eb f43e 47ac e33e
00000030: a761 ec3e 9e1c ca3e 51bd cc3e 8737 d43e
00000040: 20b5 fc3e 96cd cf3e 3bd8 d13e 5a61 dc3e
00000050: 6a88 c83e f53a d43e 14f2 d23e 0000 003f
00000060: eb15 ff3e 3d4d fd3e b426 dc3e 74fe c73e
00000070: 3439 f43e e491 ff3e 0000 003f 02b8 e23e
00000080: e23b eb3e b336 fd3e e771 fb3e 60c0 f93e
00000090: 8bbd ed3e a929 cf3e 0000 003f 0671 f03e
000000a0: 0aef fc3e 1cba e53e 70a8 d13e 1085 e23e
000000b0: 5609 c93e 7fe0 ed3e 276f e33e 0000 003f
000000c0: d525 ff3e 9f44 f63e bb57 d43e fe59 d53e
000000d0: 29d0 ea3e e045 ff3e 0000 003f e438 d63e
000000e0: 8be8 e43e 6675 ff3e b164 f53e 4746 fb3e
000000f0: ce8c f33e bd36 d83e 0000 003f fa51 f03e
00000100: 1c15 fd3e 9b16 e53e c958 d03e ed89 f83e
00000110: d711 d63e 577e da3e 4ed6 e13e 7e8d d73e
0.40774542 0.4894809 0.41878486 0.39246464 0.4163382 0.4984729 0.3950905 0.40369254
0.41998905 0.4891035 0.4783622 0.44467375 0.46168253 0.39474958 0.39988187 0.41448614
0.49356937 0.40586537 0.40985283 0.43043023 0.39166576 0.4145123 0.41200316 0.5
0.4982141 0.4947299 0.42998278 0.3906132 0.47699893 0.49915993 0.5 0.44281012
0.45944124 0.49455795 0.49110338 0.48779583 0.46433672 0.40461472 0.5 0.4696123
0.49401122 0.44868553 0.4094882 0.44242144 0.39264935 0.4646034 0.4442074 0.5
0.4983355 0.4809923 0.41473183 0.4167022 0.4586194 0.49857998 0.5 0.4184028
0.44708666 0.49894255 0.47928384 0.49077055 0.47568363 0.42229262 0.5 0.46937543
0.49430168 0.4474381 0.40692738 0.4854273 0.41810486 0.42674515 0.44108814 0.42100137

bn2.bias f4 [72]
00000000: 0e73 4a3d fb43 263d c132 1a3d 3179 ad3d
00000010: 3812 543d 0fb2 1f3d defc 343d 85b1 533d
00000020: 0f29 4d3d 70a6 1e3d a6d0 4e3d 2061 4a3d
00000030: 1db7 493d c5a5 943d 7fd0 3d3d 765f 1d3d
00000040: c698 383d c995 6c3d c094 643d ac49 4e3d
00000050: 08ff ab3d c639 2b3d 362e 103d d4a2 633d
00000060: f92b d53c c8a3 303d b79f 4b3d bb00 4e3d
00000070: 15b1 243d d23b 353d 81e0 ec3c 0569 403d
00000080: 6902 223d a9ed 233d 924a 273d ece5 343d
00000090: dda2 1f3d 45c1 6d3d c415 a03c 6f3b 003d
000000a0: 420b 0a3d b91c 493d bcb5 1e3d e378 413d
000000b0: 25af 983d 1f10 253d 856c 1c3d b76b 0c3d
000000c0: 2728 053d acab 303d 7ab7 c83c d311 0e3d
000000d0: 2120 1d3d d8a1 3c3d 7926 e53c 51f3 4c3d
000000e0: 357e c93c 0927 3c3d c80a 353d b4c2 343d
000000f0: e30a 383d 6f3d 3f3d cbe0 143d 4258 1c3c
00000100: 6e02 043d 26bc 2b3d 2ed9 513d 7d8d 3c3d
00000110: d090 253d ea4d 323d 60a0 0a3d d0cf 0d3d
0.04942613 0.040592175 0.03764606 0.08470381 0.051775187 0.03898817 0.044186465 0.051682968
0.050087985 0.038732946 0.05049195 0.049409032 0.049246896 0.072581805 0.046341415 0.038421117
0.04506757 0.057760034 0.05580592 0.050363228 0.08398253 0.041803144 0.03520032 0.055575207
0.026021944 0.043124944 0.049712863 0.050293665 0.04020794 0.044246502 0.028915646 0.046975154
0.03955308 0.040021572 0.0408426 0.044164583 0.038973678 0.058045644 0.019541629 0.03130668
0.033702143 0.049099658 0.038747534 0.047234427 0.07455281 0.040298577 0.03818943 0.034282412
0.032508995 0.04313247 0.024501551 0.034684967 0.03836072 0.046052784 0.027972447 0.050036732
0.024596313 0.045935664 0.044199735 0.044130996 0.044932257 0.046689447 0.03634719 0.009542527
0.03222888 0.04192748 0.05123251 0.04603337 0.040421307 0.043531336 0.03384435 0.034622014

bn2.running_mean f4 [72]
00000000: 7bdd 0c3f 9c79 f63d d970 9a3c 4db1 68be
00000010: c9d9 1c3e 3d90 933d a878 263f 1172 c23e
00000020: a2e0 543e 6772 e8bc 1d43 d4b9 e019 7b3e
00000030: 1165 1dbe 7d67 30be 0dab 2a3f d6cd b63e
00000040: cd2c 033f e120 993e 56f4 4dbe fb52 2cbe
00000050: fef3 32be 5c89 b33d a480 febc d4cd 90be
00000060: 2ee8 b93e a3e7 a83c 6902 65bb f86c 80be
00000070: 45e8 cd3c 340f 8f3d f779 bc3e ec8e 433e
00000080: 9cff d63d 3abb 41bd be3f 29bd 9c71 fb3d
00000090: 528f 1dbe 2c8a 56be cb74 993e e668 883e
000000a0: f8ba 933e 65bb 733e 56f4 4dbe 6401 2dbe
000000b0: 606b 59be 50e9 6c3b 3afa 73bd 87eb 90be
000000c0: a2c9 b93e c633 61bd c763 e4bc 4919 19bf
000000d0: f831 84bd 9e03 8f3d d126 bc3e 6d9a 353e
000000e0: f16f 983d 1a18 bbbd a9ce edbd b062 c63d
000000f0: 48dd 2bbe 99dc 0abf f549 943e 8827 883e
00000100: 7f8f 933e ed95 733e 9c92 51be c0f3 5abe
00000110: 0348 0ebf 7d13 98bd f263 ffbd 3967 c5be
0.5502545 0.12034914 0.018852638 -0.22723885 0.15317453 0.07205246 0.65027857 0.3797765
0.20788816 -0.028374864 -0.00040485794 0.2452159 -0.15370585 -0.17226978 0.6666725 0.35703915
0.51240236 0.29907897 -0.20112738 -0.1682853 -0.17475888 0.087664336 -0.0310672 -0.28282034
0.36309952 0.020618265 -0.0034944064 -0.25083137 0.025135169 0.06985322 0.36811802 0.19097489
0.10497972 -0.047297694 -0.041320555 0.12277529 -0.15386704 -0.20951146 0.29971918 0.2664253
0.28853583 0.23801954 -0.20112738 -0.16895062 -0.21232367 0.0036149807 -0.059564807 -0.28304693
0.36286646 -0.054981016 -0.027879609 -0.5980421 -0.06454843 0.06983112 0.36748365 0.1773469
0.07443226 -0.091354564 -0.11611683 0.09686792 -0.16783631 -0.54242855 0.28962675 0.2659266
0.28820416 0.23787661 -0.20466083 -0.21382046 -0.5557863 -0.07425592 -0.12470235 -0.38555315

bn2.running_var f4 [72]
00000000: 7d15 1a3e a422 9b3e 6175 1b3e fc2b 2f3e
00000010: d1b3 b63e 8e91 993d e236 713e 5407 a93e
00000020: 8f7c 883e f3de 223e 27d7 583e 8f75 913e
00000030: 613a 8b3d 2d8d 5f3e 284f e73e c4a4 0c3e
00000040: 13f7 833e a25a ea3d 327d 033d 0630 b83d
00000050: 7e84 603e 265b 913e d26b 3f3e 27db 823d
00000060: 2a5a 2b3d 816e 263e 1a7c fb3d 97e3 fb3d
00000070: aebf 2c3e fe66 953d 0a23 473d 68d3 003e
00000080: 5333 0f3e b62e 093e 34d0 1d3e 640c 123e
00000090: d6be 8a3d a2bf 133e 96c9 c13d 7d52 8d3d
000000a0: 7cab a23d ed48 8d3d 327d 033d 1e19 b63d
000000b0: 45a4 133e 2de8 243e a263 173e 9909 823d
000000c0: bb39 2d3d f46c 8c3e 24f8 1d3e 24a3 013f
000000d0: 03b7 9d3e 8174 953d 53b0 4c3d 654f 193e
000000e0: 6509 413e 3bf2 3d3e 31e8 7f3e f4d7 3b3e
000000f0: 8a86 a23d 66a5 0d3f 76d3 ec3d 6a30 8f3d
00000100: dde8 a33d 7cc2 8d3d dffb 0d3d 64bc 033e
00000110: 8106 113f 752e 8e3e b927 673e a725 0c3e
0.1504726 0.30299866 0.15181495 0.17106622 0.35684064 0.074984655 0.23556092 0.33013403
0.2665753 0.15905361 0.21175824 0.28410003 0.06798244 0.21831198 0.4517758 0.13734728
0.2577444 0.11443068 0.032101817 0.08993535 0.21925542 0.28389853 0.18693474 0.06389456
0.041834034 0.16253091 0.1227953 0.12299269 0.16869995 0.07295035 0.0486174 0.12580645
0.13984422 0.13396725 0.15411454 0.14262539 0.0677468 0.14428571 0.094622776 0.06900499
0.07942864 0.06898675 0.032101817 0.088915095 0.14418133 0.16104193 0.147841 0.06349487
0.042291384 0.27426875 0.1542669 0.5063956 0.3080369 0.07297612 0.049972843 0.14971693
0.1885124 0.18549435 0.24990918 0.18344098 0.079358175 0.55330503 0.115637705 0.06991656
0.080033995 0.069218606 0.03466403 0.12864834 0.5665055 0.2776982 0.22573747 0.13686238

mlp3.weight f4 [24, 72]
00000000: f870 0f3e 3541 083e 8d45 a73d bd50 fd3d
00000010: f5d9 b43d 5785 223e b1d3 393e 88cd d13d
00000020: cdf1 ab3d 3f57 193e 8bd9 183e 3d6c b73d
00000030: 4595 043e 3eb7 2a3e 8b30 e03d 6ab7 dd3d
00000040: d62c 013e 75d6 ae3d a886 c23d 7150 b03d
00000050: ede5 9a3d 386c 323e 90b1 1e3e ee5a 163e
00000060: 0e54 913e 8a16 4a3e afc8 453e 0d2a 613e
00000070: 1e5f 243e fdaa 7e3e af7a 863e 20f1 803e
00000080: 3151 463e 3fcf 843e 8562 643e fe8f 083e
00000090: 7aff 473e 22a8 463e 5484 323e 9997 433e
000000a0: d957 2a3e 05d8 713e bbb0 323e fbdb 713e
000000b0: 2ce9 443e 2bdd 2a3e c173 733e d59a 273e
000000c0: 0000 0000 0000 0000 0000 0000 0000 0000
000000d0: 0000 0000 0000 0000 0000 0000 0000 0000
000000e0: 0000 0000 0000 0000 0000 0000 0000 0000
000000f0: 0000 0000 0000 0000 0000 0000 0000 0000
00000100: 0000 0000 0000 0000 0000 0000 0000 0000
00000110: 0000 0000 0000 0000 0000 0000 0000 0000
00000120: 2395 4e3c 70d2 573c 22ae 643c b7fb 6f3c
00000130: c26f 613c d1c3 7b3c cb8b 6d3c 8826 5c3c
00000140: b2a8 523c 4fd5 5b3c c69e 623c 254f 4e3c
00000150: 4516 523c edd3 633c 3ea7 523c 9bf3 643c
00000160: 14f5 b43c 3a21 813c 290e 553c 1210 563c
00000170: cd6e 543c 81dc 843c 560e 743c a235 6f3c
00000180: 25f0 9e3d e224 0a3e d3d9 ee3d 8faf e03d
00000190: 7fdb d13d 1336 0f3e 0766 f63d b8f9 593e
000001a0: a6e7 2e3e 9d92 d83d 5587 3a3e 76b7 173e
000001b0: 22b0 243e df6a f43d 8ddc 253e 43b7 3d3e
000001c0: 1bf9 fb3d be9e d63d 25e2 213e 7e23 e63d
000001d0: 1cc7 5e3e 9033 2f3e 2a3a 9d3d 79bf 283e
000001e0: a5e6 4d3e 9ee8 353e 5a86 3a3e 2193 503e
000001f0: a3d6 f43d 7169 443e f977 543e 4f2d 443e
00000200: 5bd4 2b3e 263e 633e e6ed 613e d763 1a3e
00000210: f837 543e 554b 433e ea76 4b3e c09c 5b3e
00000220: 0b6f 073e a477 3d3e a628 6e3e 6636 083e
00000230: 69b8 3d3e 394f 443e 62a8 503e c27e 233e
00000240: 4d6e 1d3e 41ef 063e 5ed0 393e 6dde 0e3e
00000250: b58b 3c3e 28ed fd3d 6457 403e 33e0 e23d
00000260: 9a3d 283e b144 1d3e 0a52 4f3e 45e7 2e3e
00000270: d7b3 163e 6897 193e e9bd e93d 83d6 d93d
00000280: 8321 0f3e 47e2 343e b7bd ee3d 645d da3d
00000290: 67b0 2a3e 64e4 523e 6c3d 093e 8733 4f3e
000002a0: c328 653e aac5 5a3e add8 6d3e 9794 933e
000002b0: 6a65 373e 0155 5f3e 43ac 613e 5b19 393e
000002c0: 183c 1f3e b216 5a3e 76b7 7e3e d3fe 583e
000002d0: eb0d 893e 63f8 3f3e 06c3 293e 038e 7d3e
000002e0: ae7b 793e 053f 573e a048 873e f840 843e
000002f0: 988b 3a3e 46c4 5b3e 17d9 903e a704 2e3e
00000300: 0000 0000 0000 0000 0000 0000 0000 0000
00000310: 0000 0000 0000 0000 0000 0000 0000 0000
00000320: 0000 0000 0000 0000 0000 0000 0000 0000
00000330: 0000 0000 0000 0000 0000 0000 0000 0000
00000340: 0000 0000 0000 0000 0000 0000 0000 0000
00000350: 0000 0000 0000 0000 0000 0000 0000 0000
00000360: 317c 583e c1c2 483e 83b2 f33d 0861 833e
00000370: 6541 513e 253c 363e 7740 573e 25d7 533e
00000380: e7e7 0e3e fff5 2d3e 59a1 473e 9bb7 f03d
00000390: 216b 4e3e b025 233e 274c 573e 5100 663e
000003a0: 3d1b 6e3e 4abc 363e ae02 2e3e 7229 093e
000003b0: 4349 dc3d 6273 1c3e 6e9a 533e c8d7 4b3e
000003c0: f950 663e 48e7 2f3e 66ad 663e c066 5c3e
000003d0: af47 2f3e 0caf 543e 480f 543e cf31 8c3e
000003e0: 1c7e 503e 8df6 473e 1590 603e 9372 383e
000003f0: 8524 8d3e 62a2 863e 0a20 623e fd68 613e
0.14007938 0.13306125 0.08167563 0.12368915 0.088306345 0.15871178 0.1814716 0.1024428
0.08395729 0.14974688 0.14926736 0.08956192 0.12947567 0.16671464 0.10946759 0.10825999
0.1261476 0.08536998 0.0949834 0.08609093 0.07563386 0.17424095 0.15497422 0.14683124
0.2838444 0.1973516 0.19314836 0.21988697 0.1605191 0.24869914 0.26265475 0.25183964
0.1936691 0.25939366 0.22303207 0.13336179 0.1953105 0.19400075 0.17433292 0.19100799
0.16635074 0.23617561 0.1745023 0.23619072 0.19229573 0.16685931 0.23774625 0.16367657
0.0 0.0 0.0 0.0 0.0 0.0 0.0 0.0
0.0 0.0 0.0 0.0 0.0 0.0 0.0 0.0
0.0 0.0 0.0 0.0 0.0 0.0 0.0 0.0
0.012608799 0.013172731 0.013957532 0.014647416 0.013759555 0.0153665105 0.014498661 0.013436921
0.012857603 0.013417556 0.0138318 0.012592112 0.012822692 0.0139055075 0.012857256 0.013974096
0.022089519 0.015762914 0.013003864 0.013065355 0.01296587 0.016218426 0.014895996 0.014600189
0.07760648 0.13490632 0.116626404 0.10970985 0.10246944 0.13985471 0.12031179 0.21286666
0.17080554 0.10574839 0.18215688 0.14816079 0.16082814 0.119344465 0.16197415 0.1852694
0.123033725 0.104794964 0.15808924 0.11237238 0.21755642 0.17109513 0.076771095 0.16479291
0.20107515 0.17764518 0.18215314 0.20368625 0.11955001 0.19180848 0.20748891 0.19157909
0.16780226 0.22191676 0.22063407 0.15077148 0.20724475 0.19071706 0.19869581 0.21446514
0.13225953 0.1850267 0.23257694 0.13302001 0.18527378 0.19170846 0.20376733 0.15966323
0.15374108 0.13177206 0.18145892 0.13952036 0.18412669 0.123987496 0.18783337 0.11077919
0.16429749 0.15358235 0.20246139 0.1708041 0.14717041 0.14999163 0.114131756 0.10636618
0.13977627 0.17664443 0.11657279 0.10662344 0.16668855 0.20594937 0.13402337 0.202345
0.2237883 0.21364465 0.23227187 0.28824303 0.1790978 0.2180977 0.22038369 0.18076079
0.15550268 0.2129772 0.24874672 0.21190958 0.2676843 0.18747096 0.16578302 0.24761204
0.24363586 0.21020134 0.26422596 0.25830817 0.18217313 0.21461591 0.28290626 0.16993962
0.0 0.0 0.0 0.0 0.0 0.0 0.0 0.0
0.0 0.0 0.0 0.0 0.0 0.0 0.0 0.0
0.0 0.0 0.0 0.0 0.0 0.0 0.0 0.0
0.21141125 0.19605543 0.11899283 0.25659966 0.20435102 0.17796381 0.21020685 0.2068754
0.13955651 0.16988371 0.19495143 0.1175377 0.20158054 0.15932345 0.21025144 0.22461058
0.23252578 0.17845264 0.1699321 0.13394716 0.10756161 0.1527839 0.20664379 0.19906533
0.22491826 0.1717807 0.22527084 0.21523571 0.17117189 0.207699 0.20708954 0.2738175
0.20360607 0.19527645 0.21929963 0.18012457 0.27566925 0.26295763 0.22082534 0.22012706

mlp3.bias f4 [24]
00000000: 6f64 1abe 8ac7 3b3e 79b7 1ebe b61d 8fbd
00000010: d9e4 a7bd 2f8a 00be 8443 c7bd 97ad a3bd
00000020: a1ac 05be cdcb 01be cfe1 5abe fcc0 c7bd
00000030: 3e01 1ebe f0de e73d 5935 d0bd a80a b53b
00000040: cfda 2dbe 39d3 693e d31f b4bd d9fb 03be
00000050: 63bd e9bd 68d4 c4bd 6e97 12be 0994 2abe
-0.15077375 0.18337837 -0.15499677 -0.06988089 -0.08197946 -0.12552713 -0.097296745 -0.07992094
-0.13054134 -0.126754 -0.21375202 -0.09753606 -0.15430161 0.11321819 -0.10166425 0.005524952
-0.16978 0.22834481 -0.087951325 -0.12889041 -0.11413076 -0.09610826 -0.14315578 -0.16658033

bn3.weight f4 [72]
00000000: a7f1 e43e 5d0b d83e 9181 e13e cb4e e93e
00000010: ed31 df3e 16a7 f83e 369f e83e 5f33 e33e
00000020: cbff da3e 0677 ec3e 2817 eb3e da18 dc3e
00000030: f237 dc3e 7c6a ea3e 541a de3e 6211 e93e
00000040: e86f e03e 397e e33e 5259 df3e 1a83 da3e
00000050: 1879 db3e db7c ea3e 0000 003f dfa8 ef3e
00000060: 0000 003f 2c3b f73e e517 f73e 0000 003f
00000070: 0000 003f 0000 003f 0000 003f 0000 003f
00000080: baf0 f83e 0000 003f 0000 003f 468f fb3e
00000090: 0000 003f 0000 003f 1388 fd3e ece7 f83e
000000a0: 0000 003f 7a39 f63e 0000 003f f101 ff3e
000000b0: 2ac7 f73e 0000 003f 0000 003f 0000 003f
000000c0: 4ced bb3e 9732 be3e 3d2b c03e ad1f be3e
000000d0: f603 c33e 334c bd3e ac76 bd3e 1d63 bf3e
000000e0: f672 bc3e 0ab9 bf3e 01e0 bb3e 7d5e be3e
000000f0: c8d6 ba3e d62d ba3e 3623 c03e 77e5 be3e
00000100: b6cf bc3e 0dd8 bd3e 860c bc3e 8de5 be3e
00000110: 3b7d bb3e 7821 bd3e 124f be3e bb1b c03e
0.44715616 0.4219617 0.44044164 0.45567927 0.43592778 0.48564976 0.45433968 0.4437513
0.4277328 0.46184558 0.45916104 0.4298771 0.43011433 0.45784366 0.43379462 0.45521075
0.43835378 0.44432238 0.43622833 0.42678148 0.42865825 0.45798382 0.5 0.46808526
0.5 0.48287332 0.48260418 0.5 0.5 0.5 0.5 0.5
0.4862116 0.5 0.5 0.49132746 0.5 0.5 0.4951788 0.48614442
0.5 0.48090726 0.5 0.4980617 0.48394138 0.5 0.5 0.5
0.3670448 0.37147972 0.37532988 0.37133542 0.3808896 0.36972198 0.37004602 0.37380305
0.36806458 0.3744586 0.3669434 0.37181464 0.3649199 0.36363095 0.37526864 0.37284443
0.3687722 0.37078896 0.36728305 0.37284508 0.3661898 0.36939597 0.371697 0.37521157

bn3.bias f4 [72]
00000000: b666 9fbd ff2f 9dbd e55f a2bd 7ed6 98bd
00000010: dbdc 80bd 97eb a2bd 8c87 90bd 8cf0 9bbd
00000020: 1af8 97bd 4000 8dbd 1b3c 9bbd 2cc9 8ebd
00000030: 8fca a3bd eb93 94bd cc85 90bd c956 93bd
00000040: 7148 a3bd 886b 8abd 4c9e 8ebd 9efd 80bd
00000050: 7c81 9dbd 10c0 aabd a46b 92bd d084 9cbd
00000060: e180 d1bd cd04 cdbd 87f4 c9bd 6b8e cbbd
00000070: b4ef c2bd 33ea cfbd 8529 d1bd b891 bbbd
00000080: 89d3 c2bd 99b8 cbbd eb99 cabd 68ee cdbd
00000090: d54b ccbd 6048 c6bd c4f2 c5bd cafb cebd
000000a0: 1637 c8bd a561 c3bd 9416 c7bd 3709 d4bd
000000b0: 4190 cdbd b0d2 bfbd e440 c5bd 5966 c5bd
000000c0: a570 a7bd 5b88 a1bd ae54 92bd 00da bfbd
000000d0: 5ffb a2bd face bbbd 4bb9 bfbd 9825 a9bd
000000e0: 517c c1bd 55f2 a1bd 190f b1bd 8a2d c9bd
000000f0: 32d1 b9bd b741 a6bd 922a aebd 6013 c0bd
00000100: 7fad c1bd 9204 b1bd 66a6 c1bd 9684 98bd
00000110: 1b57 babd 122d 8cbd 800d c0bd 617c a6bd
-0.077832624 -0.0767517 -0.07928447 -0.07462786 -0.06292125 -0.079550914 -0.070571035 -0.0761424
-0.074203685 -0.06884813 -0.075798236 -0.06971964 -0.07997619 -0.072547756 -0.0705677 -0.07194287
-0.079728015 -0.06758791 -0.069637865 -0.06298374 -0.07690713 -0.08337414 -0.07149437 -0.076425195
-0.1022966 -0.10010681 -0.09861093 -0.099392734 -0.09518376 -0.10152092 -0.10212997 -0.09158653
-0.095130034 -0.099473186 -0.09892639 -0.10055238 -0.09975401 -0.09681773 -0.096654445 -0.10106619
-0.09776132 -0.095401086 -0.09721103 -0.1035332 -0.1003728 -0.09366357 -0.096315175 -0.09638662
-0.08175782 -0.07887336 -0.071450576 -0.09367752 -0.079581015 -0.09170337 -0.09361514 -0.082591236
-0.094475396 -0.07907549 -0.08645458 -0.09823139 -0.09073104 -0.08118003 -0.085042134 -0.093786955
-0.0945692 -0.0864345 -0.09455566 -0.07447164 -0.09098645 -0.06844534 -0.09377575 -0.08129192

bn3.running_mean f4 [72]
00000000: 3042 ef3e 1150 f03e 3e9b ef3e 7043 fb3e
00000010: 5c7e d63e 3453 f33e 84e9 e93e ca79 f73e
00000020: 84ac fb3e 0654 eb3e 9c1e f73e 07ac f13e
00000030: 7314 eb3e df33 e63e cf0a fb3e 195d 073f
00000040: 32c6 f13e 4449 2c3f ebb4 023f 7647 f33e
00000050: eea1 033f 8c7a dc3e 8c9e ed3e e37b f43e
00000060: 95d5 853d 2c89 713d 5078 8b3d 7afa 8d3d
00000070: 50e3 773d cb1a 8b3d f02e 873d 415b 863d
00000080: 7193 8e3d 65e4 803d 0d34 853d c7e8 893d
00000090: a71c 8a3d d58c 833d f10d 8d3d bd36 8e3d
000000a0: 46d3 873d ce0e 823b b338 8d3d e77e 883d
000000b0: c3fb 8d3d 7ca4 843d 606e 873d ad88 8b3d
000000c0: 4447 8dbe 8908 94be 8b42 81be 1b9e 93be
000000d0: eebf 8fbe bd38 90be dec0 91be 4629 83be
000000e0: 8af7 8bbe bbce 77be af40 7ebe 0a7c 89be
000000f0: ea51 8abe e0c5 8fbe fc96 89be 8365 76be
00000100: aeba 8ebe 43a0 1bbf 5ac2 8bbe 43f1 7fbe
00000110: 2883 80be 5fd2 8fbe 8567 89be a011 97be
0.46730185 0.46936086 0.46798128 0.49074888 0.4189328 0.47524416 0.4568597 0.48335105
0.49155056 0.45962542 0.4826554 0.4720156 0.4591404 0.4496145 0.49031684 0.5287643
0.47221524 0.67299294 0.5105731 0.47515458 0.5141896 0.43062246 0.46410024 0.47750768
0.06534878 0.058968708 0.06810057 0.0693254 0.060519516 0.0679222 0.066007495 0.06560374
0.06961716 0.06293563 0.065040685 0.06733852 0.06743746 0.06423346 0.06887425 0.06944034
0.06632094 0.00396905 0.0689558 0.0666483 0.06932785 0.064766854 0.06612849 0.06813178
-0.27593434 -0.28912762 -0.2524608 -0.28831562 -0.28076118 -0.28168288 -0.28467458 -0.25617427
-0.27337295 -0.24199955 -0.24829362 -0.26852447 -0.2701562 -0.28080654 -0.26873004 -0.24062161
-0.278768 -0.60791415 -0.27296716 -0.24994378 -0.25100064 -0.28090188 -0.26836792 -0.29505634

bn3.running_var f4 [72]
00000000: 1ed2 593f 2bf6 613f 39c5 553f d5c4 613f
00000010: c9f5 413f 3020 5a3f 57c2 513f 9384 633f
00000020: 1ac8 613f 7309 593f 5841 643f 42be 593f
00000030: e96a 513f 1272 503f 8342 633f 99de 7b3f
00000040: 367b 5c3f d548 e53f a198 6f3f bc3d 5d3f
00000050: 9bb8 723f e370 433f 5db3 563f 888c 5c3f
00000060: fc56 563e 5dac 573e e93c 563e da29 573e
00000070: 99fd 553e 06f7 563e 9ecd 563e 9878 563e
00000080: d02b 573e c18d 553e 9732 563e ee89 563e
00000090: 1482 563e c20c 563e cdea 563e 9bce 563e
000000a0: d52f 563e b453 663e f662 573e d701 563e
000000b0: 2d44 563e 523c 563e 8987 563e 0df8 563e
000000c0: f97f 803f 48e4 7f3f fc83 6e3f 47f5 883f
000000d0: e19a 7e3f 33f1 833f 51ad 843f d6e3 6e3f
000000e0: 4e52 813f 6536 603f f53e 673f ea50 7c3f
000000f0: 1cd8 7c3f c6a8 813f 04c0 7c3f 6c8e 653f
00000100: 585d 823f e67b d63f 6694 7f3f 096e 6a3f
00000110: 0e66 6e3f 5fd1 823f 7a69 7a3f 9ced 8a3f
0.8508624 0.8826625 0.8350406 0.88190967 0.75765663 0.85205364 0.81937164 0.8887417
0.88195956 0.84780043 0.89162207 0.85055935 0.81803757 0.8142406 0.88773364 0.9838653
0.86125505 1.7912852 0.9359227 0.86422324 0.94812936 0.76344126 0.83867437 0.86151934
0.2093162 0.21061845 0.20921673 0.21012059 0.20897521 0.2099267 0.20976874 0.2094444
0.21012807 0.20854856 0.20917736 0.20951054 0.20948058 0.20903304 0.20988007 0.20977251
0.20916684 0.22492868 0.21033844 0.2089914 0.20924444 0.20921448 0.2095014 0.20993061
1.0039054 0.99957705 0.9317014 1.0699853 0.99455076 1.0307983 1.0365392 0.933164
1.0103242 0.87583 0.9033044 0.98560965 0.98767257 1.012963 0.9873049 0.89670444
1.0184736 1.6756561 0.99835813 0.9157415 0.93124473 1.0220145 0.97817194 1.0853763

mlp4.weight f4 [1, 72]
00000000: 0000 0000 0000 0000 0000 0000 0000 0000
00000010: 0000 0000 0000 0000 0000 0000 0000 0000
00000020: 0000 0000 0000 0000 0000 0000 0000 0000
00000030: 0000 0000 0000 0000 0000 0000 0000 0000
00000040: 0000 0000 0000 0000 0000 0000 0000 0000
00000050: 0000 0000 0000 0000 0000 0000 0000 0000
00000060: a6da 1a3e d816 573e 51ca 513e 56f0 f03d
00000070: 4971 263e 1f5b 073e 7a10 d03d ac1c 413e
00000080: 1d51 1e3e 6c4a e33d 3c63 113e 3a81 083e
00000090: b883 1c3e 7edf 7f3d d2ac dc3d 59e4 093e
000000a0: aa09 313e f94a 003e 743b 443e 8c88 d13d
000000b0: a5e4 0a3e da91 343e 0e5b 203e efe6 943d
000000c0: 1c2f 4e3e 0000 0000 dff9 533e 4918 7f3e
000000d0: 1e2d 583e df78 df3d 040b 6e3e 9fb2 c53d
000000e0: 9822 f43d eb02 593e 3456 0d3e 666b 4c3e
000000f0: 4142 aa3d 2c82 1a3e 3a2d 123e b170 6e3e
00000100: 2cc0 573e 30d0 953d f476 3f3e 7a9d f13d
00000110: 8e4b 0f3e 81b8 663e f096 aa3d 31f7 383e
0.0 0.0 0.0 0.0 0.0 0.0 0.0 0.0
0.0 0.0 0.0 0.0 0.0 0.0 0.0 0.0
0.0 0.0 0.0 0.0 0.0 0.0 0.0 0.0
0.1512247 0.21004808 0.20487334 0.117645904 0.16254152 0.13218354 0.10159393 0.18858594
0.1546063 0.11098179 0.14198011 0.13330546 0.15284622 0.062468998 0.1077515 0.13466014
0.17288843 0.125286 0.19163305 0.102311224 0.13563783 0.17633763 0.15659735 0.072706096
0.20135158 0.0 0.20700787 0.24911608 0.21110961 0.10911726 0.2324639 0.0965321
0.11920661 0.2119252 0.13802415 0.19962844 0.08313418 0.15088719 0.14275065 0.23285176
0.21069402 0.07315099 0.18697721 0.117976144 0.13993666 0.2253132 0.0832957 0.18063046
