utility-model-selected/dim-3/utility-2.pt (torch, 23433 bytes, 17 tensors)

bn1.running_mean f4 [3]
0.5019971 0.5000743 0.49888787
00000000: e282 003f df04 003f 3b6e ff3e

bn1.running_var f4 [3]
0.056474797 0.05373016 0.05290013
00000000: 1e52 673d 2814 5c3d cfad 583d

mlp1.weight f4 [24, 3]
0.47344992 0.3398528 0.0 0.28971216 0.48467198 0.36793604 0.5 0.22432876
0.3446187 0.5 0.0 0.014962813 0.25705442 0.49950805 0.033163674 0.10979393
0.08934293 0.0 0.4203933 0.0 0.0 0.48691514 0.35373658 0.0
0.27612793 0.2485065 0.41515142 0.5 0.49952134 0.21247622 0.36292276 0.044753868
0.021518255 0.39877892 0.21692671 0.2515235 0.28968328 0.19899529 0.14008604 0.32682642
0.4152718 0.30206764 0.03022765 0.14120433 0.4986694 0.32622427 0.5 0.0
0.5 0.0 0.010865687 0.43113223 0.23420353 0.32054818 0.41066498 0.1495129
0.40942886 0.062178936 0.36259726 0.11993872 0.28044003 0.5 0.0 0.49129814
0.28669253 0.0 0.1807018 0.105876185 0.48133618 0.42019036 0.38160113 0.49015218
00000000: 0768 f23e 3001 ae3e 0000 0000 2755 943e
00000010: ed26 f83e 1d62 bc3e 0000 003f 70b6 653e
00000020: dd71 b03e 0000 003f 0000 0000 9626 753c
00000030: a39c 833e 85bf ff3e a2d6 073d a4db e03d
00000040: 6df9 b63d 0000 0000 ca3d d73e 0000 0000
00000050: 0000 0000 f14c f93e f61c b53e 0000 0000
00000060: a460 8d3e 7d78 7e3e ba8e d43e 0000 003f
00000070: 43c1 ff3e 5e93 593e 03d1 b93e d54f 373d
00000080: 0d47 b03c c02c cc3e 0922 5e3e b0c7 803e
00000090: 5e51 943e 6cc5 4b3e b772 0f3e cb55 a73e
000000a0: 819e d43e 9ca8 9a3e fa9f f73c de97 103e
000000b0: 9851 ff3e de06 a73e 0000 003f 0000 0000
000000c0: 0000 003f 0000 0000 ff05 323c 5dbd dc3e
000000d0: 0dd3 6f3e e41e a43e ae42 d23e e919 193e
000000e0: a9a0 d13e 57af 7e3d 59a6 b93e 6ea2 f53d
000000f0: d695 8f3e 0000 003f 0000 0000 6e8b fb3e
00000100: 5dc9 923e 0000 0000 e509 393e 9dd5 d83d
00000110: b271 f63e 3123 d73e 3961 c33e 3af5 fa3e

mlp1.bias f4 [24]
-0.0059222598 0.18246719 -0.10946848 0.6616933 -0.5012254 -0.24337313 0.76120377 0.44738466
0.20092218 -0.45442006 0.68091166 -0.089029916 0.4399393 0.22380243 0.3340898 0.6322957
0.6701692 -0.39468914 0.7132548 -0.1858626 0.5766564 0.6119387 -0.012175834 0.5309749
00000000: 840f c2bb aed8 3a3e 0331 e0bd bb64 293f
00000010: 4f50 00bf ce36 79be 40de 423f 9a0f e53e
00000020: 8bbe 4d3e bfa9 e8be 3a50 2e3f 5155 b6bd
00000030: b93f e13e 772c 653e d10d ab3e 22de 213f
00000040: 3590 2b3f b214 cabe de97 363f c452 3ebe
00000050: c19f 133f 04a8 1c3f 267d 47bc f9ed 073f

mlp2.weight f4 [24, 72]
0.009687784 0.0 0.0 0.0 0.0 0.0063937884 0.0 0.0053570247
0.0 3.368628e-06 0.0 0.0 0.0 0.0 0.0 0.023606375
0.0 0.0 0.0 0.0 0.026735652 0.0024329748 0.0 0.0
0.01690298 0.0 0.0 0.092057884 0.0 0.005043154 0.22260804 0.14746891
0.0 0.0 0.0 0.0 0.0 0.0 0.0 0.1696942
0.08392306 0.0 0.0 0.0 0.14792033 0.2774085 0.0 0.0
0.013206879 0.0 0.0 0.0 0.0013775427 0.0046076938 0.286267 0.07071268
0.0 0.0 0.0 0.0 0.0 0.0 0.0 0.19259702
0.024115063 0.0 0.0 0.0 0.11888318 0.17925015 0.0 0.0
0.011657306 0.0 0.0 0.0 0.0 0.018284885 0.053658508 0.009837173
0.0 0.00039326638 0.0 0.0 0.0 0.0 0.0 0.0311459
0.0 0.0 0.0 0.0 0.025933469 0.046193235 0.0 0.0
0.021059105 0.0 0.0 0.09290255 0.0 0.017416826 0.28099635 0.08255732
0.0 0.00044891227 0.0 0.0 0.0 0.0 0.0 0.23970853
0.031529825 0.0 0.0 0.0 0.13776496 0.28007114 0.0 0.0
0.042977285 0.0 0.0 0.0 0.0013825963 0.041204326 0.2575049 0.03734427
0.0 0.0 0.0 0.0 0.0 0.0 0.0 0.14252608
0.031861696 0.0 0.0 0.0 0.10535587 0.17989881 0.0 0.0
0.0074287835 0.0 0.0 0.0 0.0 0.004463906 0.066696316 0.006567013
0.0 0.0 0.0 0.0 0.0 0.0 0.0 0.03478014
0.0 0.0 0.0 0.0 0.027263159 0.00646444 0.0 0.0
0.047989834 0.0 0.0 0.022698756 0.0 0.040277597 0.32448226 0.098951325
0.0 0.0 0.0 0.0 0.0 0.0 0.0 0.18825994
0.110224865 0.0 0.0 0.0 0.21360706 0.19369473 0.0 0.0
0.028283011 0.0 0.0 0.009666707 0.0046682865 0.0027004376 0.26597354 0.053671263
0.0 0.0 0.0 0.0 0.0 0.0 0.0 0.10875489
0.073179446 0.0 0.0 0.0 0.17199697 0.19008915 0.0 0.0
0.00897002 0.0 0.0 0.0 0.0 0.013107402 0.026683087 0.006201987
0.0 0.00025626118 0.0 0.0 0.0 0.0 0.0 0.020978
0.0 0.0 0.0 0.0 0.022058917 0.039276972 0.0 0.0
0.04852432 0.0 0.0 0.09630479 0.0 0.012229609 0.29993728 0.14330249
0.0 0.0003176266 0.0 0.0 0.0 0.0 0.0 0.23447189
00000000: 83b9 1e3c 0000 0000 0000 0000 0000 0000
00000010: 0000 0000 fc82 d13b 0000 0000 fb89 af3b
00000020: 0000 0000 9710 6236 0000 0000 0000 0000
00000030: 0000 0000 0000 0000 0000 0000 2862 c13c
00000040: 0000 0000 0000 0000 0000 0000 0000 0000
00000050: ba04 db3c 8b72 1f3b 0000 0000 0000 0000
00000060: 1e78 8a3c 0000 0000 0000 0000 d888 bc3d
00000070: 0000 0000 0b41 a53b 5df3 633e 1702 173e
00000080: 0000 0000 0000 0000 0000 0000 0000 0000
00000090: 0000 0000 0000 0000 0000 0000 51c4 2d3e
000000a0: dadf ab3d 0000 0000 0000 0000 0000 0000
000000b0: 6d78 173e 7d08 8e3e 0000 0000 0000 0000
000000c0: aa61 583c 0000 0000 0000 0000 0000 0000
000000d0: aa8e b43a 23fc 963b 9791 923e cfd1 903d
000000e0: 0000 0000 0000 0000 0000 0000 0000 0000
000000f0: 0000 0000 0000 0000 0000 0000 2738 453e
00000100: f48c c53c 0000 0000 0000 0000 0000 0000
00000110: 0679 f33d 5a8d 373e 0000 0000 0000 0000
00000120: 49fe 3e3c 0000 0000 0000 0000 0000 0000
00000130: 0000 0000 2fca 953c 06c9 5b3d 182c 213c
00000140: 0000 0000 522f ce39 0000 0000 0000 0000
00000150: 0000 0000 0000 0000 0000 0000 b025 ff3c
00000160: 0000 0000 0000 0000 0000 0000 0000 0000
00000170: 6d72 d43c 1e35 3d3d 0000 0000 0000 0000
00000180: 2584 ac3c 0000 0000 0000 0000 b143 be3d
00000190: 0000 0000 bbad 8e3c c1de 8f3e d013 a93d
000001a0: 0000 0000 fc5b eb39 0000 0000 0000 0000
000001b0: 0000 0000 0000 0000 0000 0000 2776 753e
000001c0: 6b25 013d 0000 0000 0000 0000 0000 0000
000001d0: 4212 0d3e 7c65 8f3e 0000 0000 0000 0000
000001e0: f308 303d 0000 0000 0000 0000 0000 0000
000001f0: 3c38 b53a dec5 283d afd7 833e 4ef6 183d
00000200: 0000 0000 0000 0000 0000 0000 0000 0000
00000210: 0000 0000 0000 0000 0000 0000 5bf2 113e
00000220: 6981 023d 0000 0000 0000 0000 0000 0000
00000230: d2c4 d73d 6537 383e 0000 0000 0000 0000
00000240: 276d f33b 0000 0000 0000 0000 0000 0000
00000250: 0000 0000 f545 923b 1498 883d 1930 d73b
00000260: 0000 0000 0000 0000 0000 0000 0000 0000
00000270: 0000 0000 0000 0000 0000 0000 9f75 0e3d
00000280: 0000 0000 0000 0000 0000 0000 0000 0000
00000290: fd56 df3c a7d3 d33b 0000 0000 0000 0000
000002a0: fd90 443d 0000 0000 0000 0000 bef2 b93c
000002b0: 0000 0000 1ffa 243d 8a22 a63e fea6 ca3d
000002c0: 0000 0000 0000 0000 0000 0000 0000 0000
000002d0: 0000 0000 0000 0000 0000 0000 37c7 403e
000002e0: 93bd e13d 0000 0000 0000 0000 0000 0000
000002f0: cfbb 5a3e e957 463e 0000 0000 0000 0000
00000300: c6b1 e73c 0000 0000 0000 0000 1c61 1e3c
00000310: 6df8 983b d3f9 303b af2d 883e 66d6 5b3d
00000320: 0000 0000 0000 0000 0000 0000 0000 0000
00000330: 0000 0000 0000 0000 0000 0000 e2ba de3d
00000340: 1bdf 953d 0000 0000 0000 0000 0000 0000
00000350: f91f 303e bba6 423e 0000 0000 0000 0000
00000360: fef6 123c 0000 0000 0000 0000 0000 0000
00000370: 0000 0000 6ec0 563c 7d96 da3c 0a3a cb3b
00000380: 0000 0000 cb5a 8639 0000 0000 0000 0000
00000390: 0000 0000 0000 0000 0000 0000 0eda ab3c
000003a0: 0000 0000 0000 0000 0000 0000 0000 0000
000003b0: e7b4 b43c e4e0 203d 0000 0000 0000 0000
000003c0: 70c1 463d 0000 0000 0000 0000 723b c53d
000003d0: 0000 0000 b35e 483c 6191 993e e3bd 123e
000003e0: 0000 0000 1f87 a639 0000 0000 0000 0000
000003f0: 0000 0000 0000 0000 0000 0000 6619 703e

mlp2.bias f4 [24]
0.15083352 0.17154929 0.18388842 0.17698771 0.124672845 0.20888022 0.1823799 0.19297975
0.08502216 0.16824447 0.14822815 0.13111378 0.14847906 0.21260197 0.17813566 0.12764412
0.1800998 0.19228035 0.14228906 0.13114867 0.1394721 0.12984823 0.17801574 0.21291246
00000000: 1a74 1a3e 9eaa 2f3e 3f4d 3c3e 443c 353e
00000010: 7a54 ff3d b2e4 553e ccc1 3a3e 7c9c 453e
00000020: 1920 ae3d 4748 2c3e 1fc9 173e b142 063e
00000030: e50a 183e 55b4 593e 3269 363e 24b5 023e
00000040: 156c 383e 24e5 443e 39b4 113e d64b 063e
00000050: c6d1 0e3e eff6 043e c249 363e b905 5a3e

bn2.weight f4 [72]
0.36232537 0.38132882 0.3855774 0.36390212 0.4027919 0.3703966 0.4016803 0.35334322
0.37808228 0.39508918 0.37176147 0.38558307 0.38524678 0.38721275 0.37167072 0.3662439
0.3720667 0.38710937 0.36838377 0.38407648 0.37170509 0.36104468 0.3667353 0.3844423
0.365288 0.3515241 0.37766513 0.37363577 0.39676034 0.3716365 0.5 0.4727494
0.37387183 0.39369476 0.33695078 0.3867377 0.34935415 0.35205135 0.32670176 0.5
0.37700105 0.3768661 0.3305322 0.38457173 0.5 0.49115273 0.36760047 0.35139284
0.34890413 0.3611356 0.3659029 0.3726623 0.34952384 0.37621287 0.5 0.3695544
0.36748585 0.34889817 0.35480604 0.3456551 0.36542064 0.356919 0.35600117 0.5
0.37560123 0.34986237 0.33827764 0.37273505 0.5 0.4883859 0.36409009 0.35686094
00000000: b682 b93e 883d c33e 676a c53e 6151 ba3e
00000010: bd3a ce3e a0a4 bd3e 0aa9 cd3e 67e9 b43e
00000020: 0094 c13e 2149 ca3e 8557 be3e 256b c53e
00000030: 113f c53e c040 c63e a04b be3e 5284 bb3e
00000040: 877f be3e 3333 c63e cc9c bc3e aca5 c43e
00000050: 2150 be3e d9da b83e bbc4 bb3e 9fd5 c43e
00000060: 0707 bb3e f8fa b33e 535d c13e 304d bf3e
00000070: 2c24 cb3e 2447 be3e 0000 003f 360c f23e
00000080: 216c bf3e 5c92 c93e d084 ac3e 7c02 c63e
00000090: 8cde b23e 1340 b43e 7445 a73e 0000 003f
000000a0: 4806 c13e 98f4 c03e 843b a93e 96e6 c43e
000000b0: 0000 003f 5f78 fb3e 2136 bc3e c3e9 b33e
000000c0: 90a3 b23e c4e6 b83e a057 bb3e 98cd be3e
000000d0: caf4 b23e f99e c03e 0000 003f 3c36 bd3e
000000e0: 1b27 bc3e c8a2 b23e 23a9 b53e b5f9 b03e
000000f0: 6a18 bb3e 16be b63e c945 b63e 0000 003f
00000100: ce4e c03e 2921 b33e ba32 ad3e 21d7 be3e
00000110: 0000 003f b70d fa3e 046a ba3e 7ab6 b63e

bn2.bias f4 [72]
0.15414573 0.12005587 0.10930734 0.16095047 0.10521521 0.19024284 0.2096565 0.15539317
0.1067098 0.112610795 0.11049973 0.107503034 0.102919444 0.11008205 0.11121784 0.17106786
0.14613903 0.11037901 0.113997854 0.12275859 0.17148498 0.19772823 0.11532293 0.10812077
0.18875389 0.14562093 0.14607064 0.20607427 0.10833421 0.18616667 0.21073227 0.2115572
0.13971987 0.105929665 0.19308762 0.12976512 0.16796175 0.15553986 0.13676406 0.21161498
0.2107272 0.123226814 0.19463272 0.120623834 0.22226627 0.21132773 0.119430795 0.18716535
0.1741828 0.1324866 0.13658665 0.20469104 0.13520636 0.18142994 0.21194477 0.2013359
0.11591227 0.11490307 0.18051693 0.11960353 0.15625894 0.1282458 0.13161072 0.2166726
0.20958844 0.118133955 0.18515646 0.13278379 0.21523197 0.21896002 0.11704015 0.15545186
00000000: 61d8 1d3e dadf f53d 87dc df3d 33d0 243e
00000010: 127b d73d 05cf 423e 32b0 563e 631f 1f3e
00000020: ab8a da3d 7da0 e63d af4d e23d 8d2a dc3d
00000030: 6ec7 d23d b372 e13d 2ec6 e33d 6a2c 2f3e
00000040: 78a5 153e 640e e23d b577 e93d db68 fb3d
00000050: c299 2f3e 4579 4a3e 6e2e ec3d 6c6e dd3d
00000060: b348 413e a71d 153e 8b93 153e 2205 533e
00000070: 54de dd3d 7aa2 3e3e 33ca 573e 73a2 583e
00000080: ba12 0f3e a7f1 d83d c3b8 453e 26e1 043e
00000090: 2afe 2b3e d745 1f3e e10b 0c3e 99b1 583e
000000a0: dfc8 573e 575e fc3d cd4d 473e a109 f73d
000000b0: c599 633e 4c66 583e 2298 f43d 46a8 3f3e
000000c0: fa5c 323e 91aa 073e 5fdd 0b3e 879a 513e
000000d0: 8973 0a3e c5c8 393e 0d08 593e 002b 4e3e
000000e0: 6a63 ed3d 4d52 eb3d 6ed9 383e b2f2 f43d
000000f0: 5802 203e de52 033e f6c4 063e 6cdf 5d3e
00000100: 5a9e 563e 37f0 f13d a899 3d3e 79f8 073e
00000110: c565 5c3e 0e37 603e bfb2 ef3d c62e 1f3e

bn2.running_mean f4 [72]
0.062145423 0.23752157 0.0021267142 0.6543682 -0.26241422 -0.24207906 0.74795294 0.45925498
0.22762352 -0.16773787 0.67908317 -0.02490764 0.4403333 0.2572891 0.33939576 0.64130425
0.6647498 -0.20139767 0.71504974 -0.13806765 0.5891751 0.61778253 0.037117034 0.55782413
-0.002716712 0.08895841 -0.059579235 0.35375386 -0.26616105 -0.24207906 0.41655403 0.22963756
0.118128784 -0.19879442 0.4178697 -0.057934187 0.30952746 0.11877039 0.19291706 0.3157036
0.35793653 -0.21623184 0.35118738 -0.14035642 0.3022658 0.3132823 -0.009206671 0.23345561
-0.068285845 0.03386826 -0.17117792 0.35374254 -0.50493765 -0.24292901 0.41655383 0.21957105
0.091398776 -0.48536655 0.4178697 -0.12206493 0.30909222 0.08523416 0.18715289 0.31344548
0.3579287 -0.40952367 0.34824708 -0.18809657 0.3002521 0.3120062 -0.05851281 0.2061005
00000000: 338c 7e3d db38 733e 5860 0b3b ad84 273f
00000010: 285b 86be 93e3 77be d879 3f3f 7823 eb3e
00000020: 2416 693e 7ac3 2bbe 65d8 2d3f 1b0b ccbc
00000030: 5e73 e13e 66bb 833e 48c5 ad3e 842c 243f
00000040: 0b2d 2a3f 313b 4ebe 800d 373f 9b61 0dbe
00000050: 2ed4 163f ff26 1e3f 0808 183d 90cd 0e3f
00000060: dd0a 32bb d42f b63d 5b09 74bd 3a1f b53e
00000070: 4346 88be 93e3 77be 9246 d53e 1c26 6b3e
00000080: 81ed f13d c490 4bbe 04f3 d53e 664c 6dbd
00000090: 627a 9e3e e43d f33d 0d8c 453e e7a3 a13e
000000a0: 7543 b73e e16b 5dbe d5ce b33e 98b9 0fbe
000000b0: 95c2 9a3e 8a66 a03e 94d7 16bc fd0e 6f3e
000000c0: 73d9 8bbd 72b9 0a3d 4449 2fbe be1d b53e
000000d0: 9843 01bf 62c2 78be 8b46 d53e 3cd7 603e
000000e0: 482f bb3d f781 f8be 04f3 d53e 2efd f9bd
000000f0: 5641 9e3e 3f8f ae3d 02a5 3f3e ed7b a03e
00000100: 6e42 b73e 16ad d1be 714d b23e 639c 40be
00000110: a5ba 993e 47bf 9f3e 21ab 6fbd 020c 533e

bn2.running_var f4 [72]
0.247716 0.3595326 0.2608656 0.2513118 0.104655035 0.019916905 0.18393543 0.34949717
0.26856926 0.20279814 0.13504468 0.19086291 0.14620973 0.31691083 0.26164803 0.35941958
0.25109994 0.14606313 0.3564222 0.10640224 0.3296861 0.3271394 0.20895743 0.5056047
0.15810299 0.15848896 0.1617915 0.04990312 0.0978756 0.019916905 0.021607954 0.11642738
0.1352482 0.14483003 0.018680545 0.14174691 0.05629845 0.14412212 0.116912484 0.08339674
0.048053365 0.11886157 0.067435965 0.10301642 0.08599278 0.07713943 0.14611328 0.12707122
0.24840064 0.25108343 0.31492493 0.04992355 0.31579506 0.020409128 0.021608306 0.13384634
0.17870253 0.48617908 0.018680582 0.22253221 0.05717016 0.20037198 0.12614913 0.08772158
0.04806758 0.3185829 0.07364906 0.14895742 0.089756116 0.07958516 0.21108375 0.18169007
00000000: 43a9 7d3e a814 b83e 2d90 853e f1ab 803e
00000010: 6155 d63d c728 a33c 9259 3c3e 4bf1 b23e
00000020: e981 893e 51aa 4f3e 2749 0a3e 9171 433e
00000030: 01b8 153e 2342 a23e bbf6 853e d805 b83e
00000040: 2c90 803e 9391 153e f87c b63e 6be9 d93d
00000050: 9ecc a83e d17e a73e f0f8 553e 4f6f 013f
00000060: c0e5 213e ee4a 223e acac 253e 3767 4c3d
00000070: 0173 c83d c728 a33c 2a03 b13c 7a71 ee3d
00000080: 817e 0a3e 534e 143e f107 993c 1a26 113e
00000090: 3499 663d c094 133e d06f ef3d e9cb aa3d
000000a0: 9bd3 443d b26d f33d de1b 8a3d 46fa d23d
000000b0: fc1c b03d 47fb 9d3d b89e 153e f51e 023e
000000c0: bd5c 7e3e 028e 803e d73d a13e a37c 4c3d
000000d0: e4af a13e 0b31 a73c e703 b13c 040f 093e
000000e0: ccfd 363e 77ec f83e 0508 993c 7cdf 633e
000000f0: 422b 6a3d 502e 4d3e 3d2d 013e 5fa7 b33d
00000100: 83e2 443d 4c1d a33e 52d5 963d 4b88 183e
00000110: 0ed2 b73d 8bfd a23d 5726 583e f60c 3a3e

mlp3.weight f4 [24, 72]
0.00042095123 0.0059337453 0.0004159114 0.0070025064 0.0010119086 0.00819758 0.0068529346 0.0065007373
0.004032235 0.007925206 0.0017170903 0.0075530354 0.000573355 0.0039992156 0.009788659 0.005017169
0.004937341 0.009062438 0.0022074776 0.0067577744 0.0016301596 0.0028674142 0.039164666 0.002460025
0.18434466 0.21191604 0.19170487 0.20760341 0.15582316 0.16084714 0.16670442 0.23395438
0.22684193 0.21615115 0.086574405 0.25103027 0.13829897 0.17225447 0.18560769 0.25281703
0.23202424 0.16551633 0.1342516 0.13627388 0.22629121 0.15734538 0.23653816 0.20357515
0.0 0.0 0.0 0.0 0.0 0.0 0.0 0.0
0.0 0.0 0.0 0.0 0.0 0.0 0.0 0.0
0.0 0.0 0.0 0.0 0.0 0.0 0.0 0.0
0.0779893 0.049201097 0.070834406 0.10300695 0.044187374 0.109122686 0.055535216 0.047548257
0.041481603 0.054370824 0.020689316 0.05022334 0.09266308 0.04406083 0.047496162 0.04277154
0.049144227 0.06438988 0.08726898 0.03440963 0.028607944 0.034907687 0.06313483 0.080852926
0.13378967 0.3013387 0.1871599 0.24948281 0.25130612 0.25454557 0.27806783 0.27170333
0.26521567 0.24256891 0.18413925 0.26777253 0.16793159 0.26595727 0.18739243 0.20647347
0.28046453 0.2201505 0.17903432 0.18786612 0.19915913 0.24603139 0.21499443 0.26782894
0.0 0.0 0.0 0.0 0.0 0.0 0.0 0.0
0.0 0.0 0.0 0.0 0.0 0.0 0.0 0.0
0.0 0.0 0.0 0.0 0.0 0.0 0.0 0.0
5.2642426e-05 2.1685764e-05 4.5296176e-05 0.00018254052 7.819627e-05 4.605564e-06 0.0 0.00024825364
0.00015774765 0.00048673694 0.00023735424 0.00071679 0.0 0.0 0.0 0.0
0.0 3.4745484e-05 0.00015210011 1.8366138e-05 8.914579e-05 8.7591625e-06 0.0006643293 3.0597217e-05
0.20308214 0.15900637 0.13962337 0.23229705 0.20740429 0.22155142 0.21332712 0.15637521
0.18494654 0.21453263 0.09124242 0.21485516 0.14245689 0.16538635 0.24107486 0.16572765
0.13359825 0.17637828 0.18818812 0.21525241 0.2099944 0.20567533 0.20862095 0.16655059
0.0 0.0 0.0 0.0 0.0 0.0 0.0 0.0
0.0 0.0 0.0 0.0 0.0 0.0 0.0 0.0
0.0 0.0 0.0 0.0 0.0 0.0 0.0 0.0
0.053806227 0.111226566 0.11290082 0.13306668 0.09770376 0.11496027 0.121530585 0.113007635
0.1647063 0.1740314 0.05876759 0.19114815 0.10219951 0.11126657 0.17947073 0.18057004
0.16066156 0.16380738 0.074103825 0.09677233 0.10184255 0.12386759 0.18483955 0.076720364
0.25633138 0.32477534 0.25870347 0.2541407 0.27646038 0.23674493 0.23731652 0.28808928
0.2668567 0.34599635 0.1955289 0.22022241 0.25895873 0.24713889 0.32033575 0.283791
00000000: 1eb3 dc39 dd6f c23b af0e da39 4875 e53b
00000010: 05a2 843a 254f 063c 958e e03b 2304 d53b
00000020: d720 843b b9d8 013c fd0f e13a 747f f73b
00000030: 344d 163a da0b 833b 9d60 203c 1067 a43b
00000040: 6bc9 a13b 9f7a 143c 54ab 103b 5270 dd3b
00000050: 14ab d53a 3aeb 3b3b 216b 203d 5f38 213b
00000060: d9c4 3c3e 8500 593e 484e 443e fd95 543e
00000070: 1b90 1f3e 1db5 243e 90b4 2a3e bd91 6f3e
00000080: 4049 683e ba56 5d3e ec4d b13d 0a87 803e
00000090: 3f9e 0d3e 7a63 303e f10f 3e3e 3c71 813e
000000a0: c397 6d3e 1d7d 293e 4079 093e 618b 0b3e
000000b0: e2b8 673e 261f 213e 0f37 723e 0176 503e
000000c0: 0000 0000 0000 0000 0000 0000 0000 0000
000000d0: 0000 0000 0000 0000 0000 0000 0000 0000
000000e0: 0000 0000 0000 0000 0000 0000 0000 0000
000000f0: 0000 0000 0000 0000 0000 0000 0000 0000
00000100: 0000 0000 0000 0000 0000 0000 0000 0000
00000110: 0000 0000 0000 0000 0000 0000 0000 0000
00000120: dbb8 9f3d 1787 493d a111 913d 4ff5 d23d
00000130: d2fd 343d b77b df3d e578 633d f6c1 423d
00000140: 9de8 293d f1b3 5e3d a47c a93c fdb6 4d3d
00000150: 24c6 bd3d 2179 343d 568b 423d 3631 2f3d
00000160: 754b 493d d7de 833d 14ba b23d 1df1 0c3d
00000170: 355b ea3c 5dfb 0e3d d54c 813d 3896 a53d
00000180: 2900 093e 1149 9a3e d8a6 3f3e 6c78 7f3e
00000190: 32ab 803e cc53 823e e85e 8e3e b31c 8b3e
000001a0: 59ca 873e fc63 783e 008f 3c3e 7b19 893e
000001b0: 42f6 2b3e 8d2b 883e cde3 3f3e c86d 533e
000001c0: 0c99 8f3e 226f 613e c654 373e fa5f 403e
000001d0: 5ff0 4b3e a7ef 7b3e 8027 5c3e e020 893e
000001e0: 0000 0000 0000 0000 0000 0000 0000 0000
000001f0: 0000 0000 0000 0000 0000 0000 0000 0000
00000200: 0000 0000 0000 0000 0000 0000 0000 0000
00000210: 0000 0000 0000 0000 0000 0000 0000 0000
00000220: 0000 0000 0000 0000 0000 0000 0000 0000
00000230: 0000 0000 0000 0000 0000 0000 0000 0000
00000240: 60cc 5c38 d3e9 b537 66fc 3d38 5968 3f39
00000250: 4efd a338 7e89 9a36 0000 0000 0a28 8239
00000260: 1069 2539 ba30 ff39 4be2 7839 f6e6 3b3a
00000270: 0000 0000 0000 0000 0000 0000 0000 0000
00000280: 0000 0000 aebb 1138 107d 1f39 fb10 9a37
00000290: c8f3 ba38 51f4 1237 6226 2e3a 8355 0038
000002a0: c4f4 4f3e 91d2 223e 6ef9 0e3e 47df 6d3e
000002b0: ca61 543e 60de 623e 6d72 5a3e d320 203e
000002c0: a062 3d3e 71ae 5b3e 4edd ba3d fe02 5c3e
000002d0: 38e0 113e 0a5b 293e 54dc 763e 82b4 293e
000002e0: fbcd 083e 829c 343e 63b4 403e 216b 5c3e
000002f0: c608 573e 8e9c 523e bba0 553e 3d8c 2a3e
00000300: 0000 0000 0000 0000 0000 0000 0000 0000
00000310: 0000 0000 0000 0000 0000 0000 0000 0000
00000320: 0000 0000 0000 0000 0000 0000 0000 0000
00000330: 0000 0000 0000 0000 0000 0000 0000 0000
00000340: 0000 0000 0000 0000 0000 0000 0000 0000
00000350: 0000 0000 0000 0000 0000 0000 0000 0000
00000360: eb63 5c3d c1ca e33d 8c38 e73d a242 083e
00000370: e918 c83d 4a70 eb3d 07e5 f83d 8c70 e73d
00000380: c5a8 283e 4a35 323e 49b6 703d 57bc 433e
00000390: fa4d d13d badf e33d 2dc7 373e 5ae7 383e
000003a0: 7784 243e 1fbd 273e bfc3 973d 9230 c63d
000003b0: d492 d03d 4bae fd3d 9446 3d3e 911f 9d3d
000003c0: de3d 833e f448 a63e c874 843e bb1e 823e
000003d0: 378c 8d3e 436d 723e 1a03 733e 7080 933e
000003e0: 71a1 883e 6f26 b13e ba38 483e fc81 613e
000003f0: 3d96 843e fa11 7d3e 0c03 a43e 0e4d 913e

mlp3.bias f4 [24]
-0.09255391 -0.06266822 -0.09567349 0.033258036 -0.06215097 0.12664232 0.08011193 -0.12999637
-0.21130753 -0.108605 0.053125016 -0.029675053 0.03943853 -0.07318975 -0.11813018 -0.05306823
-0.18085723 0.01745916 -0.087790556 0.034312736 -0.102427565 0.1813016 0.033160105 -0.023180729
00000000: e88c bdbd 3258 80bd 76f0 c3bd 9439 083d
00000010: 0492 7ebd 86ae 013e b911 a43d c51d 05be
00000020: 0061 58be 4c6c debd 9e99 593d 1919 f3bc
00000030: 4c8a 213d 82e4 95bd 3cee f1bd 135e 59bd
00000040: a332 39be 8306 8f3c 89cb b3bd 838b 0c3d
00000050: 8bc5 d1bd 20a7 393e e4d2 073d 83e5 bdbc

bn3.weight f4 [72]
0.39618272 0.42217943 0.40068036 0.41025 0.39631456 0.43030617 0.42759323 0.4181151
0.40867144 0.42539153 0.40117198 0.43293366 0.40976393 0.41256762 0.41495484 0.42530438
0.42225406 0.44084704 0.41530377 0.40847954 0.40494257 0.4113739 0.4265811 0.4034536
0.4986593 0.49870557 0.4751228 0.5 0.5 0.49734727 0.49749774 0.5
0.5 0.5 0.5 0.5 0.495772 0.49521756 0.49790907 0.4980763
0.49408212 0.49836317 0.5 0.49863306 0.49968487 0.4990483 0.5 0.4976
0.36076835 0.35392356 0.35744256 0.35189927 0.35660028 0.37396055 0.3622091 0.36067954
0.3547056 0.35545763 0.36638176 0.3651884 0.3572261 0.358575 0.35597172 0.36543486
0.3640751 0.36190894 0.35236654 0.3629418 0.35908926 0.37663716 0.35507017 0.3552057
00000000: 76d8 ca3e e727 d83e fa25 cd3e 4a0c d23e
00000010: bee9 ca3e 1751 dc3e 80ed da3e 2f13 d63e
00000020: 623d d13e ebcc d93e 6a66 cd3e 7ba9 dd3e
00000030: 94cc d13e 103c d33e f674 d43e 7fc1 d93e
00000040: af31 d83e b4b6 e13e b2a2 d43e 3b24 d13e
00000050: a254 cf3e 9a9f d23e d768 da3e 7891 ce3e
00000060: 4650 ff3e 5656 ff3e 4c43 f33e 0000 003f
00000070: 0000 003f 4da4 fe3e 06b8 fe3e 0000 003f
00000080: 0000 003f 0000 003f 0000 003f 0000 003f
00000090: d4d5 fd3e 288d fd3e f0ed fe3e db03 ff3e
000000a0: 55f8 fc3e 7529 ff3e 0000 003f d54c ff3e
000000b0: b2d6 ff3e 4283 ff3e 0000 003f 6dc5 fe3e
000000c0: a1b6 b83e 7835 b53e b602 b73e 242c b43e
000000d0: 5094 b63e c277 bf3e 7973 b93e fdaa b83e
000000e0: f99b b53e 8bfe b53e 6496 bb3e f9f9 ba3e
000000f0: 57e6 b63e 2497 b73e ed41 b63e 471a bb3e
00000100: 0d68 ba3e 214c b93e 6369 b43e 82d3 b93e
00000110: 8cda b73e 96d6 c03e c2cb b53e 86dd b53e

bn3.bias f4 [72]
0.044782925 0.06596939 0.012654412 0.06231542 0.037232626 0.048620448 0.070794985 0.07965953
0.055690728 0.030248111 0.030515239 0.05060874 0.031596415 0.09751825 0.08387472 0.05789085
0.077549964 0.06160216 0.06728444 0.057779197 0.03998899 0.077388026 0.022852661 0.054992642
-0.047351934 -0.041533995 -0.06127427 -0.053879023 -0.0594064 -0.05271056 -0.041288182 -0.060826056
-0.04925595 -0.049307074 -0.035317652 -0.06581142 -0.035592187 -0.042046178 -0.046955153 -0.054045647
-0.035992537 -0.031278554 -0.0410627 -0.045101747 -0.043948956 -0.055196628 -0.051263444 -0.045172326
-0.109880365 -0.0942994 -0.105866626 -0.12494845 -0.1199503 -0.09811807 -0.11953457 -0.06058478
-0.10854873 -0.0957781 -0.07933218 -0.10304366 -0.10321042 -0.12052432 -0.103612855 -0.10484764
-0.08495625 -0.08840401 -0.071977906 -0.08626039 -0.09021579 -0.09498187 -0.07339967 -0.12547946
00000000: 4d6e 373d f61a 873d 7354 4f3c 743e 7f3d
00000010: 3d81 183d 3c26 473d f6fc 903d 8924 a33d
00000020: f61b 643d e3ca f73c 18fb f93c 1c4b 4f3d
00000030: 3e6b 013d a6b7 c73d 82c6 ab3d f51e 6d3d
00000040: 84d2 9e3d 8c52 7c3d 6dcc 893d e1a9 6c3d
00000050: 7fcb 233d 9d7d 9e3d 8135 bb3c f73f 613d
00000060: 1af4 41bd 8d1f 2abd bbfa 7abd 40b0 5cbd
00000070: 2054 73bd 07e7 57bd cc1d 29bd be24 79bd
00000080: 9bc0 49bd 37f6 49bd 3ea9 10bd 23c8 86bd
00000090: 1dc9 11bd 9d38 2cbd 0c54 40bd f85e 5dbd
000000a0: e96c 13bd f11d 00bd 5d31 28bd 9cbc 38bd
000000b0: d203 34bd dc15 62bd 9ef9 51bd 9e06 39bd
000000c0: f508 e1bd 0b20 c1bd 9ad0 d8bd f9e4 ffbd
000000d0: 81a8 f5bd 20f2 c8bd 8ace f4bd bf27 78bd
000000e0: cc4e debd 4f27 c4bd e978 a2bd 8e08 d3bd
000000f0: fc5f d3bd 74d5 f6bd fa32 d4bd 5cba d6bd
00000100: 8bfd adbd 290d b5bd 2769 93bd 4aa9 b0bd
00000110: 0ec3 b8bd db85 c2bd 9152 96bd b07d 00be

bn3.running_mean f4 [72]
0.69406587 0.7292544 0.7654078 0.74013835 0.6643771 0.8198369 0.74355525 0.7847872
0.58009076 0.7322745 0.7123276 0.6774619 0.6792203 0.80509627 0.74784255 0.6523616
0.7460008 0.7592135 0.6877632 0.6597963 0.69287205 0.6741727 0.7470188 0.81064487
0.26970208 0.2716117 0.27417913 0.2725173 0.26479858 0.27613726 0.27422297 0.27462536
0.2572677 0.27046534 0.26707777 0.26643893 0.2697089 0.2771274 0.27252042 0.26156822
0.27288443 0.27630362 0.2708833 0.26813006 0.269499 0.26648796 0.27388918 0.27512294
0.18094593 0.18368824 0.18420783 0.18345249 0.1796592 0.17996748 0.18552817 0.18313642
0.17835927 0.18207671 0.1729706 0.17815048 0.18498564 0.1857401 0.18422048 0.18123348
0.18345146 0.18555535 0.18122108 0.18173765 0.18017028 0.1804287 0.18133388 0.18472828
00000000: 4dae 313f 6bb0 3a3f c4f1 433f b579 3d3f
00000010: 9e14 2a3f d5e0 513f a359 3e3f d0e7 483f
00000020: d480 143f 5776 3b3f 1a5b 363f 256e 2d3f
00000030: 62e1 2d3f ca1a 4e3f 9c72 3f3f 2b01 273f
00000040: e9f9 3e3f d15b 423f 4011 303f 69e8 283f
00000050: 1060 313f 9596 2c3f a03c 3f3f 6c86 4f3f
00000060: 6416 8a3e b010 8b3e 3561 8c3e 6387 8b3e
00000070: ae93 873e dd61 8d3e f466 8c3e b29b 8c3e
00000080: 98b8 833e 6f7a 8a3e 6bbe 883e af6a 883e
00000090: 4917 8a3e a4e3 8d3e cc87 8b3e 45ec 853e
000000a0: 82b7 8b3e ab77 8d3e 37b1 8a3e 5848 893e
000000b0: c6fb 893e 1c71 883e 343b 8c3e eadc 8c3e
000000c0: e449 393e c518 3c3e faa0 3c3e f8da 3b3e
000000d0: 95f8 373e 6549 383e 19fb 3d3e 1d88 3b3e
000000e0: d0a3 363e 5172 3a3e 341f 313e 146d 363e
000000f0: e06c 3d3e a732 3e3e 4ba4 3c3e 4595 393e
00000100: b3da 3b3e 3902 3e3e 0592 393e 6f19 3a3e
00000110: 8f7e 383e 4dc2 383e 97af 393e 6929 3d3e

bn3.running_var f4 [72]
0.45602912 0.49078155 0.52227885 0.49846384 0.44129485 0.5770245 0.49607787 0.54385346
0.3768715 0.49808893 0.48673525 0.4504694 0.44067702 0.5569154 0.50904673 0.43954825
0.5028077 0.50556767 0.44624516 0.42506495 0.4562328 0.4476299 0.50123805 0.57341987
0.14091553 0.14000824 0.13945203 0.13973163 0.14153023 0.13998169 0.13939834 0.13925146
0.14271908 0.14020644 0.14236926 0.14139968 0.14041434 0.13911161 0.13981093 0.14236902
0.14035878 0.13877812 0.13997486 0.14086698 0.14063634 0.14098006 0.13954832 0.13957928
0.35922086 0.35669446 0.3641793 0.36013204 0.3478996 0.3850246 0.35880592 0.3690831
0.3276811 0.35759583 0.37692806 0.3583168 0.346078 0.36825946 0.35792658 0.3316296
0.36150834 0.3663695 0.36278346 0.35211006 0.36251763 0.35145983 0.37267756 0.36496297
00000000: a67c e93e b847 fb3e 11b4 053f a736 ff3e
00000010: 66f1 e13e e1b7 133f ebfd fd3e fb39 0b3f
00000020: 4df5 c03e 8305 ff3e 5d35 f93e eda3 e63e
00000030: 6ba0 e13e 0292 0e3f e350 023f 780c e13e
00000040: 01b8 003f e26c 013f 3f7a e43e 1da2 d93e
00000050: 5897 e93e bf2f e53e 2351 003f a5cb 123f
00000060: 294c 103e 525e 0f3e 83cc 0e3e cf15 0f3e
00000070: 4ded 103e 5c57 0f3e 70be 0e3e ef97 0e3e
00000080: f324 123e 4792 0f3e 3fc9 113e 14cb 103e
00000090: c7c8 0f3e 4673 0e3e 992a 0f3e 2fc9 113e
000000a0: 36ba 0f3e da1b 0e3e 9255 0f3e 6f3f 103e
000000b0: f902 103e 145d 103e c1e5 0e3e dfed 0e3e
000000c0: cceb b73e a8a0 b63e b675 ba3e 3a63 b83e
000000d0: e51f b23e f221 c53e 69b5 b73e 76f8 bc3e
000000e0: d1c5 a73e cd16 b73e b7fc c03e 4d75 b73e
000000f0: 2331 b13e 818c bc3e 2742 b73e 5bcb a93e
00000100: 9f17 b93e c894 bb3e c1be b93e c547 b43e
00000110: e99b b93e 8bf2 b33e 98cf be3e 6ddc ba3e

mlp4.weight f4 [1, 72]
0.0 0.0 0.0 0.0 0.0 0.0 0.0 0.0
0.0 0.0 0.0 0.0 0.0 0.0 0.0 0.0
0.0 0.0 0.0 0.0 0.0 0.0 0.0 0.0
0.019174729 0.11272062 0.020078521 0.14033607 0.07917157 0.0 0.21838698 0.052244317
0.102867775 0.100686304 0.17888665 0.04693417 0.07639938 0.13535026 0.04860033 0.03261264
0.029146956 0.027083647 0.08530703 0.20031996 0.028957447 0.0 0.05813918 0.09199548
0.21212257 0.21903032 0.21808827 0.24035369 0.18402016 0.0 0.26876628 0.23825552
0.17376451 0.20734918 0.23448347 0.07712475 0.0 0.25643712 0.24098483 0.08121392
0.22832428 0.0 0.20954421 0.2730694 0.06684055 0.0 0.0 0.13799417
00000000: 0000 0000 0000 0000 0000 0000 0000 0000
00000010: 0000 0000 0000 0000 0000 0000 0000 0000
00000020: 0000 0000 0000 0000 0000 0000 0000 0000
00000030: 0000 0000 0000 0000 0000 0000 0000 0000
00000040: 0000 0000 0000 0000 0000 0000 0000 0000
00000050: 0000 0000 0000 0000 0000 0000 0000 0000
00000060: 5214 9d3c 12da e63d b67b a43c 42b4 0f3e
00000070: b424 a23d 0000 0000 d6a0 5f3e 23fe 553d
00000080: 57ac d23d 9f34 ce3d 102e 373e 0b3e 403d
00000090: 4777 9c3d 4299 0a3e 2411 473d d594 053d
000000a0: 99c5 ee3c 86de dd3c 74b5 ae3d ad20 4d3e
000000b0: 2b38 ed3c 0000 0000 5923 6e3d 2068 bc3d
000000c0: a936 593e 7c49 603e 8852 5f3e 471f 763e
000000d0: c86f 3c3e 0000 0000 bc9b 893e 41f9 733e
000000e0: 53ef 313e 5853 543e 6f1c 703e 95f3 9d3d
000000f0: 0000 0000 ba4b 833e bac4 763e 7c53 a63d
00000100: d7cd 693e 0000 0000 c292 563e c1cf 8b3e
00000110: b3e3 883d 0000 0000 0000 0000 584e 0d3e
