utility-model-selected/dim-3/utility-44.pt (torch, 23458 bytes, 17 tensors)

bn1.running_mean f4 [3]
0	0x3f0082e2	0.5019971
1	0x3f0004df	0.5000743
2	0x3eff6e3b	0.49888787

bn1.running_var f4 [3]
0	0x3d67521e	0.056474797
1	0x3d5c1428	0.05373016
2	0x3d58adcf	0.05290013

mlp1.weight f4 [24, 3]
0	0x3e328c5b	0.17436354
1	0x3f000000	0.5
2	0x3eba977a	0.36443692
3	0x3ebbe135	0.36695257
4	0x3ef66485	0.48123565
5	0x3d36d3c5	0.044635553
6	0x3ee5b86c	0.44867265
7	0x3eaf98c4	0.34296238
8	0x00000000	0.0
9	0x3eef0b46	0.46688288
10	0x3e93b76a	0.2885087
11	0x3d1be779	0.038062546
12	0x00000000	0.0
13	0x3eb4798c	0.35248983
14	0x3e9e2b87	0.30892584
15	0x3e0e9d05	0.13927086
16	0x3f000000	0.5
17	0x3e61fdf8	0.22069538
18	0x3c931e72	0.017958853
19	0x3efbe963	0.49201497
20	0x3ebcd3b2	0.3688026
21	0x3e4012ac	0.18757123
22	0x3ef19235	0.4718186
23	0x00000000	0.0
24	0x00000000	0.0
25	0x3edcfe33	0.4316269
26	0x00000000	0.0
27	0x3eabfd00	0.3359146
28	0x3e2c4623	0.1682363
29	0x3ef451cc	0.47718656
30	0x3e67c83f	0.22634982
31	0x3e3dc291	0.18531252
32	0x3f000000	0.5
33	0x3decd34b	0.115637384
34	0x3e8e304d	0.27771226
35	0x3ea215fd	0.316574
36	0x00000000	0.0
37	0x3e803962	0.2504378
38	0x3e6e69e4	0.23282582
39	0x3e4c028c	0.19922847
40	0x3e706863	0.2347732
41	0x3ee5bb71	0.4486957
42	0x3c0f5c7c	0.008750077
43	0x3f000000	0.5
44	0x3e1d6588	0.15370762
45	0x00000000	0.0
46	0x3f000000	0.5
47	0x3de11cfe	0.10991858
48	0x3b55303a	0.0032529966
49	0x3eff7dc4	0.4990064
50	0x3e880d6a	0.26572734
51	0x3cb97a0b	0.022641202
52	0x3edb166e	0.4279055
53	0x38fad008	0.00011959678
54	0x3e08f29a	0.13373795
55	0x3ea743f9	0.32669047
56	0x00000000	0.0
57	0x3c00d3cc	0.007862996
58	0x3ee8286b	0.45343336
59	0x3e560332	0.20899656
60	0x3e310060	0.172853
61	0x3f000000	0.5
62	0x3da90957	0.082537346
63	0x3ecfeadc	0.4060887
64	0x3efcf00b	0.49401888
65	0x3d000926	0.031258725
66	0x3deba3a7	0.115058236
67	0x3f000000	0.5
68	0x3ecd1f51	0.40062955
69	0x3e9d1088	0.30676675
70	0x3d6971bc	0.05699323
71	0x3ed72de2	0.42027193

mlp1.bias f4 [24]
0	0x3f0c9ba1	0.5492497
1	0x3e0d4b11	0.13798167
2	0xbe41e09f	-0.18933342
3	0x3e093a77	0.13401209
4	0xbd84ad45	-0.06478361
5	0x3edfb200	0.4369049
6	0x3ef996e7	0.48747942
7	0x3e9baf76	0.30407304
8	0x3df8e159	0.12152357
9	0xbcd17e6e	-0.025572982
10	0x3f29242c	0.6607082
11	0xbf0f35b6	-0.5594133
12	0x3e97e113	0.29663906
13	0x3e8d8d9b	0.276471
14	0x3ee6cba4	0.4507724
15	0x3ea327ce	0.31866306
16	0xbe63ad5c	-0.222341
17	0x3e3f8ec8	0.1870681
18	0x3e7af4fb	0.24507515
19	0x3daf52b7	0.085606985
20	0x3ed708ed	0.41998997
21	0xbe4b49c5	-0.1985236
22	0x3ec94873	0.39313087
23	0x3f2ebe1c	0.68258834

mlp2.weight f4 [24, 72]
0	0x00000000	0.0
1	0x3b9f36cf	0.0048588286
2	0x3c2393c8	0.009983964
3	0x3aab1ec6	0.0013055436
4	0x3bb054d1	0.0053812047
5	0x3ab044f7	0.0013448288
6	0x3b389331	0.0028163905
7	0x3c0a5b2c	0.008444589
8	0x3d9ebae5	0.07750491
9	0x00000000	0.0
10	0x00000000	0.0
11	0x3b9c73b2	0.004774534
12	0x3b224608	0.002476098
13	0x00000000	0.0
14	0x3c87c50f	0.016573457
15	0x3cec2991	0.028828414
16	0x3af41047	0.0018620574
17	0x3cfc1f88	0.030776754
18	0x3c2de579	0.010613793
19	0x3c18697a	0.009302491
20	0x3c213ce5	0.009841179
21	0x3c6d81c2	0.014496269
22	0x00000000	0.0
23	0x00000000	0.0
24	0x3d6ceaaf	0.057841
25	0x3d60bb5f	0.05486619
26	0x3c7ebd59	0.015548074
27	0x00000000	0.0
28	0x3bb8652f	0.0056272964
29	0x3e1eca2b	0.15506808
30	0x3e3e6f9c	0.18597263
31	0x3e00d572	0.12581423
32	0x3e208f60	0.15679693
33	0x00000000	0.0
34	0x3c2ecd50	0.0106690675
35	0x3ba06b9e	0.0048956415
36	0x3bf812e0	0.0075706095
37	0x00000000	0.0
38	0x3e56b10b	0.20965974
39	0x3e4db523	0.2008863
40	0x3b8621d2	0.004093387
41	0x3d2636cd	0.040579606
42	0x3c660de2	0.014041396
43	0x3ce432db	0.027856281
44	0x3e4b258e	0.19838545
45	0x3d1fe733	0.039038848
46	0x378661b7	1.6019547e-05
47	0x3dcb6985	0.09932236
48	0x3dbc4dc6	0.091945216
49	0x3a8f3f5b	0.0010928916
50	0x39f9c876	0.00047642336
51	0x00000000	0.0
52	0x3b436d10	0.0029819645
53	0x3aef3320	0.0018249489
54	0x3db0884f	0.08619749
55	0x3e15ea5c	0.14640182
56	0x3dde1dbb	0.108455144
57	0x00000000	0.0
58	0x3ced60fa	0.028976906
59	0x00000000	0.0
60	0x3be3cb4f	0.0069517265
61	0x00000000	0.0
62	0x3e0be418	0.1366123
63	0x3e060a61	0.13089897
64	0x3bdadd00	0.0066791773
65	0x3d087f99	0.03332481
66	0x3d4411fb	0.04786871
67	0x3c0c2578	0.008553855
68	0x3d0471c6	0.032335065
69	0x3c3357a5	0.010946189
70	0x3ca6687a	0.02031349
71	0x3e1e12d9	0.15436877
72	0x3a80e131	0.0009832737
73	0x3bafbd09	0.005363111
74	0x3c861fb4	0.01637254
75	0x3b6a1493	0.003571783
76	0x3b0e6115	0.0021725346
77	0x3b510e0a	0.0031899237
78	0x3ae23711	0.0017258843
79	0x3c4a326f	0.012341126
80	0x3dad4561	0.084604986
81	0x00000000	0.0
82	0x00000000	0.0
83	0x3bcb9a30	0.006213449
84	0x3ad55a57	0.0016277534
85	0x00000000	0.0
86	0x3c036c0b	0.008021365
87	0x3d7277e5	0.05919637
88	0x3bc74b58	0.0060819797
89	0x3cb95dd3	0.022627747
90	0x3c55f9ea	0.013060072
91	0x3aba0ed6	0.0014195095
92	0x3c534a20	0.012896091
93	0x3c35bce3	0.011092397
94	0x3a575078	0.000821359
95	0x00000000	0.0
96	0x3e06d7fe	0.13168332
97	0x3d8ff3f6	0.07028954
98	0x3d13f404	0.036121383
99	0x3890c4b8	6.903097e-05
100	0x3b162e18	0.0022915658
101	0x3dbacbe3	0.091209196
102	0x3e1423fd	0.14466853
103	0x3de0a926	0.109697625
104	0x3dc27f62	0.094969526
105	0x00000000	0.0
106	0x3c4a9eda	0.012366975
107	0x3bd74677	0.0065696794
108	0x3be46a36	0.006970669
109	0x00000000	0.0
110	0x3e194687	0.1496831
111	0x3e219ec1	0.15783216
112	0x3c069434	0.008214045
113	0x3cfa1d25	0.030531475
114	0x3cda5436	0.026651483
115	0x3b0b1610	0.0021222867
116	0x3dbfef0e	0.09371768
117	0x3d43c876	0.047798596
118	0x3ac1e0d1	0.0014791732
119	0x3d987864	0.07444838
120	0x3dc6bc82	0.09703924
121	0x3d487b96	0.048945986
122	0x3c046d7f	0.0080827465
123	0x00000000	0.0
124	0x3b1893ff	0.0023281572
125	0x3d1de0e0	0.038544536
126	0x3dd07cc3	0.101800464
127	0x3dd0a6e9	0.101880856
128	0x3e30a84b	0.17251699
129	0x00000000	0.0
130	0x3c94f476	0.018182974
131	0x399dc351	0.00030090896
132	0x3be2c1f5	0.006920094
133	0x00000000	0.0
134	0x3e2cdde6	0.16881523
135	0x3e2c436c	0.16822594
136	0x3c403e2d	0.011733574
137	0x3e1be443	0.15223794
138	0x3c6bed22	0.014399799
139	0x3b822cf2	0.003972643
140	0x3d264df7	0.040601697
141	0x3c431908	0.011907823
142	0x3cf697f3	0.030101752
143	0x3e1c4f61	0.15264656
144	0x00000000	0.0
145	0x3b501c0b	0.0031754996
146	0x3c8d62d1	0.017259033
147	0x3afe39e0	0.001939591
148	0x3b294892	0.0025830609
149	0x3b8483f6	0.0040440513
150	0x3adc4550	0.0016805325
151	0x3d9f984f	0.077927224
152	0x3d3d93ef	0.04628366
153	0x00000000	0.0
154	0x00000000	0.0
155	0x3bb7e9a1	0.0056125675
156	0x3a8c6fab	0.0010714432
157	0x00000000	0.0
158	0x3cc6bb05	0.0242591
159	0x3da655ef	0.08121859
160	0x3b905e71	0.0044057895
161	0x3d25dcb7	0.040493693
162	0x3c2a012b	0.010376255
163	0x3c6ffdda	0.014647925
164	0x3c662a25	0.014048134
165	0x3c58e3dd	0.013237921
166	0x00000000	0.0
167	0x00000000	0.0
168	0x3e235932	0.15951994
169	0x3d96195c	0.07329056
170	0x3cb25d0f	0.02177289
171	0x00000000	0.0
172	0x3b2819f8	0.0025650244
173	0x3dce254a	0.10065706
174	0x3dff819e	0.124758944
175	0x3dd68125	0.10473851
176	0x3df4b90c	0.119493574
177	0x00000000	0.0
178	0x3b9a8159	0.0047151265
179	0x3bb9b5b9	0.005667415
180	0x3b9d460a	0.004799609
181	0x00000000	0.0
182	0x3e788304	0.24268728
183	0x3e192913	0.14957075
184	0x3c0cb6e7	0.008588529
185	0x3ddacb34	0.10683289
186	0x3c4c15b1	0.0124563435
187	0x3cb570c8	0.022148505
188	0x3dd26e1c	0.10274908
189	0x3cf69496	0.030100148
190	0x3b4060ed	0.0029354647
191	0x3df6cef9	0.12051196
192	0x3d5aa030	0.053375423
193	0x3bd4fd7f	0.0064999457
194	0x3b55befd	0.0032615059
195	0x00000000	0.0
196	0x3b0661d3	0.0020505085
197	0x3d7fc5de	0.06244456
198	0x3dd0a664	0.101879865
199	0x3e1d051f	0.15333985
200	0x3e058339	0.13038339
201	0x00000000	0.0
202	0x3c25597f	0.010092138
203	0x00000000	0.0
204	0x3b937599	0.0045001027
205	0x00000000	0.0
206	0x3e43a60d	0.19106312
207	0x3ddd0de6	0.107936665
208	0x3d132a49	0.035929
209	0x3dc3193f	0.095263
210	0x3c3fb253	0.011700231
211	0x3d24e70e	0.040259413
212	0x3d6277dd	0.05529009
213	0x3c0f53ca	0.008748004
214	0x3d028c7a	0.03187225
215	0x3e1be51f	0.15224122
216	0x3a382446	0.0007024448
217	0x3b785a23	0.0037895523
218	0x3c887626	0.0166579
219	0x3b16011f	0.0022888852
220	0x3b9cf883	0.004790367
221	0x3bc5f6bc	0.006041376
222	0x3bab2809	0.0052232784
223	0x3d505be5	0.050868887
224	0x3da08a7b	0.07838913
225	0x00000000	0.0
226	0x00000000	0.0
227	0x3bb1ebc5	0.0054297172
228	0x3aec1998	0.0018012999
229	0x00000000	0.0
230	0x3d4bd019	0.049759004
231	0x3d51521a	0.05110369
232	0x3bc6fef3	0.006072873
233	0x3cd348a7	0.02579148
234	0x3c2df45c	0.010617342
235	0x3c7fd52f	0.015614792
236	0x3c568d2a	0.01309518
237	0x3c8a4573	0.01687882
238	0x3a2c51e3	0.00065734814
239	0x00000000	0.0
240	0x3dbe6f2a	0.092985466
241	0x3c9668d0	0.018360525
242	0x3d827d9c	0.06371614
243	0x39e8ca04	0.00044401002
244	0x3ba734f0	0.005102746
245	0x3e189210	0.14899468
246	0x3de5edaa	0.112269714
247	0x3dc4ff5f	0.09619021
248	0x3e29e6ff	0.16592024
249	0x00000000	0.0
250	0x3c3662eb	0.011131982
251	0x3bb04f54	0.0053805504
252	0x3bc53154	0.0060178433
253	0x00000000	0.0
254	0x3e68642a	0.2269446
255	0x3e3f214c	0.18665045

mlp2.bias f4 [24]
0	0x3e23bd91	0.15990283
1	0x3e106c63	0.14103846
2	0x3e4cc616	0.19997439
3	0x3e54d0e8	0.20782816
4	0x3e09d1da	0.13458958
5	0x3e368b83	0.17826657
6	0x3d9ec4fa	0.07752414
7	0x3e5e5acd	0.21714325
8	0x3e23ed58	0.16008508
9	0x3de95f4b	0.11395129
10	0x3df03c7a	0.11730285
11	0x3e3bbd0d	0.18333836
12	0x3e4c1b52	0.19932297
13	0x3e5a44ef	0.21315359
14	0x3d7f3428	0.0623056
15	0x3e712216	0.23548159
16	0x3dda809a	0.1066906
17	0x3e3527a1	0.17690898
18	0x3e3e8028	0.18603575
19	0x3e416e8e	0.1888983
20	0x3e62b619	0.22139777
21	0x3e44ee43	0.19231515
22	0x3ba4c8d4	0.0050288234
23	0x3e08ae3f	0.1334772

bn2.weight f4 [72]
0	0x3ec3dcdf	0.3825445
1	0x3ec52ea5	0.3851215
2	0x3ed6aae9	0.4192727
3	0x3ecadad4	0.39620078
4	0x3ec6eec0	0.38854027
5	0x3ec0c388	0.37649179
6	0x3ec1d0a9	0.37854508
7	0x3ed743ed	0.4204401
8	0x3ef21af3	0.47286186
9	0x3eced0d3	0.40393695
10	0x3ece990b	0.40351138
11	0x3ece7be7	0.40328905
12	0x3ec53825	0.38519397
13	0x3ecb67d1	0.39727643
14	0x3ec8039b	0.3906525
15	0x3edd59ff	0.43232724
16	0x3ec727a6	0.38897437
17	0x3ebff501	0.3749161
18	0x3ebe6c01	0.37191775
19	0x3ec776f9	0.38957956
20	0x3ebc3bd9	0.3676441
21	0x3ed07d7a	0.4072073
22	0x3ec2dc17	0.3805854
23	0x3ecb3d89	0.39695385
24	0x3ef57385	0.47939697
25	0x3edaf015	0.42761293
26	0x3eda35dc	0.42619216
27	0x3ec7b0c6	0.39002055
28	0x3ec4df15	0.38451448
29	0x3eee604f	0.46557853
30	0x3efff04b	0.49988016
31	0x3ef48947	0.47760984
32	0x3f000000	0.5
33	0x3ece1b77	0.4025533
34	0x3ecd4933	0.4009491
35	0x3ed002c6	0.40627116
36	0x3ebf0ec0	0.3731594
37	0x3ec84830	0.39117575
38	0x3efffcc9	0.49997547
39	0x3f000000	0.5
40	0x3ec9be00	0.3940277
41	0x3eded69c	0.4352311
42	0x3ec901d8	0.3925922
43	0x3ed90650	0.4238763
44	0x3ef6b4e4	0.48184884
45	0x3ed99cb2	0.42502362
46	0x3ed0cc7f	0.40781018
47	0x3f000000	0.5
48	0x3ecfc47d	0.40579596
49	0x3ecf333e	0.40468782
50	0x3ecbc641	0.39799693
51	0x3eca10cf	0.3946595
52	0x3ec2c2f8	0.38039374
53	0x3ec1c02e	0.37841934
54	0x3ee9cb78	0.45663047
55	0x3ee10e64	0.43956292
56	0x3efe6f1a	0.4969414
57	0x3eca89fa	0.39558393
58	0x3ecbd44b	0.39810404
59	0x3ec6137f	0.3868675
60	0x3ebc8ab8	0.36824584
61	0x3ec57d63	0.38572225
62	0x3ef54424	0.4790355
63	0x3efb1701	0.49040988
64	0x3ed2971c	0.41130912
65	0x3edfa3c3	0.43679628
66	0x3ed5df4f	0.41771933
67	0x3ec5f9b5	0.38667074
68	0x3ecfe080	0.40600967
69	0x3eb6d426	0.3570873
70	0x3ec5ab98	0.38607478
71	0x3f000000	0.5

bn2.bias f4 [72]
0	0x3dfdded5	0.123960175
1	0x3e12cf54	0.14336902
2	0x3dfff979	0.12498755
3	0x3e0c7512	0.13716534
4	0x3def845e	0.11695169
5	0x3e0625a8	0.13100302
6	0x3e00ce59	0.12578715
7	0x3e252540	0.16127491
8	0x3e1f523e	0.15558717
9	0x3dd3d78a	0.10343845
10	0x3dcec272	0.10095681
11	0x3ddc3208	0.1075173
12	0x3ddb0767	0.10694771
13	0x3ddd7b99	0.1081459
14	0x3e1704cf	0.14747928
15	0x3e198466	0.14991912
16	0x3e05fcb0	0.13084674
17	0x3e1b327b	0.15155976
18	0x3e09d073	0.13458423
19	0x3e045d20	0.1292615
20	0x3e1a85e7	0.15090142
21	0x3e16c463	0.14723353
22	0x3df297e7	0.11845379
23	0x3dcdc6c4	0.10047677
24	0x3e2a6386	0.16639528
25	0x3e301f9c	0.17199558
26	0x3e1309b4	0.1435917
27	0x3e141422	0.14460805
28	0x3df3fc89	0.11913402
29	0x3e2c33f6	0.16816697
30	0x3e233536	0.15938267
31	0x3e2e17bf	0.17001246
32	0x3e2376f5	0.15963347
33	0x3ddf504e	0.10903989
34	0x3dfc807a	0.123291925
35	0x3dce0b15	0.100607075
36	0x3ddd9cf2	0.108209506
37	0x3dd1a9d5	0.10237471
38	0x3e2a08bf	0.16604899
39	0x3e278997	0.1636108
40	0x3e004d79	0.12529553
41	0x3e370242	0.17871955
42	0x3e2b7425	0.16743524
43	0x3e11ecda	0.14250508
44	0x3e2f4a05	0.1711808
45	0x3e2db3bb	0.16963093
46	0x3e1c01f7	0.15235125
47	0x3dfce772	0.12348832
48	0x3e2600f7	0.16211306
49	0x3e237f0d	0.15966435
50	0x3def9e90	0.11700165
51	0x3e02c18e	0.12769148
52	0x3e0348bc	0.12820715
53	0x3e3217fd	0.17391963
54	0x3e24f3ba	0.161086
55	0x3e2e43b3	0.17018013
56	0x3e28eac9	0.16495813
57	0x3de50d59	0.111841865
58	0x3df95c03	0.12175753
59	0x3dd0a93c	0.10188529
60	0x3dff56a9	0.12467701
61	0x3dce4a4a	0.10072763
62	0x3e28fe27	0.16503201
63	0x3e27f14e	0.16400644
64	0x3e26c66b	0.16286628
65	0x3e307c8b	0.1723501
66	0x3e2fd010	0.17169213
67	0x3e20e996	0.15714106
68	0x3e30eda5	0.17278154
69	0x3e2796e1	0.1636615
70	0x3e241121	0.16022159
71	0x3e13f391	0.14448382

bn2.running_mean f4 [72]
0	0x3f10b281	0.56522375
1	0x3e3c7a93	0.18406133
2	0xbd9e903d	-0.07742355
3	0x3e286b24	0.16447121
4	0xbc8e4124	-0.017365046
5	0x3ee3a083	0.44458398
6	0x3eff1380	0.49819565
7	0x3e9e75c1	0.30949214
8	0x3e0285a6	0.12746295
9	0x3d570c5c	0.05250202
10	0x3f283f0b	0.65721196
11	0xbeb1caaa	-0.34724933
12	0x3e9783f2	0.29592854
13	0x3e964292	0.29347664
14	0x3ee74af1	0.45174363
15	0x3ea5bb7e	0.32369608
16	0xbdcce8ca	-0.100053385
17	0x3e42c72e	0.19021294
18	0x3e7c0abf	0.24613474
19	0x3de615b3	0.112346075
20	0x3ed8ce7f	0.42345044
21	0xbd56cd76	-0.052442037
22	0x3ed80a8b	0.42195544
23	0x3f2efa65	0.6835082
24	0x3e89341f	0.26797578
25	0x3d9434d4	0.07236639
26	0xbdd69eb5	-0.1047949
27	0x3d985991	0.074389584
28	0xbd286843	-0.041115057
29	0x3e708766	0.2348915
30	0x3e7d0269	0.2470795
31	0x3e399a90	0.18125367
32	0x3daa459b	0.083140574
33	0xbc811cc4	-0.015760787
34	0x3eaa33ec	0.33242738
35	0xbeb224cd	-0.34793702
36	0x3e717b3f	0.23582171
37	0x3e27b6c9	0.16378321
38	0x3e80e413	0.25174007
39	0x3e3d8e2e	0.18511268
40	0xbdf959c1	-0.12175322
41	0x3e04ae6b	0.1295716
42	0x3e47b81b	0.19503824
43	0x3d6341cb	0.055482667
44	0x3e6e0e1b	0.23247568
45	0xbdc711b7	-0.09720176
46	0x3e49c243	0.19703011
47	0x3ebc301a	0.3675545
48	0x3e834941	0.25641826
49	0x3cd5116b	0.026009282
50	0xbe5c0d9f	-0.21489571
51	0x3d32dbfc	0.043666825
52	0xbdb51468	-0.08841783
53	0x3e69276f	0.22768949
54	0x3e712c44	0.23552042
55	0x3e32a082	0.17444041
56	0x3d9c1c99	0.07622642
57	0xbdc04840	-0.093887806
58	0x3ea8b590	0.3295102
59	0xbf0f80d1	-0.56055933
60	0x3e712b84	0.23551756
61	0x3e169b61	0.1470771
62	0x3e7ffdcb	0.24999158
63	0x3e38d7c6	0.18051061
64	0xbe78c329	-0.24293198
65	0x3e02267f	0.12709998
66	0x3e476205	0.19470985
67	0x3ce11ada	0.027478624
68	0x3e6a6400	0.2288971
69	0xbe7117d2	-0.23544243
70	0x3e30847f	0.17238043
71	0x3ebbcb0e	0.36678356

bn2.running_var f4 [72]
0	0x3ecbd651	0.39811948
1	0x3e98d13c	0.29847133
2	0x3e40892a	0.18802324
3	0x3e852540	0.26004982
4	0x3e26d909	0.1629373
5	0x3e9f42bf	0.3110561
6	0x3eb8710e	0.36023754
7	0x3e804314	0.25051177
8	0x3e340c26	0.1758276
9	0x3e81be55	0.25340524
10	0x3eac8526	0.33695334
11	0x3d5d366c	0.05400698
12	0x3df2a6b0	0.11848199
13	0x3e8a6680	0.27031326
14	0x3e8c0f8c	0.2735561
15	0x3e832ed4	0.25621665
16	0x3e3527bb	0.17690937
17	0x3e37b485	0.17939956
18	0x3e0136ab	0.1261851
19	0x3e58ae69	0.21160282
20	0x3e925f29	0.28588226
21	0x3e67f0f7	0.22650515
22	0x3ec3da8d	0.3825268
23	0x3e8b0e3e	0.27159303
24	0x3dd7c936	0.10536425
25	0x3e1da251	0.1539395
26	0x3e15567a	0.1458377
27	0x3e192a4f	0.14957546
28	0x3e056f2d	0.13030691
29	0x3ddfa668	0.10920411
30	0x3de5140a	0.11185463
31	0x3df97a6c	0.12181553
32	0x3e042a62	0.12906793
33	0x3e1b3b57	0.15159355
34	0x3d962d30	0.073328376
35	0x3d577285	0.05259945
36	0x3d92711b	0.071504794
37	0x3e014abf	0.1262617
38	0x3dc81c4a	0.09771021
39	0x3df78697	0.12086218
40	0x3e1241ba	0.14282885
41	0x3df52953	0.119707726
42	0x3daa7850	0.08323729
43	0x3e128735	0.1430939
44	0x3ddc7328	0.10764152
45	0x3e1f2756	0.15542349
46	0x3e05b591	0.13057543
47	0x3d59d8ef	0.0531854
48	0x3e02821e	0.12744948
49	0x3e65ea2e	0.22452614
50	0x3e8e33d9	0.27773932
51	0x3e4723e8	0.19447291
52	0x3e41c6f4	0.18923551
53	0x3df9a9c5	0.12190584
54	0x3e07d56a	0.13265005
55	0x3e07abf2	0.13249186
56	0x3e0d4c6b	0.13798682
57	0x3e864914	0.2622763
58	0x3da26c46	0.07930808
59	0x3e46a25c	0.19397873
60	0x3d937efa	0.07201953
61	0x3e1defba	0.1542348
62	0x3dce424f	0.10071241
63	0x3e030610	0.12795281
64	0x3e9212db	0.2853001
65	0x3dfc19bd	0.12309597
66	0x3dab899e	0.08375858
67	0x3e3a8169	0.18213429
68	0x3de90d27	0.11379462
69	0x3eaab95a	0.33344537
70	0x3e32f1c3	0.17475037
71	0x3d60786a	0.054802336

mlp3.weight f4 [24, 72]
0	0x3b8a14fb	0.004213927
1	0x3b0b324f	0.0021239703
2	0x3b8b05eb	0.004242649
3	0x3b897f77	0.004196103
4	0x3b382946	0.0028100773
5	0x3b847eaf	0.004043422
6	0x3aa0a540	0.001225628
7	0x3b8f8886	0.0043802885
8	0x3b8b2995	0.0042469003
9	0x3b01d98e	0.001981351
10	0x3aed0e14	0.0018085861
11	0x3ba6b1b5	0.0050871023
12	0x3b994b4b	0.004678165
13	0x3ba885b3	0.0051428913
14	0x3a97dd7b	0.0011586392
15	0x3b9c0b0b	0.0047620586
16	0x3ad9833b	0.0016594896
17	0x3b40faab	0.0029446285
18	0x3b8215f7	0.0039699036
19	0x3b7505f6	0.0037387586
20	0x3b866e9a	0.00410254
21	0x3b7b232c	0.0038320525
22	0x3a96a65d	0.0011493672
23	0x3b1d4a56	0.0024000606
24	0x3e294519	0.16530265
25	0x3e3f603b	0.18689053
26	0x3e6e44c1	0.23268415
27	0x3e51b24d	0.20478173
28	0x3e7ef569	0.24898304
29	0x3e459bbb	0.19297688
30	0x3de767b6	0.11299078
31	0x3e88fa09	0.26753262
32	0x3e67f774	0.2265299
33	0x3df65373	0.120276354
34	0x3e334b0d	0.17509098
35	0x3e1fb964	0.15598065
36	0x3e537bd7	0.2065271
37	0x3e890559	0.26761892
38	0x3e106b9d	0.14103551
39	0x3e8265f5	0.25468412
40	0x3dd9600a	0.10614021
41	0x3e2e702a	0.17034975
42	0x3e470d08	0.19438565
43	0x3e846d04	0.25864422
44	0x3e884245	0.2661306
45	0x3e8077ed	0.25091496
46	0x3db98d62	0.0906017
47	0x3e5c3ffa	0.2150878
48	0x00000000	0.0
49	0x00000000	0.0
50	0x00000000	0.0
51	0x00000000	0.0
52	0x00000000	0.0
53	0x00000000	0.0
54	0x00000000	0.0
55	0x00000000	0.0
56	0x00000000	0.0
57	0x00000000	0.0
58	0x00000000	0.0
59	0x00000000	0.0
60	0x00000000	0.0
61	0x00000000	0.0
62	0x00000000	0.0
63	0x00000000	0.0
64	0x00000000	0.0
65	0x00000000	0.0
66	0x00000000	0.0
67	0x00000000	0.0
68	0x00000000	0.0
69	0x00000000	0.0
70	0x00000000	0.0
71	0x00000000	0.0
72	0x3e2cd893	0.16879492
73	0x3df6369c	0.12022135
74	0x3e2e0bad	0.16996641
75	0x3e6d4a8b	0.23172967
76	0x3e6ee786	0.23330507
77	0x3e26fd52	0.16307572
78	0x3d8a9e0e	0.06768428
79	0x3e68834b	0.22706334
80	0x3e44e244	0.19226938
81	0x3e1300f3	0.14355831
82	0x3db52fc9	0.08847005
83	0x3e6d6461	0.23182823
84	0x3e89fb24	0.26949418
85	0x3e50c9c3	0.20389466
86	0x3dca6bb5	0.09883825
87	0x3e50b8a6	0.20382938
88	0x3d67b8b4	0.05657263
89	0x3e5bd6f9	0.21468724
90	0x3e23de14	0.16002685
91	0x3e721372	0.2364023
92	0x3e77ab29	0.24186386
93	0x3e7d3da4	0.24730545
94	0x3d8830ee	0.066499576
95	0x3de29cb4	0.11065045
96	0x3e9c5a43	0.30537614
97	0x3e9c0189	0.3046992
98	0x3ea4afeb	0.32165465
99	0x3e988cc2	0.2979489
100	0x3ea11ded	0.31468144
101	0x3e9df75f	0.30852792
102	0x3e8ef3ec	0.27920473
103	0x3e8dda49	0.277056
104	0x3eb13285	0.34608856
105	0x3eb78337	0.35842296
106	0x3ea6dafb	0.32588944
107	0x3ea7e333	0.32790527
108	0x3ead5d9f	0.3386049
109	0x3eae511e	0.34046263
110	0x3e3b90cf	0.18316959
111	0x3ec2acde	0.38022512
112	0x3e596d16	0.21233019
113	0x3e94295d	0.28937808
114	0x3ea5b016	0.32360905
115	0x3e9bb4b5	0.30411306
116	0x3e9b9107	0.30384085
117	0x3eabce49	0.3355582
118	0x3e299c7f	0.16563605
119	0x3e8480e0	0.25879574
120	0x00000000	0.0
121	0x00000000	0.0
122	0x00000000	0.0
123	0x00000000	0.0
124	0x00000000	0.0
125	0x00000000	0.0
126	0x00000000	0.0
127	0x00000000	0.0
128	0x00000000	0.0
129	0x00000000	0.0
130	0x00000000	0.0
131	0x00000000	0.0
132	0x00000000	0.0
133	0x00000000	0.0
134	0x00000000	0.0
135	0x00000000	0.0
136	0x00000000	0.0
137	0x00000000	0.0
138	0x00000000	0.0
139	0x00000000	0.0
140	0x00000000	0.0
141	0x00000000	0.0
142	0x00000000	0.0
143	0x00000000	0.0
144	0x3e4e4b96	0.20146021
145	0x3e0871d4	0.13324672
146	0x3e2c186e	0.16806194
147	0x3e5c0288	0.2148534
148	0x3e39790f	0.18112586
149	0x3e1ad6bb	0.15120976
150	0x3d992072	0.074768916
151	0x3e54e1ce	0.20789263
152	0x3e37c744	0.17947108
153	0x3d92c98f	0.071673505
154	0x3d8bcfb3	0.06826725
155	0x3e4d1990	0.20029283
156	0x3e2c67b6	0.16836438
157	0x3e15a99a	0.14615479
158	0x3dcf5263	0.10123136
159	0x3e5745ac	0.21022671
160	0x3d79be83	0.0609727
161	0x3e50327d	0.2033176
162	0x3e0ac9f7	0.13553606
163	0x3e409890	0.18808198
164	0x3e2581f3	0.16162853
165	0x3e621ad9	0.22080554
166	0x3d83f136	0.06442492
167	0x3daa5ddc	0.083186835
168	0x3e96a504	0.29422772
169	0x3eb495ac	0.3527044
170	0x3e9a5567	0.30143282
171	0x3e8ee8a1	0.27911857
172	0x3eb5a672	0.3547855
173	0x3e94a3de	0.2903127
174	0x3e5e1b1c	0.21690029
175	0x3e9d3f32	0.30712277
176	0x3eb9c2b3	0.36281356
177	0x3e7af0b0	0.24505877
178	0x3e8d1be8	0.27560353
179	0x3eb503cb	0.35354456
180	0x3e9c7881	0.30560687
181	0x3e9b59ff	0.303421
182	0x3e812a55	0.2522761
183	0x3e99a872	0.30011326
184	0x3ea832ec	0.3285135
185	0x3ebd094d	0.36921158
186	0x3ec9cc7c	0.39413822
187	0x3ed0414e	0.40674824
188	0x3eba8d39	0.3643587
189	0x3e9e8e6f	0.30968043
190	0x3e3b9d37	0.18321691
191	0x3ea67646	0.3251211
192	0x00000000	0.0
193	0x00000000	0.0
194	0x00000000	0.0
195	0x00000000	0.0
196	0x00000000	0.0
197	0x00000000	0.0
198	0x00000000	0.0
199	0x00000000	0.0
200	0x00000000	0.0
201	0x00000000	0.0
202	0x00000000	0.0
203	0x00000000	0.0
204	0x00000000	0.0
205	0x00000000	0.0
206	0x00000000	0.0
207	0x00000000	0.0
208	0x00000000	0.0
209	0x00000000	0.0
210	0x00000000	0.0
211	0x00000000	0.0
212	0x00000000	0.0
213	0x00000000	0.0
214	0x00000000	0.0
215	0x00000000	0.0
216	0x3e351f4d	0.17687722
217	0x3e0e3d41	0.13890554
218	0x3e7487dc	0.23879951
219	0x3e1ae3f6	0.15126023
220	0x3dfbb833	0.122909926
221	0x3e4bd41c	0.19905132
222	0x3d47418c	0.048646495
223	0x3e4dc511	0.20094706
224	0x3e759717	0.23983417
225	0x3e1cffb9	0.15331925
226	0x3e059c8a	0.13047996
227	0x3e4822f1	0.19544579
228	0x3e228b20	0.15873384
229	0x3e691901	0.22763444
230	0x3d805e4e	0.06267987
231	0x3e48a672	0.19594744
232	0x3ded923d	0.11600158
233	0x3e01bdd2	0.12670067
234	0x3e4e1caa	0.20128122
235	0x3e332792	0.17495564
236	0x3e51e9ba	0.20499316
237	0x3e326391	0.17420794
238	0x3de0f4fc	0.10984227
239	0x3e2ee3e7	0.17079125
240	0x3eaa7333	0.33291015
241	0x3eac2512	0.33622032
242	0x3eb151ee	0.3463282
243	0x3eb71515	0.35758272
244	0x3ea7ec7e	0.32797617
245	0x3ec34c75	0.3814427
246	0x3e532123	0.2061811
247	0x3ea3b879	0.3197668
248	0x3eba2276	0.36354417
249	0x3e8d81c2	0.2763806
250	0x3eb6e963	0.35724935
251	0x3eb7515e	0.35804266
252	0x3eb4a031	0.35278466
253	0x3ebae8af	0.36505648
254	0x3e8e32b2	0.27773052
255	0x3ed57183	0.41688165

mlp3.bias f4 [24]
0	0xbe617ed1	-0.22021033
1	0x3d8cc46f	0.06873404
2	0xbd714294	-0.058901384
3	0xbd355b6b	-0.044276636
4	0xbe089053	-0.13336305
5	0x3d8c2711	0.06843389
6	0xbc7812ba	-0.0151411835
7	0xbe4b29af	-0.1984012
8	0xbe49c877	-0.19705378
9	0xbe8d4163	-0.2758895
10	0xbd7acd7b	-0.061231118
11	0xbd1afbe7	-0.03783789
12	0xbd11da7c	-0.035608754
13	0xbe1170c9	-0.1420318
14	0xbe22d3b9	-0.15901078
15	0x3c18f244	0.009335104
16	0xbe559a10	-0.20859551
17	0x3c198706	0.009370571
18	0xbe03dded	-0.12877627
19	0xbe4e4e41	-0.20147039
20	0xbe4223d6	-0.18958983
21	0xbd448fd6	-0.047988735
22	0xbd1bcf72	-0.038039632
23	0xbe2faf34	-0.17156678

bn3.weight f4 [72]
0	0x3ee4ad78	0.44663596
1	0x3ed40c68	0.41415715
2	0x3eea3cc8	0.45749497
3	0x3eeb3f4e	0.45946735
4	0x3ed6f212	0.4198156
5	0x3ef0eddd	0.47056475
6	0x3ecc59be	0.39912218
7	0x3eeed38a	0.46645766
8	0x3ee27bd6	0.44235104
9	0x3ed227b7	0.41045925
10	0x3ece26b0	0.4026389
11	0x3ef20c7a	0.47275144
12	0x3ee97054	0.45593512
13	0x3ef25398	0.47329402
14	0x3ecdf5eb	0.40226683
15	0x3efe6f69	0.49694374
16	0x3ecdfd93	0.40232524
17	0x3ee26060	0.44214153
18	0x3ee1a725	0.44072834
19	0x3ef81fd7	0.48461792
20	0x3ee29ecf	0.44261786
21	0x3ee75fd2	0.45190293
22	0x3ece80ff	0.4033279
23	0x3edb51e2	0.4283591
24	0x3f000000	0.5
25	0x3f000000	0.5
26	0x3f000000	0.5
27	0x3f000000	0.5
28	0x3f000000	0.5
29	0x3f000000	0.5
30	0x3ef64951	0.4810281
31	0x3f000000	0.5
32	0x3f000000	0.5
33	0x3f000000	0.5
34	0x3f000000	0.5
35	0x3f000000	0.5
36	0x3f000000	0.5
37	0x3f000000	0.5
38	0x3ef2fb27	0.4745724
39	0x3f000000	0.5
40	0x3f000000	0.5
41	0x3f000000	0.5
42	0x3f000000	0.5
43	0x3f000000	0.5
44	0x3f000000	0.5
45	0x3f000000	0.5
46	0x3edc13fb	0.42983994
47	0x3f000000	0.5
48	0x3ea8fa5e	0.33003515
49	0x3ea97e85	0.3310434
50	0x3eb03c62	0.34421068
51	0x3eb0be9c	0.34520423
52	0x3ea678ed	0.32514134
53	0x3ea4267e	0.32060617
54	0x3eada678	0.33916068
55	0x3eac30cc	0.3363098
56	0x3ea2cb23	0.31795606
57	0x3ea85c59	0.32882956
58	0x3eaf922a	0.34291202
59	0x3ea93b21	0.33052924
60	0x3ea7c6b8	0.32768798
61	0x3eaa326b	0.3324159
62	0x3eac3012	0.33630425
63	0x3ea78ece	0.3272614
64	0x3eaa2555	0.33231607
65	0x3ea4d836	0.32196206
66	0x3ea40bd0	0.32040262
67	0x3eab1707	0.33416006
68	0x3ea8e7f1	0.32989457
69	0x3eaf7bde	0.3427419
70	0x3eae3ff7	0.34033176
71	0x3ea927ba	0.3303812

bn3.bias f4 [72]
0	0x3cb5a73e	0.022174474
1	0x3ce79ad7	0.028272076
2	0x3c9955ef	0.018717734
3	0x3c8d5341	0.017251613
4	0x3d08623f	0.03329682
5	0x3ccb6afc	0.024831288
6	0x3d132ed9	0.03593335
7	0x3ca28f7e	0.019843813
8	0x3cf035fa	0.029322613
9	0x3c9d0e54	0.019171871
10	0x3cd8c8b6	0.026462894
11	0x3ca59906	0.020214569
12	0x3c71fd1f	0.014769821
13	0x3c4f473d	0.012651262
14	0x3c9ed8c5	0.019390473
15	0x3cb2f208	0.021843925
16	0x3ca61d0a	0.020277519
17	0x3d04b934	0.032403186
18	0x3c3354c2	0.010945501
19	0x3d14632d	0.036227394
20	0x3c617998	0.0137619
21	0x3ccbd0de	0.02487987
22	0x3c7e7d8d	0.015532863
23	0x3ccb12f5	0.024789313
24	0xbddb0d8e	-0.10695945
25	0xbdbd34cf	-0.09238588
26	0xbdfc654d	-0.12324009
27	0xbdff1c85	-0.124566115
28	0xbdc9f47b	-0.09861084
29	0xbde7c834	-0.113174826
30	0xbdba7df4	-0.09106055
31	0xbe01366a	-0.12618414
32	0xbde21c6c	-0.11040577
33	0xbdcfb52d	-0.101419784
34	0xbdc2bdfd	-0.09508894
35	0xbdc05322	-0.09390856
36	0xbdecd24a	-0.11563547
37	0xbdf06433	-0.117378615
38	0xbdc34c8e	-0.09536086
39	0xbdf53b4d	-0.11974201
40	0xbdb78c90	-0.08962357
41	0xbddfd202	-0.10928728
42	0xbdd5dc6b	-0.10442432
43	0xbdd38c0b	-0.103294455
44	0xbdf43c41	-0.11925555
45	0xbddcd1a9	-0.10782177
46	0xbdc8a39a	-0.097968295
47	0xbdbd3d31	-0.09240187
48	0xbddc1db8	-0.10747856
49	0xbdf4eb03	-0.119588874
50	0xbde9cab0	-0.11415613
51	0xbe05ac5e	-0.13054034
52	0xbdd4cae0	-0.10390258
53	0xbdfb8761	-0.12281681
54	0xbdde7f00	-0.10864067
55	0xbdeb7ddd	-0.11498616
56	0xbde8532f	-0.11343991
57	0xbdee1045	-0.11624197
58	0xbdf320d9	-0.118714996
59	0xbde75d80	-0.112971306
60	0xbdc7bb48	-0.09752518
61	0xbdcb31bd	-0.09921596
62	0xbddbdb68	-0.10735208
63	0xbde91f4a	-0.11382921
64	0xbdcf1e17	-0.10113161
65	0xbde52163	-0.11188009
66	0xbdeb58a2	-0.11491515
67	0xbde0b802	-0.10972597
68	0xbdffa3a4	-0.12482384
69	0xbde91dfe	-0.11382674
70	0xbddc57ca	-0.10758932
71	0xbde90ca4	-0.11379364

bn3.running_mean f4 [72]
0	0x3f48b92f	0.7840757
1	0x3f430441	0.76178366
2	0x3f5e72ca	0.86893904
3	0x3f5f4205	0.8721011
4	0x3f3d4c20	0.7394428
5	0x3f4b361c	0.7937944
6	0x3f42b591	0.760583
7	0x3f61f331	0.88261706
8	0x3f46b7b9	0.7762409
9	0x3f310df7	0.69161934
10	0x3f38efce	0.7224091
11	0x3f51ba78	0.81925154
12	0x3f5edf67	0.87059635
13	0x3f605a59	0.8763786
14	0x3f162c61	0.58661467
15	0x3f667384	0.9002001
16	0x3f31ef5c	0.6950586
17	0x3f4c6064	0.7983458
18	0x3f532639	0.824802
19	0x3f556e05	0.83371
20	0x3f62882a	0.8848902
21	0x3f5b676a	0.8570467
22	0x3f5d3774	0.8641274
23	0x3f3ea705	0.744736
24	0x3e4aa978	0.1979121
25	0x3e47fc73	0.19529895
26	0x3e50248b	0.2032644
27	0x3e4f3410	0.20234704
28	0x3e481cd0	0.19542241
29	0x3e4acc43	0.19804482
30	0x3e3c5e54	0.18395358
31	0x3e4fb157	0.20282494
32	0x3e4a476a	0.19753805
33	0x3e43530f	0.19074653
34	0x3e44a13c	0.19202131
35	0x3e4d27c6	0.20034704
36	0x3e4fbba3	0.20286421
37	0x3e4ffb0b	0.20310609
38	0x3e3926cf	0.1808121
39	0x3e4fe678	0.2030276
40	0x3e41dc82	0.18931773
41	0x3e4b96d3	0.19881754
42	0x3e4e8d43	0.20171075
43	0x3e4e43cf	0.20143054
44	0x3e4f463c	0.20241636
45	0x3e4eed86	0.20207796
46	0x3e275a2c	0.16342992
47	0x3e466970	0.19376159
48	0x3d180b27	0.03712001
49	0x3d1e2798	0.03861198
50	0x3d12194a	0.03566865
51	0x3d189a8e	0.03725677
52	0x3d223092	0.0395971
53	0x3d3b0c8c	0.045666263
54	0x3aabc641	0.0013105349
55	0x3d14f185	0.036363143
56	0x3d2ca55a	0.04214988
57	0x3d3289e4	0.043588534
58	0x3d1afbad	0.037837673
59	0x3d2233ec	0.039600298
60	0x3d077ed6	0.033079945
61	0x3d1603c8	0.0366247
62	0x3d3fe9cb	0.04685382
63	0x3d21568c	0.03938918
64	0x3d2b0085	0.041748542
65	0x3d32b7ea	0.043632425
66	0x3d214fee	0.039382868
67	0x3d20a26b	0.039217394
68	0x3d1d2d92	0.038373537
69	0x3d13f7d4	0.03612502
70	0xbdbcba7c	-0.092152566
71	0x3d1d043b	0.038334113

bn3.running_var f4 [72]
0	0x3f59fe18	0.8515334
1	0x3f5549fd	0.8331602
2	0x3f7a0421	0.9766255
3	0x3f7d80b8	0.99024534
4	0x3f4a19d3	0.78945655
5	0x3f60149e	0.8753146
6	0x3f629fe1	0.88525206
7	0x3f8091a7	1.004445
8	0x3f587402	0.84552014
9	0x3f3c659d	0.7359255
10	0x3f4773f4	0.77911305
11	0x3f66dcd5	0.9018071
12	0x3f7aa77b	0.97911805
13	0x3f7d2d86	0.9889759
14	0x3f1c659b	0.6109254
15	0x3f855d10	1.0419025
16	0x3f3ffbcb	0.7499358
17	0x3f5fb23d	0.87381345
18	0x3f66e597	0.90194076
19	0x3f6bf6f7	0.92173713
20	0x3f81fc70	1.0155163
21	0x3f760946	0.961079
22	0x3f98b795	1.1931025
23	0x3f4f99c6	0.81094015
24	0x3e395de7	0.18102227
25	0x3e395576	0.18099007
26	0x3e38852c	0.18019551
27	0x3e38bc38	0.1804055
28	0x3e395396	0.18098292
29	0x3e38bd09	0.18040861
30	0x3e3eea1d	0.18643995
31	0x3e38d54f	0.18050121
32	0x3e38d398	0.18049467
33	0x3e3961f9	0.1810378
34	0x3e39d1e1	0.18146469
35	0x3e38cf02	0.18047717
36	0x3e38d86b	0.18051307
37	0x3e38ba74	0.18039876
38	0x3e39c89a	0.1814293
39	0x3e38a5bd	0.18031974
40	0x3e39ae0b	0.18132798
41	0x3e38e47f	0.18055914
42	0x3e38a89c	0.1803307
43	0x3e387c31	0.18016125
44	0x3e38b271	0.1803682
45	0x3e38bb01	0.18040086
46	0x3e4a5244	0.19757944
47	0x3e398020	0.18115282
48	0x3f0faddb	0.5612466
49	0x3f0c28c8	0.5474973
50	0x3f162454	0.5864918
51	0x3f13bdc7	0.5771145
52	0x3f0b42bb	0.543987
53	0x3f085b32	0.53264153
54	0x3f2018cc	0.6253784
55	0x3f151930	0.5824156
56	0x3f0af39b	0.5427796
57	0x3f03b0ce	0.5144166
58	0x3f0a25eb	0.5396411
59	0x3f0fa002	0.5610353
60	0x3f1838fa	0.5946194
61	0x3f14e25b	0.5815789
62	0x3ef09e14	0.46995604
63	0x3f120dc2	0.5705224
64	0x3f04187c	0.5159986
65	0x3f0a6a12	0.540681
66	0x3f10bf23	0.5654165
67	0x3f1108bf	0.5665397
68	0x3f12adb8	0.57296324
69	0x3f1455fb	0.57943696
70	0x3f58102f	0.84399694
71	0x3f0af3eb	0.5427844

mlp4.weight f4 [1, 72]
0	0x00000000	0.0
1	0x00000000	0.0
2	0x00000000	0.0
3	0x00000000	0.0
4	0x00000000	0.0
5	0x00000000	0.0
6	0x00000000	0.0
7	0x00000000	0.0
8	0x00000000	0.0
9	0x00000000	0.0
10	0x00000000	0.0
11	0x00000000	0.0
12	0x00000000	0.0
13	0x00000000	0.0
14	0x00000000	0.0
15	0x00000000	0.0
16	0x00000000	0.0
17	0x00000000	0.0
18	0x00000000	0.0
19	0x00000000	0.0
20	0x00000000	0.0
21	0x00000000	0.0
22	0x00000000	0.0
23	0x00000000	0.0
24	0x00000000	0.0
25	0x3e09d609	0.13460554
26	0x3e115f0b	0.14196412
27	0x3e091fb9	0.13391007
28	0x3dda4705	0.10658077
29	0x3e4a8034	0.19775468
30	0x00000000	0.0
31	0x3c7635c6	0.015027469
32	0x3c36d8d2	0.011160092
33	0x3dc3faa3	0.095692895
34	0x3cd140af	0.025543539
35	0x3ce0270c	0.027362369
36	0x3df4b556	0.119486496
37	0x00000000	0.0
38	0x3d1a2fb6	0.037643157
39	0x3e253a95	0.16135629
40	0x3e07a4cc	0.13246459
41	0x3e350c0e	0.1768038
42	0x3e24544c	0.16047782
43	0x3d6c4781	0.05768538
44	0x3cde5cf4	0.027143933
45	0x3e3ad45a	0.18245068
46	0x3dece520	0.115671396
47	0x00000000	0.0
48	0x3dfafda9	0.12255413
49	0x3e5c9de1	0.21544601
50	0x3e12ac76	0.14323601
51	0x3e10ce78	0.14141262
52	0x3e3e6b03	0.18595509
53	0x3e3442e1	0.17603637
54	0x3d5dc082	0.054138668
55	0x3dad6f62	0.0846851
56	0x3e19ac2e	0.15007088
57	0x3e158c76	0.14604363
58	0x3d7884d9	0.06067357
59	0x3e17ba63	0.14817195
60	0x3e33bfce	0.17553636
61	0x3d1b357f	0.037892815
62	0x3e2dd103	0.16974263
63	0x3e48e526	0.19618663
64	0x3e2b201c	0.16711468
65	0x3e32f0e4	0.17474705
66	0x3e3141b1	0.17310216
67	0x3e588258	0.21143472
68	0x3e0fd2e3	0.1404529
69	0x3e7a7a4c	0.24460715
70	0x3c498e26	0.012301957
71	0x3db48fe3	0.08816507
