utility-model-selected/dim-3/utility-81.pt (torch, 23458 bytes, 17 tensors)

bn1.running_mean f4 [3]
0.5019971 0.5000743 0.49888787
00000000: e282 003f df04 003f 3b6e ff3e

bn1.running_var f4 [3]
0.056474797 0.05373016 0.05290013
00000000: 1e52 673d 2814 5c3d cfad 583d

mlp1.weight f4 [24, 3]
0.0013237364 0.43581948 0.5 0.27372634 0.40539736 0.31546536 0.0 0.0
0.34745988 0.039139006 0.06929038 0.5 0.2917479 0.022063736 0.0 0.5
0.18671978 0.0 0.48092672 0.18484767 0.0 0.0 0.327182 0.5
0.37233022 0.049570143 0.20183271 0.39927757 0.07872898 0.108683884 0.25120676 0.42311886
0.46337765 0.43977228 0.43074575 0.2981555 0.4370206 0.28970677 0.0 0.5
0.06101807 0.3274115 0.5 0.058498126 0.0 0.0 0.21722634 0.3349252
0.4929359 0.4530515 0.46848345 0.2618837 0.4928806 0.0 0.23631032 0.5
0.41152143 0.1739647 0.5 0.44265413 0.28935832 0.3197967 0.0 0.37619117
0.26496327 0.118079856 0.24731599 0.32189667 0.45130324 0.4467507 0.25973305 0.1343283
00000000: 3981 ad3a bb23 df3e 0000 003f dc25 8c3e
00000010: 3e90 cf3e ad84 a13e 0000 0000 0000 0000
00000020: 43e6 b13e 3950 203d 1de8 8d3d 0000 003f
00000030: fb5f 953e 02bf b43c 0000 0000 0000 003f
00000040: 7833 3f3e 0000 0000 073c f63e b548 3d3e
00000050: 0000 0000 0000 0000 6684 a73e 0000 003f
00000060: 11a2 be3e 100a 4b3d 3cad 4e3e 1c6e cc3e
00000070: a93c a13d a895 de3d 2c9e 803e 09a3 d83e
00000080: d63f ed3e d529 e13e b58a dc3e d6a7 983e
00000090: 2ac1 df3e 7254 943e 0000 0000 0000 003f
000000a0: 15ee 793d 7ba2 a73e 0000 003f bb9b 6f3d
000000b0: 0000 0000 0000 0000 9570 5e3e 517b ab3e
000000c0: 1862 fc3e 5ef6 e73e 10dd ef3e 9f15 863e
000000d0: d95a fc3e 0000 0000 55fb 713e 0000 003f
000000e0: f0b2 d23e cd23 323e 0000 003f 90a3 e23e
000000f0: c626 943e 65bc a33e 0000 0000 219c c03e
00000100: 44a9 873e dad3 f13d 6740 7d3e a4cf a43e
00000110: 3811 e73e 82bc e43e bbfb 843e 5c8d 093e

mlp1.bias f4 [24]
0.52201146 0.15715598 0.6800316 0.4149084 0.5083916 0.4401285 0.45083335 0.66187394
-0.0987885 0.24164139 0.052857473 -0.17118551 0.36365414 0.39469346 0.33402294 0.58417994
-0.1675954 0.51151204 -0.40046245 -0.045937274 0.090850554 -0.418026 -0.56869054 -0.12150236
00000000: 8ba2 053f 7fed 203e 8d16 2e3f e06e d43e
00000010: f425 023f 8658 e13e a1d3 e63e 9270 293f
00000020: a051 cabd d770 773e 1481 583d 414b 2fbe
00000030: e030 ba3e 4315 ca3e 0e05 ab3e d18c 153f
00000040: 219e 2bbe 74f2 023f 6a09 cdbe b928 3cbd
00000050: db0f ba3d 8107 d6be b495 11bf 3bd6 f8bd

mlp2.weight f4 [24, 72]
0.0 0.0 0.0 0.0 0.0 0.005296012 0.0 0.0
0.0 0.0 0.0 0.0 0.0 0.0 0.005219515 0.0
0.0 0.0 0.0 0.0 0.0 0.0 0.0 0.0
0.04148068 0.0 0.3107685 0.017865298 0.13502164 0.18685669 0.09966969 0.085707396
0.0 0.0 0.0 0.0 0.04094304 0.0 0.01253132 0.03151897
0.0 0.01886635 0.0 0.0 0.0 0.0 0.0 0.0
0.0 0.0 0.27526727 0.06438579 0.14295276 0.23436084 0.15296021 0.1503998
0.0 0.0 0.0 0.0 0.0 0.0 0.017015234 0.10478173
0.0 0.0 0.0 0.0 0.0 0.0 0.0 0.0
0.0 0.0 0.0 0.0 0.0 0.0 0.0 0.0
0.0 0.0 0.0 0.0 0.0 0.0 0.0 0.0
0.0 0.0 0.0 0.0 0.0 0.0 0.0 0.0
0.062221576 0.0 0.29736906 0.038180985 0.14452817 0.14466883 0.16579817 0.15442452
0.0 0.0 0.0 0.0 0.0138767855 0.0 0.093155764 0.04317002
0.0 0.06764535 0.0 0.0 0.0 0.0 0.0 0.0
0.0290262 0.0 0.30673447 0.01388709 0.10531446 0.19797216 0.09034915 0.06453378
0.0 0.0 0.0 0.0 0.0 0.0 0.012939278 0.08919214
0.0 0.0 0.0 0.0 0.0 0.0 0.0 0.0
0.0 0.0 0.0 0.0 0.0 0.0 0.0 0.0
0.0 0.0 0.0 0.0 0.0 0.0 0.0 0.0
0.0 0.0 0.0 0.0 0.0 0.0 0.0 0.0
0.012953223 0.0 0.2960108 0.023025613 0.10051131 0.17846616 0.15939802 0.10874581
0.0 0.0 0.0 0.0 0.034771595 0.0 0.019249087 0.05105326
0.0 0.05090475 0.0 0.0 0.0 0.0 0.0 0.0
0.06675263 0.0 0.2617504 0.012061528 0.11724852 0.15071471 0.15418327 0.13844557
0.0 0.0 0.0 0.0 0.010848011 0.0 0.09108636 0.067592405
0.0 0.0029718655 0.0 0.0 0.0 0.0 0.0 0.0
0.0 0.0 0.0 0.0 0.0 0.0 0.0 0.0
0.0 0.0 0.0 0.0 0.0 0.0 0.02003435 0.0
0.0 0.0 0.0 0.0 0.0 0.0 0.0 0.0
0.028833892 0.0 0.24071783 0.059340607 0.14827019 0.21326543 0.08918731 0.11304828
0.0 0.012057503 0.0 0.0 0.0 0.00016267163 0.021702012 0.08054492
00000000: 0000 0000 0000 0000 0000 0000 0000 0000
00000010: 0000 0000 2b8a ad3b 0000 0000 0000 0000
00000020: 0000 0000 0000 0000 0000 0000 0000 0000
00000030: 0000 0000 0000 0000 7708 ab3b 0000 0000
00000040: 0000 0000 0000 0000 0000 0000 0000 0000
00000050: 0000 0000 0000 0000 0000 0000 0000 0000
00000060: a5e7 293d 0000 0000 0d1d 9f3e 3f5a 923c
00000070: 1d43 0a3e 5c57 3f3e 9f1f cc3d 5c87 af3d
00000080: 0000 0000 0000 0000 0000 0000 0000 0000
00000090: e4b3 273d 0000 0000 2a50 4d3c 091a 013d
000000a0: 0000 0000 9b8d 9a3c 0000 0000 0000 0000
000000b0: 0000 0000 0000 0000 0000 0000 0000 0000
000000c0: 0000 0000 0000 0000 d5ef 8c3e b2dc 833d
000000d0: 3562 123e 4afc 6f3e 9aa1 1c3e 6802 1a3e
000000e0: 0000 0000 0000 0000 0000 0000 0000 0000
000000f0: 0000 0000 0000 0000 8863 8b3c ce97 d63d
00000100: 0000 0000 0000 0000 0000 0000 0000 0000
00000110: 0000 0000 0000 0000 0000 0000 0000 0000
00000120: 0000 0000 0000 0000 0000 0000 0000 0000
00000130: 0000 0000 0000 0000 0000 0000 0000 0000
00000140: 0000 0000 0000 0000 0000 0000 0000 0000
00000150: 0000 0000 0000 0000 0000 0000 0000 0000
00000160: 0000 0000 0000 0000 0000 0000 0000 0000
00000170: 0000 0000 0000 0000 0000 0000 0000 0000
00000180: 0ddc 7e3d 0000 0000 c240 983e aa63 1c3d
00000190: 31ff 133e 1124 143e ffc6 293e 7621 1e3e
000001a0: 0000 0000 0000 0000 0000 0000 0000 0000
000001b0: 755b 633c 0000 0000 73c8 be3d 0cd3 303d
000001c0: 0000 0000 a589 8a3d 0000 0000 0000 0000
000001d0: 0000 0000 0000 0000 0000 0000 0000 0000
000001e0: 5ac8 ed3c 0000 0000 4d0c 9d3e ad86 633c
000001f0: 1caf d73d 37b9 4a3e fa08 b93d 492a 843d
00000200: 0000 0000 0000 0000 0000 0000 0000 0000
00000210: 0000 0000 0000 0000 44ff 533c 5eaa b63d
00000220: 0000 0000 0000 0000 0000 0000 0000 0000
00000230: 0000 0000 0000 0000 0000 0000 0000 0000
00000240: 0000 0000 0000 0000 0000 0000 0000 0000
00000250: 0000 0000 0000 0000 0000 0000 0000 0000
00000260: 0000 0000 0000 0000 0000 0000 0000 0000
00000270: 0000 0000 0000 0000 0000 0000 0000 0000
00000280: 0000 0000 0000 0000 0000 0000 0000 0000
00000290: 0000 0000 0000 0000 0000 0000 0000 0000
000002a0: c139 543c 0000 0000 ba8e 973e 36a0 bc3c
000002b0: e0d8 cd3d d5bf 363e 3c39 233e 20b6 de3d
000002c0: 0000 0000 0000 0000 0000 0000 0000 0000
000002d0: a96c 0e3d 0000 0000 43b0 9d3c 391d 513d
000002e0: 0000 0000 8081 503d 0000 0000 0000 0000
000002f0: 0000 0000 0000 0000 0000 0000 0000 0000
00000300: 9ab5 883d 0000 0000 2604 863e b79d 453c
00000310: fe1f f03d f554 1a3e 38e2 1d3e adc4 0d3e
00000320: 0000 0000 0000 0000 0000 0000 0000 0000
00000330: dbbb 313c 0000 0000 7c8b ba3d e36d 8a3d
00000340: 0000 0000 a1c3 423b 0000 0000 0000 0000
00000350: 0000 0000 0000 0000 0000 0000 0000 0000
00000360: 0000 0000 0000 0000 0000 0000 0000 0000
00000370: 0000 0000 0000 0000 0000 0000 0000 0000
00000380: 0000 0000 0000 0000 0000 0000 0000 0000
00000390: 0000 0000 0000 0000 141f a43c 0000 0000
000003a0: 0000 0000 0000 0000 0000 0000 0000 0000
000003b0: 0000 0000 0000 0000 0000 0000 0000 0000
000003c0: 0e35 ec3c 0000 0000 bc7e 763e 230f 733d
000003d0: 24d4 173e 4162 5a3e d6a7 b63d db85 e73d
000003e0: 0000 0000 d58c 453c 0000 0000 0000 0000
000003f0: 0000 0000 d592 2a39 6bc8 b13c bcf4 a43d

mlp2.bias f4 [24]
-0.06574933 -0.05170235 -0.05641061 -0.089458615 -0.007197137 -0.0779792 -0.07723393 -0.0004618428
-0.021281445 0.02595833 -0.055347066 0.06921651 -0.094093196 0.04886753 0.04024631 -0.040207192
-0.08856114 -0.051117614 -0.0026329728 -0.03258583 0.06375236 0.079121225 -0.08061919 -0.07742797
00000000: 96a7 86bd d8c5 53bd d00e 67bd 1436 b7bd
00000010: f6d5 ebbb 8fb3 9fbd d32c 9ebd 7e23 f2b9
00000020: 6d56 aebc 90a6 d43c 9bb3 62bd 63c1 8d3d
00000030: efb3 c0bd 5229 483d 51d9 243d 4cb0 24bd
00000040: 8b5f b5bd b460 51bd f48d 2cbb b878 05bd
00000050: 9990 823d 4f0a a23d ad1b a5bd 8e92 9ebd

bn2.weight f4 [72]
0.42711738 0.40042737 0.4159531 0.40429428 0.39582357 0.42716545 0.40284464 0.4282251
0.41417563 0.4161061 0.42388213 0.39335698 0.39971423 0.41147727 0.4358562 0.41488308
0.39280796 0.41578043 0.4350007 0.41383088 0.40647027 0.41082692 0.41750753 0.41674045
0.46460888 0.42348206 0.5 0.4578341 0.46947515 0.4822626 0.4749872 0.47703412
0.4193275 0.42643613 0.42329338 0.3864601 0.42793313 0.4226391 0.47891957 0.47232938
0.3780938 0.46779758 0.43654957 0.42848426 0.42306006 0.41243154 0.41744703 0.42181048
0.46503225 0.41868383 0.5 0.46586195 0.47312456 0.48123685 0.4711199 0.47654054
0.41657132 0.43113372 0.4199184 0.40427026 0.4252203 0.411948 0.47662842 0.47066385
0.41886985 0.46611717 0.42334613 0.4353495 0.4215339 0.40894476 0.42344913 0.41897213
00000000: 21af da3e d104 cd3e cef7 d43e a9ff ce3e
00000010: 63a9 ca3e 6eb5 da3e a741 ce3e 5240 db3e
00000020: d40e d43e dc0b d53e 1407 d93e 1666 c93e
00000030: 58a7 cc3e 26ad d23e 8b28 df3e 8e6b d43e
00000040: 201e c93e 2ce1 d43e 69b8 de3e a4e1 d33e
00000050: df1c d03e e857 d23e 8cc3 d53e 015f d53e
00000060: 37e1 ed3e a4d2 d83e 0000 003f 3b69 ea3e
00000070: 0c5f f03e 20eb f63e 8631 f33e d13d f43e
00000080: 18b2 d63e d655 da3e e9b9 d83e 19de c53e
00000090: 0d1a db3e 2764 d83e f234 f53e 28d5 f13e
000000a0: 8395 c13e 2a83 ef3e 6d83 df3e 4a62 db3e
000000b0: 549b d83e 3a2a d33e 9ebb d53e 8bf7 d73e
000000c0: b518 ee3e ba5d d63e 0000 003f 7585 ee3e
000000d0: 623d f23e ad64 f63e a136 f13e 1ffd f33e
000000e0: d648 d53e 8fbd dc3e 8bff d63e 83fc ce3e
000000f0: 7ab6 d93e d9ea d23e a408 f43e dafa f03e
00000100: 1c76 d63e e9a6 ee3e d3c0 d83e 21e6 de3e
00000110: 4bd3 d73e 3561 d13e 53ce d83e 8483 d63e

bn2.bias f4 [72]
-0.025450272 -0.020927783 -0.020442663 -0.020117844 -0.023399442 -0.033187333 -0.020791167 -0.023307098
-0.026391048 -0.027147507 -0.018928684 -0.013328009 -0.01934307 -0.021099014 -0.039976414 -0.03324877
-0.009936602 -0.023112308 -0.013550475 -0.02356033 -0.0146375345 -0.009476455 -0.015781043 -0.021714736
-0.05772197 -0.026743779 -0.07485884 -0.0375552 -0.09236182 -0.06638774 -0.070468724 -0.0688571
-0.024524951 -0.02904492 -0.027973026 -0.012856718 -0.045214027 -0.023247618 -0.046861317 -0.064694636
-0.010353011 -0.049731534 -0.012611118 -0.023569683 -0.022591151 -0.012076951 -0.0102394 -0.019233137
-0.059988137 -0.022852786 -0.07449493 -0.03786435 -0.079191096 -0.06633548 -0.078256615 -0.0720496
-0.023003869 -0.025299484 -0.029293539 -0.01731293 -0.038589608 -0.026168767 -0.04260775 -0.07319139
-0.016783055 -0.04974785 -0.027117312 -0.029725656 -0.021188203 -0.017544856 -0.014865131 -0.016742421
00000000: 177d d0bc be70 abbc 5f77 a7bc 2dce a4bc
00000010: 30b0 bfbc 71ef 07bd 3d52 aabc 87ee bebc
00000020: 0a32 d8bc 7364 debc 5410 9bbc b95d 5abc
00000030: 5c75 9ebc d7d7 acbc 4fbe 23bd dd2f 08bd
00000040: 21cd 22bc 0656 bdbc d002 5ebc 9801 c1bc
00000050: 45d2 6fbc 2243 1bbc 3f47 81bc 1ae3 b1bc
00000060: df6d 6cbd c515 dbbc 974f 99bd 7bd3 19bd
00000070: 3228 bdbd 4cf6 87bd e851 90bd f404 8dbd
00000080: 8de8 c8bc 9def edbc b027 e5bc fca4 52bc
00000090: 5832 39bd ca71 bebc a7f1 3fbd 9f7e 84bd
000000a0: ad9f 29bc 4bb3 4bbd dd9e 4ebc 3515 c1bc
000000b0: 1411 b9bc 67de 45bc 28c3 27bc d08e 9dbc
000000c0: 1fb6 75bd c435 bbbc cc90 98bd a617 1bbd
000000d0: f12e a2bd e5da 87bd 0145 a0bd be8e 93bd
000000e0: 9c72 bcbc dd40 cfbc 01f9 efbc d9d3 8dbc
000000f0: 2310 1ebd e25f d6bc 7785 2ebd 5ee5 95bd
00000100: 9e7c 89bc 67c4 4bbd 2025 debc 3883 f3bc
00000110: e292 adbc 3bba 8fbc e18c 73bc 6727 89bc

bn2.running_mean f4 [72]
0.5262019 0.19320536 0.6787592 0.39982662 0.51789045 0.43939742 0.45224625 0.6530137
-0.065318294 0.23739363 0.13255702 -0.024565877 0.35836634 0.4059371 0.32531133 0.5698433
0.026732702 0.49593636 -0.16145813 0.06244411 0.09875578 -0.25649565 -0.28270298 -0.04660343
0.24458028 0.08679012 0.42984396 0.23011948 0.3841844 0.23811035 0.254711 0.3198561
-0.07822941 0.16560993 0.025210053 -0.08626396 0.20417647 0.20622389 0.18644288 0.3669004
-0.07459564 0.26361066 -0.18921794 -0.023471946 0.059564017 -0.25891814 -0.29021862 -0.07639316
0.22760716 0.049421456 0.42984396 0.22840147 0.3841844 0.23568083 0.2533678 0.31613502
-0.11749168 0.16357802 -0.056895193 -0.23322125 0.19715792 0.19247729 0.18464299 0.36676976
-0.26884314 0.25992775 -0.42974347 -0.13571417 0.0439335 -0.42123505 -0.5764528 -0.15550843
00000000: 2bb5 063f a0d7 453e 2ac3 2d3f 13b6 cc3e
00000010: 7894 043f b3f8 e03e d28c e73e e82b 273f
00000020: 99c5 85bd 5117 733e 07bd 073e 613e c9bc
00000030: cb7b b73e fdd6 cf3e 358f a63e 40e1 113f
00000040: 8afe da3c 5feb fd3e 4855 25be 65c5 7f3d
00000050: 7840 ca3d 6653 83be 72be 90be 3de3 3ebd
00000060: 4173 7a3e 05bf b13d 8214 dc3e 71a4 6b3e
00000070: d1b3 c43e 33d3 733e 7b69 823e 2ec4 a33e
00000080: be36 a0bd a695 293e 5085 ce3c 29ab b0bd
00000090: a313 513e 5b2c 533e e2ea 3e3e 5fda bb3e
000000a0: 99c5 98bd faf7 863e 59c2 41be 3d48 c0bc
000000b0: 66f9 733d eb90 84be 8997 94be 0474 9cbd
000000c0: da11 693e 276e 4a3d 8214 dc3e 13e2 693e
000000d0: d1b3 c43e 5156 713e 6db9 813e 73dc a13e
000000e0: 7a9f f0bd ff80 273e ef0a 69bd 8dd1 6ebe
000000f0: c4e3 493e c418 453e 0d13 3d3e 3fc9 bb3e
00000100: cfa5 89be 4015 853e 5607 dcbe a8f8 0abe
00000110: 9df3 333d 1fac d7be 6992 13bf 9a3d 1fbe

bn2.running_var f4 [72]
0.41448408 0.2819011 0.11749863 0.25559425 0.08333906 0.28718466 0.26472732 0.36297262
0.13778006 0.17436287 0.32230696 0.2651018 0.26650095 0.33558404 0.25242415 0.16136329
0.35498694 0.31138933 0.19085144 0.30156606 0.16810933 0.0938737 0.109839834 0.19198391
0.11998755 0.14576246 0.014653582 0.10124759 0.024374422 0.10347814 0.09362998 0.08274426
0.11966808 0.10652869 0.16348544 0.16274358 0.11419408 0.121883 0.120248266 0.04298592
0.1747866 0.10021875 0.1394088 0.16809343 0.122666456 0.08935562 0.09472554 0.14775163
0.15140148 0.20559469 0.014653582 0.10407474 0.024374422 0.107582904 0.095958196 0.08983744
0.16359837 0.109685384 0.29316074 0.36256728 0.12566608 0.14596707 0.12297292 0.043229938
0.4682333 0.106696166 0.42432672 0.33609757 0.14374584 0.22649607 0.35879532 0.24357164
00000000: 4237 d43e 5755 903e 1fa3 f03d 40dd 823e
00000010: abad aa3d de09 933e 578a 873e 8cd7 b93e
00000020: 3716 0d3e 2e8c 323e 6b05 a53e 6cbb 873e
00000030: d072 883e acd1 ab3e bd3d 813e 6b3c 253e
00000040: d9c0 b53e 6c6e 9f3e 8f6e 433e de66 9a3e
00000050: da24 2c3e db40 c03d b5f3 e03d 6e97 443e
00000060: 08bc f53d c142 153e 9415 703c e55a cf3d
00000070: deac c73c 59ec d33d 13c1 bf3d d375 a93d
00000080: 8a14 f53d b72b da3d ba68 273e 41a6 263e
00000090: 96de e93d cb9d f93d b944 f63d 0112 303d
000000a0: 42fb 323e 7d3f cd3d 2ec1 0e3e af20 2c3e
000000b0: 8d38 fb3d 1400 b73d 77ff c13d 344c 173e
000000c0: fd08 1b3e 6a87 523e 9415 703c 2325 d53d
000000d0: deac c73c 6d54 dc3d bb85 c43d b1fc b73d
000000e0: 5586 273e bba2 e03d 2a19 963e 6ba2 b93e
000000f0: 9cae 003e 6478 153e 3ad9 fb3d e011 313d
00000100: 46bc ef3e 8583 da3d 5a41 d93e fb14 ac3e
00000110: 1c32 133e 96ee 673e 05b4 b73e d86a 793e

mlp3.weight f4 [24, 72]
0.047049217 0.0789101 0.0 0.05513282 0.019041946 0.011507338 0.021921715 0.060804322
0.0 0.045017377 0.04679241 0.0 0.0 0.0 0.0067795278 0.0
0.030780353 0.07675199 0.036492076 0.0 0.012281133 0.02019256 0.011040496 0.0
0.19493851 0.17771786 0.13383682 0.13220868 0.07514434 0.14226632 0.20866358 0.06415387
0.14495859 0.13639712 0.11999074 0.051697638 0.21440399 0.045853604 0.09749108 0.08794742
0.10382692 0.11367886 0.1526738 0.060630627 0.1164851 0.02919148 0.10280281 0.1255258
0.0 0.0 0.0 0.0 0.0 0.0 0.0 0.0
0.0 0.0 0.0 0.0 0.0 0.0 0.0 0.0
0.0 0.0 0.0 0.0 0.0 0.0 0.0 0.0
0.05045202 0.0014967909 0.0 0.0 0.0 0.06515387 0.0 0.008114475
0.001333635 0.0 0.0 0.0 0.011845345 0.03068987 0.0056412662 0.01941537
0.012339962 0.040248867 0.0 0.02678358 0.0 0.026149124 0.0029327183 0.023230683
0.19916132 0.084517956 0.07425198 0.1184925 0.13830698 0.040390205 0.16422077 0.18433686
0.12757872 0.14439943 0.09024957 0.00045419703 0.1353009 0.069980785 0.04652922 0.10742462
0.1178251 0.15971996 0.05807883 0.10202353 0.032376066 0.052390706 0.08974333 0.18780413
0.0405204 0.05088941 0.06812584 0.028854365 0.0711437 0.03962776 0.076687805 0.028860914
0.054431796 0.026034357 0.02358576 0.012116607 0.045400497 0.0031048392 0.004911365 0.015638515
0.061096184 0.03663325 0.015250114 0.02924651 0.009983128 0.00972334 0.03765389 0.034256816
0.044855792 0.035578754 0.03150031 0.018324468 0.0 0.0 0.0409381 0.06542954
0.0 0.04079328 0.013365112 0.0 0.025222467 0.0 0.0 0.0
0.0035207348 0.0 0.0 0.028068798 0.009522972 0.019608576 0.0 0.03091277
0.16435577 0.092146516 0.08198493 0.08496104 0.092281274 0.098840564 0.092688754 0.15338717
0.08425631 0.15161419 0.12590154 0.008392441 0.14253385 0.111487456 0.10694636 0.0474568
0.19577655 0.1397576 0.148723 0.10733398 0.12647513 0.10104816 0.1490282 0.13344865
0.2184981 0.16206546 0.10643677 0.11283651 0.1801865 0.12493454 0.14335291 0.11587024
0.1915052 0.16452198 0.111630015 0.037620414 0.20083459 0.10889101 0.07227079 0.09775611
0.18599474 0.13283338 0.11792231 0.20426038 0.07997648 0.082673535 0.14647537 0.20764342
0.0 0.04898298 0.0027492614 0.06786683 0.011163288 0.0 0.06884524 0.06069198
0.0 0.0 0.038339093 0.0 0.073097676 0.0 0.0 0.0
0.052951172 0.0 0.01347675 0.05286977 0.0044977637 0.0 0.0 0.0
0.093656 0.09410776 0.07807864 0.060363676 0.07620855 0.086002484 0.17004156 0.15806368
0.08062581 0.13187769 0.14974134 0.0042304583 0.17127879 0.004427789 0.08012485 0.06449144
00000000: aeb6 403d 9e9b a13d 0000 0000 f4d2 613d
00000010: dbfd 9b3c 4689 3c3c 2b95 b33c f40d 793d
00000020: 0000 0000 2464 383d 66a9 3f3d 0000 0000
00000030: 0000 0000 0000 0000 cd26 de3b 0000 0000
00000040: 1427 fc3c 2630 9d3d b778 153d 0000 0000
00000050: ce36 493c de6a a53c 32e3 343c 0000 0000
00000060: f69d 473e acfb 353e 850c 093e b661 073e
00000070: 47e5 993d 43ae 113e e8ab 553e 1b63 833d
00000080: 0670 143e b0ab 0b3e b5bd f53d e7c0 533d
00000090: b88c 5b3e fdd0 3b3d 67a9 c73d c71d b43d
000000a0: 35a3 d43d 76d0 e83d 8556 1c3e d257 783d
000000b0: bd8f ee3d f822 ef3c 488a d23d d689 003e
000000c0: 0000 0000 0000 0000 0000 0000 0000 0000
000000d0: 0000 0000 0000 0000 0000 0000 0000 0000
000000e0: 0000 0000 0000 0000 0000 0000 0000 0000
000000f0: 0000 0000 0000 0000 0000 0000 0000 0000
00000100: 0000 0000 0000 0000 0000 0000 0000 0000
00000110: 0000 0000 0000 0000 0000 0000 0000 0000
00000120: c7a6 4e3d f82f c43a 0000 0000 0000 0000
00000130: 0000 0000 646f 853d 0000 0000 93f2 043c
00000140: 5dcd ae3a 0000 0000 0000 0000 0000 0000
00000150: fa12 423c 5269 fb3c 5fda b83b fb0c 9f3c
00000160: 8d2d 4a3c ffdb 243d 0000 0000 3d69 db3c
00000170: 0000 0000 b036 d63c d932 403b 464e be3c
00000180: f2f0 4b3e c017 ad3d 6c11 983d 32ac f23d
00000190: 58a0 0d3e 3370 253d 7d29 283e cdc2 3c3e
000001a0: ffa3 023e 72dd 133e c4d4 b83d 4b21 ee39
000001b0: 528c 0a3e 1652 8f3d 6c95 3e3d 7001 dc3d
000001c0: 494e f13d a18d 233e 11e4 6d3d b6f1 d03d
000001d0: c49c 043d a397 563d 5acb b73d ba4f 403e
000001e0: b8f8 253d 6a71 503d 8f85 8b3d fd5f ec3c
000001f0: cab3 913d b850 223d 7f0e 9d3d b96d ec3c
00000200: e0f3 5e3d 0146 d53c ec36 c13c bc84 463c
00000210: dff5 393d 8f7a 4b3b 84ef a03b 581c 803c
00000220: fe3f 7a3d bf0c 163d 9ddb 793c 6096 ef3c
00000230: 4690 233c a54e 1f3c f73a 1a3d e050 0c3d
00000240: b5ba 373d 07bb 113d 7806 013d 321d 963c
00000250: 0000 0000 0000 0000 b6ae 273d ecff 853d
00000260: 0000 0000 db16 273d 58f9 5a3c 0000 0000
00000270: 599f ce3c 0000 0000 0000 0000 0000 0000
00000280: 21bc 663b 0000 0000 0000 0000 89f0 e53c
00000290: 3d06 1c3c 2aa2 a03c 0000 0000 c73c fd3c
000002a0: e14c 283e 50b7 bc3d b7e7 a73d 0e00 ae3d
000002b0: f7fd bc3d ec6c ca3d 9ad3 bd3d 8711 1d3e
000002c0: 928e ac3d c040 1b3e 55ec 003e 7380 093c
000002d0: 65f4 113e 8953 e43d b106 db3d 1062 423d
000002e0: a679 483e 9e1c 0f3e d84a 183e ebd1 db3d
000002f0: b282 013e 56f2 ce3d d99a 183e c3a6 083e
00000300: f7bd 5f3e 7df4 253e 85fb d93d d416 e73d
00000310: cf82 383e aedd ff3d 1bcb 123e 604d ed3d
00000320: f019 443e 7378 283e 479e e43d dd17 1a3d
00000330: 95a7 4d3e 4002 df3d b502 943d 5b34 c83d
00000340: 6875 3e3e 7905 083e 4181 f13d a229 513e
00000350: b5ca a33d be50 a93d a4fd 153e 7aa0 543e
00000360: 0000 0000 61a2 483d f42c 343b c4fd 8a3d
00000370: 39e6 363c 0000 0000 bcfe 8c3d 2798 783d
00000380: 0000 0000 0000 0000 7409 1d3d 0000 0000
00000390: 3cb4 953d 0000 0000 0000 0000 0000 0000
000003a0: 54e3 583d 0000 0000 96cd 5c3c f98d 583d
000003b0: fa61 933b 0000 0000 0000 0000 0000 0000
000003c0: b8ce bf3d 92bb c03d b2e7 9f3d e73f 773d
000003d0: 3a13 9c3d 1222 b03d 601f 2e3e 72db 213e
000003e0: 251f a53d f20a 073e cb55 193e a89f 8a3b
000003f0: b563 2f3e fc16 913b 7f18 a43d 1714 843d

mlp3.bias f4 [24]
-0.050894625 0.26344565 0.20499694 0.26331156 0.1940513 0.19507723 0.23598947 0.23894817
0.10563784 0.15964046 0.19718742 0.2432892 0.1058995 0.0017529781 0.06753649 0.14499517
0.22043149 0.21268083 0.13301301 0.091781385 0.1373817 0.16309373 0.1466107 0.05360453
00000000: e276 50bd 59e2 863e b8ea 513e c6d0 863e
00000010: 62b5 463e 53c2 473e 39a7 713e d4ae 743e
00000020: a758 d83d ca78 233e 80eb 493e ce20 793e
00000030: d6e1 d83d 2fc4 e53a 9250 8a3d 9d79 143e
00000040: cbb8 613e 01c9 593e 9034 083e e1f7 bb3d
00000050: caad 0c3e 0b02 273e 1e21 163e 6c90 5b3d

bn3.weight f4 [72]
0.44924694 0.43865386 0.4291339 0.44411835 0.42952254 0.43990037 0.45572588 0.4499277
0.42792583 0.43881756 0.4369208 0.41764313 0.44789675 0.42022634 0.42861137 0.43055975
0.44317695 0.44045234 0.43340045 0.4435913 0.42886433 0.42624906 0.4361579 0.44269508
0.5 0.5 0.45243314 0.499305 0.49036947 0.46063554 0.5 0.5
0.46473947 0.4986519 0.4691432 0.37050334 0.5 0.39802405 0.4164859 0.439172
0.5 0.5 0.45796832 0.48672384 0.4376697 0.42957294 0.5 0.5
0.5 0.5 0.4868055 0.475514 0.47826636 0.44452587 0.48778027 0.5
0.4722579 0.5 0.4811839 0.3997201 0.5 0.441592 0.43737885 0.44527045
0.5 0.5 0.43999517 0.48814932 0.4308347 0.44532633 0.4836955 0.5
00000000: b203 e63e 3d97 e03e 70b7 db3e 7b63 e33e
00000010: 61ea db3e 9f3a e13e e754 e93e ec5c e63e
00000020: 1819 db3e b2ac e03e 15b4 df3e 52d5 d53e
00000030: b952 e53e e827 d73e f372 db3e 5472 dc3e
00000040: 17e8 e23e f882 e13e aae6 dd3e 661e e33e
00000050: 1b94 db3e 513d da3e 1750 df3e eea8 e23e
00000060: 0000 003f 0000 003f 51a5 e73e e8a4 ff3e
00000070: b511 fb3e 6cd8 eb3e 0000 003f 0000 003f
00000080: 55f2 ed3e 4d4f ff3e 8a33 f03e 9db2 bd3e
00000090: 0000 003f cfc9 cb3e a43d d53e 27db e03e
000000a0: 0000 003f 0000 003f d37a ea3e de33 f93e
000000b0: 3e16 e03e fcf0 db3e 0000 003f 0000 003f
000000c0: 0000 003f 0000 003f 923e f93e 9276 f33e
000000d0: 54df f43e e598 e33e 56be f93e 0000 003f
000000e0: cacb f13e 0000 003f bc5d f63e 1da8 cc3e
000000f0: 0000 003f 5918 e23e 1ff0 df3e 7dfa e33e
00000100: 0000 003f 0000 003f 0c47 e13e b5ee f93e
00000110: 5e96 dc3e d001 e43e f0a6 f73e 0000 003f

bn3.bias f4 [72]
0.1586053 0.15965869 0.16005716 0.16056307 0.16303882 0.15706396 0.15988523 0.15659575
0.15900488 0.15202592 0.15328807 0.15931675 0.16029465 0.15421517 0.15871383 0.16348428
0.16168249 0.16093719 0.15740143 0.16932051 0.15376265 0.15902841 0.15683697 0.15954944
0.15992467 0.16244015 0.16101265 0.16017188 0.15875366 0.15552264 0.16299903 0.16114478
0.15951829 0.16540894 0.15916057 0.14740586 0.16232125 0.15855108 0.1569981 0.16004662
0.15661535 0.1639758 0.15798008 0.15616499 0.15956785 0.16237573 0.15874542 0.16284224
0.1496913 0.14944543 0.15124579 0.15614247 0.15223043 0.15879793 0.15281405 0.15111549
0.14988327 0.15097617 0.15014622 0.14455715 0.14485067 0.15095995 0.15331994 0.14589594
0.15168191 0.15185471 0.15729928 0.14991727 0.15302446 0.15520895 0.15143405 0.14986685
00000000: 6e69 223e 917d 233e 06e6 233e a56a 243e
00000010: a6f3 263e 60d5 203e f4b8 233e a35a 203e
00000020: 2dd2 223e afac 1b3e 8cf7 1c3e ee23 233e
00000030: 4824 243e 95ea 1d3e e185 223e 6c68 273e
00000040: 1890 253e b8cc 243e d72d 213e 5b62 2d3e
00000050: f573 1d3e 58d8 223e df99 203e ee60 233e
00000060: 4bc3 233e b656 263e 80e0 243e 1904 243e
00000070: 5290 223e 5441 1f3e 38e9 263e 2303 253e
00000080: c358 233e f660 293e fdfa 223e 90f1 163e
00000090: 8b37 263e 375b 223e 1cc4 203e 43e3 233e
000000a0: c65f 203e 46e9 273e 88c5 213e b7e9 1f3e
000000b0: c165 233e d345 263e 298e 223e 1ec0 263e
000000c0: ad48 193e 3908 193e 2de0 1a3e d0e3 1f3e
000000d0: 4be2 1b3e ed9b 223e 497b 1c3e 05be 1a3e
000000e0: 007b 193e 7f99 1a3e eebf 193e ca06 143e
000000f0: bc53 143e 3f95 1a3e e7ff 1c3e bf65 153e
00000100: 8152 1b3e cd7f 1b3e 1013 213e ea83 193e
00000110: 72b2 1c3e 18ef 1e3e 8711 1b3e b276 193e

bn3.running_mean f4 [72]
-0.0012417355 0.005719194 0.0075588077 0.005193762 0.089092106 0.017237475 -0.0034513965 0.075768575
0.03265828 0.08008245 0.008137903 0.19232818 -0.009810857 0.12423166 0.119781494 0.055609446
0.00016918234 0.005292994 0.07584128 0.014456227 0.13277906 0.13906653 0.005718739 -0.0016502269
-0.022358898 -0.017765673 -0.019359328 -0.025836047 0.00028537997 -0.021987865 -0.026003879 0.004155923
-0.0024283838 0.014050639 -0.018212412 0.018640494 -0.03265439 0.019415349 0.017243084 -0.0091591505
-0.028810408 -0.017924441 0.0035675527 -0.0096559925 0.025208488 0.028061891 -0.026318155 -0.02426504
-0.22090903 -0.20670079 -0.21577787 -0.25632584 -0.24748342 -0.25435755 -0.23370689 -0.21668868
-0.17632276 -0.17910859 -0.21084361 -0.2555609 -0.26185533 -0.20248248 -0.21419568 -0.24782209
-0.25798747 -0.20175637 -0.21721284 -0.18085809 -0.19938429 -0.18634823 -0.24547252 -0.23222847
00000000: bbc1 a2ba 1468 bb3b e0af f73b 6f30 aa3b
00000010: ec75 b63d 9b35 8d3c d330 62bb 8e2c 9b3d
00000020: b0c4 053d 4402 a43d d754 053c aef1 443e
00000030: b7bd 20bc 2b6d fe3d 0050 f53d bbc6 633d
00000040: 8a66 3139 da70 ad3b ac52 9b3d d0d9 6c3c
00000050: 3cf7 073e 7567 0e3e 4264 bb3b 6d4c d8ba
00000060: 022a b7bc 5189 91bc 7497 9ebc 1ea6 d3bc
00000070: 0d9f 9539 e51f b4bc 1606 d5bc 692e 883b
00000080: 8525 1fbb a734 663c 3232 95bc f3b3 983c
00000090: 9cc0 05bd f00c 9f3c 5e41 8d3c 4310 16bc
000000a0: ce03 ecbc 47d6 92bc 9acd 693b 2b34 1ebc
000000b0: 0882 ce3c 0de2 e53c 2c99 d7bc 7ac7 c6bc
000000c0: fa35 62be 5fa9 53be e0f4 5cbe 243d 83be
000000d0: 4b6c 7dbe 273b 82be dc50 6fbe a3e3 5dbe
000000e0: f48d 34be 3e68 37be 63e7 57be e1d8 82be
000000f0: e711 86be 9157 4fbe 1d56 5bbe 13c5 7dbe
00000100: ef16 84be 3999 4ebe 0b6d 5ebe dd32 39be
00000110: 652b 4cbe 12d2 3ebe 265d 7bbe 4dcd 6dbe

bn3.running_var f4 [72]
0.2097409 0.21181813 0.21799283 0.22531074 0.30733588 0.23721544 0.21256773 0.27887255
0.22380434 0.26772133 0.21585497 0.44129023 0.21550152 0.32532647 0.3219522 0.2725738
0.2233069 0.20901166 0.28016332 0.20986997 0.3251985 0.32973835 0.2265159 0.21302088
0.1843674 0.18325932 0.18410645 0.18792258 0.19646461 0.18943669 0.18503913 0.19331713
0.18080759 0.19023195 0.18407887 0.20284683 0.18719889 0.19494046 0.19644934 0.19218186
0.18815242 0.180523 0.19235389 0.18074101 0.19555546 0.19512348 0.18627785 0.18553941
0.5491901 0.53239644 0.5470018 0.6221573 0.70305645 0.62674755 0.5719475 0.63820785
0.5106124 0.5715649 0.5376648 0.7833815 0.61671054 0.6428816 0.66504365 0.67254376
0.6156581 0.51888907 0.632794 0.4940192 0.6635409 0.63209015 0.60172886 0.5641544
00000000: 52c6 563e dae6 583e 8339 5f3e dcb7 663e
00000010: 215b 9d3e 9be8 723e 5bab 593e 62c8 8e3e
00000020: f72c 653e c512 893e 1609 5d3e cbf0 e13e
00000030: 6eac 5c3e 3191 a63e ebd6 a43e cb8e 8b3e
00000040: 90aa 643e 2707 563e 9171 8f3e 27e8 563e
00000050: 6b80 a63e 77d3 a83e c9f3 673e 2522 5a3e
00000060: cfca 3c3e 55a8 3b3e 6786 3c3e c76e 403e
00000070: 052e 493e b1fb 413e e67a 3d3e edf4 453e
00000080: a025 393e 2acc 423e 2c7f 3c3e 14b7 4f3e
00000090: 11b1 3f3e 799e 473e 042a 493e 52cb 443e
000000a0: 07ab 403e 05db 383e 6bf8 443e 2c14 393e
000000b0: b13f 483e 73ce 473e 9fbf 3e3e 0bfe 3d3e
000000c0: b997 0c3f 224b 083f 4f08 0c3f b345 1f3f
000000d0: 82fb 333f 8772 203f 276b 123f 9761 233f
000000e0: 7fb7 023f 1452 123f 66a4 093f b18b 483f
000000f0: bee0 1d3f e393 243f 4d40 2a3f d42b 2c3f
00000100: c59b 1d3f ead5 043f cafe 213f 16f0 fc3e
00000110: d1dd 293f a9d0 213f e70a 1a3f 6c6c 103f

mlp4.weight f4 [1, 72]
0.08984846 0.14833163 0.099230215 0.11571294 0.06106694 0.073350586 0.09727654 0.09920641
0.11855305 0.09576167 0.14702167 0.13042691 0.24017538 0.06384484 0.09585651 0.25074425
0.13596524 0.10877541 0.10644246 0.087360196 0.10404994 0.08663327 0.13743973 0.12707455
0.07869911 0.117128655 0.1650906 0.15999626 0.015076106 0.056481726 0.1496437 0.16345413
0.15337448 0.0484647 0.15974423 0.10830849 0.19679244 0.030549979 0.1258795 0.116384625
0.11035477 0.1466799 0.09229002 0.0013877983 0.1445579 0.06749287 0.027589235 0.1850907
0.0 0.0 0.0 0.0 0.0 0.0 0.0 0.0
0.0 0.0 0.0 0.0 0.0 0.0 0.0 0.0
0.0 0.0 0.0 0.0 0.0 0.0 0.0 0.0
00000000: 7802 b83d 3fe4 173e 3639 cb3d e8fa ec3d
00000010: 5421 7a3d d538 963d ec38 c73d bb2c cb3d
00000020: f1cb f23d b21e c43d d98c 163e a28e 053e
00000030: 89f0 753e 15c1 823d 6b50 c43d 8d61 803e
00000040: 793a 0b3e a4c5 de3d 81fe d93d e7e9 b23d
00000050: 2318 d53d c96c b13d 00bd 0c3e d51f 023e
00000060: 002d a13d 26e1 ef3d 830d 293e 0fd6 233e
00000070: c601 773c 6259 673d 333c 193e 8560 273e
00000080: 330e 1d3e ec82 463d fe93 233e d7d0 dd3d
00000090: f583 493e f343 fa3c 8ee6 003e 105b ee3d
000000a0: af01 e23d 4133 163e 8d02 bd3d c9e6 b53a
000000b0: fc06 143e b439 8a3d d202 e23c 6b88 3d3e
000000c0: 0000 0000 0000 0000 0000 0000 0000 0000
000000d0: 0000 0000 0000 0000 0000 0000 0000 0000
000000e0: 0000 0000 0000 0000 0000 0000 0000 0000
000000f0: 0000 0000 0000 0000 0000 0000 0000 0000
00000100: 0000 0000 0000 0000 0000 0000 0000 0000
00000110: 0000 0000 0000 0000 0000 0000 0000 0000
