utility-model-selected/dim-3/utility-89.pt (torch, 23458 bytes, 17 tensors)

bn1.running_mean f4 [3]
000000 e2 82 00 3f df 04 00 3f 3b 6e ff 3e
       0.5019971 0.5000743 0.49888787

bn1.running_var f4 [3]
000000 1e 52 67 3d 28 14 5c 3d cf ad 58 3d
       0.056474797 0.05373016 0.05290013

mlp1.weight f4 [24, 3]
000000 c8 f5 53 3e 3c 94 80 3e 36 d9 e0 3e 08 81 fc 3d
       0.20699227 0.25113094 0.4391572 0.12329298
000010 46 c4 ed 3e 46 90 9d 3e da cb d1 39 75 23 3f 3e
       0.46438807 0.30774134 0.00040015468 0.1866587
000020 0b 40 37 3e 28 8c 7a 3e db 25 81 3e 71 14 1d 3e
       0.17895524 0.24467528 0.25224194 0.15339829
000030 2c 08 eb 3e 1e 92 3c 3e 0d a6 ef 3e 93 7b d0 3e
       0.45904672 0.18415114 0.46806374 0.4071928
000040 bc 83 f3 3e 29 eb d6 3e a1 f6 3b 3e 64 85 94 3d
       0.47561443 0.41976288 0.183558 0.07252005
000050 88 ec c6 3e c5 cf 9a 3e 1d b1 9c 3d a6 cf c4 3e
       0.38852334 0.3023664 0.07650969 0.38439673
000060 8b 4f 5d 3e 20 1e 04 3e 9f 11 c1 3e 56 c6 3f 3e
       0.21612374 0.12902117 0.37708756 0.18728003
000070 b2 4a 79 3e 02 3e ff 3e 78 25 db 3e 57 c6 74 3e
       0.243449 0.49851996 0.42802024 0.23903786
000080 5a f2 ff 3e 61 24 04 3d aa 81 1d 3e 8f 12 38 3e
       0.49989587 0.032261256 0.15381494 0.1797583
000090 74 75 d4 3e 94 31 e3 3e 60 bb ff 3e 47 f2 b5 3e
       0.4149586 0.44373763 0.49947643 0.35536405
0000a0 8a fc bc 3e bb 99 fe 3e c1 a3 d9 3d 07 e4 ac 3d
       0.36911422 0.49726662 0.10626937 0.0844193
0000b0 14 17 09 3e 98 6e 4e 3e 1d dc b7 3e 0d 4b fa 3e
       0.1338771 0.20159376 0.3591012 0.48885384
0000c0 00 00 00 00 59 23 bb 3e f9 1e ff 3e 8e d8 e4 3b
       0.0 0.36550406 0.49828318 0.006983823
0000d0 f7 44 19 3e 2a 62 3c 3e 00 00 00 00 fe 68 dd 3e
       0.14967714 0.18396822 0.0 0.43244165
0000e0 40 5f 61 3e 56 ec ea 3d c3 e0 ff 3e 12 ab 01 3e
       0.22008991 0.11470859 0.49976167 0.12662914
0000f0 45 88 cf 3e 3d 7d 79 3e 1c 4e eb 3e f1 34 98 3e
       0.40533653 0.24364181 0.4595803 0.2972789
000100 2c b9 cb 3e 8f 84 ef 3e ec 65 eb 3d 65 7a 27 3d
       0.39789712 0.46780822 0.114940494 0.04088821
000110 b7 8d fc 3e 81 83 74 3e 6a a4 47 3e 45 23 ff 3e
       0.4932687 0.2387829 0.19496313 0.49831596

mlp1.bias f4 [24]
000000 73 0a 02 bf 74 87 e0 3d e5 10 e4 be 88 30 78 be
       -0.50797194 0.10963336 -0.4454414 -0.24237263
000010 36 8b 2a bf 11 a6 03 be db fc 55 3d bd b2 6a be
       -0.6661867 -0.12856318 0.052243095 -0.22919746
000020 96 3d 8d bd ad 1a 01 3f 80 2a ba bd 1e 1d d4 3e
       -0.06896512 0.5043133 -0.090901375 0.41428465
000030 7e 0a 5d be 65 56 bd 3d 3b dd 82 3e 45 5b 50 3e
       -0.21586034 0.09244994 0.2555941 0.20347317
000040 ec 79 25 3e 20 09 b3 3e 30 72 d4 be 29 32 04 bf
       0.16159791 0.349679 -0.41493368 -0.5163904
000050 50 d5 f1 3d 40 63 5a 3e 3b 58 ee 3e d8 74 ae 3e
       0.11808264 0.21326923 0.4655169 0.3407352

mlp2.weight f4 [24, 72]
000000 02 6f a8 3d 43 1c ae 3d 0b 2c c3 3d b3 65 9d 3b
       0.08224298 0.08501484 0.09529885 0.0048033833
000010 02 89 dc 3d 78 b2 43 3c be 9d b4 3d be d8 a1 3a
       0.1076832 0.011944406 0.088191494 0.0012347919
000020 27 4c b5 3c 22 6f 96 3d 65 b8 fd 3c 94 a8 13 3d
       0.022131039 0.07345416 0.030971715 0.03604944
000030 d5 6c c5 3c a6 bf 51 3c cc 79 8f 3c 44 96 ef 3d
       0.024099747 0.01280204 0.017514132 0.11698583
000040 05 ab ee 3d 64 f9 ce 3d 71 93 1e 3e c6 26 e3 3d
       0.11653713 0.10106161 0.15485932 0.1109138
000050 9e ee b3 3d e5 e8 97 3c 73 f2 b8 3b 30 12 c1 3d
       0.08785747 0.01854367 0.0056441366 0.09427297
000060 86 30 c0 3d 57 79 98 3d 9d 4f de 3d 69 a2 bc 3b
       0.09384255 0.07445019 0.10855029 0.0057566655
000070 ec 46 72 3d ce 44 8a 3d 8e 10 cc 3d 69 b4 f9 3d
       0.059149668 0.06751405 0.09964095 0.12192614
000080 91 5c ad 3d 46 8e 11 3d 1b 01 ab 3c 3c 00 54 3d
       0.08464921 0.035536073 0.02087455 0.051758036
000090 95 57 e7 3c 87 00 11 3d bf 8d 99 3c 7b c2 29 3d
       0.028240005 0.035400894 0.018744348 0.041445237
0000a0 fc 06 df 3d ad 57 8c 3d c8 f5 59 3e 49 d3 94 3d
       0.10890004 0.0685266 0.21285164 0.07266862
0000b0 4a 47 37 3c a3 a5 99 3d ce fa b3 3c 42 18 bf 3c
       0.01118643 0.07502296 0.021970179 0.023326997
0000c0 e6 d6 12 3e 1b 3c 9f 3d 90 fc 12 3e 72 0c 04 3c
       0.1433979 0.07775136 0.14354157 0.008059608
0000d0 6c 1d 67 3c be c3 c0 3c 73 6f 2e 3d 36 cc 57 3d
       0.014106136 0.023530837 0.042586755 0.052684985
0000e0 fb 2c a9 3d 6c bd 44 3d db f5 a7 3c dd 08 54 3d
       0.082605325 0.04803221 0.020502975 0.051766265
0000f0 b8 d0 0e 3d ea 60 20 3d 9d 14 98 3c e9 4d 95 3d
       0.03486702 0.039154924 0.018564517 0.07290251
000100 f2 48 12 3e b3 b5 07 3e a0 9c 21 3e 7f 51 c7 3d
       0.14285639 0.13252907 0.15782404 0.09732341
000110 dc ad b7 3c f8 9a 35 3d 17 ea f9 3d dc c2 b1 3d
       0.02242177 0.044337243 0.12202852 0.086797446
000120 6d 30 02 3e a2 e2 07 3e 85 a3 43 3e 2f 89 4d 3d
       0.12713785 0.13270047 0.19105347 0.050179657
000130 1c 23 c1 3d f9 00 ed 3c ac da 2e 3b c7 9f 47 3d
       0.09430525 0.028931128 0.0026680632 0.04873636
000140 a6 05 62 3b 33 44 d2 3d 18 89 6e 3d 64 4f 22 3d
       0.003448823 0.10266914 0.05823621 0.039626494
000150 dc 76 53 3d 18 72 6a 3c f6 b5 87 3c 39 0b 8f 3d
       0.051627025 0.014309429 0.016566258 0.069845624
000160 fc fd be 3d 94 b1 ea 3d b1 ea 3b 3e 24 56 bc 3d
       0.093257874 0.114596516 0.18351246 0.091961175
000170 46 cf 5d 3c 71 be 82 3d cd fa 82 3d 9b f1 37 3d
       0.013538187 0.0638398 0.06395493 0.044908147
000180 42 5f db 3d 04 59 00 3d de 53 08 3e 87 5d f8 3b
       0.10711528 0.031334892 0.13313243 0.0075795087
000190 b8 27 3a 3d d9 ae e5 3d db 1c 89 3d a8 ef 7b 38
       0.045448035 0.1121499 0.06694957 6.006626e-05
0001a0 0a ad b8 3d e2 4b 8d 3c 97 be 80 3d f1 62 52 3d
       0.090173796 0.017248098 0.06286352 0.05136389
0001b0 3c b8 e2 3c 47 88 b9 3d ab eb 8a 3c 70 2c c7 3d
       0.02767574 0.09059196 0.016958078 0.09725273
0001c0 af e2 ba 3d a3 25 e4 3d e2 3b 0a 3e f7 59 2c 3d
       0.09125268 0.11139991 0.13499406 0.042077985
0001d0 86 e2 d6 3b 1c 28 5f 3d 0e 7a 80 3d 05 f9 b4 3d
       0.0065577654 0.05448161 0.0627328 0.08836559
0001e0 67 ad e0 3d 53 57 72 3d 3d 55 0c 3e 93 42 0e 3c
       0.10970574 0.05916531 0.13704391 0.008682865
0001f0 53 20 5e 3c 10 aa 52 3d 4f 44 3b 3c 2d c6 36 3c
       0.013557511 0.051431715 0.01142986 0.011155647
000200 6e 27 99 3c 65 2f 3f 3d 2c d8 9c 3c 1a a7 95 3d
       0.01869556 0.04667606 0.019146048 0.07307263
000210 f6 49 06 3d db d8 16 3d af cd 89 3c 4e 23 42 3d
       0.03278538 0.036827903 0.01682171 0.04739695
000220 9a b6 11 3e dd f1 1f 3e dd 9a d4 3d eb f7 4d 3c
       0.14229813 0.15619607 0.103811 0.012571315
000230 5a 39 a0 3c 4d 11 26 3d b6 5d ac 3d 4c 4f fb 3c
       0.019558597 0.040543843 0.084163114 0.03067746
000240 14 8a 55 3d 69 3d 88 3c 64 e3 e6 3d 30 2b 9e 3b
       0.052133635 0.016630845 0.1127384 0.0048269257
000250 04 71 20 3d 5d cb d0 3b 6e c9 89 3c ab 27 38 3a
       0.03917028 0.006371899 0.016819682 0.0007024954
000260 77 ad 89 3c d0 24 6c 3d 4d 8e 96 3c f2 a2 32 3d
       0.016806347 0.057652295 0.018378401 0.043612428
000270 b6 4b 39 3d 29 db 76 3c 63 db 67 3c d5 d4 f7 3d
       0.04523822 0.0150669 0.014151427 0.12101141
000280 8e 97 cb 3d 38 4a ee 3d ff 11 d7 3d 17 4b ca 3d
       0.09941016 0.1163525 0.10501479 0.098776035
000290 3b 4d 86 3b 95 5d f9 3c 9e 25 67 3d fb a9 97 3c
       0.004098562 0.030440131 0.05643236 0.01851367
0002a0 04 e4 c7 3d cd 85 01 3e e1 ee 14 3e 7e d1 35 3c
       0.097602874 0.12648697 0.1454425 0.01109731
0002b0 ca 0d b0 3d 41 5f e0 3d 2a c7 1d 3d ca 2f 99 3c
       0.0859638 0.10955668 0.038520016 0.018699545
0002c0 a6 3e c4 3b 9e be d6 3d 7f 7b 7d 3d 93 4b 56 3d
       0.0059889136 0.10485576 0.061885353 0.052318167
0002d0 f5 61 e3 3d ee 08 d1 3d e3 ee 9f 3c 33 d7 e2 3d
       0.11102668 0.10206781 0.01952309 0.11076202
0002e0 d1 73 1f 3e 9e bd c2 3d 76 d9 40 3e 7b d4 d4 3c
       0.15571524 0.09508823 0.18832955 0.025980225
0002f0 f2 db f3 3c ea 42 e2 3d b3 f2 3f 3c 0d 62 38 3c
       0.029767964 0.11047919 0.011715579 0.011253846
000300 28 e4 fe 3d 04 ca 70 3d 22 66 c9 3d d7 af 23 3c
       0.12445861 0.058786407 0.098339334 0.009990654
000310 39 44 3d 3c 98 1c d2 3c 2c 2d 9e 3d b5 41 0c 3c
       0.01155191 0.0256484 0.077234596 0.008560588
000320 17 98 79 3d 27 99 be 3d cf 0c 78 3c 06 af 8c 3d
       0.06093606 0.09306555 0.015139773 0.068693206
000330 31 72 30 3d 2a 8b 05 3d 6b 60 81 3c 53 dc da 3d
       0.04307765 0.03260342 0.015793046 0.10686555
000340 fd 2c 22 3e 92 23 03 3e 0c 07 5d 3d d2 b1 0b 3c
       0.15837474 0.12806538 0.0539618 0.008526282
000350 e9 59 6e 3c 9d d1 71 3d bf af 31 3d 41 91 41 3d
       0.014547803 0.059037793 0.043380495 0.047257666
000360 32 a4 2a 3d 96 4c f2 3d ec 4d f1 3d f3 3b 8a 3b
       0.041660495 0.11831014 0.117824405 0.0042185723
000370 bb 91 95 3d 0b 11 8d 3d 2d 21 16 3d 35 8a 15 3d
       0.073031865 0.06888016 0.036652733 0.036508758
000380 03 f7 73 3b 97 76 de 3d 05 a6 da 3c 39 97 b6 3d
       0.0037226088 0.10862463 0.026690492 0.08915562
000390 9f 71 49 3d 36 6c 69 3c e5 69 56 3c 90 ef 19 3e
       0.049180623 0.014246991 0.013086771 0.15032792
0003a0 37 11 37 3e 67 fa b0 3d a3 92 3f 3e 62 59 5a 3c
       0.1787766 0.086415105 0.18708281 0.013326975
0003b0 e6 69 8b 3b 84 a9 78 3d a3 5d f3 3c 84 61 af 3d
       0.0042545674 0.060708538 0.029707735 0.085635215
0003c0 33 ea 14 3e 20 0b 36 3d e2 89 c4 3d 9e 40 b3 3b
       0.14542465 0.044444203 0.095966116 0.0054703495
0003d0 f7 67 9a 3d 6b 1a 9b 3d 19 54 0a 3d 22 06 be 3b
       0.07539361 0.07573398 0.033771608 0.005799071
0003e0 e0 10 9b 3d b2 08 97 3d 02 38 c2 3c 4e 41 59 3d
       0.07571578 0.073747054 0.023708347 0.053040795
0003f0 b2 e3 c7 3d 11 14 a0 3d 34 03 72 3c 50 81 9a 3d
       0.09760226 0.07816327 0.0147712715 0.07544196

mlp2.bias f4 [24]
000000 19 f1 85 3d 80 6c 83 3d 98 ee 07 bd 1f 91 df 3c
       0.06540126 0.06417179 -0.033186525 0.027290879
000010 d8 ff c5 3a c7 23 a8 bc 0e 79 4f 3d 78 52 fc 3c
       0.0015106155 -0.020524872 0.050652556 0.030801043
000020 15 f5 7d 3d 7d bd 48 bd cb 5b 86 3d 94 1f 91 bd
       0.062001307 -0.049008835 0.06560477 -0.07086101
000030 eb a1 f4 bc 92 a8 0c 3d 72 a2 d7 bc 73 8e 47 3d
       -0.029862365 0.03434045 -0.026322577 0.048719835
000040 1c f4 6b bd 87 67 3e 3d 83 ca 06 3d 75 51 07 bd
       -0.057605848 0.04648545 0.032907974 -0.033036668
000050 4c db 2c bd fc 35 b7 3c d1 99 92 bd a7 08 18 3d
       -0.042201325 0.022364609 -0.071582444 0.037117627

bn2.weight f4 [72]
000000 e4 1f f5 3e 8f c7 ff 3e 00 00 00 3f 18 e6 e0 3e
       0.47875893 0.4995694 0.5 0.43925548
000010 58 4e f9 3e 15 74 ec 3e 6a 5f ed 3e a8 46 e1 3e
       0.48692584 0.46182314 0.46361858 0.4399922
000020 e9 2a e3 3e 12 e5 f8 3e 59 56 e2 3e 9a cf ff 3e
       0.44368675 0.48612267 0.44206503 0.49963075
000030 99 16 eb 3e d4 f5 e5 3e e1 9b d6 3e e6 bf ff 3e
       0.45915678 0.44914114 0.419158 0.49951094
000040 cd a8 ff 3e 00 00 00 3f 00 00 00 3f b2 8c fb 3e
       0.49933472 0.5 0.5 0.4913078
000050 d8 d8 d2 3e f7 60 f6 3e 74 15 f1 3e f0 03 f9 3e
       0.41181064 0.48120853 0.4708668 0.48635817
000060 b9 7a f6 3e de a9 ff 3e 00 00 00 3f 36 9d e1 3e
       0.48140505 0.49934286 0.5 0.44065255
000070 42 9c fc 3e 2f b5 f4 3e bb 10 f2 3e 79 9c ee 3e
       0.49337965 0.47794482 0.4727839 0.46603754
000080 d5 f0 f5 3e d8 68 f0 3e 2e 76 e9 3e 00 00 00 3f
       0.48035303 0.4695499 0.45597976 0.5
000090 6c 80 ef 3e 28 24 f8 3e 90 a6 da 3e 7c 1c ff 3e
       0.46777666 0.48465085 0.42705202 0.4982642
0000a0 6f b1 ff 3e 00 00 00 3f 00 00 00 3f f7 1f fc 3e
       0.4994006 0.5 0.5 0.49243137
0000b0 58 9e df 3e f3 e3 fa 3e 53 74 f2 3e f3 52 f4 3e
       0.43675494 0.49002036 0.47354373 0.47719535
0000c0 00 00 00 3f dc eb ff 3e 00 00 00 3f 86 ce d2 3e
       0.5 0.49984634 0.5 0.4117319
0000d0 e3 88 d9 3e 89 ea d7 3e 37 1d f4 3e be 83 e7 3e
       0.4248725 0.42171124 0.4767854 0.452177
0000e0 50 76 f1 3e ee b1 f6 3e e8 4a e7 3e 00 00 00 3f
       0.47160578 0.48182625 0.45174336 0.5
0000f0 92 63 e5 3e f6 30 eb 3e 79 d0 da 3e 7e 1c f8 3e
       0.4480253 0.45935792 0.42737177 0.48459238
000100 00 00 00 3f 00 00 00 3f b8 f1 ff 3e 12 31 f2 3e
       0.5 0.5 0.49989104 0.47303063
000110 4e c2 df 3e 6e 13 ea 3e 00 00 00 3f 52 cd f7 3e
       0.4370293 0.4571795 0.5 0.48398834

bn2.bias f4 [72]
000000 5a 6d 11 bc 12 ed 6d bb 1b af 91 ba 88 e8 20 bd
       -0.008876169 -0.0036304635 -0.0011114808 -0.03928426
000010 ee b2 1c bb e7 c3 37 bc 67 2a db bc 5d 66 51 bc
       -0.0023910361 -0.01121614 -0.026753617 -0.012780753
000020 f9 bd c4 bc cb 6c 8d bc 2d 5b a5 bc eb b3 6b bc
       -0.024016367 -0.01726379 -0.020185078 -0.0143861575
000030 c9 b6 bd bc a2 ef e3 bc 3a fa 38 bd 64 25 89 bb
       -0.023158448 -0.027824227 -0.04516051 -0.0041853655
000040 3f 31 a3 3a e0 ed b2 3b ba c3 20 3c 3a 58 4a bc
       0.001245059 0.005460486 0.00981229 -0.012350136
000050 78 cd 21 bd 17 81 40 bc 66 b6 3a bc 9b 97 9f bc
       -0.03950259 -0.011749527 -0.011396026 -0.01948147
000060 3d a7 df 3a 46 79 5e bc ac c1 99 3c a1 61 ca bc
       0.0017063391 -0.0135787185 0.018769108 -0.024704756
000070 75 0e 04 3a 48 e5 5b bc 87 a1 e5 bc e8 e2 cd bc
       0.00050375547 -0.013421364 -0.028031124 -0.025132611
000080 19 c5 56 bc ba 0a d5 bc 2d 3f fd bc c1 ce 46 bc
       -0.013108515 -0.026006091 -0.030913914 -0.012134255
000090 43 4a b8 bc 00 52 b1 bc ff b7 3b bd 52 5d bc bc
       -0.022496348 -0.021645546 -0.04582977 -0.022993717
0000a0 0f 8f 26 3c 04 d2 85 bc fa a3 bb ba 7a d8 4b 3a
       0.010165944 -0.016335495 -0.0014315837 0.0007776093
0000b0 09 c0 10 bd 7a 0f e4 bc d9 6d c3 bc c9 4f a6 bc
       -0.03533939 -0.027839411 -0.02385609 -0.020301716
0000c0 9c db a0 bc cc b0 fe bb 79 9c 16 bc 85 bb fb bc
       -0.019635968 -0.0077725407 -0.009192579 -0.030729065
0000d0 1d 59 03 bd dd 20 3d bd 54 45 fe bc 8d 85 16 bd
       -0.032067407 -0.04617392 -0.031038918 -0.036748458
0000e0 0b e0 f3 bc 9e 2f de bc 4a 58 e4 bc ef f3 4c bc
       -0.029769918 -0.027122315 -0.02787413 -0.01250933
0000f0 58 9f f5 bc ce 3e 36 bd 7a 0a 44 bd 21 bb 10 bd
       -0.029983208 -0.04449349 -0.047861554 -0.03533471
000100 8d 6b 0b bc 1c f4 0b ba 99 6d 15 bc 25 79 c8 bc
       -0.008509529 -0.00053388043 -0.009120368 -0.024471829
000110 39 0e 18 bd c3 c5 23 bd 65 3e d5 bc d1 ee 19 bd
       -0.03712294 -0.039983522 -0.026030729 -0.03758127

bn2.running_mean f4 [72]
000000 57 e5 8e be 26 94 1f 3e e0 03 ba be 51 f3 39 be
       -0.27909347 0.15583858 -0.3633108 -0.18159224
000010 f7 c4 95 be 86 e6 f7 3c 4e b5 8d 3d f6 f2 09 be
       -0.29251835 0.03026129 0.06919347 -0.13471588
000020 e2 74 db bc 5f 1d 02 3f 38 4f 09 3d 3b 59 d1 3e
       -0.026789133 0.50826067 0.033522815 0.4088839
000030 b4 14 88 bc b9 81 35 3e 28 f1 82 3e 54 1a 7e 3e
       -0.016611435 0.17725267 0.25574613 0.24814731
000040 5a 62 4f 3e 95 58 b2 3e c7 87 80 be c3 fb 8f be
       0.20252362 0.34833208 -0.2510359 -0.28121766
000050 6a fa 39 3e 64 c1 87 3e b5 c6 ec 3e 10 7d b7 3e
       0.18161932 0.26514733 0.4624535 0.35837603
000060 1a 72 91 be 8f 57 87 3d e0 03 ba be a5 98 3c be
       -0.28407365 0.06608497 -0.3633108 -0.18417604
000070 5f ad 9b be 60 26 7a bd 68 fc 0d 3d 54 2e 19 be
       -0.3040571 -0.061071754 0.03466454 -0.14959079
000080 2e 98 48 bd 22 ad 87 3e 14 05 44 bd 71 ef b2 3e
       -0.048973255 0.26499277 -0.047856405 0.34948304
000090 aa ba c8 bd 7b fa 32 3d 1e 9f 7c 3e 06 3d dd 3d
       -0.09801228 0.043695908 0.24670073 0.10802655
0000a0 7b ef ae 3d 12 50 9e 3e 73 a9 81 be fd b2 90 be
       0.08541771 0.30920464 -0.25324592 -0.28261557
0000b0 75 e1 75 3d 16 bc d8 3d 42 ff 87 3e 18 9f 3f 3e
       0.060029466 0.105827495 0.26561934 0.18713033
0000c0 69 b0 03 bf 1c 23 ca 3c cc f8 e3 be 83 3d 79 be
       -0.51441056 0.024674945 -0.44525754 -0.24339871
0000d0 eb b6 2b bf 3b ae 5e be 0b e9 87 3c de b1 78 be
       -0.67075986 -0.21746151 0.016590616 -0.24286601
0000e0 4c 2c ba bd 1e ec 83 3e 17 32 31 be 71 ef b2 3e
       -0.0909048 0.2576608 -0.17304264 0.34948304
0000f0 1c 9f 98 be 90 ba 21 bd 1e 9f 7c 3e a0 b2 81 3d
       -0.2980889 -0.03948456 0.24670073 0.06332898
000100 92 ca 1b 3d 12 50 9e 3e 3a c6 d6 be b4 55 04 bf
       0.038034983 0.30920464 -0.4194811 -0.5169327
000110 18 f7 4b bb f7 04 58 3d 3a 69 87 3e 92 99 2e 3e
       -0.003112262 0.05273911 0.2644747 0.1705077

bn2.running_var f4 [72]
000000 e3 d4 cc 3d 2b d9 87 3e e4 86 e7 3c 07 e2 c5 3d
       0.100015424 0.26532874 0.028262563 0.09662252
000010 3e 7f f4 3d c2 61 a6 3e b6 57 2a 3e 90 ed 12 3e
       0.11938332 0.32496458 0.16635022 0.14348435
000020 80 b0 1f 3e fb 68 aa 3e 9f c8 97 3e 55 48 6e 3d
       0.15594673 0.3328322 0.2964525 0.05817445
000030 f3 19 a1 3e cd 93 ba 3e 0d f6 18 3d 10 2a aa 3e
       0.3146511 0.36440888 0.037344027 0.33235216
000040 30 2e 9b 3e e5 f6 6a 3d c2 0c c0 3d 60 88 b1 3d
       0.30308676 0.057364363 0.09377433 0.086685896
000050 5f ca a7 3e 8e 9d bd 3e 84 32 83 3e d7 7b a1 3e
       0.32771584 0.37034267 0.25624478 0.31539795
000060 74 11 b9 3d b0 89 1a 3e e4 86 e7 3c b0 01 bd 3d
       0.09036532 0.15091586 0.028262563 0.092288375
000070 d5 93 c4 3d f6 e1 2e 3e 14 98 fe 3d 92 0d f5 3d
       0.09598509 0.17078385 0.1243135 0.11965479
000080 06 ae ff 3d 9c 92 d0 3d 7e b2 26 3e b7 a1 ef 3c
       0.12484364 0.101842135 0.16279027 0.029251916
000090 09 93 2c 3e a2 f4 28 3e 87 06 01 3d f9 25 1a 3e
       0.16852964 0.1649957 0.031500366 0.15053548
0000a0 6f 34 1c 3e 2d f1 11 3d 57 49 b8 3d e5 18 ac 3d
       0.15254377 0.035630394 0.089983635 0.08403186
0000b0 71 27 1f 3e 91 e4 1e 3e 84 06 b3 3d 20 87 01 3e
       0.1554239 0.15516879 0.08741477 0.12649202
0000c0 50 64 96 3e da 2f 5b 3e 9c 9d 8b 3d 89 59 16 3e
       0.29373407 0.21404973 0.06817171 0.14682592
0000d0 8f dc e1 3e d9 30 ce 3e 17 e7 17 3e a4 f3 61 3e
       0.44113585 0.40271643 0.14834248 0.22065598
0000e0 0b 0d 34 3e 2f fc ec 3d 9d e9 b0 3e b7 a1 ef 3c
       0.175831 0.11571538 0.34553233 0.029251916
0000f0 9b cc ea 3e 3a 8c 9a 3e 87 06 01 3d 01 bc 66 3e
       0.45859227 0.3018511 0.031500366 0.22532655
000100 15 85 68 3e 2d f1 11 3d 79 f1 6f 3e 97 fb 8f 3e
       0.22707017 0.035630394 0.23431958 0.28121635
000110 38 58 83 3e a3 ad 7c 3e c3 26 b7 3d 8c 24 1f 3e
       0.25653243 0.24675612 0.0894294 0.15541285

mlp3.weight f4 [24, 72]
000000 00 00 00 00 00 00 00 00 00 00 00 00 00 00 00 00
       0.0 0.0 0.0 0.0
000010 00 00 00 00 00 00 00 00 00 00 00 00 00 00 00 00
       0.0 0.0 0.0 0.0
000020 00 00 00 00 00 00 00 00 00 00 00 00 00 00 00 00
       0.0 0.0 0.0 0.0
000030 00 00 00 00 00 00 00 00 00 00 00 00 00 00 00 00
       0.0 0.0 0.0 0.0
000040 00 00 00 00 00 00 00 00 00 00 00 00 00 00 00 00
       0.0 0.0 0.0 0.0
000050 00 00 00 00 00 00 00 00 00 00 00 00 00 00 00 00
       0.0 0.0 0.0 0.0
000060 14 35 13 3e 3a 45 37 3e f6 01 52 3e f2 92 7b 3e
       0.14375716 0.17897502 0.2050856 0.24567774
000070 64 8b fb 3d a1 00 2a 3e 61 33 1f 3e 39 17 09 3e
       0.12282446 0.16601802 0.15546943 0.13387765
000080 ec 18 50 3e 86 6a 20 3e 6b d0 33 3e 07 66 21 3e
       0.20322007 0.15665635 0.17559974 0.15761577
000090 71 22 00 3e bc 91 3b 3e a2 96 61 3e 75 be 35 3e
       0.12513138 0.18317312 0.22030118 0.17748435
0000a0 dd df 2d 3e d1 f6 df 3d 71 cf 80 3e 63 af 1a 3e
       0.16979928 0.10935748 0.25158265 0.15105967
0000b0 3d c7 0a 3e 95 18 4d 3e 79 1b f1 3d 16 c0 30 3e
       0.13552566 0.20028909 0.11772818 0.17260775
0000c0 94 23 9d 3c 34 a0 19 3d e4 17 9d 3d 3e 33 15 3d
       0.019182004 0.037506297 0.076705724 0.03642582
0000d0 9b 5b 21 3d 89 8c 48 3d fa cb 04 3b 29 bb 79 3d
       0.039394002 0.04896215 0.002026318 0.060969505
0000e0 05 21 66 3a 5e 2e 58 3d 92 13 eb 3c 06 aa b6 3a
       0.0008778724 0.052778594 0.028695855 0.0013936169
0000f0 0b 2a 0b 3b dd 93 7e 3d 44 c8 23 3d e7 c0 71 3a
       0.0021234776 0.062152732 0.03998591 0.0009222165
000100 e9 f2 7f 3d b8 6e 3f 3d 60 3c c1 3c bf 98 86 3d
       0.062487517 0.04673645 0.02358836 0.06572103
000110 d5 84 91 3d 1b 0c a4 3a d1 34 1d 3c ee 6b 57 3a
       0.07105414 0.0012515815 0.009595112 0.0008217682
000120 1f 3b 02 3c e2 d7 e9 3b 71 54 26 3c 1b dd 10 3c
       0.007948666 0.007136331 0.010151968 0.008841778
000130 71 ff 8d 3c 45 69 fc 3b f1 e7 d8 3c a8 3c eb 3b
       0.017333718 0.007702979 0.026477786 0.0071788616
000140 52 58 eb 3b 58 df 1c 3c 9a 2c 48 3c 53 eb 1f 3c
       0.0071821595 0.009574734 0.012217665 0.0097606955
000150 6d 3f 0a 3c cf dc f5 3c d5 88 c5 3c 05 b0 8b 3c
       0.008437973 0.030012516 0.024113098 0.017051706
000160 fd b4 15 3c 2a d4 ea 3b 03 ba 0b 3c da 39 31 3c
       0.009137389 0.007166405 0.008528235 0.010817016
000170 fe f6 08 3c cc b6 0c 3c 95 0c 0b 3d 4e 2c 05 3c
       0.008359669 0.008588504 0.033947546 0.008128239
000180 45 e7 89 3d 04 60 bc 3d c4 48 d8 3d a2 4d af 3d
       0.06733564 0.09198001 0.10560754 0.08559729
000190 2e fe 47 3d 0a 55 bd 3d a3 11 c6 3c a0 02 7a 3d
       0.04882639 0.092447355 0.024178332 0.06103766
0001a0 a3 34 20 3d f7 98 71 3d 5e fb 4c 3d ae 95 9d 3d
       0.0391127 0.05898377 0.05004441 0.07694565
0001b0 c6 fc 00 3e 98 87 05 3d 35 05 46 3d 1c 86 a3 3d
       0.12596425 0.032600015 0.04834481 0.07984564
0001c0 22 a1 dd 3d c8 e3 ad 3d 7f ad 08 3d e4 66 0b 3e
       0.10821749 0.084907115 0.033368584 0.13613468
0001d0 2d 50 e5 3d 19 76 37 3d a5 04 03 3e 89 7d 98 3d
       0.11196933 0.04479036 0.1279474 0.07445819
0001e0 e6 b9 f2 3c 83 6d b5 35 70 0a 56 39 1b 8c 2a 3d
       0.029629659 1.3517423e-06 0.00020412519 0.04163752
0001f0 54 b5 57 3b 81 b4 81 3d 81 16 23 3b 27 07 b3 3c
       0.0032914476 0.063332565 0.002488524 0.021853996
000200 87 04 b3 39 7c 0a f8 39 cb 05 b0 3a c3 e3 ee 3c
       0.00034144914 0.00047310058 0.0013429461 0.02916134
000210 59 3b 0e 3d 00 00 00 00 14 4d 20 3d 6b d5 5f 3d
       0.034724567 0.0 0.039136007 0.05464689
000220 e8 9c 24 3c 00 00 00 00 00 00 00 00 2a 2e 19 3a
       0.010047175 0.0 0.0 0.0005843366
000230 61 ea 0a 3b 87 1e 59 3d 02 e8 8a 3a c8 b7 22 3a
       0.002119683 0.05300763 0.0010597708 0.0006207195
000240 00 00 00 00 00 00 00 00 00 00 00 00 00 00 00 00
       0.0 0.0 0.0 0.0
000250 00 00 00 00 00 00 00 00 00 00 00 00 00 00 00 00
       0.0 0.0 0.0 0.0
000260 00 00 00 00 00 00 00 00 00 00 00 00 00 00 00 00
       0.0 0.0 0.0 0.0
000270 00 00 00 00 00 00 00 00 00 00 00 00 00 00 00 00
       0.0 0.0 0.0 0.0
000280 00 00 00 00 00 00 00 00 00 00 00 00 00 00 00 00
       0.0 0.0 0.0 0.0
000290 00 00 00 00 00 00 00 00 00 00 00 00 00 00 00 00
       0.0 0.0 0.0 0.0
0002a0 48 06 33 3e 23 59 28 3e a4 18 77 3e b2 64 22 3e
       0.17482865 0.16440253 0.24130493 0.15858725
0002b0 a0 00 5c 3e 18 33 5d 3e 49 b1 1b 3e f9 90 40 3e
       0.21484613 0.21601522 0.15204348 0.18805303
0002c0 97 65 2d 3e 87 01 68 3e 8e 9a 62 3e ac 8b 3b 3e
       0.16933285 0.22656833 0.2212927 0.18315
0002d0 00 3a 3a 3e 18 11 85 3e 68 65 5d 3e 36 c6 41 3e
       0.18186188 0.25989604 0.21620715 0.18923268
0002e0 7a ed 3e 3e e3 08 5a 3e 63 34 5e 3e 35 fc 60 3e
       0.18645278 0.21292453 0.21699671 0.2197121
0002f0 10 f6 ed 3d 86 df 1a 3e fa 37 7f 3e ae 3a 8c 3e
       0.11619198 0.1512433 0.24923697 0.2738852
000300 20 76 aa 3d 26 92 5e 3d c9 b4 a3 3d a8 97 a8 39
       0.08323312 0.054338597 0.079934664 0.0003215645
000310 fe f5 13 3b 79 69 d2 3c 90 35 97 3d 21 b9 31 3c
       0.0022577043 0.025685059 0.07383263 0.010847361
000320 14 94 bc 3c 3b 38 81 3c 5d 2d 9f 3a 4e 0d 97 3a
       0.023019828 0.015773883 0.0012144257 0.0011524351
000330 54 8c ae 3d c0 af ad 3a 00 00 00 00 6a 3c 8f 3c
       0.08522859 0.001325123 0.0 0.017484862
000340 76 0b a1 3a 00 00 00 00 24 b9 7a 3d 3c 7c 81 3d
       0.0012286741 0.0 0.06121172 0.06322524
000350 31 33 ff 3c 2c 41 c2 3d 16 b8 aa 3a 1f 83 a9 3d
       0.03115234 0.09485087 0.0013024833 0.082769625
000360 00 00 00 00 00 00 00 00 00 00 00 00 00 00 00 00
       0.0 0.0 0.0 0.0
000370 00 00 00 00 00 00 00 00 00 00 00 00 00 00 00 00
       0.0 0.0 0.0 0.0
000380 00 00 00 00 00 00 00 00 00 00 00 00 00 00 00 00
       0.0 0.0 0.0 0.0
000390 00 00 00 00 00 00 00 00 00 00 00 00 00 00 00 00
       0.0 0.0 0.0 0.0
0003a0 00 00 00 00 00 00 00 00 00 00 00 00 00 00 00 00
       0.0 0.0 0.0 0.0
0003b0 00 00 00 00 00 00 00 00 00 00 00 00 00 00 00 00
       0.0 0.0 0.0 0.0
0003c0 c6 82 55 3e bd 42 0f 3e d9 21 78 3e ff 6e 3d 3e
       0.20850667 0.13990302 0.24231662 0.18499373
0003d0 2c 95 c1 3d 2b 9f 51 3e cd ea ec 3d e0 fa 4e 3e
       0.094522804 0.20470874 0.11568222 0.20212889
0003e0 be bc 2a 3e 93 25 4e 3e 7e b1 6d 3e 60 e4 cd 3d
       0.16673562 0.20131521 0.23212239 0.10053325
0003f0 f5 e1 43 3e 40 d2 64 3e ab 49 2e 3e ee fc 58 3e
       0.19129165 0.22345829 0.1702029 0.21190235

mlp3.bias f4 [24]
000000 bf d1 cf 3d c1 f7 38 be 43 90 97 bc fa 13 db bd
       0.10147428 -0.1806326 -0.018501407 -0.106971696
000010 8a 39 9a be a0 04 bc be 3f ac 57 be b4 88 80 bc
       -0.30122024 -0.3672228 -0.210618 -0.015690185
000020 9d bf 0c be df 15 5b be 93 de 86 be 1e da 03 be
       -0.1374497 -0.21395062 -0.26341686 -0.12876174
000030 02 af 08 3d 5d 26 2b be b5 dc 35 3d 28 0c 8e 3b
       0.033370025 -0.16713853 0.044399936 0.004334945
000040 86 ce 1a be a9 7e 00 be 14 bd bd bc 2c df ce be
       -0.15117845 -0.12548317 -0.023161449 -0.40404642
000050 04 dc c5 bd 39 93 9c 3d a9 05 bf bd 2e e6 4f be
       -0.09661105 0.07645268 -0.093272515 -0.2030265

bn3.weight f4 [72]
000000 da ba ec 3e e0 b3 d8 3e c9 e1 fa 3e 45 81 e3 3e
       0.46236306 0.42324734 0.49000385 0.44434562
000010 2a e8 e4 3e 4e e2 e7 3e aa 7a e1 3e a3 92 da 3e
       0.44708377 0.45289844 0.44038898 0.4269
000020 eb c7 e6 3e 8f 0f e3 3e 3e 74 e1 3e f9 e6 f1 3e
       0.450744 0.44347808 0.44033998 0.4724653
000030 a8 74 f2 3e aa d2 de 3e d3 9b e6 3e dd f5 f3 3e
       0.47354627 0.435201 0.4504076 0.47648516
000040 33 84 e8 3e 46 fb e4 3e 0a df ef 3e 5b 9d ec 3e
       0.4541336 0.44722956 0.46849853 0.46213803
000050 b9 be e1 3e 05 35 ea 3e 72 72 f1 3e 69 7c e0 3e
       0.44090822 0.45743576 0.47157627 0.43844917
000060 00 00 00 3f 00 00 00 3f 00 00 00 3f 00 00 00 3f
       0.5 0.5 0.5 0.5
000070 00 00 00 3f 00 00 00 3f 00 00 00 3f 00 00 00 3f
       0.5 0.5 0.5 0.5
000080 00 00 00 3f 00 00 00 3f 00 00 00 3f 00 00 00 3f
       0.5 0.5 0.5 0.5
000090 00 00 00 3f 00 00 00 3f 00 00 00 3f 00 00 00 3f
       0.5 0.5 0.5 0.5
0000a0 00 00 00 3f 00 00 00 3f 00 00 00 3f 00 00 00 3f
       0.5 0.5 0.5 0.5
0000b0 00 00 00 3f 00 00 00 3f 00 00 00 3f 00 00 00 3f
       0.5 0.5 0.5 0.5
0000c0 8a ea df 3e b1 46 df 3e ac c2 e0 3e 05 b1 dc 3e
       0.43733627 0.4360862 0.43898523 0.43103805
0000d0 bf d9 e3 3e 70 e6 e1 3e 10 65 e2 3e 34 ab dd 3e
       0.44502065 0.44121122 0.4421773 0.4329468
0000e0 01 ac e1 3e 30 c5 db 3e cd 06 e4 3e eb 99 e1 3e
       0.4407654 0.4292388 0.4453644 0.44062743
0000f0 e3 7e e1 3e f3 84 df 3e 87 16 de 3e 86 53 e1 3e
       0.4404212 0.4365612 0.43376562 0.44009036
000100 74 75 e3 3e db d6 df 3e f6 92 dd 3e 47 86 e0 3e
       0.44425547 0.4371861 0.43276185 0.43852445
000110 8c c4 e1 3e d4 1f e2 3e ae df df 3e 0f ba e1 3e
       0.44095266 0.44164908 0.43725342 0.44087264

bn3.bias f4 [72]
000000 c7 de c2 bd 0b 9a b9 bd 3c 99 e9 bd 88 a7 ec bd
       -0.09515148 -0.090625845 -0.1140618 -0.115553916
000010 bd fa c5 bd b2 57 e3 bd 22 06 d2 bd 43 da c5 bd
       -0.09666965 -0.11100711 -0.10255076 -0.09660771
000020 11 d0 eb bd 08 9b d9 bd 78 23 cd bd ff 33 e7 bd
       -0.11514295 -0.10625273 -0.10016531 -0.11289214
000030 16 49 af bd 18 ee a2 bd 6a c0 b1 bd 36 3e c7 bd
       -0.08558862 -0.07955569 -0.08679278 -0.09728663
000040 07 51 ba bd 73 79 eb bd 05 aa ba bd 2e 38 db bd
       -0.09097486 -0.11497774 -0.0911446 -0.10704075
000050 3f 79 c8 bd 5e 41 d7 bd f4 db b8 bd 3e 4e d2 bd
       -0.09788751 -0.10510515 -0.09026328 -0.1026883
000060 0a 89 47 be ee 38 32 be 00 d9 39 be 92 95 3f be
       -0.1948587 -0.1740453 -0.18149185 -0.187094
000070 6a 10 30 be 14 94 32 be a0 7b 24 be 82 69 28 be
       -0.17193761 -0.174393 -0.16062784 -0.16446498
000080 5a 5e 36 be d3 dd 2b be 87 d4 45 be 21 e7 2d be
       -0.1780943 -0.16783838 -0.19319354 -0.169827
000090 af 33 4b be 84 50 31 be e2 48 45 be 1e e6 24 be
       -0.19843934 -0.1731587 -0.19266084 -0.16103408
0000a0 39 a6 42 be e9 96 27 be 7c 1e 29 be 4c 4d 41 be
       -0.19008721 -0.16366161 -0.16515535 -0.18877143
0000b0 20 e3 2d be ea cd 56 be 26 7a 2f be 5b 60 3e be
       -0.16981173 -0.20976987 -0.1713644 -0.18591444
0000c0 f5 8b 45 be 55 78 27 be 12 fe 33 be c2 8b 54 be
       -0.1929167 -0.16354497 -0.17577389 -0.20756438
0000d0 7d 8d 45 be 6a ca 23 be d9 21 1d be ce 0d 2b be
       -0.19292255 -0.15995184 -0.15344943 -0.16704485
0000e0 f9 86 27 be 0b 49 42 be 68 fd 35 be 20 ed 2b be
       -0.16360082 -0.18973176 -0.17772448 -0.16789675
0000f0 23 60 34 be 26 7f 2f be a1 82 36 be 1f 7d 23 be
       -0.17614798 -0.17138347 -0.17823268 -0.15965699
000100 2b 86 30 be 9c 1b 36 be d9 bc 2b be 2b d7 2d be
       -0.17238681 -0.1778397 -0.16771258 -0.16976611
000110 0c 05 47 be 9b 7a 2c be d7 8a 55 be 36 59 19 be
       -0.19435519 -0.16843645 -0.20853744 -0.14975438

bn3.running_mean f4 [72]
000000 97 a8 1b 3f ab 50 16 3f 90 2f 02 3f 0f 01 15 3f
       0.6080412 0.5871684 0.50853825 0.5820474
000010 8e 0c 0c 3f 2f e6 09 3f 0d 31 12 3f 8f 94 13 3f
       0.54706657 0.5386686 0.57106096 0.5764856
000020 7b ce 1a 3f 18 c1 09 3f eb da 1a 3f 42 19 02 3f
       0.60471314 0.5381026 0.6049029 0.5081979
000030 d6 95 0c 3f 23 5a 0e 3f d2 ff 09 3f 6a 68 16 3f
       0.5491613 0.5560629 0.53905976 0.58753073
000040 b7 e9 04 3f cb 99 16 3f 37 a3 0e 3f c3 95 05 3f
       0.5191912 0.5882842 0.55717796 0.52181643
000050 21 bd 02 3f 2c c3 13 3f bf 95 00 3f a7 c5 0f 3f
       0.5106984 0.57719684 0.50228494 0.5616097
000060 2b aa 1b bc b1 b6 49 bc 35 6b 54 bc 24 ff 49 bc
       -0.00950102 -0.012311623 -0.012965013 -0.012328897
000070 6d cd 4b bc 57 e8 71 bc fd 07 59 bc e4 c5 34 bc
       -0.012439114 -0.014764867 -0.013246533 -0.011033509
000080 4b 6f 21 bc 19 5c 50 bc 21 23 36 bc ba e4 67 bc
       -0.0098531945 -0.01271727 -0.011116774 -0.014153654
000090 ae 7f 6e bc 3d 4d 3d bc 2d bc 7a bc a4 95 22 bc
       -0.014556808 -0.01155406 -0.015303654 -0.009923372
0000a0 b9 3f 65 bc 58 3d 41 bc 04 03 36 bc 13 58 6a bc
       -0.013992243 -0.011794411 -0.011109117 -0.014303225
0000b0 17 4c 77 bc cc f1 31 bc 6a 65 47 bc 07 ce 56 bc
       -0.015093825 -0.0108608715 -0.012170175 -0.013110644
0000c0 1b 64 1d bf 6a 32 16 bf b0 cf 1b bf c9 01 1f bf
       -0.61480874 -0.58670676 -0.6086378 -0.621121
0000d0 1b e0 1d bf 0b 9a 20 bf 34 1e 17 bf 40 07 1e bf
       -0.6167008 -0.6273505 -0.5903046 -0.6172981
0000e0 c1 06 1d bf 43 3b 28 bf 1c 13 1c bf 05 be 25 bf
       -0.6133843 -0.65715426 -0.6096666 -0.6474307
0000f0 4c 2d 27 bf f8 f8 15 bf d8 31 23 bf 0b 50 1b bf
       -0.6530349 -0.5858302 -0.6374793 -0.6066901
000100 fc e8 24 bf e8 f0 1c bf 7e 95 17 bf 54 94 20 bf
       -0.64418006 -0.61305094 -0.5921248 -0.6272633
000110 ec 26 1f bf 2b d7 1f bf 73 46 24 bf f2 cb 16 bf
       -0.62168765 -0.62437695 -0.64169997 -0.58904946

bn3.running_var f4 [72]
000000 af f1 e1 3f 18 4b d9 3f c7 22 b1 3f 82 aa d6 3f
       1.7651881 1.6976042 1.3838738 1.6770785
000010 85 b0 c4 3f 9d d0 c2 3f 74 1c d2 3f b6 f7 d1 3f
       1.536637 1.5219914 1.6414933 1.640372
000020 33 e7 e0 3f 80 b9 c0 3f 40 89 e0 3f 69 d5 b2 3f
       1.7570556 1.505661 1.7541885 1.3971378
000030 36 ca c6 3f bc fd c7 3f a2 20 c3 3f 74 84 d7 3f
       1.553046 1.5624309 1.5244334 1.6837296
000040 80 c1 b7 3f 63 c0 d9 3f bc d8 c7 3f b7 3d bb 3f
       1.4355927 1.7011837 1.5613017 1.4628209
000050 24 28 b4 3f cf 3e d2 3f 4a 52 af 3f 89 3f cb 3f
       1.407475 1.6425418 1.3696988 1.5878764
000060 bf bb 67 3e 37 9a 67 3e 47 50 67 3e ba a6 67 3e
       0.22630213 0.22617422 0.22589217 0.22622195
000070 bd 50 67 3e d4 b4 67 3e 13 81 67 3e 2a 9a 67 3e
       0.22589393 0.22627574 0.22607832 0.22617403
000080 c6 9c 67 3e ca 90 67 3e 72 df 67 3e 95 66 67 3e
       0.22618398 0.22613826 0.22643831 0.22597726
000090 ca bc 67 3e 00 66 67 3e 3e 9c 67 3e 00 8d 67 3e
       0.22630611 0.22597504 0.22618195 0.22612381
0000a0 fb 81 67 3e 30 90 67 3e 61 57 67 3e 84 e4 66 3e
       0.22608177 0.22613597 0.22591926 0.2254811
0000b0 db 5e 67 3e a7 bd 67 3e 90 19 67 3e 3b 96 67 3e
       0.22594778 0.2263094 0.22568345 0.22615902
0000c0 83 e5 d0 3f 2e ec bf 3f a1 f9 c8 3f 6e ce cf 3f
       1.6320041 1.4993951 1.5701181 1.6234872
0000d0 52 a4 cf 3f 47 b7 d0 3f c8 cc c1 3f e9 d0 d0 3f
       1.6222022 1.6305932 1.5140619 1.6313754
0000e0 75 8c cf 3f 4d 08 e1 3f e0 1a cc 3f 98 4f db 3f
       1.6214739 1.7580658 1.5945702 1.7133665
0000f0 43 87 de 3f d7 f9 bf 3f 09 32 d4 3f 48 d9 cb 3f
       1.7385029 1.499812 1.657777 1.5925684
000100 17 af d9 3f cc 93 cc 3f e4 ae c2 3f ca 5a d2 3f
       1.7006558 1.5982604 1.5209622 1.6433957
000110 c7 47 ce 3f c0 42 d3 3f 18 c5 db 3f 09 81 c0 3f
       1.6115655 1.6504745 1.7169523 1.5039378

mlp4.weight f4 [1, 72]
000000 00 00 00 00 00 00 00 00 f6 7a 8b 3c 00 00 00 00
       0.0 0.0 0.017026406 0.0
000010 00 00 00 00 00 00 00 00 00 00 00 00 f3 46 10 3c
       0.0 0.0 0.0 0.008805978
000020 4d 52 91 3d 00 00 00 00 00 00 00 00 dc af 8e 3d
       0.07095776 0.0 0.0 0.06967136
000030 00 00 00 00 00 00 00 00 51 58 8e 3c 00 00 00 00
       0.0 0.0 0.017376097 0.0
000040 23 82 5a 3d 00 00 00 00 00 00 00 00 00 00 00 00
       0.053346764 0.0 0.0 0.0
000050 b4 47 5e 3c 1d 0b 00 3c 00 00 00 00 00 00 00 00
       0.0135669 0.00781515 0.0 0.0
000060 00 00 00 00 96 57 2c 3e 65 63 33 3b 77 b6 59 3c
       0.0 0.16830286 0.0027372476 0.013288132
000070 c4 66 33 3e 9d e6 23 3e 2f e8 49 3e 00 00 00 00
       0.1751967 0.1600594 0.19717477 0.0
000080 ed 44 58 3c fa 3e 30 3d 09 44 3d 3e 98 67 a2 3c
       0.013200027 0.04302881 0.18482985 0.019824788
000090 00 00 00 00 80 a3 8c 3e 5b 53 2b 3c 00 00 00 00
       0.0 0.2746849 0.010456885 0.0
0000a0 00 00 00 00 14 51 89 3e 19 8f 02 3d da 5e 30 3e
       0.0 0.2681967 0.03187475 0.17223683
0000b0 00 00 00 00 00 00 00 00 00 00 00 00 5c 1c 73 3e
       0.0 0.0 0.0 0.23741287
0000c0 de 86 61 3d d2 8a 19 3d 0a ae f8 3c 3b 7a c5 3d
       0.05506026 0.037485905 0.030356426 0.09642454
0000d0 3d c3 01 3e 30 38 17 3e f8 93 17 3e d0 fb 0e 3d
       0.12672134 0.14767528 0.1480254 0.034908116
0000e0 c6 a1 8e 3c c2 6c c5 3d 51 b8 fe 3d 7a 3d 39 3d
       0.017411124 0.096398845 0.12437499 0.045224644
0000f0 4e 89 ba 3c ff 72 55 3e 49 07 b4 3c 91 32 10 3e
       0.02277055 0.20844649 0.02197613 0.1408179
000100 3e 2d 14 3e 2e 52 fa 3d 49 0f a5 3d 71 31 f7 3d
       0.14470384 0.12222706 0.08059556 0.12069977
000110 ac 12 fc 3d 65 22 71 3d 20 9c 57 3d 8c be 25 3e
       0.12308249 0.05887069 0.052639127 0.16185969
