utility-model-selected/dim-3/utility-6.pt (torch, 23433 bytes, 17 tensors)

bn1.running_mean f4 [3]
0	0x3f0082e2	0.5019971
1	0x3f0004df	0.5000743
2	0x3eff6e3b	0.49888787

bn1.running_var f4 [3]
0	0x3d67521e	0.056474797
1	0x3d5c1428	0.05373016
2	0x3d58adcf	0.05290013

mlp1.weight f4 [24, 3]
0	0x3ee55fbf	0.4479961
1	0x3eca5b8b	0.39522967
2	0x3b6da0a0	0.003625907
3	0x3ef8c7be	0.4858989
4	0x3d89baca	0.0672508
5	0x3f000000	0.5
6	0x3e78cdb3	0.24297218
7	0x3be293fb	0.0069146133
8	0x3dfd86ce	0.123792276
9	0x3f000000	0.5
10	0x3e5f4fed	0.21807833
11	0x3ed92db3	0.42417678
12	0x3ef0db3d	0.47042266
13	0x3d168122	0.036744244
14	0x00000000	0.0
15	0x3f000000	0.5
16	0x3e2c54d3	0.16829233
17	0x3eed648c	0.46365774
18	0x3f000000	0.5
19	0x3e5d124e	0.21589014
20	0x3e040d46	0.12895688
21	0x3ef0bce8	0.47019124
22	0x3eb18c1a	0.34677202
23	0x3e44f72f	0.19234918
24	0x3ed98473	0.42483863
25	0x3ec3d6f1	0.38249925
26	0x3ef905b8	0.48637176
27	0x3eb42031	0.3518081
28	0x00000000	0.0
29	0x3ed5945d	0.41714755
30	0x3efc0342	0.49221236
31	0x3d89bb1a	0.0672514
32	0x3f000000	0.5
33	0x3ec7c7e0	0.3901968
34	0x3ec198f5	0.3781201
35	0x3efd87ab	0.4951757
36	0x3efc9adb	0.49336895
37	0x00000000	0.0
38	0x3d6a1b20	0.057154775
39	0x3e64b7da	0.22335759
40	0x00000000	0.0
41	0x3be5ee77	0.0070169526
42	0x3ecc613d	0.39917937
43	0x00000000	0.0
44	0x3cf9b285	0.030480633
45	0x3ed3d132	0.4137054
46	0x3ebc6373	0.36794624
47	0x3e5f84ff	0.21828078
48	0x3ec79018	0.38977122
49	0x3ec05a2a	0.3756879
50	0x3d9719f6	0.073779985
51	0x3ecadc54	0.39621222
52	0x3de067c8	0.10957295
53	0x3d8618b2	0.06547679
54	0x3e2c78ac	0.16842908
55	0x3ef62ab2	0.4807945
56	0x3efe0089	0.49609783
57	0x3f000000	0.5
58	0x3e4dead7	0.20109116
59	0x3ea45a67	0.32100222
60	0x3e517900	0.20456314
61	0x3e398608	0.18117535
62	0x3efe7b75	0.49703565
63	0x3e90d4f2	0.28287464
64	0x3f000000	0.5
65	0x3d819172	0.063265696
66	0x3eafcfca	0.34338218
67	0x3eb454ac	0.3522085
68	0x3f000000	0.5
69	0x3efb2674	0.49052775
70	0x3e99a400	0.30007935
71	0x3ea32841	0.3186665

mlp1.bias f4 [24]
0	0x3b7aeacf	0.003828693
1	0x3e4b261a	0.19838753
2	0x3ea30619	0.3184059
3	0xbde5045b	-0.11182471
4	0xbece4356	-0.40285748
5	0xbc823a42	-0.01589692
6	0x3e678a07	0.22611247
7	0x3e8581f0	0.26075697
8	0x3d99efd0	0.07516444
9	0xbea48ae5	-0.32137218
10	0x3e49fb3a	0.19724742
11	0x3e691e2c	0.22765416
12	0xbe2eb685	-0.17061813
13	0x3e9cc561	0.30619338
14	0x3e5b037b	0.21388046
15	0x3e7066be	0.23476693
16	0xbe4bb745	-0.1989413
17	0x3e01c7fd	0.12673946
18	0xbe975db2	-0.2956367
19	0x3d81cf75	0.063383974
20	0xbecc5082	-0.39905173
21	0xbd6b367c	-0.057425007
22	0x3e61b592	0.2204192
23	0x3e9f7d54	0.31150305

mlp2.weight f4 [24, 72]
0	0x3d563ec1	0.05230594
1	0x3cfd8d8f	0.03095129
2	0x38775a2b	5.8973365e-05
3	0x3d23250d	0.039830256
4	0x3d9c48e2	0.07631089
5	0x3d07fd42	0.03320051
6	0x00000000	0.0
7	0x00000000	0.0
8	0x00000000	0.0
9	0x3cc64331	0.024201961
10	0x3cfbc532	0.030733678
11	0x00000000	0.0
12	0x3e0ae801	0.13565065
13	0x3e187a2f	0.1489036
14	0x3dd31150	0.103060365
15	0x00000000	0.0
16	0x3cb080d0	0.021545798
17	0x3c2af6c7	0.010434813
18	0x3d19cb37	0.037547316
19	0x00000000	0.0
20	0x3bc8007c	0.0061035734
21	0x3b27079a	0.0025486709
22	0x00000000	0.0
23	0x00000000	0.0
24	0x3d6b2588	0.05740884
25	0x3e100b29	0.14066757
26	0x00000000	0.0
27	0x3ddd3ca6	0.108025834
28	0x3e07bf8c	0.13256663
29	0x3e2077bd	0.15670677
30	0x3dd64ed7	0.10464256
31	0x3b26e8ea	0.0025468417
32	0x3dcccd30	0.10000074
33	0x3d95a9cb	0.07307776
34	0x3e30f113	0.17279463
35	0x37bebac5	2.2736736e-05
36	0x3e1066f4	0.14101774
37	0x3d99c93b	0.07509085
38	0x3e21ac5d	0.15788408
39	0x3a876668	0.0010330202
40	0x3cc7bab7	0.024381025
41	0x3d25e9c3	0.040506136
42	0x3e2eb1da	0.17060032
43	0x3dd30f3f	0.10305642
44	0x3d68155f	0.056661006
45	0x3d25f2a7	0.040514614
46	0x3d019296	0.031633936
47	0x3df31ddf	0.11870932
48	0x00000000	0.0
49	0x3a78594b	0.0009473755
50	0x00000000	0.0
51	0x00000000	0.0
52	0x3e1013ea	0.14070097
53	0x00000000	0.0
54	0x3d960e4f	0.07326948
55	0x00000000	0.0
56	0x3a9ea1b6	0.0012102637
57	0x38b509e5	8.6325956e-05
58	0x3a69432e	0.0008898255
59	0x39fbe098	0.00048041786
60	0x3e2bc876	0.16775689
61	0x3e28f749	0.16500582
62	0x3dbe2b8c	0.0928565
63	0x3a703afd	0.00091640634
64	0x00000000	0.0
65	0x00000000	0.0
66	0x3c0746ff	0.008256673
67	0x00000000	0.0
68	0x384d1c14	4.890196e-05
69	0x3b160e04	0.0022896538
70	0x3a22a54a	0.00062044396
71	0x3a132da1	0.0005614404
72	0x3d85dcb5	0.06536237
73	0x3d0c48e3	0.034249198
74	0x3a849ee5	0.0010118155
75	0x3d18c351	0.037295643
76	0x3db39e67	0.08770447
77	0x3d3511f4	0.044206575
78	0x3bde35fc	0.006781338
79	0x00000000	0.0
80	0x3c1ee074	0.0096970685
81	0x3d365b1a	0.044520475
82	0x3cf485fc	0.029849045
83	0x00000000	0.0
84	0x3e0d5d83	0.13805203
85	0x3d97e6aa	0.074170426
86	0x3deb00e4	0.11474779
87	0x00000000	0.0
88	0x3cce609a	0.025192548
89	0x3d61655d	0.05502831
90	0x3d8a173c	0.06742713
91	0x3c394a13	0.011309165
92	0x3ce0f530	0.027460665
93	0x3bebe8b5	0.0071993717
94	0x00000000	0.0
95	0x00000000	0.0
96	0x3d968add	0.07350705
97	0x3e2c8852	0.16848877
98	0x3d21426f	0.039369997
99	0x3e027a47	0.12741958
100	0x3dbbc55c	0.09168503
101	0x3e024ac5	0.12723835
102	0x3e1df677	0.1542605
103	0x3c02ee80	0.007991433
104	0x3dd5760f	0.104229085
105	0x3d4d37ee	0.050102167
106	0x3e17ef26	0.14837322
107	0x3d34bf63	0.044127833
108	0x3e4b7cbd	0.19871803
109	0x3e1389b5	0.14408
110	0x3e13f5dd	0.14449258
111	0x3c9dc165	0.019257257
112	0x3cdf5920	0.027264178
113	0x3cfe5eb1	0.031051012
114	0x3e058352	0.13038376
115	0x3d8ec892	0.069718495
116	0x3d797112	0.060898848
117	0x3d163ec4	0.03668095
118	0x3d46de46	0.04855182
119	0x3d97185b	0.07377692
120	0x3862de4f	5.408964e-05
121	0x3c6ece92	0.014575617
122	0x3a47b6c1	0.000761848
123	0x00000000	0.0
124	0x3de127b0	0.10993898
125	0x00000000	0.0
126	0x00000000	0.0
127	0x00000000	0.0
128	0x3b70a6ac	0.0036720438
129	0x00000000	0.0
130	0x3c8ec8ec	0.017429791
131	0x00000000	0.0
132	0x3e157c40	0.14598179
133	0x3e36418d	0.17798443
134	0x3e4068d7	0.18789993
135	0x3b6339f7	0.0034672
136	0x00000000	0.0
137	0x3b0c6c5b	0.002142689
138	0x3c00d2ff	0.007862805
139	0x3c210b6d	0.009829384
140	0x00000000	0.0
141	0x3b1f8f7c	0.0024346998
142	0x00000000	0.0
143	0x3c3db0fc	0.011577841
144	0x3d2d757b	0.042348366
145	0x3bf9df5e	0.0076255044
146	0x39362963	0.0001737229
147	0x3d1bdecf	0.038054284
148	0x3dbe518e	0.09292899
149	0x3d1b70cc	0.03794937
150	0x3c8699ac	0.016430698
151	0x00000000	0.0
152	0x3b479eb6	0.003045959
153	0x3d19c09f	0.037537213
154	0x3cb65fab	0.022262415
155	0x00000000	0.0
156	0x3de7308c	0.112885565
157	0x3e0ba5ee	0.13637516
158	0x3d88b6ec	0.066755146
159	0x00000000	0.0
160	0x3cc09478	0.023508295
161	0x3cabb4e2	0.020960275
162	0x3d6173f3	0.05504222
163	0x3ca4fb47	0.02013935
164	0x3cdb8eff	0.026801584
165	0x3c1a7762	0.009427877
166	0x00000000	0.0
167	0x00000000	0.0
168	0x3d3b25e1	0.04569042
169	0x3e152404	0.1456452
170	0x38c4913a	9.373059e-05
171	0x3d803545	0.0626016
172	0x3d8fe852	0.070267335
173	0x3e0ef3c0	0.13960171
174	0x3e2131f3	0.1574171
175	0x3d1035ad	0.03520744
176	0x3de53996	0.11192624
177	0x3d2a2703	0.04154111
178	0x3e1a15a6	0.1504732
179	0x3cfa83a0	0.030580342
180	0x3e2256c6	0.15853414
181	0x3e421633	0.18953781
182	0x3e36bf89	0.17846502
183	0x3b8e1307	0.0043357643
184	0x3cd4412c	0.025909983
185	0x3ccbc8ff	0.024876116
186	0x3e38b73e	0.18038651
187	0x3dd1a016	0.10235612
188	0x3d6a67c2	0.057227857
189	0x3d17daf8	0.03707406
190	0x3d0eb97f	0.03484487
191	0x3d29d3df	0.04146182
192	0x3ae6b5b0	0.0017601755
193	0x3dce3fb8	0.10070747
194	0x38cf5637	9.886588e-05
195	0x00000000	0.0
196	0x3df6b1db	0.12045642
197	0x00000000	0.0
198	0x3d2b12b1	0.041765872
199	0x3b63ee41	0.0034779462
200	0x3b637907	0.003470959
201	0x38281236	4.007128e-05
202	0x3d17196a	0.03688947
203	0x3a07f72c	0.0005186673
204	0x3e35bd0d	0.17747898
205	0x3e0f0cb9	0.13969697
206	0x3e0b9a0a	0.1363298
207	0x3a6f0b79	0.0009118836
208	0x00000000	0.0
209	0x3cdf01f3	0.02722261
210	0x3c02bd22	0.007979663
211	0x00000000	0.0
212	0x00000000	0.0
213	0x3aac481c	0.0013144049
214	0x3a481b83	0.0007633494
215	0x3a448d32	0.00074978464
216	0x3d796c69	0.060894404
217	0x3d136365	0.035983462
218	0x00000000	0.0
219	0x3d26bf15	0.040709574
220	0x3dd10ee3	0.102079175
221	0x3d48dd9b	0.049039464
222	0x3c27dc88	0.01024545
223	0x3a3593d7	0.0006926632
224	0x3c01da7d	0.007925627
225	0x3d0d7e62	0.034544356
226	0x3d52a8dd	0.05143057
227	0x00000000	0.0
228	0x3db48835	0.08815042
229	0x3e1e5451	0.15461852
230	0x3df2f6cb	0.11863478
231	0x3a050f25	0.0005075804
232	0x3cc1e4ec	0.023668729
233	0x3c6d2d7c	0.014476176
234	0x3d2a7e7f	0.041624542
235	0x3c66c2aa	0.0140844975
236	0x3c8bcecb	0.01706638
237	0x3b5a6d9b	0.003332949
238	0x3c003afa	0.007826561
239	0x00000000	0.0
240	0x3d8c4367	0.068487935
241	0x3e30ea4d	0.17276879
242	0x3c7500cf	0.014953806
243	0x3e013e32	0.12621382
244	0x3dda5f66	0.10662727
245	0x3e038447	0.12843429
246	0x3db3e09d	0.08783076
247	0x3d7ed7d6	0.062217556
248	0x3dede83a	0.11616559
249	0x3da7b4da	0.081887916
250	0x3de969bf	0.113971226
251	0x00000000	0.0
252	0x3e44f118	0.19232595
253	0x3df24abc	0.11830661
254	0x3de9694f	0.11397039
255	0x3b317a50	0.002708096

mlp2.bias f4 [24]
0	0x3e11f871	0.14254929
1	0x3e30cd6e	0.17265865
2	0x3e0d3817	0.13790928
3	0x3e241b87	0.16026126
4	0xbd265d5a	-0.04061637
5	0x3de95766	0.11393623
6	0x3df5e1ac	0.12005934
7	0x3e1f22d4	0.1554063
8	0x3e1d99aa	0.1539065
9	0x3e23148c	0.15925807
10	0x3e187fb5	0.14892466
11	0x3d8c2249	0.06842477
12	0x3e13e323	0.14442115
13	0x3dec9bab	0.11553129
14	0x3e2cf68c	0.16890925
15	0x3e23d811	0.16000392
16	0x3df5a2f5	0.11993972
17	0x3d8d3fe3	0.06896951
18	0x3e345a54	0.17612582
19	0x3e159270	0.14606643
20	0x3d95571f	0.07292008
21	0x3de5cba5	0.11220483
22	0x3cb03703	0.021510607
23	0x3ded50a4	0.115876466

bn2.weight f4 [72]
0	0x3edb239a	0.428006
1	0x3ecbd3c9	0.39810017
2	0x3ec82f73	0.390987
3	0x3ed1ac15	0.409516
4	0x3f000000	0.5
5	0x3eda783c	0.42669857
6	0x3ebdb3f7	0.37051365
7	0x3ec40c2b	0.38290533
8	0x3ec29e7e	0.38011545
9	0x3edd405f	0.43213174
10	0x3ecc8f89	0.3995326
11	0x3ec0481f	0.37555024
12	0x3eeed762	0.466487
13	0x3f000000	0.5
14	0x3f000000	0.5
15	0x3ec29c61	0.38009933
16	0x3eccee84	0.40025723
17	0x3ec54332	0.38527828
18	0x3ed8d6a7	0.42351267
19	0x3ec0b2ad	0.3763632
20	0x3ecaa803	0.39581308
21	0x3ec87904	0.39154828
22	0x3ebf9677	0.37419483
23	0x3ec2bf4c	0.38036573
24	0x3ee1128b	0.4395946
25	0x3f000000	0.5
26	0x3ec4f9c5	0.3847181
27	0x3efd7c38	0.49508834
28	0x3f000000	0.5
29	0x3f000000	0.5
30	0x3ee5befc	0.44872272
31	0x3ed56f2d	0.41686383
32	0x3f000000	0.5
33	0x3ee5b4a1	0.4486437
34	0x3f000000	0.5
35	0x3ed48038	0.41504073
36	0x3ef08ba9	0.46981552
37	0x3f000000	0.5
38	0x3f000000	0.5
39	0x3eca5fd6	0.39526242
40	0x3ecaffd6	0.39648312
41	0x3eae1349	0.33999088
42	0x3f000000	0.5
43	0x3eeaa56e	0.45829338
44	0x3ed02bae	0.40658325
45	0x3ece6a5d	0.40315524
46	0x3ed77b8b	0.42086443
47	0x3ef3c75b	0.47613034
48	0x3ec1cf3a	0.37853414
49	0x3eed0bff	0.46298215
50	0x3ecafc62	0.39645678
51	0x3ec0401b	0.3754891
52	0x3f000000	0.5
53	0x3ec8e6b7	0.3923852
54	0x3ed7610e	0.42066234
55	0x3ec3f9e9	0.38276604
56	0x3ec6508f	0.38733336
57	0x3ec18bb8	0.3780191
58	0x3ee0a040	0.4387226
59	0x3ec7673c	0.3894595
60	0x3f000000	0.5
61	0x3f000000	0.5
62	0x3f000000	0.5
63	0x3ec03eb6	0.37547845
64	0x3ebbbfd2	0.36669785
65	0x3ebaf119	0.36512068
66	0x3ebfba58	0.37446856
67	0x3ec9d96d	0.39423695
68	0x3ec0f960	0.37690258
69	0x3eb95d6c	0.36204088
70	0x3ec17b31	0.377893
71	0x3ed00e15	0.40635744

bn2.bias f4 [72]
0	0x3ddc8263	0.10767057
1	0x3ddbb698	0.10728186
2	0x3dcfa4fa	0.10138889
3	0x3ded2f1e	0.115812525
4	0x3dfa0a6f	0.12209021
5	0x3dd8d92a	0.10588296
6	0x3df487a2	0.119399324
7	0x3dd6dfad	0.104918815
8	0x3dd443cf	0.10364496
9	0x3dc994c2	0.098428264
10	0x3ddccea2	0.107815996
11	0x3dd44b81	0.10365964
12	0x3de0d230	0.1097759
13	0x3de2fc1d	0.11083243
14	0x3df76bd8	0.120811164
15	0x3dd87d9d	0.10570834
16	0x3dcfef60	0.10153079
17	0x3de706f9	0.11280627
18	0x3dec2c0c	0.11531839
19	0x3de56108	0.11200148
20	0x3de3b886	0.111191794
21	0x3dc995ae	0.09843002
22	0x3dc96738	0.098341405
23	0x3dd8a1f3	0.10577764
24	0x3e03c670	0.12868667
25	0x3dcc92b2	0.099889174
26	0x3dcbb2b9	0.09946198
27	0x3dd668d1	0.10469211
28	0x3e065589	0.13118567
29	0x3ddd2a3e	0.10799073
30	0x3dc7256d	0.09723935
31	0x3deb5019	0.11489887
32	0x3dc74523	0.09729984
33	0x3dd2404d	0.10266171
34	0x3dc7fdd4	0.09765211
35	0x3dda9913	0.10673728
36	0x3dd53444	0.104103595
37	0x3dc733d9	0.09726686
38	0x3dc828fa	0.09773441
39	0x3deac16e	0.11462675
40	0x3dcda9ce	0.10042153
41	0x3e0f1b1a	0.13975182
42	0x3dee6cc7	0.116418414
43	0x3de02f00	0.109464645
44	0x3ddafd2f	0.10692822
45	0x3dd7d17f	0.10538005
46	0x3dd8f32d	0.10593257
47	0x3dd0c701	0.10194207
48	0x3df405c6	0.11915164
49	0x3dd16669	0.10224611
50	0x3dcecc40	0.10097551
51	0x3de18565	0.11011771
52	0x3de1451f	0.10999512
53	0x3dde54e8	0.10856038
54	0x3ddec325	0.108770646
55	0x3dda2d75	0.106532015
56	0x3dd3989a	0.10331841
57	0x3dcaacee	0.09896265
58	0x3ddaa2af	0.10675561
59	0x3dc6861a	0.096935466
60	0x3dc31b32	0.095266715
61	0x3dc2b07d	0.09506319
62	0x3dc7a9cf	0.09749185
63	0x3def5276	0.1168565
64	0x3dd5461f	0.10413765
65	0x3df7e702	0.12104608
66	0x3dc32712	0.095289364
67	0x3dd59690	0.10429108
68	0x3dc4cc43	0.09609272
69	0x3ddbaaa6	0.10725908
70	0x3dcb2fc0	0.09921217
71	0x3dea511e	0.11441253

bn2.running_mean f4 [72]
0	0x3d993a78	0.07481855
1	0x3e838365	0.25686184
2	0x3ea2f78d	0.3182949
3	0x3c9b6bb6	0.018972259
4	0xbe784c9b	-0.24247973
5	0x3db29b4a	0.08721025
6	0x3e7b4120	0.24536562
7	0x3e92f02f	0.2869887
8	0x3e2f4d39	0.17119302
9	0xbe3275ef	-0.174278
10	0x3e84285b	0.2581204
11	0x3e952541	0.29129985
12	0xbdb3a3c8	-0.08771473
13	0x3e9d3373	0.30703315
14	0x3e5bb334	0.2145508
15	0x3e85c1ab	0.2612432
16	0xbdbd355b	-0.092386924
17	0x3e073910	0.13205361
18	0xbdbc6d0c	-0.092004865
19	0x3e001971	0.12509705
20	0xbe578031	-0.21044995
21	0x3ca0a65f	0.019610582
22	0x3e8de941	0.2771702
23	0x3eaf9ac2	0.34297758
24	0x3ab435ea	0.0013748978
25	0x3dc568de	0.096391425
26	0x3e8d547e	0.27603525
27	0xbd663e5d	-0.056211818
28	0xbe7889f4	-0.24271375
29	0xbc402ebd	-0.011729893
30	0x3df9db5f	0.12200045
31	0x3e0701bf	0.1318426
32	0x3cfc70ee	0.030815568
33	0xbe41a5e2	-0.18910936
34	0x3dc44696	0.09583776
35	0x3dd8341c	0.10556814
36	0xbdcb7208	-0.09933859
37	0x3e91042d	0.28323498
38	0x3e1f370e	0.15548345
39	0x3dfccc11	0.1234361
40	0xbded4563	-0.115855
41	0x3db99903	0.09062388
42	0xbe0dcdcf	-0.13848041
43	0x3cf9238e	0.030412462
44	0xbe6240a0	-0.22094965
45	0xbd042af1	-0.032267515
46	0x3ddad221	0.1068461
47	0x3e1c1b28	0.15244734
48	0xbd8d63aa	-0.06903775
49	0x3d1fdd1a	0.03902922
50	0x3e8d547a	0.27603513
51	0xbe3a2b78	-0.18180645
52	0xbecc4fb7	-0.39904568
53	0xbdf1a384	-0.11798766
54	0x3dd3957e	0.10331248
55	0x3dd4daa7	0.10393267
56	0xbd891f89	-0.06695468
57	0xbea9957d	-0.33121863
58	0x3d1875d6	0.037221752
59	0x3d2c83fe	0.042118065
60	0xbe3974a4	-0.18110901
61	0x3e91042d	0.28323498
62	0x3e1ecaac	0.15507
63	0x3dc363c6	0.09540515
64	0xbe63db22	-0.22251561
65	0x3dadf9b2	0.08494891
66	0xbeaef51e	-0.34171385
67	0xbd057c85	-0.032589454
68	0xbed1099a	-0.40827638
69	0xbde5deab	-0.11224111
70	0x3d4cc22f	0.049989875
71	0x3df9852a	0.12183602

bn2.running_var f4 [72]
0	0x3e855d5e	0.26047796
1	0x3ec2666a	0.3796876
2	0x3d989e89	0.07452113
3	0x3e93acc3	0.28842744
4	0x3db9563b	0.0904965
5	0x3ea4b740	0.3217106
6	0x3e93042e	0.28714126
7	0x3eab2f5b	0.33434567
8	0x3ec64815	0.3872687
9	0x3e13e3ec	0.14442414
10	0x3ec468d6	0.38361233
11	0x3ed75f26	0.4206478
12	0x3e1f990b	0.15585725
13	0x3d4d91a2	0.050187714
14	0x3e244029	0.160401
15	0x3e9eff61	0.31054214
16	0x3e357ac5	0.17722614
17	0x3e2bbb3c	0.16770643
18	0x3e728b1c	0.23685879
19	0x3e977bbd	0.29586592
20	0x3e0998d0	0.134372
21	0x3e6b65e3	0.22988085
22	0x3ec7a6d2	0.3899446
23	0x3ec19f7f	0.37816998
24	0x3e2197f9	0.15780629
25	0x3e213e47	0.15746413
26	0x3d41223d	0.047151793
27	0x3e289659	0.16463603
28	0x3db88ffc	0.09011838
29	0x3e29481e	0.16531417
30	0x3e143289	0.14472403
31	0x3e151406	0.1455842
32	0x3e2e0557	0.16994224
33	0x3df4d129	0.11953957
34	0x3e21d98c	0.15805644
35	0x3e23af0f	0.15984748
36	0x3e0f46b1	0.1399181
37	0x3d188d6c	0.037244245
38	0x3dda7306	0.1066647
39	0x3e11fdcd	0.14256974
40	0x3e1019ed	0.1407239
41	0x3dfd6987	0.12373643
42	0x3e1e7633	0.15474777
43	0x3e24ffcc	0.16113204
44	0x3decfdda	0.11571856
45	0x3e1fa50b	0.15590303
46	0x3e200a70	0.15628982
47	0x3e1329f2	0.1437147
48	0x3e839422	0.25698954
49	0x3e81b572	0.25333744
50	0x3d412277	0.04715201
51	0x3eb03c63	0.3442107
52	0x3e63691b	0.22208063
53	0x3ea6ebd5	0.326018
54	0x3e321c4f	0.17393611
55	0x3e44a409	0.192032
56	0x3ea9c73f	0.33159825
57	0x3e895fd9	0.26830938
58	0x3e832b40	0.25618935
59	0x3e8b49a6	0.27204627
60	0x3e6a7701	0.22896959
61	0x3d188d6c	0.037244245
62	0x3ddbaac2	0.10725929
63	0x3e415e77	0.18883692
64	0x3e88019f	0.26563737
65	0x3e069f80	0.13146782
66	0x3ed7de97	0.4216201
67	0x3e82e658	0.25566363
68	0x3e9c353e	0.3050937
69	0x3e8607f4	0.26177943
70	0x3e82a49f	0.2551622
71	0x3e4a635f	0.1976447

mlp3.weight f4 [24, 72]
0	0x3e866d50	0.26255274
1	0x3e3ffcfc	0.1874885
2	0x3e599e81	0.2125187
3	0x3e839878	0.25702262
4	0x3e631165	0.22174604
5	0x3e3f1921	0.1866193
6	0x3e5c01a3	0.21485
7	0x3e7576a5	0.2397104
8	0x3e98eb05	0.29866806
9	0x3e87363e	0.2640857
10	0x3e9b844d	0.30374375
11	0x3e4fbafa	0.2028617
12	0x3e909fd6	0.28246945
13	0x3e4723f3	0.19447307
14	0x3e5e207b	0.21692078
15	0x3e3b77e4	0.18307453
16	0x3e73f409	0.23823561
17	0x3e2f1991	0.17099597
18	0x3e8c7c7a	0.27438718
19	0x3e71cf1e	0.23614165
20	0x3e6fc2d6	0.23414168
21	0x3e862d3c	0.26206386
22	0x3e0a874c	0.13528174
23	0x3e43d4f2	0.19124201
24	0x3eaa10f1	0.3321605
25	0x3e7f5219	0.24933662
26	0x3e771ef7	0.24132906
27	0x3e89a785	0.2688562
28	0x3e6fa9a6	0.2340456
29	0x3e9bb160	0.30408764
30	0x3e9fb123	0.31189832
31	0x3eac4da9	0.33653
32	0x3ea2083c	0.31646907
33	0x3e8f4ea3	0.27989683
34	0x3eb62700	0.3557663
35	0x3e84c6db	0.25932965
36	0x3e9cb66a	0.3060792
37	0x3e668d25	0.2251478
38	0x3e85b530	0.26114798
39	0x3ead54d8	0.33853793
40	0x3e97af4c	0.29625928
41	0x3eabb83b	0.33538994
42	0x3ea7be54	0.32762396
43	0x3eafad05	0.3431169
44	0x3e83117d	0.2559928
45	0x3ea826d2	0.32842118
46	0x3e694819	0.2278141
47	0x3e925bb1	0.2858558
48	0x00000000	0.0
49	0x00000000	0.0
50	0x00000000	0.0
51	0x00000000	0.0
52	0x00000000	0.0
53	0x00000000	0.0
54	0x00000000	0.0
55	0x00000000	0.0
56	0x00000000	0.0
57	0x00000000	0.0
58	0x00000000	0.0
59	0x00000000	0.0
60	0x00000000	0.0
61	0x00000000	0.0
62	0x00000000	0.0
63	0x00000000	0.0
64	0x00000000	0.0
65	0x00000000	0.0
66	0x00000000	0.0
67	0x00000000	0.0
68	0x00000000	0.0
69	0x00000000	0.0
70	0x00000000	0.0
71	0x00000000	0.0
72	0x3a42c7b7	0.00074302725
73	0x3a77ad4a	0.00094481243
74	0x3a59e731	0.0008312343
75	0x3a77d33d	0.0009453779
76	0x3abeadd7	0.0014547658
77	0x3a1fd72f	0.00060974335
78	0x3a58b68e	0.0008266949
79	0x3a735d39	0.00092836056
80	0x3a606231	0.00085595535
81	0x3a5fec2e	0.00085419684
82	0x3a7887ca	0.00094806834
83	0x3a0e4582	0.00054272276
84	0x3a4c5248	0.0007794243
85	0x3a57363f	0.00082096824
86	0x3a682c51	0.00088567013
87	0x3a5b2db0	0.0008360995
88	0x3a3b2163	0.0007138459
89	0x3a345f0e	0.00068806193
90	0x3a64f869	0.0008734526
91	0x3a5dddfe	0.00084635604
92	0x3a3ae498	0.00071294
93	0x3a714c06	0.0009204749
94	0x3a85cda9	0.0010208386
95	0x3a262136	0.0006337346
96	0x3e39e84d	0.18155022
97	0x3e6ad7b4	0.22933847
98	0x3e7decad	0.24797316
99	0x3e175029	0.14776672
100	0x3e251ba3	0.16123824
101	0x3e0aa296	0.13538584
102	0x3e09901b	0.13433878
103	0x3e484bf5	0.19560225
104	0x3e60e848	0.21963608
105	0x3e3214a5	0.17390688
106	0x3e3f0210	0.1865313
107	0x3dd0718c	0.10177907
108	0x3e10a4a5	0.14125307
109	0x3e22c436	0.15895161
110	0x3e306bb4	0.17228585
111	0x3e58a860	0.2115798
112	0x3e421e71	0.18956925
113	0x3d56606c	0.05233805
114	0x3e2b0174	0.16699773
115	0x3e1d26b8	0.15346801
116	0x3e3dc8cf	0.18533634
117	0x3df150bd	0.11782978
118	0x3e09d435	0.13459857
119	0x3e39c596	0.1814178
120	0x00000000	0.0
121	0x00000000	0.0
122	0x00000000	0.0
123	0x00000000	0.0
124	0x00000000	0.0
125	0x00000000	0.0
126	0x00000000	0.0
127	0x00000000	0.0
128	0x00000000	0.0
129	0x00000000	0.0
130	0x00000000	0.0
131	0x00000000	0.0
132	0x00000000	0.0
133	0x00000000	0.0
134	0x00000000	0.0
135	0x00000000	0.0
136	0x00000000	0.0
137	0x00000000	0.0
138	0x00000000	0.0
139	0x00000000	0.0
140	0x00000000	0.0
141	0x00000000	0.0
142	0x00000000	0.0
143	0x00000000	0.0
144	0x3e91c6b9	0.28471926
145	0x3e5f5514	0.21809798
146	0x3e41f4c5	0.18941028
147	0x3e318673	0.17336445
148	0x3e50e3a4	0.20399338
149	0x3e35daaf	0.17759202
150	0x3e43f9ad	0.19138213
151	0x3e8b33a2	0.2718783
152	0x3e51fadc	0.20505852
153	0x3e8f8884	0.2803384
154	0x3e83f5fe	0.25773615
155	0x3e24ad1f	0.16081665
156	0x3e3ea4c2	0.18617538
157	0x3e8983d7	0.26858398
158	0x3e8faab2	0.28059918
159	0x3e905100	0.28186798
160	0x3e4257dd	0.1897883
161	0x3e35f086	0.17767534
162	0x3e4a89d0	0.19779134
163	0x3e92295a	0.28547174
164	0x3e2a8124	0.16650826
165	0x3e8281bb	0.25489601
166	0x3dd86006	0.1056519
167	0x3e7f8746	0.24953946
168	0x3e798272	0.24366167
169	0x3eaae33a	0.33376485
170	0x3e9943f2	0.2993465
171	0x3e932bff	0.28744504
172	0x3e8c3835	0.27386633
173	0x3eaa231f	0.3322992
174	0x3e847099	0.25867155
175	0x3e856b4f	0.26058432
176	0x3e987571	0.297771
177	0x3eb4ea8f	0.35335204
178	0x3e8f3c30	0.27975607
179	0x3ea19fb3	0.31567153
180	0x3ea69725	0.3253719
181	0x3eac193a	0.33612996
182	0x3e719558	0.23592126
183	0x3e82c969	0.2554429
184	0x3e6ba57b	0.23012345
185	0x3e6cc7e5	0.23123129
186	0x3eb1f8d5	0.34760156
187	0x3ea0912b	0.31360754
188	0x3e905937	0.28193066
189	0x3e749a22	0.23886922
190	0x3e3de3c5	0.18543918
191	0x3ea3932e	0.31948227
192	0x00000000	0.0
193	0x00000000	0.0
194	0x00000000	0.0
195	0x00000000	0.0
196	0x00000000	0.0
197	0x00000000	0.0
198	0x00000000	0.0
199	0x00000000	0.0
200	0x00000000	0.0
201	0x00000000	0.0
202	0x00000000	0.0
203	0x00000000	0.0
204	0x00000000	0.0
205	0x00000000	0.0
206	0x00000000	0.0
207	0x00000000	0.0
208	0x00000000	0.0
209	0x00000000	0.0
210	0x00000000	0.0
211	0x00000000	0.0
212	0x00000000	0.0
213	0x00000000	0.0
214	0x00000000	0.0
215	0x00000000	0.0
216	0x00000000	0.0
217	0x00000000	0.0
218	0x00000000	0.0
219	0x00000000	0.0
220	0x00000000	0.0
221	0x00000000	0.0
222	0x00000000	0.0
223	0x00000000	0.0
224	0x00000000	0.0
225	0x00000000	0.0
226	0x00000000	0.0
227	0x00000000	0.0
228	0x00000000	0.0
229	0x00000000	0.0
230	0x00000000	0.0
231	0x00000000	0.0
232	0x00000000	0.0
233	0x00000000	0.0
234	0x00000000	0.0
235	0x00000000	0.0
236	0x00000000	0.0
237	0x00000000	0.0
238	0x00000000	0.0
239	0x00000000	0.0
240	0x3e5a471b	0.21316187
241	0x3e88bb19	0.26705244
242	0x3e8c8164	0.27442467
243	0x3e445f10	0.19176888
244	0x3e8468ea	0.25861293
245	0x3e69deac	0.22838849
246	0x3e2f06c5	0.17092426
247	0x3e9378cb	0.28803095
248	0x3e8374f9	0.2567518
249	0x3e84a2be	0.25905412
250	0x3e896e64	0.26842034
251	0x3de24376	0.110480234
252	0x3e734497	0.23756634
253	0x3e50465a	0.20339337
254	0x3e43cda9	0.19121422
255	0x3e6cdd84	0.23131377

mlp3.bias f4 [24]
0	0xbd7fbb84	-0.06243469
1	0x3e867a79	0.26265314
2	0xbd6523a1	-0.05594218
3	0x3e119104	0.14215475
4	0xbd69ff94	-0.057128504
5	0xbe1decb6	-0.1542233
6	0xbe977d47	-0.29587767
7	0x3e2c1da7	0.16808186
8	0x3e81fa53	0.25386295
9	0xbe83e533	-0.25760803
10	0xbe8fa4ce	-0.28055423
11	0xbe2ad11c	-0.16681331
12	0xbbf124b9	-0.007359114
13	0xbe9af8bd	-0.30267897
14	0xbe98fd8b	-0.29880938
15	0x3d7976ed	0.060904432
16	0xbd968b13	-0.07350745
17	0xbddd2225	-0.10797528
18	0x3aa0b63d	0.0012261342
19	0x3e91d5a3	0.28483304
20	0x3e618634	0.2202385
21	0xbe80351d	-0.25040522
22	0xbd6c9888	-0.057762653
23	0xbe24a63e	-0.16079041

bn3.weight f4 [72]
0	0x3ee66651	0.44999936
1	0x3ef81865	0.48456112
2	0x3ee01307	0.43764517
3	0x3ef2e5b4	0.47440875
4	0x3ed5a057	0.41723892
5	0x3edda9af	0.4329352
6	0x3ee3305e	0.4437284
7	0x3ee63038	0.44958663
8	0x3ee5998a	0.44843704
9	0x3ee8d8bf	0.45477864
10	0x3ee81301	0.45327
11	0x3ed7c828	0.42144895
12	0x3ef92814	0.4866339
13	0x3edeb6c8	0.43498826
14	0x3eeb1ced	0.45920506
15	0x3ee29cea	0.4426034
16	0x3ee44e88	0.44591165
17	0x3ed6949e	0.4191026
18	0x3eed8bd7	0.46395752
19	0x3ee487a6	0.44634742
20	0x3ed9d451	0.42544797
21	0x3ee0df41	0.4392033
22	0x3ed592ee	0.4171366
23	0x3ed679b8	0.4188974
24	0x3f000000	0.5
25	0x3f000000	0.5
26	0x3f000000	0.5
27	0x3f000000	0.5
28	0x3f000000	0.5
29	0x3f000000	0.5
30	0x3f000000	0.5
31	0x3f000000	0.5
32	0x3f000000	0.5
33	0x3f000000	0.5
34	0x3f000000	0.5
35	0x3f000000	0.5
36	0x3f000000	0.5
37	0x3f000000	0.5
38	0x3f000000	0.5
39	0x3f000000	0.5
40	0x3f000000	0.5
41	0x3f000000	0.5
42	0x3f000000	0.5
43	0x3f000000	0.5
44	0x3efca282	0.49342734
45	0x3f000000	0.5
46	0x3ef30c0e	0.47470134
47	0x3f000000	0.5
48	0x3eb59aa4	0.35469544
49	0x3eb6c8cf	0.3570008
50	0x3eb7f84d	0.35931626
51	0x3eb54244	0.3540212
52	0x3eb8cd91	0.36094335
53	0x3eb33380	0.3500023
54	0x3eb74932	0.3579803
55	0x3eb4fe05	0.35350052
56	0x3eb406b9	0.3516138
57	0x3eb67205	0.35633865
58	0x3eb3f994	0.3515135
59	0x3eb4e8d3	0.3533388
60	0x3eb413cf	0.35171363
61	0x3eb6ca1c	0.35701072
62	0x3eb57a84	0.35445035
63	0x3eb6b2db	0.3568333
64	0x3eb3532f	0.35024402
65	0x3ebafdeb	0.3652185
66	0x3eb6a219	0.35670546
67	0x3ebb3d85	0.36570373
68	0x3eb6988a	0.35663253
69	0x3eb65a11	0.3561559
70	0x3eb2c74b	0.34917673
71	0x3eb5db80	0.35519028

bn3.bias f4 [72]
0	0xbd79a109	-0.06094459
1	0xbd8d338d	-0.06894598
2	0xbd40f64b	-0.047109883
3	0xbd9d2eed	-0.07674966
4	0xbd75a216	-0.05996903
5	0xbca5b4fb	-0.0202279
6	0xbd988a2a	-0.07448228
7	0xbd8c178b	-0.06840428
8	0xbbc54d0e	-0.0060211485
9	0xbd8b8ed1	-0.068143494
10	0xbd7766c1	-0.060400728
11	0x3ba8d891	0.00515277
12	0xbd72dd54	-0.059293106
13	0xbd8c9452	-0.06864227
14	0xbd8c77bd	-0.06858776
15	0xbda73b37	-0.08165591
16	0xbd7435f6	-0.059621774
17	0xbd98467b	-0.07435318
18	0xbdaac914	-0.08339134
19	0xbd9c2d34	-0.07625809
20	0xbd6cfd6f	-0.05785888
21	0xbd97e524	-0.07416752
22	0xbdd00223	-0.101566575
23	0xbd5834c5	-0.0527847
24	0xbe0803e4	-0.13282734
25	0xbdb932b6	-0.090428755
26	0xbdc476be	-0.09592961
27	0xbe011b25	-0.12608011
28	0xbdd207d1	-0.10255397
29	0xbdec23e7	-0.11530285
30	0xbe07975b	-0.13241331
31	0xbdec353d	-0.11533592
32	0xbdf734cc	-0.12070617
33	0xbdf81044	-0.121124774
34	0xbdd2c172	-0.10290803
35	0xbdfb567b	-0.12272354
36	0xbddc41b5	-0.1075472
37	0xbde69adf	-0.11260008
38	0xbdc9d9cc	-0.098559946
39	0xbda60c41	-0.08107806
40	0xbd785e1b	-0.06063662
41	0xbe0094cf	-0.12556766
42	0xbde875c2	-0.113505855
43	0xbddb5e8b	-0.10711392
44	0xbe08b45c	-0.13350052
45	0xbe0a7c2f	-0.13523935
46	0xbe009004	-0.12554938
47	0xbdd7142d	-0.10501895
48	0xbdfa2de0	-0.12215781
49	0xbe013c18	-0.1262058
50	0xbda723bd	-0.081611134
51	0xbe0af66b	-0.13570563
52	0xbdd7f0ad	-0.10543952
53	0xbd274393	-0.04083593
54	0xbe01fd14	-0.12694198
55	0xbdf698b6	-0.12040846
56	0xbdf228a6	-0.11824159
57	0xbd853202	-0.06503679
58	0xbd6a74af	-0.057240184
59	0xbe047b71	-0.12937714
60	0xbe020e58	-0.12700784
61	0xbd899483	-0.067177795
62	0xbdf779af	-0.12083756
63	0xbe0187fc	-0.1264953
64	0xbe05dc08	-0.13072217
65	0xbdf048b2	-0.117326155
66	0xbd14f7b3	-0.036369037
67	0xbdffa239	-0.124821134
68	0xbe160bbf	-0.14652918
69	0xbe0db1e4	-0.13837391
70	0xbe05f2d7	-0.13080917
71	0xbe05beac	-0.13061017

bn3.running_mean f4 [72]
0	0x3f36f84c	0.7147262
1	0x3f4ac705	0.7920993
2	0x3f3fd1aa	0.74929297
3	0x3f3e3f03	0.743149
4	0x3f91678c	1.1359725
5	0x3f32763d	0.6971167
6	0x3f2beedb	0.6716134
7	0x3f40d8ba	0.753307
8	0x3f3bd670	0.7337408
9	0x3f3b6501	0.73200995
10	0x3f3e48ed	0.74330026
11	0x3f16a6cb	0.58848256
12	0x3f36f3d8	0.71465826
13	0x3f2e0445	0.67975265
14	0x3f44610e	0.76710594
15	0x3f45b0eb	0.7722308
16	0x3f2b3d2e	0.6689023
17	0x3f18a1f0	0.59622097
18	0x3f4598d1	0.77186304
19	0x3f40ac44	0.75262856
20	0x3f2d87de	0.6778544
21	0x3f2d3210	0.67654514
22	0x3f65cbfa	0.8976437
23	0x3f2c433d	0.672901
24	0x3db8d7eb	0.09025558
25	0x3dc432d6	0.09580009
26	0x3dc15277	0.09439557
27	0x3dba43fa	0.09094997
28	0x3dab451c	0.08362791
29	0x3db3b222	0.087742105
30	0x3db2bcd2	0.08727421
31	0x3dc1b761	0.09458805
32	0x3dbca987	0.09212022
33	0x3dbb1c0b	0.09136208
34	0x3dc0c698	0.09412879
35	0x3da48aca	0.080342844
36	0x3db7cfda	0.089751914
37	0x3db7bd8e	0.089717016
38	0x3dc20bd5	0.09474913
39	0x3dc330c9	0.095307894
40	0x3db5db33	0.088796996
41	0x3da6a343	0.081366085
42	0x3dc10a16	0.09425752
43	0x3dc05f84	0.09393218
44	0x3dac388e	0.084092245
45	0x3db1332d	0.08652339
46	0x3da80060	0.082031965
47	0x3db2c29d	0.08728526
48	0xbdf9e568	-0.12201959
49	0xbe0b0853	-0.13577394
50	0xbe108548	-0.14113343
51	0xbdfc9c1d	-0.12334464
52	0xbefb3d63	-0.49070272
53	0xbe02d274	-0.12775594
54	0xbdf7b96f	-0.120959155
55	0xbe07971a	-0.13241234
56	0xbdfefede	-0.12450956
57	0xbdf501e2	-0.1196325
58	0xbe0734ab	-0.13203685
59	0xbde31a0f	-0.11088955
60	0xbdf7d243	-0.12100651
61	0xbdfcb6c4	-0.12339547
62	0xbe01e344	-0.12684351
63	0xbe0d1575	-0.13777716
64	0xbdf285d5	-0.11841933
65	0xbdf0688c	-0.11738691
66	0xbdfde547	-0.12397247
67	0xbe0a9f32	-0.1353729
68	0xbe2b0155	-0.16699727
69	0xbe01d0ec	-0.12677354
70	0xbea152d3	-0.31508502
71	0xbdf7f97c	-0.12108132

bn3.running_var f4 [72]
0	0x3fa921d2	1.3213446
1	0x3fbf0852	1.4924414
2	0x3fb0e6d2	1.3820441
3	0x3fb3029c	1.3985171
4	0x40264417	2.5979059
5	0x3fa65ae8	1.2996492
6	0x3f9c8b03	1.2229923
7	0x3fb285f9	1.3947135
8	0x3fae9df5	1.3641955
9	0x3fae8b2d	1.3636223
10	0x3faf6a32	1.3704283
11	0x3f886286	1.0655067
12	0x3fa9da67	1.3269776
13	0x3f9d24ce	1.2276857
14	0x3fb7e645	1.4367148
15	0x3fb80499	1.4376403
16	0x3f99e41b	1.2022737
17	0x3f88e024	1.0693402
18	0x3fbad64b	1.4596647
19	0x3fb3519d	1.4009281
20	0x3f9dc7cd	1.2326599
21	0x3f9f753c	1.2457652
22	0x3fecefea	1.8510716
23	0x3f9da2b6	1.231528
24	0x3e581388	0.211012
25	0x3e58d0ea	0.21173444
26	0x3e5871e4	0.21137196
27	0x3e5881f3	0.21143322
28	0x3e64074f	0.22268413
29	0x3e57ebd4	0.21086055
30	0x3e57cc81	0.21074106
31	0x3e586d9c	0.21135563
32	0x3e5838c0	0.21115398
33	0x3e5849e5	0.21121939
34	0x3e585166	0.21124801
35	0x3e56b00e	0.20965597
36	0x3e581e3e	0.21105286
37	0x3e57c95a	0.21072903
38	0x3e587b4f	0.21140788
39	0x3e58baca	0.21165004
40	0x3e57df83	0.21081357
41	0x3e572fa1	0.21014263
42	0x3e586a95	0.21134408
43	0x3e58657b	0.21132462
44	0x3e59a5b4	0.21254617
45	0x3e57afc4	0.21063143
46	0x3e6092c2	0.21930984
47	0x3e57ccc2	0.21074203
48	0x3f19d3fc	0.6008909
49	0x3f27752a	0.65413153
50	0x3f2a8041	0.6660195
51	0x3f1b0f12	0.6056987
52	0x3fe533cf	1.7906436
53	0x3f1c6836	0.61096513
54	0x3f16ff6e	0.58983505
55	0x3f245584	0.64192986
56	0x3f1cd150	0.61256886
57	0x3f191e21	0.598116
58	0x3f240d51	0.6408282
59	0x3f0b9ec5	0.5453914
60	0x3f18d661	0.59702116
61	0x3f1a643f	0.60309213
62	0x3f209d18	0.62739706
63	0x3f28bbb9	0.6591144
64	0x3f1662e8	0.5874467
65	0x3f10746f	0.56427664
66	0x3f1e721b	0.6189286
67	0x3f261e74	0.6489022
68	0x3f2ffca5	0.6874488
69	0x3f1a0601	0.6016541
70	0x3f8f5c6d	1.1200081
71	0x3f1716a8	0.59018946

mlp4.weight f4 [1, 72]
0	0x00000000	0.0
1	0x00000000	0.0
2	0x00000000	0.0
3	0x00000000	0.0
4	0x00000000	0.0
5	0x00000000	0.0
6	0x00000000	0.0
7	0x00000000	0.0
8	0x00000000	0.0
9	0x00000000	0.0
10	0x00000000	0.0
11	0x00000000	0.0
12	0x00000000	0.0
13	0x00000000	0.0
14	0x00000000	0.0
15	0x00000000	0.0
16	0x00000000	0.0
17	0x00000000	0.0
18	0x00000000	0.0
19	0x00000000	0.0
20	0x00000000	0.0
21	0x00000000	0.0
22	0x00000000	0.0
23	0x00000000	0.0
24	0x3e20b02d	0.15692206
25	0x3df820db	0.12115642
26	0x3e2be548	0.16786683
27	0x3da7a680	0.08186054
28	0x3e388e2c	0.18022984
29	0x3df5cc99	0.120019145
30	0x3e02690b	0.12735383
31	0x3db64e7b	0.08901688
32	0x3d71b0df	0.059006568
33	0x3d6c1cca	0.057644643
34	0x3dd8b3db	0.1058118
35	0x3d9501e1	0.07275749
36	0x3e4485d7	0.19191681
37	0x3e2dfff8	0.16992176
38	0x3e0ca5a5	0.13735063
39	0x3d00964f	0.031393345
40	0x3e11877b	0.14211838
41	0x3e10f56e	0.14156124
42	0x3cf1a598	0.029497907
43	0x3e045510	0.12923074
44	0x3d7df4d1	0.062001053
45	0x3dc50c47	0.09621482
46	0x3e022770	0.12710357
47	0x3dd9f4fa	0.10642429
48	0x3e8cfdfe	0.2753753
49	0x3b5ab018	0.003336912
50	0x3e9846f7	0.29741642
51	0x3da88b43	0.08229687
52	0x3e50e740	0.20400715
53	0x3e852eec	0.2601236
54	0x3e67880f	0.22610496
55	0x3deb3bbf	0.11486005
56	0x00000000	0.0
57	0x3e51cef3	0.20489101
58	0x3e4e6960	0.20157385
59	0x00000000	0.0
60	0x3e98dee5	0.29857555
61	0x3e684903	0.22684102
62	0x3e828b35	0.25496832
63	0x00000000	0.0
64	0x3e460b07	0.19340144
65	0x3d864826	0.0655673
66	0x3e3a122f	0.18170999
67	0x3c5beb71	0.013422833
68	0x3e2c20d1	0.16809393
69	0x3d725322	0.059161313
70	0x3ac27079	0.0014834545
71	0x3e18697b	0.14883988
