utility-model-selected/dim-3/utility-79.pt (torch, 23458 bytes, 17 tensors)

bn1.running_mean f4 [3]
000000 e2 82 00 3f df 04 00 3f 3b 6e ff 3e
       0.5019971 0.5000743 0.49888787

bn1.running_var f4 [3]
000000 1e 52 67 3d 28 14 5c 3d cf ad 58 3d
       0.056474797 0.05373016 0.05290013

mlp1.weight f4 [24, 3]
000000 e3 d0 f3 3e 68 99 c8 3e e0 bd a1 3e 32 60 5b 3d
       0.47620305 0.3917954 0.31590176 0.053558536
000010 32 6e 2d 3e 49 d4 a2 3d b1 5f 8b 3e a0 72 a9 3e
       0.16936567 0.079506464 0.27221444 0.33095264
000020 2d a7 99 3e bb 5d 72 3e 96 34 61 3e 47 57 82 3e
       0.30010357 0.23668568 0.21992716 0.25457212
000030 7b a8 23 3e 1b a5 43 3e 00 00 00 00 c3 d6 c9 3d
       0.15982239 0.19105951 0.0 0.09855416
000040 00 00 00 3f dc fa 9e 3e 18 77 36 3e 43 89 08 3e
       0.5 0.31050766 0.17818868 0.13333611
000050 16 71 87 3e 8f 9e 6e 3d 24 38 c1 3d 00 00 00 00
       0.26453465 0.058256682 0.09434536 0.0
000060 12 66 c8 3e 68 d7 40 3e db bd 7c 3e 00 00 00 3f
       0.39140373 0.18832171 0.24681799 0.5
000070 eb 48 a6 3e 00 00 00 00 e9 cc ea 3e e3 9d e9 3e
       0.32477507 0.0 0.4585946 0.4562827
000080 00 00 00 00 00 cb 24 3e 00 00 00 3f 12 b1 dc 3e
       0.0 0.16093063 0.5 0.43103844
000090 42 ae 42 3e 89 2f 82 3d 00 00 00 00 17 37 47 3e
       0.19011787 0.06356723 0.0 0.19454609
0000a0 ed be 0b 3e 29 33 9c 3e bf 35 a5 3e 86 67 90 3d
       0.13647051 0.30507782 0.32267568 0.070509955
0000b0 00 00 00 00 97 4d a6 3e be f1 2c 3e ad 34 e7 3e
       0.0 0.3248107 0.16889092 0.45157376
0000c0 a9 32 f5 3e 47 2c cc 3e 05 61 41 3e 6d d1 85 3e
       0.47890213 0.3987753 0.18884666 0.26136342
0000d0 68 b2 b1 3e c1 2f d2 3c c1 46 bc 3d 16 09 b1 3e
       0.34706426 0.025657536 0.09193183 0.34577245
0000e0 e9 b3 4e 3e 1b cb 6b 3e e8 b8 08 3e 0c e4 94 3e
       0.20185818 0.23026697 0.13351786 0.29080236
0000f0 27 e5 cd 3e ff 24 ce 3d ca a9 e5 3d 05 68 fd 3e
       0.40213892 0.1006565 0.11214025 0.49493423
000100 4b 10 8c 3e cc 69 ea 3e 9e bc 85 3e af cf ac 3e
       0.2735618 0.45783842 0.26120466 0.337522
000110 8f 22 a9 3e ba 7e 4b 3e 30 07 63 3d 00 00 00 00
       0.3303418 0.19872561 0.055426776 0.0

mlp1.bias f4 [24]
000000 41 e5 cf bd 3f 38 ba 3e cf 75 e5 3d ca af 4f 3e
       -0.101511486 0.36371037 0.11204111 0.20281902
000010 47 fa a8 be bb 8b e3 be 7e 15 16 bf fd 0e b8 be
       -0.33003446 -0.44442543 -0.58626544 -0.35948935
000020 5b e6 93 3b eb c3 15 bf 8f 2f 0d bf df f5 0a bf
       0.0045135445 -0.5850207 -0.55150694 -0.5428142
000030 73 89 10 3f 72 cd 61 3e 8d cf df bd 3f 6b 42 3e
       0.5645973 0.22051027 -0.10928259 0.18986224
000040 d5 24 a5 be ab 8b a1 bd 75 25 87 3e ea 0a f9 3e
       -0.32254663 -0.07887968 0.26395765 0.4864114
000050 54 19 0c bf 34 5d a0 3e 69 96 65 3e 7c 14 b9 be
       -0.5472615 0.31321108 0.22420658 -0.3614844

mlp2.weight f4 [24, 72]
000000 10 b9 0d 3e 04 97 69 3d 37 7b 0d 3d 00 00 00 00
       0.13840127 0.057028785 0.034541335 0.0
000010 23 07 3b 3d 00 00 00 00 00 00 00 00 84 5b 85 3d
       0.045661103 0.0 0.0 0.06511596
000020 ce 68 52 3d 13 fc 50 3e 54 d9 25 3e 00 00 00 00
       0.05136948 0.20408659 0.16196185 0.0
000030 80 1e c5 3d 00 00 00 00 40 c6 9a 3d 00 00 00 00
       0.09624958 0.0 0.075573444 0.0
000040 88 36 1f 3e 6c d8 c4 3d 00 00 00 00 13 f3 46 3c
       0.15548146 0.09611592 0.0 0.012142914
000050 49 eb 16 3e ce 10 56 3d 00 00 00 00 75 f9 bf 3d
       0.14738192 0.05226212 0.0 0.09373752
000060 bc 3b 2e 3e 50 44 6a 3d 26 ba 20 3d 4e 51 61 3d
       0.17014974 0.057194054 0.039240025 0.05500918
000070 f0 31 eb 3d e4 ed 3d 3d 00 00 00 00 00 1b 87 3d
       0.11484134 0.04636945 0.0 0.06596947
000080 c6 af f5 3d aa 97 5d 3e 6e de 7d 3e 00 00 00 00
       0.11996417 0.21639886 0.24791881 0.0
000090 9a eb ff 3d 19 8a 24 3d e8 f4 96 3d bb dd da 3c
       0.12496109 0.040170763 0.07370931 0.026717057
0000a0 f9 83 02 3e 76 2a fe 3d 5e 7a a1 3d 49 fa 58 3d
       0.12745656 0.124104425 0.07884668 0.052973066
0000b0 3f 69 47 3d ef 8c 2e 3d c8 74 31 3d c4 2e 04 3e
       0.048684355 0.042614873 0.043324262 0.12908465
0000c0 36 c0 1e 3d 75 5c 5f 3d f8 b1 c8 3d 0c 45 89 3d
       0.038757525 0.054531533 0.0979957 0.06702623
0000d0 df 26 fb 3d 00 00 00 00 00 00 00 00 23 d9 6d 3d
       0.122632734 0.0 0.0 0.058068406
0000e0 f3 62 8a 3d 55 15 ec 3d 5f ab e6 3d 4a d2 33 3d
       0.06757154 0.11527506 0.11263155 0.04390172
0000f0 f6 ec 33 3d be 9f 67 3d 8e ef 0e 3e 29 c2 cc 3c
       0.043927155 0.056548826 0.1395857 0.024994927
000100 fc 0f b8 3d 0d 22 cf 3d 35 c7 8b 3d dd 0b 5f 3d
       0.08987424 0.101139165 0.06825105 0.054454673
000110 a4 12 c1 3d 77 b7 c5 3d d4 2c 8b 3d a3 39 63 3d
       0.094273835 0.09654134 0.0679566 0.05547489
000120 34 8f 1a 3e 8f df 8d 3d 66 f4 31 3d 00 00 00 00
       0.1509369 0.06927406 0.043445967 0.0
000130 4d b2 47 3d 00 00 00 00 00 00 00 00 d9 ec dc 3d
       0.048754025 0.0 0.0 0.107873626
000140 c7 6a 14 3d 22 9c 33 3e d4 49 2b 3e 79 76 7d 3b
       0.036234643 0.17540029 0.16727382 0.0038675352
000150 dd 0e 0a 3e 68 4c cc 3b c9 12 08 3e 00 00 00 00
       0.13482232 0.0062346943 0.13288416 0.0
000160 aa 92 3b 3e 24 e8 75 3d 00 00 00 00 f0 49 9e 3c
       0.18317667 0.06003584 0.0 0.019322366
000170 a4 ea f1 3d ee 1e b5 3d 00 00 00 00 ed d4 63 3d
       0.11812332 0.0884379 0.0 0.055622984
000180 3d c2 1d 3e b9 c9 97 3d 3b 80 ba 3d 5c 66 10 3d
       0.15406127 0.074115224 0.09106489 0.035253868
000190 5a 95 f9 3d 7b d0 1a 3d 00 00 00 00 0a 74 b7 3d
       0.1218669 0.03779648 0.0 0.089576796
0001a0 93 6f d5 3d b6 15 62 3e 32 00 3a 3e 00 00 00 00
       0.10421672 0.22078595 0.18164137 0.0
0001b0 f1 4b 24 3d ae 78 7f 3c d3 09 13 3e 2d ff 6e 3d
       0.040111486 0.015592737 0.14359216 0.058348823
0001c0 81 56 2b 3e a3 c4 f7 3d ff 06 eb 3d f9 54 84 3d
       0.16732217 0.12098052 0.11475944 0.0646152
0001d0 b7 ca a9 3d 20 63 11 3d 30 34 3f 3d 1b 1d 2a 3e
       0.08290618 0.035494924 0.04668063 0.16612665
0001e0 ef b2 09 3d 74 1c 86 3d 9f 81 f9 3d c4 26 0b 3d
       0.03361791 0.06548396 0.121829264 0.033972517
0001f0 2e 9a 02 3e 26 61 e9 3c 00 00 00 00 96 51 bd 3c
       0.12754127 0.028488707 0.0 0.023110192
000200 1b 9e 20 3d f0 45 e8 3d b8 24 e5 3d 00 00 00 00
       0.03921328 0.113414645 0.11188644 0.0
000210 b9 02 75 3d d9 73 bf 3c 47 d3 d6 3d 13 9d d3 3c
       0.05981705 0.02337067 0.10489517 0.025831735
000220 e0 7d 64 3d 0a a5 5b 3d 31 bb d2 3d dd d5 20 3d
       0.055784106 0.05362419 0.1028961 0.039266456
000230 4b 15 d5 3d 45 3f c1 3d 7d 42 23 3d e2 a3 51 3d
       0.10404452 0.09435896 0.03985833 0.05118168
000240 eb 90 2f 3d 34 31 b3 3c 1a c4 6e 3c 00 00 00 00
       0.042862814 0.021874048 0.014573121 0.0
000250 c5 56 dd 3d 00 00 00 00 00 00 00 00 47 82 b2 3d
       0.108075656 0.0 0.0 0.08716255
000260 29 47 b9 3d f9 38 3b 3e 36 09 7e 3e 00 00 00 00
       0.09046776 0.18283452 0.24808201 0.0
000270 ac f9 43 3e b4 13 82 3c 17 bf 26 3e ff d2 e7 3c
       0.19138211 0.015878536 0.16283832 0.028298853
000280 51 69 e0 3d 49 12 f0 3d 52 ad 83 3d 7b 04 01 3d
       0.109575875 0.117222376 0.064295426 0.031498414
000290 f5 5b 1d 3e c0 4c ce 3c 00 00 00 00 b6 55 58 3d
       0.1536711 0.025183082 0.0 0.052816115
0002a0 33 26 12 3e a5 26 8e 3c e3 df 11 3d b3 8f 61 3d
       0.14272384 0.017352412 0.035613906 0.055068683
0002b0 67 a8 b5 3d 3e b8 84 3c 00 00 00 00 94 52 ce 3d
       0.08870011 0.016201135 0.0 0.10074344
0002c0 19 83 97 3d c6 49 16 3e 3a 3c 3c 3e 9e 5c d3 39
       0.07398052 0.1467658 0.1838235 0.0004031406
0002d0 6e 22 bb 3d 23 b3 0d 3d 34 fb 8f 3d 4d a8 17 3d
       0.09137426 0.034594666 0.07030335 0.03702574
0002e0 e0 80 47 3e 9f fc 9a 3d 14 ac 85 3d a7 16 99 3d
       0.19482756 0.07567715 0.06526962 0.07475024
0002f0 28 b7 9b 3d 48 6a 05 3e 0f a4 e1 3d a7 75 64 3d
       0.07603294 0.13028824 0.1101762 0.055776265
000300 1d cb a2 3d a6 32 8f 3d b7 34 0c 3d 71 79 fd 3c
       0.07948897 0.06992082 0.03422996 0.030941697
000310 82 cb a8 3d c8 d7 79 3d 00 00 00 00 47 77 bb 3d
       0.08241941 0.0609968 0.0 0.0915361
000320 df 89 49 3d c5 a4 5b 3e 6b 5d 1b 3e c8 31 7f 3d
       0.04920375 0.21449573 0.15172355 0.062303334
000330 ad ca b9 3d 61 2d 7b 3d b2 f4 3e 3d f5 a7 ac 3c
       0.090718605 0.061322574 0.04662008 0.021076182
000340 13 fb a3 3d b8 bf 3c 3d a8 14 01 3e 11 9a ca 3d
       0.08006873 0.046081275 0.12605536 0.09892667
000350 57 9b e4 3d 75 35 f2 3c ed c0 18 3d 14 7c ca 3d
       0.11162441 0.029566506 0.037293363 0.09886947
000360 60 5f d3 3d 00 00 00 00 00 00 00 00 00 00 00 00
       0.10320926 0.0 0.0 0.0
000370 9b a0 d8 3d 00 00 00 00 00 00 00 00 b1 6c 6e 3d
       0.10577508 0.0 0.0 0.058209125
000380 b3 3b 6c 3d 74 bd 58 3e 88 86 5c 3e 00 00 00 00
       0.05767412 0.2116602 0.21535695 0.0
000390 d6 e5 20 3e 00 00 00 00 db 0f 13 3e 00 00 00 00
       0.15712675 0.0 0.14361517 0.0
0003a0 de ec 06 3e 98 4c f5 3d 27 c8 e2 3c 00 00 00 00
       0.13176295 0.119775 0.02768333 0.0
0003b0 18 e0 c7 3d 34 e8 2a 3d 09 0a 1d 3c 44 b9 c5 3d
       0.09759539 0.041725352 0.009584912 0.09654477
0003c0 c5 a7 29 3e b8 7d b7 3c 5a 6f 00 3e 37 33 33 3d
       0.16567905 0.022398815 0.12542477 0.043750014
0003d0 96 f6 7c 3d 59 68 4a 3d 00 00 00 00 06 27 ed 3c
       0.0617586 0.04941592 0.0 0.028949272
0003e0 b1 4d d1 3d f5 b8 50 3e 19 28 52 3e 08 b9 f8 3a
       0.102198966 0.20383056 0.20523109 0.0018976042
0003f0 fd ac af 3d 7f a8 41 3d 5f 94 3f 3d 59 e2 8e 3d
       0.08577917 0.04727983 0.046772357 0.06976766

mlp2.bias f4 [24]
000000 26 ad 53 bd c2 1d 7c bd d8 b5 c7 bd 06 56 b8 bc
       -0.0516788 -0.061551817 -0.09751481 -0.022501957
000010 88 cb 39 bd bd c2 da bc e1 55 8f bd f1 64 aa 3b
       -0.04536012 -0.026704187 -0.06998802 0.0052000214
000020 32 cd fa 3c 77 bc fc 3c e4 85 9b bd 84 a2 80 3c
       0.030615423 0.030851586 -0.07593897 0.015702493
000030 54 02 d2 bb 76 2a c5 bd 21 0e 58 bc d9 1d a2 bd
       -0.006408969 -0.096272394 -0.013186962 -0.07915849
000040 6b 86 4f 3c 80 dc 8f bd 4a 55 b3 bd 28 e8 15 3d
       0.012666325 -0.07024479 -0.08756502 0.036598355
000050 b8 23 10 bd 24 a0 23 3c 22 8a 63 bd ca b2 7c bd
       -0.035190314 0.009986911 -0.055551656 -0.061693944

bn2.weight f4 [72]
000000 89 5d e1 3e 1d a4 ef 3e 78 c1 e5 3e 18 8f d7 3e
       0.44016674 0.46804896 0.44874167 0.4210136
000010 00 00 00 3f 63 2b e3 3e a7 2b d2 3e 2f 50 fd 3e
       0.5 0.4436904 0.4104893 0.49475238
000020 c9 8b ec 3e 00 00 00 3f 00 00 00 3f 1b 9f dd 3e
       0.46200398 0.5 0.5 0.4328545
000030 00 00 00 3f 00 14 ca 3e 00 00 00 3f a9 09 da 3e
       0.5 0.39468384 0.5 0.42585495
000040 93 dc e0 3e de 62 f9 3e f4 79 e7 3e 60 ee d5 3e
       0.43918285 0.48708242 0.4521023 0.41783428
000050 5e a9 f3 3e f4 56 ec 3e a0 bf de 3e 00 00 00 3f
       0.47590154 0.4616009 0.43505573 0.5
000060 00 00 00 3f 92 27 f9 3e 00 00 00 3f 1b d2 f8 3e
       0.5 0.48663002 0.5 0.48597798
000070 00 00 00 3f 2b 52 eb 3e 13 03 d7 3e 8a 72 fc 3e
       0.5 0.45961127 0.41994533 0.49306136
000080 00 00 00 3f 00 00 00 3f 00 00 00 3f 5d 89 e4 3e
       0.5 0.5 0.5 0.4463605
000090 e7 bb fb 3e b6 f9 de 3e 00 00 00 3f 0a 2a f1 3e
       0.49166796 0.4354989 0.5 0.47102386
0000a0 00 00 00 3f 00 00 00 3f 00 00 00 3f 20 22 ee 3e
       0.5 0.5 0.5 0.4651041
0000b0 e5 0c ea 3e 00 00 00 3f b3 36 fe 3e 00 00 00 3f
       0.45712963 0.5 0.49651107 0.5
0000c0 63 44 fc 3e 83 61 f9 3e dd 32 fd 3e 61 3e f5 3e
       0.49270925 0.48707208 0.49452868 0.47899154
0000d0 55 c5 ff 3e c5 ae ed 3e 3e e9 cb 3e 7c c1 fc 3e
       0.4995524 0.464224 0.39826387 0.49366367
0000e0 c5 13 fa 3e 00 00 00 3f 00 00 00 3f 46 35 e9 3e
       0.48843208 0.5 0.5 0.45548457
0000f0 de 14 fb 3e c3 9b e2 3e 00 00 00 3f d6 c1 e2 3e
       0.49039358 0.44259462 0.5 0.4428851
000100 00 00 00 3f 00 00 00 3f 00 00 00 3f 69 78 ee 3e
       0.5 0.5 0.5 0.4657624
000110 d9 2f f1 3e 7c f6 f0 3e ab 7c fa 3e 00 00 00 3f
       0.47106817 0.47063053 0.4892324 0.5

bn2.bias f4 [72]
000000 73 d9 b9 bc dc 11 f5 bc 91 46 a3 bc 44 66 01 bd
       -0.022686696 -0.029915743 -0.01993111 -0.03159167
000010 46 98 e2 bc 13 e1 06 bd ae ac cf bc c5 da b8 bc
       -0.0276605 -0.03292949 -0.025350895 -0.022565255
000020 6d e2 a8 bc 57 ab 93 bc de 3a 6f bc ca b3 c5 bc
       -0.02061578 -0.018026037 -0.014601437 -0.024133582
000030 3b 6a 9d bc af f6 cf bc 6d 93 93 bc 55 01 f7 bc
       -0.019215694 -0.025386183 -0.018014634 -0.030152002
000040 c6 39 9b bc 50 9b da bc 29 01 0c bd bd 81 96 bc
       -0.018948447 -0.026685387 -0.034180794 -0.01837241
000050 49 0d b2 bc 44 d8 bd bc d6 eb 0d bd 01 63 c8 bc
       -0.02173485 -0.023174413 -0.03464874 -0.024461271
000060 87 fe bd bc 84 a7 e9 bc e0 b6 da bc 97 6a ab bc
       -0.023192657 -0.02852226 -0.02669853 -0.02092485
000070 d3 3c c6 bc 39 35 f3 bc a6 69 be bc 61 40 ca bc
       -0.024198925 -0.029688464 -0.023243736 -0.024688901
000080 69 ac dc bc 4d 91 b1 bc f0 8f 85 bc 4d f5 12 bd
       -0.02693768 -0.02167573 -0.016303986 -0.03587847
000090 df c9 b6 bc 9d 96 fc bc 15 75 af bc 19 67 e9 bc
       -0.022313057 -0.030833537 -0.021418134 -0.028491544
0000a0 e4 99 63 bc 85 2c c3 bc 71 6e ee bc 8a 9d 06 bd
       -0.013891671 -0.02382494 -0.029105397 -0.032865085
0000b0 ba 1d ad bc 90 88 f9 bc 10 fc 04 bd aa 37 a8 bc
       -0.021132339 -0.030460626 -0.032466948 -0.020534355
0000c0 4c 5f e9 bc 45 6b d6 bc fa 45 0d bd a5 b1 0d bd
       -0.028487824 -0.026174197 -0.034490563 -0.034593243
0000d0 b6 7d c2 bc 84 24 c3 bc bc 90 d9 bc f0 c5 ba bc
       -0.023741584 -0.023821123 -0.026558273 -0.022799462
0000e0 59 83 ce bc 41 21 cc bc 02 1b da bc cb da e2 bc
       -0.025209116 -0.0249182 -0.026624206 -0.02769222
0000f0 55 e2 d8 bc a0 3e a6 bc db 9f a4 bc c8 65 07 bd
       -0.026475111 -0.020293534 -0.020095756 -0.03305605
000100 54 b0 f1 bc a1 8f e5 bc 9d 9d d8 bc 94 29 0e bd
       -0.029503025 -0.02802259 -0.026442343 -0.03470762
000110 de d4 a7 bc 1a 1f 03 bd 34 32 1f bd ec 88 c3 bc
       -0.020487245 -0.032012083 -0.038866237 -0.023869

bn2.running_mean f4 [72]
000000 34 61 cf 3c 69 7b b8 3e 3d 94 10 3e eb 6c 53 3e
       0.025314905 0.36031654 0.14119048 0.20647018
000010 d8 e9 94 be 32 fb 62 be f8 4e cb be 95 51 b5 be
       -0.2908466 -0.22166136 -0.39708686 -0.35413805
000020 29 ee 25 3d af 23 93 be ea b0 81 be d6 ca 73 be
       0.04051033 -0.28738162 -0.25330287 -0.23807845
000030 89 2e 10 3f 0b 2f 61 3e cc 50 c4 bd e5 0a 61 3e
       0.56321007 0.21990602 -0.09585723 0.21976812
000040 e9 27 01 be 61 f1 17 bd dd c9 88 3e 90 e6 f8 3e
       -0.12612881 -0.03709543 0.2671651 0.48613405
000050 63 a9 ae be e4 37 b9 3e 03 e6 7c 3e 73 39 a8 be
       -0.34113607 0.36175454 0.24697118 -0.3285633
000060 f1 65 59 bd 02 fa a9 3e 18 04 8a 3d 97 92 16 3e
       -0.053075735 0.33198553 0.06739062 0.14704357
000070 d8 e9 94 be 0b 5c 6d be cc 62 cb be 95 51 b5 be
       -0.2908466 -0.23179643 -0.39723814 -0.35413805
000080 7a f4 d5 ba 7e 30 95 be bd c2 86 be fb 7c 81 be
       -0.001632347 -0.2913856 -0.2632045 -0.25290665
000090 e7 61 e2 3e 81 5d 28 3e be 64 c5 bd 49 d0 d8 3d
       0.4421532 0.16441919 -0.09638356 0.10586602
0000a0 24 b7 20 be 1a 64 5b bd 55 42 42 3e 88 0f aa 3e
       -0.15694863 -0.05356226 0.18970616 0.33214974
0000b0 db c9 ae be 91 6a 14 3e db 16 0b 3e 73 39 a8 be
       -0.34138379 0.14493777 0.13582937 -0.3285633
0000c0 c5 62 38 be 02 fa a9 3e 20 8a 15 3d f3 3b 10 3e
       -0.18006428 0.33198553 0.03650868 0.14085369
0000d0 87 28 a9 be 55 7a ea be ed 2f 16 bf dd db b7 be
       -0.33038732 -0.45796457 -0.5866688 -0.3590993
0000e0 16 87 28 bd c5 c1 16 bf d8 57 0f bf d1 5b 0f bf
       -0.041144453 -0.5888942 -0.55993414 -0.55999476
0000f0 e7 61 e2 3e be da 24 3e aa 7b e4 bd e6 d8 96 3d
       0.4421532 0.16099069 -0.111563995 0.07365589
000100 90 46 b2 be f6 54 be bd 3f 6d 3f 3e 60 ce a9 3e
       -0.3481946 -0.09293549 0.18694018 0.33165264
000110 7b 5f 0c bf f7 59 c9 3d 25 c1 e9 3d 78 b3 b9 be
       -0.5483319 0.098316126 0.114137925 -0.36269736

bn2.running_var f4 [72]
000000 bf 8a 96 3e de 49 1e 3d fe 8d 6b 3e 1c 50 27 3e
       0.2940273 0.038644664 0.23003384 0.16339153
000010 f5 74 24 3d 77 97 06 3e 4c e9 f4 3c d2 c2 32 3c
       0.0401506 0.13143717 0.0298964 0.010910707
000020 50 08 4b 3e 1c 38 c8 3d 61 33 04 3e 71 a5 12 3e
       0.1982739 0.09776327 0.12910224 0.14320923
000030 ff 09 27 3d b9 6f 17 3e 1f 79 c3 3d 59 a3 91 3e
       0.040781017 0.14788713 0.095445864 0.28444937
000040 51 ec 4d 3e 57 16 17 3e 8e 11 2c 3e a0 b5 20 3e
       0.20109679 0.14754616 0.16803572 0.15694284
000050 5f 92 4e 3d a7 f0 df 3e bc d2 84 3e 1b 3a e0 3c
       0.05043256 0.4373829 0.25942028 0.027371457
000060 cb 54 2b 3e 59 56 d0 3c a8 f6 0b 3e fe 36 d1 3d
       0.16731565 0.025431799 0.1366831 0.10215567
000070 f5 74 24 3d ae af e7 3d 18 7e f2 3c d2 c2 32 3c
       0.0401506 0.11312805 0.029601142 0.010910707
000080 a4 e6 0f 3e a2 05 b9 3d e5 9c e2 3d 62 73 ea 3d
       0.14052826 0.090342775 0.110650815 0.11447789
000090 94 df 02 3c 05 2d c0 3d c4 0d c2 3d cb 49 10 3e
       0.0079878755 0.09383587 0.09475282 0.1409065
0000a0 f8 37 17 3e e5 47 00 3e 3d 7a c7 3d 4a 3d 5b 3d
       0.14767444 0.12527426 0.09740112 0.053525247
0000b0 c5 9b 4c 3d 34 92 1a 3e 3e ee 04 3e 1b 3a e0 3c
       0.04995324 0.15094835 0.12981507 0.027371457
0000c0 a8 58 b2 3e 59 56 d0 3c 9d f1 3b 3e 0a 59 e5 3d
       0.34833264 0.025431799 0.18353887 0.111986235
0000d0 f2 9c 82 3d 9c 56 af 3e 3e 64 f9 3d b2 4c 4f 3c
       0.06377591 0.34245765 0.12177323 0.012652563
0000e0 dd 43 46 3e 50 89 b5 3e ef 55 d0 3e 50 46 e0 3e
       0.19361825 0.35456324 0.40690562 0.43803644
0000f0 94 df 02 3c 65 62 cb 3d bf 40 df 3d cd 29 45 3e
       0.0079878755 0.09930877 0.10901021 0.19254227
000100 2a 31 c0 3e 2f 8f 2f 3e 31 a5 d0 3d ff 5e 5f 3d
       0.3753751 0.17144464 0.10187758 0.054533955
000110 1f ec 3a 3e 64 9e 70 3e 8f 9a 29 3e c6 02 31 3d
       0.18254136 0.23497921 0.16562866 0.043215536

mlp3.weight f4 [24, 72]
000000 4b b4 f9 3d cf 94 00 3e b9 d1 36 3d a3 38 c1 3d
       0.12192591 0.12556766 0.0446336 0.09434631
000010 42 a4 37 3d c7 5a 23 3d cc 33 2d 3d 3b 5b c0 3d
       0.044834383 0.039881494 0.042285725 0.09392401
000020 58 57 8a 3d dc 24 c9 3d 5c 77 83 3d 53 e8 ed 3d
       0.06754941 0.098214835 0.0641925 0.11616578
000030 ee a9 2f 3d fe 4b 89 3d 78 6b 3f 3d 5f c1 50 3d
       0.042886667 0.067039475 0.04673335 0.050965663
000040 1d e3 04 3e 77 f0 bd 3d 15 ec 5c 3d 9e ab bb 3d
       0.12977262 0.09274381 0.053936083 0.09163593
000050 af 3b 63 3d f0 bb 8f 3d a9 00 3d 3d f4 4c 4a 3d
       0.05547684 0.07018268 0.046143208 0.049389794
000060 33 17 17 3e 37 61 42 3d 1e c6 21 3e 5b 51 b2 3c
       0.14754944 0.047455993 0.15798232 0.021767309
000070 86 ce 8f 3d 16 44 8c 3d fe f4 99 3d 8c d8 8f 3b
       0.07021813 0.06848924 0.07517432 0.004389828
000080 72 10 4a 3d de 69 cc 3d ad 05 0a 3e 43 0a bb 3b
       0.04933209 0.0998113 0.13478728 0.0057080104
000090 7d 45 cb 3d 03 2d 89 3d 24 a1 e7 3d 7f 6c ce 3d
       0.09925363 0.066980384 0.11310032 0.10079288
0000a0 9b 50 bc 3d 01 ca 55 3d 7a 63 0c 3e 39 b9 0b 3d
       0.09195062 0.0521946 0.13709822 0.03411219
0000b0 8b 97 21 3d f5 32 49 3d 74 48 db 3d 9d 8b 43 3d
       0.039451163 0.049120862 0.10707179 0.047740567
0000c0 00 00 00 00 00 00 00 00 00 00 00 00 00 00 00 00
       0.0 0.0 0.0 0.0
0000d0 00 00 00 00 00 00 00 00 00 00 00 00 00 00 00 00
       0.0 0.0 0.0 0.0
0000e0 00 00 00 00 00 00 00 00 00 00 00 00 00 00 00 00
       0.0 0.0 0.0 0.0
0000f0 00 00 00 00 00 00 00 00 00 00 00 00 00 00 00 00
       0.0 0.0 0.0 0.0
000100 00 00 00 00 00 00 00 00 00 00 00 00 00 00 00 00
       0.0 0.0 0.0 0.0
000110 00 00 00 00 00 00 00 00 00 00 00 00 00 00 00 00
       0.0 0.0 0.0 0.0
000120 9b 59 ab 3d 18 6e 04 3e 96 fb 37 3d 3d 76 b2 3d
       0.083667 0.12932622 0.044917665 0.087139584
000130 4a 98 a9 3d 0e 29 f7 3d 8b e0 d0 3d 2b b5 8e 3d
       0.08281 0.120683774 0.10199078 0.06968149
000140 83 3b 08 3d 37 58 4e 3d 04 5c b6 3d c1 db fc 3d
       0.03325988 0.050377097 0.08904269 0.12346602
000150 be ec ce 3d 68 f8 a2 3d 60 c3 d0 3d 28 f8 6c 3d
       0.10103749 0.07957536 0.10193515 0.057853848
000160 84 12 6c 3d 97 f3 68 3d 3b f7 81 3d 56 8a 04 3e
       0.057634845 0.05687293 0.063459836 0.12943396
000170 eb 53 8f 3d 81 2c 0c 3e bc bc 50 3d c9 19 b0 3d
       0.06998428 0.13688852 0.05096124 0.08598668
000180 c5 17 92 3d fa b6 c8 3d 9d 9b f6 3d f1 94 d6 3c
       0.0713344 0.09800525 0.120414 0.026194068
000190 05 ea 1f 3d dc 75 5b 3d 55 91 bb 3c 93 e7 7c 3c
       0.039041538 0.053579196 0.022896448 0.015436071
0001a0 db fb 8c 3d 7f 56 bb 3d a7 ac a5 3d 00 61 a6 3d
       0.06883975 0.09147357 0.080895714 0.0812397
0001b0 6a de fb 3d b4 93 90 3c f5 ee 53 3c 1b 27 07 3e
       0.122982815 0.017648555 0.01293539 0.13198511
0001c0 b4 2a 11 3d 2e 16 d6 3d 91 49 66 3d ab 57 86 3d
       0.035441115 0.10453449 0.056222502 0.0655969
0001d0 07 6c 75 3d e6 5a 1e 3d 3a 45 f9 3d 9f 33 c2 3d
       0.059917476 0.038660906 0.12171407 0.09482502
0001e0 00 00 00 00 ff de 07 3d 00 00 00 00 2a 97 87 3c
       0.0 0.03317165 0.0 0.016551573
0001f0 00 00 00 00 b6 17 07 3d 00 00 00 00 00 00 00 00
       0.0 0.032981597 0.0 0.0
000200 00 00 00 00 00 00 00 00 82 25 2b 3d 60 af 14 3c
       0.0 0.0 0.041783817 0.009075016
000210 61 3f 0c 3d ba 83 0b 3c 00 00 00 00 00 00 00 00
       0.03424013 0.008515293 0.0 0.0
000220 00 00 00 00 ce 28 a2 3c 00 00 00 00 17 00 71 3c
       0.0 0.019794848 0.0 0.014709494
000230 00 00 00 00 00 00 00 00 91 c2 5b 3c 00 00 00 00
       0.0 0.0 0.013413087 0.0
000240 af 00 99 3d 72 d8 68 3d 4e ae d1 3d d6 47 83 3d
       0.074708335 0.056847043 0.10238324 0.06410186
000250 d0 d3 1c 3e 89 52 5b 3d 81 b5 69 3d 6b 09 8f 3d
       0.15315175 0.05354551 0.05705786 0.06984218
000260 e8 20 bc 3d f3 96 c7 3d 1e a0 98 3d ed 06 1e 3e
       0.09185964 0.09745588 0.07452415 0.1543233
000270 93 8d 19 3e b9 61 8d 3d 9e d2 bd 3d d0 bf e3 3d
       0.14995413 0.06903405 0.09268688 0.1112057
000280 ba 9e 97 3d c7 92 de 3d a3 78 1d 3e 2e 0f cf 3d
       0.074033216 0.10867839 0.1537805 0.10110317
000290 58 73 93 3d 5a 29 b2 3d 0e a6 27 3e eb 68 cc 3d
       0.071997344 0.086992934 0.16371939 0.09980949
0002a0 00 cc ea 3c 51 fe 05 3e 31 ae 0e 3e 06 90 ef 3d
       0.028661728 0.13085295 0.13933636 0.11697392
0002b0 84 6f c5 3d ac 23 9e 3d 4a 8d b2 3d 1a eb 77 3d
       0.096404105 0.077216476 0.08718355 0.060526945
0002c0 dd 3d ba 3c 00 00 00 00 36 05 af 3d 75 fc 80 3d
       0.022734577 0.0 0.08545916 0.06298152
0002d0 98 fc 89 3d 76 6e a2 3d 9b bb 31 3d 23 90 6d 3d
       0.067376316 0.07931225 0.043391805 0.057998788
0002e0 fd d5 8e 3d ce c8 8f 3d ce 48 8d 3d 1b 6a fb 3c
       0.06974409 0.07020722 0.06898652 0.030690243
0002f0 c9 0d c1 3c 62 19 98 3d c9 8a 55 3d 83 95 09 3d
       0.023566144 0.074267164 0.05213431 0.03358985
000300 36 9b 4b 39 ec 02 8f 3a 60 ca 35 3c cd 41 9f 39
       0.00019417409 0.0010910905 0.011095613 0.0003037587
000310 00 00 00 00 17 8a 9b 39 f6 20 28 3d 5b 2f a8 3c
       0.0 0.0002966679 0.04104706 0.020530393
000320 64 ba 97 3c 00 00 00 00 31 af fb 3c b0 de 59 38
       0.018521495 0.0 0.030723186 5.1944226e-05
000330 c1 84 66 3a 20 1e 06 3d 2f 3d 9f 3c 9b 33 a1 39
       0.00087935856 0.032743573 0.019438354 0.00030746762
000340 7b ea df 39 c5 23 d4 3c b2 6b fb 3b 45 76 91 39
       0.00042708576 0.025895962 0.0076727504 0.00027744673
000350 00 00 00 00 9d 24 2f 3d 88 36 af 3c f4 b9 13 39
       0.0 0.042759527 0.021388307 0.00014088285
000360 20 23 ea 3d 26 b9 30 3d 8e 47 dc 3d 5d 69 e5 3d
       0.11432481 0.04314532 0.107558355 0.11201737
000370 b1 e7 70 3d 3e 12 25 3d b3 0a 88 3d c4 8e c4 3d
       0.05881471 0.0403006 0.06642666 0.09597543
000380 b4 d5 0b 3e 6d 44 ce 3d 68 e2 ef 3d d1 48 b9 3d
       0.1365574 0.10071645 0.117131054 0.09047092
000390 f1 d5 f9 3d 94 f6 a1 3d d2 af 44 3d 7e c1 c0 3d
       0.12199009 0.07908359 0.048019238 0.09411906
0003a0 ac 96 51 3d 40 56 74 3d 1d 5d 8c 3d 3e 2d 00 3e
       0.051169083 0.059652567 0.068536974 0.12517259
0003b0 5d 93 de 3d cc 46 8b 3d 24 9b c0 3d b1 56 e5 3d
       0.10867951 0.06800613 0.09404591 0.11198176
0003c0 da 41 64 3d e7 91 1c 3d 1e 3e 9f 3d 19 e9 02 3e
       0.055726863 0.03822508 0.0777552 0.12784232
0003d0 38 86 44 3d 2c 03 81 3d 2c 75 0b 3e a6 af 27 3d
       0.047979563 0.06299433 0.13618916 0.040938996
0003e0 ae d7 f1 3c 42 ac 0c 3d 3d 6c 07 3e ac ca a6 3d
       0.02952179 0.034343965 0.13224883 0.08144125
0003f0 10 f5 c2 3d df e1 bc 3d c8 60 31 3d 91 79 cd 3d
       0.09519398 0.09222769 0.04330519 0.100329526

mlp3.bias f4 [24]
000000 5c ac b9 3c 46 53 84 3c 29 a1 a4 3d 33 44 83 3d
       0.022665195 0.01615299 0.08038551 0.06409492
000010 40 56 2e 3d 44 73 b4 bc 49 ad d5 3c 2a 57 a6 bd
       0.042562723 -0.02202762 0.026083605 -0.08122094
000020 4e 45 98 3d fb de ce bc 9c 88 ab 3d a3 14 60 bd
       0.07435094 -0.02525281 0.083756655 -0.05470718
000030 1a 08 a6 3d 90 a8 e5 3d bc 91 a7 3d 12 80 0a bc
       0.08107014 0.11213791 0.081820935 -0.008453386
000040 c3 11 61 3d cd 6a fc 3c 66 a9 d6 ba db 8f b5 3d
       0.05494858 0.030812645 -0.0016377389 0.08865329
000050 07 36 0a 3e 65 ea f9 3d a9 e5 50 3d 29 27 46 bd
       0.13497172 0.1220291 0.05100027 -0.04837719

bn3.weight f4 [72]
000000 00 00 00 3f 00 00 00 3f 00 00 00 3f 00 00 00 3f
       0.5 0.5 0.5 0.5
000010 00 00 00 3f 00 00 00 3f 00 00 00 3f 00 00 00 3f
       0.5 0.5 0.5 0.5
000020 00 00 00 3f 00 00 00 3f 00 00 00 3f 00 00 00 3f
       0.5 0.5 0.5 0.5
000030 00 00 00 3f 00 00 00 3f 00 00 00 3f 00 00 00 3f
       0.5 0.5 0.5 0.5
000040 00 00 00 3f 00 00 00 3f 00 00 00 3f 00 00 00 3f
       0.5 0.5 0.5 0.5
000050 00 00 00 3f 00 00 00 3f 00 00 00 3f 00 00 00 3f
       0.5 0.5 0.5 0.5
000060 09 d1 fd 3e 45 e9 fd 3e ce 4d fe 3e 99 79 fb 3e
       0.49573544 0.49592033 0.49668735 0.4911621
000070 80 fa f9 3e 47 ce fe 3e bd d8 fd 3e bd 49 fc 3e
       0.4882393 0.49766752 0.4957942 0.49275008
000080 dd 7b f9 3e f1 5a f1 3e 2b 8e fd 3e 65 03 f9 3e
       0.48727313 0.47139695 0.49522528 0.48635402
000090 b6 28 fd 3e 33 fb ff 3e 60 30 fc 3e 0e 68 ff 3e
       0.49445122 0.49996337 0.49255657 0.49884075
0000a0 c3 a2 fd 3e ff 1c fe 3e d8 1b fd 3e 31 5a f5 3e
       0.4953824 0.49631497 0.49435306 0.47920373
0000b0 69 47 f8 3e 8d 13 fc 3e ac 8b fe 3e c9 64 fe 3e
       0.48491982 0.49233666 0.49715936 0.49686268
0000c0 c1 66 d6 3e d5 fb d2 3e d0 d4 d4 3e 9c 6a d7 3e
       0.4187527 0.41207758 0.41568613 0.42073524
0000d0 31 ff d3 3e 8e 67 d7 3e d5 91 d3 3e 00 47 d4 3e
       0.41405633 0.42071193 0.413222 0.4146042
0000e0 85 95 d4 3e 54 d7 cf 3e 38 29 d5 3e 64 f7 d4 3e
       0.41520324 0.4059397 0.4163301 0.41594994
0000f0 27 34 d1 3e a8 3c d4 3e 3b b4 d2 3e 99 f5 d3 3e
       0.40860102 0.41452527 0.4115313 0.41398314
000100 39 f8 db 3e 7f 18 d2 3e b7 be d1 3e 5e 97 d6 3e
       0.42962816 0.41034314 0.40965816 0.4191236
000110 b0 5e d3 3e 0b d3 d1 3e 30 b6 d3 3e 57 53 d4 3e
       0.41283178 0.40981326 0.41349936 0.41469833

bn3.bias f4 [72]
000000 18 f7 0c 3d 01 81 aa 3c ce bb b0 3c 33 83 29 3d
       0.034415334 0.020813467 0.021573927 0.041384887
000010 ff 4f f1 3c 22 b0 11 3d 50 b5 1b 3d cd 2d cd 3c
       0.02945709 0.035568364 0.03801471 0.025046254
000020 ef b1 0d 3d 00 ea 4a 3d ed 45 eb 3c e0 4c 00 3d
       0.03459352 0.049539566 0.028719867 0.031323314
000030 5d 5b 07 3d 89 6d 47 3d 6a 41 15 3d c2 76 91 3c
       0.033046115 0.048688445 0.036439337 0.017756823
000040 21 39 1a 3d 6f b2 d0 3c 9e 65 ff 3c b4 28 8c 3c
       0.03765214 0.025475709 0.031176385 0.017109253
000050 9a 5f 0e 3d 9a 77 af 3c f7 af 86 3c fc c1 0f 3d
       0.03475914 0.021419335 0.016441328 0.035097107
000060 33 c3 85 3c 83 c3 33 3c 83 8e 99 3c f8 30 0e 3c
       0.01632843 0.010971907 0.018744713 0.008678667
000070 3e 1d 44 3c bb d5 bf 3b 8d 50 97 3c 28 a1 e1 3b
       0.0119698625 0.005854336 0.018471027 0.0068856664
000080 ed 1d 88 3b da 25 05 3c dd bd 7e 3c 0f cd 7f 39
       0.004153958 0.0081267 0.015548197 0.00024395085
000090 7a d6 ca 3c 71 1d 1e 3c 36 70 59 3c 0c fb 92 3c
       0.024760474 0.009650574 0.013271382 0.017941974
0000a0 b3 96 11 3c 21 2a 7c 3c f2 6d 68 3c 09 72 4f 3c
       0.008886027 0.015390904 0.014186369 0.012661465
0000b0 05 cf a9 3b eb b3 22 3b 32 54 88 3c a4 aa c5 3b
       0.0051821494 0.0024826478 0.01664171 0.006032305
0000c0 96 c1 7e bb 8c 8d 18 bb e6 4d d6 bb 04 4c 24 bc
       -0.003887271 -0.0023277728 -0.006540048 -0.010027889
0000d0 c0 f2 e2 bb 79 22 58 bb 1e a3 fc bb 87 4c 81 bc
       -0.0069259107 -0.0032979532 -0.007709875 -0.015783561
0000e0 c4 0d 1f bc cb ca b8 bb cf bb 88 bb bd 55 ad bb
       -0.009707872 -0.005639409 -0.004172779 -0.005289762
0000f0 e8 56 5c ba af ed 02 bc 0a b9 76 bc d9 fa 26 bc
       -0.0008405284 -0.0079912385 -0.015058765 -0.010191643
000100 cd e3 08 bc 87 c0 76 3b 83 e0 43 bb 29 e6 a7 bb
       -0.008355093 0.0037651376 -0.0029888458 -0.005123873
000110 d4 b7 21 bc b9 72 1f bc 30 ac 08 bc 41 59 31 bc
       -0.009870488 -0.009731942 -0.008341834 -0.010824502

bn3.running_mean f4 [72]
000000 8c 7e 19 3f 50 a6 19 3f 66 3e 1b 3f f5 e2 1d 3f
       0.5995872 0.600194 0.6064209 0.61674434
000010 7e ef 17 3f 7a 9d 18 3f b7 31 17 3f 14 12 16 3f
       0.5934981 0.5961529 0.59060234 0.58621335
000020 14 54 11 3f d0 ab 15 3f bf 5a 19 3f 3f a0 13 3f
       0.5676892 0.5846529 0.5990409 0.5766639
000030 b5 a4 18 3f 27 53 15 3f 17 a1 1b 3f 1d b3 18 3f
       0.59626323 0.58330005 0.6079268 0.59648305
000040 6a b0 16 3f 4c c2 17 3f 0d 4a 15 3f 14 5f 18 3f
       0.58862936 0.5928085 0.5831612 0.5952008
000050 e3 b7 11 3f dd a1 18 3f 04 82 18 3f 80 eb 13 3f
       0.56921214 0.59621984 0.5957339 0.5778122
000060 3c 71 7d bd 77 41 83 bd 64 96 7f bd 53 08 76 bd
       -0.061875567 -0.06408971 -0.062399283 -0.060066532
000070 2c d5 78 bd 4b d9 79 bd dd 4a 81 bd 5a 66 76 bd
       -0.06075017 -0.060998242 -0.06313107 -0.060156204
000080 6c 2c 67 bd 64 69 64 bd f2 72 7f bd 8f 87 61 bd
       -0.05643885 -0.05576457 -0.06236548 -0.05506092
000090 e3 aa 72 bd 5a 83 84 bd 7e 40 75 bd 83 c9 7f bd
       -0.059245 -0.06470366 -0.059875958 -0.062448036
0000a0 35 11 70 bd 49 e6 7f bd d9 85 7f bd 20 80 6d bd
       -0.05861016 -0.062475476 -0.062383506 -0.057983518
0000b0 05 a3 70 bd 48 f9 71 bd 09 06 81 bd 3d c4 73 bd
       -0.058749218 -0.059075624 -0.06299979 -0.05951332
0000c0 45 02 57 bf 90 03 5a bf f4 bf 65 bf c3 54 53 bf
       -0.8398784 -0.85161686 -0.8974602 -0.8255121
0000d0 b7 49 53 bf f0 98 4f bf 71 73 59 bf 4e 13 43 bf
       -0.82534355 -0.8109274 -0.84941775 -0.7620133
0000e0 45 25 36 bf e0 38 3a bf a1 bc 5d bf 76 8a 3c bf
       -0.7115062 -0.72743034 -0.8661595 -0.73648775
0000f0 f4 a4 49 bf d4 d1 5e bf f9 2f 4e bf 2b 9a 5d bf
       -0.78767323 -0.8703892 -0.8054195 -0.86563367
000100 8e 5e 41 bf 81 d5 5a bf 49 08 5c bf 5e 51 3c bf
       -0.75534904 -0.8548203 -0.8595014 -0.73561656
000110 de d0 48 bf a8 82 44 bf c3 d3 56 bf e9 1b 53 bf
       -0.78443706 -0.76761866 -0.8391687 -0.8246446

bn3.running_var f4 [72]
000000 9d 09 0b 40 b4 b7 0c 40 04 6e 0d 40 b9 92 0e 40
       2.1724617 2.1987123 2.2098398 2.2277052
000010 e9 f3 08 40 5f 4d 0a 40 04 de 08 40 17 0f 07 40
       2.139887 2.1609724 2.1385508 2.110296
000020 63 7e 00 40 44 2c 04 40 61 ca 0a 40 3e 66 01 40
       2.007714 2.0652018 2.1686022 2.0218654
000030 05 34 09 40 de ac 07 40 5e aa 0c 40 ec d2 09 40
       2.1438 2.119926 2.1978984 2.1534986
000040 35 30 06 40 84 68 09 40 88 59 06 40 b3 8e 08 40
       2.0966923 2.1470041 2.0992146 2.1337097
000050 a5 68 00 40 f3 32 09 40 48 96 0a 40 c6 d5 03 40
       2.006387 2.1437347 2.1654224 2.0599227
000060 3a 6e 64 3e db 8b 64 3e 3f f5 64 3e c5 c3 64 3e
       0.22307673 0.22318976 0.22359179 0.22340305
000070 5c 7d 64 3e b9 35 64 3e 95 65 64 3e 96 67 63 3e
       0.22313446 0.22286119 0.22304375 0.22207484
000080 99 1a 63 3e 3d d0 63 3e 23 72 64 3e 09 d4 63 3e
       0.22178115 0.22247405 0.22309165 0.22248854
000090 f8 f4 63 3e f1 38 64 3e d8 a4 64 3e 42 b7 64 3e
       0.22261417 0.22287346 0.22328508 0.22335532
0000a0 b8 ee 63 3e ed 47 64 3e 15 36 64 3e 95 be 63 3e
       0.22259033 0.22293063 0.22286256 0.2224067
0000b0 bb ef 63 3e 19 f8 63 3e 12 71 64 3e 98 e4 63 3e
       0.22259419 0.2226261 0.22308758 0.2225517
0000c0 f7 3a f6 3f 23 36 f7 3f a1 ce 08 40 8f 06 f0 3f
       1.9236745 1.9313396 2.1376116 1.8752002
0000d0 07 8e f0 3f be 6f ea 3f 8a bf f7 3f 44 79 d6 3f
       1.8793343 1.8315351 1.9355328 1.6755757
0000e0 73 35 c5 3f d4 b5 cb 3f 70 dd 00 40 ba 72 d2 3f
       1.5406936 1.5914865 2.0135155 1.6441262
0000f0 cf b3 e3 3f d2 7e ff 3f d1 fa e6 3f b4 02 00 40
       1.7789248 1.9960577 1.8045293 2.000165
000100 bd 15 d5 3f ce 41 ff 3f c6 4d 00 40 8c 33 cd 3f
       1.6647259 1.9941957 2.004747 1.6031356
000110 43 89 e1 3f 46 60 da 3f 3c 73 f3 3f 82 47 f3 3f
       1.7620014 1.706063 1.9019542 1.9006197

mlp4.weight f4 [1, 72]
000000 dd cc 39 3e 89 0f 27 3e 73 3b b4 3d 40 a3 c7 3d
       0.18144555 0.1631452 0.088004015 0.09747934
000010 ad 1c f5 3d 1c 37 9f 3d d1 1e e5 3d 58 f5 bc 3d
       0.1196836 0.07774183 0.111875184 0.09226483
000020 65 68 a3 3d a5 75 d8 3d 24 a9 15 3e 40 9d 11 3e
       0.07978896 0.10569314 0.14615303 0.14220142
000030 57 45 1f 3e d5 5b 23 3e 03 41 35 3e c1 5f 1e 3e
       0.15553795 0.15953 0.17700581 0.15466215
000040 fc 1b de 3d 5a 9d 14 3e e3 12 de 3d 9b 3b aa 3d
       0.10845181 0.1451315 0.10843446 0.0831215
000050 59 4d 70 3d 14 9d e4 3d 8d e3 2b 3e 15 31 a3 3d
       0.058667514 0.11162773 0.16786022 0.07968346
000060 93 01 a9 3d e1 5f 20 3d 21 40 87 3d f2 2b dc 3d
       0.082522534 0.039153937 0.066040285 0.107505694
000070 e8 3d 1c 3e 00 00 00 00 76 08 f8 3d 4e 4d 6d 3e
       0.1525799 0.0 0.12110989 0.2317402
000080 ec 85 f2 3c bc 5e 50 3e 1f 4d d6 3d 21 bb 02 3e
       0.029604875 0.20348638 0.104639284 0.12766697
000090 4b e7 aa 3d 91 5a 98 3d a2 df a8 3d 59 05 35 3e
       0.08344897 0.07439149 0.082457796 0.17677821
0000a0 02 3a 24 3e ad 1f a4 3d 7a 78 6b 3d 98 20 11 3e
       0.16037753 0.08013854 0.057487942 0.1417259
0000b0 14 5e 95 3d ba 2b fb 3d ab aa 84 3d b9 73 34 3e
       0.072933346 0.122641996 0.06477865 0.1762227
0000c0 00 00 00 00 00 00 00 00 00 00 00 00 00 00 00 00
       0.0 0.0 0.0 0.0
0000d0 00 00 00 00 00 00 00 00 00 00 00 00 00 00 00 00
       0.0 0.0 0.0 0.0
0000e0 00 00 00 00 00 00 00 00 00 00 00 00 00 00 00 00
       0.0 0.0 0.0 0.0
0000f0 00 00 00 00 00 00 00 00 00 00 00 00 00 00 00 00
       0.0 0.0 0.0 0.0
000100 00 00 00 00 00 00 00 00 00 00 00 00 00 00 00 00
       0.0 0.0 0.0 0.0
000110 00 00 00 00 00 00 00 00 00 00 00 00 00 00 00 00
       0.0 0.0 0.0 0.0
