utility-model-selected/dim-3/utility-50.pt (torch, 23458 bytes, 17 tensors)

bn1.running_mean f4 [3]
0.5019971 0.5000743 0.49888787
00000000: e282 003f df04 003f 3b6e ff3e

bn1.running_var f4 [3]
0.056474797 0.05373016 0.05290013
00000000: 1e52 673d 2814 5c3d cfad 583d

mlp1.weight f4 [24, 3]
0.3584814 0.19638559 0.29257333 0.063314155 0.0039321096 0.5 0.43057403 0.49669576
0.41518593 0.45129684 0.45451933 0.23001303 0.45925108 0.39492208 0.020658534 0.31878275
0.35447162 0.2436999 0.21874712 0.4975223 0.46020234 0.0 0.0024351731 0.5
0.14675796 0.12628904 0.00994632 0.094299145 0.5 0.27642426 0.009000312 0.47894847
0.4901086 0.20321923 0.4859761 0.49576876 0.10682579 0.44380987 0.0 0.23918933
0.33979285 0.1794811 0.3188089 0.3272525 0.33368582 0.36664256 0.37183288 0.0969313
0.090092085 0.32670555 0.41780216 0.27937543 0.49650082 0.4428212 0.09587718 0.31062922
0.22310902 0.078365445 0.0025314558 0.5 0.13029261 0.47799808 0.48034832 0.09287219
0.49236888 0.4281483 0.4815413 0.11865858 0.05080257 0.24513543 0.45737633 0.3934806
00000000: e08a b73e 4e19 493e 2ccc 953e daaa 813d
00000010: edd8 803b 0000 003f 3374 dc3e e84e fe3e
00000020: 4093 d43e 6110 e73e c2b6 e83e 8988 6b3e
00000030: f522 eb3e 3a33 ca3e 163c a93c 7e37 a33e
00000040: 4e7d b53e 778c 793e 3fff 5f3e 3ebb fe3e
00000050: a49f eb3e 0000 0000 6d97 1f3b 0000 003f
00000060: b847 163e ea51 013e e4f5 223c e91f c13d
00000070: 0000 003f 7b87 8d3e 0b76 133c bc38 f53e
00000080: 84ef fa3e b418 503e dcd1 f83e 67d5 fd3e
00000090: 7bc7 da3d 0c3b e33e 0000 0000 0cee 743e
000000a0: 54f9 ad3e e5c9 373e ec3a a33e a48d a73e
000000b0: ded8 aa3e 93b8 bb3e e160 be3e eb83 c63d
000000c0: 3382 b83d f345 a73e 2aea d53e 4c0a 8f3e
000000d0: 5b35 fe3e 76b9 e23e 415b c43d cb0a 9f3e
000000e0: b176 643e 107e a03d c8e6 253b 0000 003f
000000f0: 6d6b 053e 2abc f43e 37f0 f53e c633 be3d
00000100: c617 fc3e 4136 db3e 958c f63e 4503 f33d
00000110: 5b16 503d c804 7b3e 3b2d ea3e 4a76 c93e

mlp1.bias f4 [24]
-0.56552196 0.6374325 -0.13237818 0.06874123 0.03916866 -0.36606514 -0.2903854 0.6375255
0.22415088 0.15908608 0.0842432 -0.49637887 0.55497986 -0.1501431 -0.010221679 -0.54973984
0.018648546 -0.037357096 0.13154903 0.5708148 0.462364 0.29020697 0.39938655 0.055092793
00000000: 0cc6 10bf c72e 233f 258e 07be 34c8 8c3d
00000010: 516f 203d e46c bbbe 65ad 94be df34 233f
00000020: cf87 653e 76e7 223e b387 ac3d 5f25 febe
00000030: 2913 0e3f 1dbf 19be d478 27bc c0bb 0cbf
00000040: d6c4 983c c103 19bd cab4 063e eb20 123f
00000050: f9ba ec3e 0296 943e 657c cc3e fba8 613d

mlp2.weight f4 [24, 72]
0.01595034 0.0 0.00897442 0.0010666628 0.01615981 0.005438139 0.05806907 0.0047134412
0.0051502804 0.0025921431 0.092057236 0.012566549 0.098564714 0.0009803765 0.00068844564 0.00067519705
0.0 0.00069809327 0.012437164 0.0 0.0054293694 0.06640899 0.025570026 0.0009007969
0.016155414 0.14103879 0.00077444536 0.008566088 0.049567614 0.0154234 0.049574975 0.20192774
0.007169374 0.07003305 0.07645714 0.058897525 0.1638667 0.0008706701 0.008660389 0.0007464801
0.00052178215 0.0010956272 0.027730407 0.11615052 0.015107353 0.029808667 0.014910214 0.038063783
0.019225836 0.14960979 0.0014425964 0.03257838 0.05975861 0.0013556092 0.020619897 0.29153532
0.0077279834 0.101259895 0.0559708 0.0010066847 0.19539952 0.02328023 0.0010142626 0.0152427
0.03657161 0.017990522 0.0014135442 0.13122654 0.0006713676 0.08316014 0.06420235 0.0016215323
0.027879532 2.7295444e-05 0.015578381 0.0017939995 0.0012721764 0.010994281 0.0011597023 0.0
0.0056665475 0.026657805 0.030756291 0.06030241 0.04849581 0.0016693595 0.0016479173 0.0011621027
0.00085595396 0.0015157397 0.0015635112 6.230616e-05 0.005151769 0.015761847 0.00386123 0.0017403918
0.014910972 0.17434484 0.057107758 0.00257007 0.038431518 0.0008521878 0.0008634519 0.19752485
0.007501472 0.018242702 0.1247564 0.019583434 0.16474293 0.001561376 0.0018489913 0.001233915
0.026975172 0.061188243 0.030454222 0.094551906 0.0011539945 0.0012951762 0.037300352 0.028922819
0.0015500613 0.14810234 0.0024798256 0.008133407 0.074803054 0.0029113593 0.051586457 0.24117132
0.007332237 0.06545886 0.10290478 0.008609759 0.2670284 0.025648879 0.002068244 0.022692788
0.0014660971 0.03998795 0.034652222 0.1662761 0.054727808 0.06641071 0.040374402 0.0024702325
0.024655087 0.0179857 0.0029383155 0.0010647163 0.0005753856 0.00036204103 0.011919029 0.006695079
0.0050287186 0.020839104 0.07950346 0.012587849 0.044635743 0.001147325 0.015856331 0.0008019331
0.0012354419 0.0014435999 0.0019292985 0.00017497172 0.03608291 0.04030219 0.005868804 0.009503303
0.028348275 0.18283963 0.059400346 0.088717796 0.027346069 0.00039366944 0.042146645 0.17933893
0.0068503013 0.001233335 0.105694704 0.05322944 0.2081886 0.0010478152 0.016582184 0.0016636255
0.0012864673 0.0016739495 0.0019509029 0.1046299 0.030004423 0.020851467 0.015180342 0.01954283
0.000793252 0.14412418 0.0016711667 0.012722153 0.090949565 0.00436746 0.062867425 0.27351397
0.032604232 0.02793338 0.085725196 0.024382643 0.23565757 0.008763634 0.0012965245 0.012123338
0.061691128 0.0020716481 0.017648902 0.11654021 0.00073920505 0.067867145 0.01578082 0.0020972341
0.005919673 0.000660079 0.00036672316 0.0016671964 0.001518473 0.00011277612 0.013257067 0.025613768
0.02797246 0.09562666 0.015895635 0.055460464 0.08443273 0.0013072033 0.00069377257 0.0008002341
0.0 0.042573124 0.0005183649 0.0 0.0 0.03337982 0.0077218935 0.00052067655
0.0058038062 0.13994305 0.065338 0.03724001 0.050856333 0.00015892407 0.0 0.21405226
0.026132176 0.08090255 0.039954193 0.010922298 0.190694 0.0011705575 0.0029097456 0.00670351
00000000: 4aaa 823c 0000 0000 7209 133c 44cf 8b3a
00000010: 9461 843c 6b32 b23b d5d9 6d3d 3673 9a3b
00000020: afc3 a83b f2e0 293b 8188 bc3d ede3 4d3c
00000030: 4cdc c93d fa7f 803a ce78 343a b5ff 303a
00000040: 0000 0000 3f00 373a 3fc5 4b3c 0000 0000
00000050: dae8 b13b 7001 883d 3b78 d13c 7523 6c3a
00000060: 5c58 843c 796c 103e 2604 4b3a c758 0c3c
00000070: 6907 4b3d 6eb2 7c3c 210f 4b3d 25c6 4e3e
00000080: 11ed ea3b 7d6d 8f3d 9095 9c3d 883e 713d
00000090: accc 273e ae3d 643a 4ee4 0d3c 6eaf 433a
000000a0: 35c8 083a 269b 8f3a e12a e33c 53e0 ed3d
000000b0: d584 773c 4e31 f43c f849 743c c5e8 1b3d
000000c0: 807f 9d3c 4f33 193e 8115 bd3a e870 053d
000000d0: 72c5 743d b2ae b13a 0feb a83c 1e44 953e
000000e0: 063b fd3b 5961 cf3d a341 653d bcf2 833a
000000f0: d016 483e 2eb6 be3c 01f1 843a 85bc 793c
00000100: 1dcc 153d dc60 933c ac46 b93a 4060 063e
00000110: b8fe 2f3a dd4f aa3d 867c 833d 9889 d43a
00000120: 9e63 e43c 85f8 e437 773c 7f3c a224 eb3a
00000130: 28bf a63a 5b21 343c 2701 983a 0000 0000
00000140: 72ae b93b 7861 da3c 9ef4 fb3c a9ff 763d
00000150: 8ba3 463d 69ce da3a eefe d73a b251 983a
00000160: 1962 603a c9ab c63a bbee cc3a 5daa 8238
00000170: 2cd0 a83b fd1e 813c b10c 7d3b dc1d e43a
00000180: 264d 743c 7487 323e d3e9 693d 9f6e 283b
00000190: 5e6a 1d3d 5b65 5f3a 4759 623a f443 4a3e
000001a0: e8ce f53b b871 953c 4980 ff3d 706d a03c
000001b0: 5fb2 283e 16a7 cc3a da59 f23a 51bb a13a
000001c0: 09fb dc3c 86a0 7a3d 227b f93c 6ea4 c13d
000001d0: a141 973a e7c2 a93a 41c8 183d 8cef ec3c
000001e0: 6d2b cb3a 24a8 173e 9284 223b fb41 053c
000001f0: 5832 993d 81cc 3e3b 524c 533d 9df5 763e
00000200: 4343 f03b 4b0f 863d bebf d23d f20f 0d3c
00000210: f2b7 883e 991d d23c 608b 073b 3ae6 b93c
00000220: 0e2a c03a 68ca 233d 7def 0d3d 4844 2a3e
00000230: 442a 603d 5702 883d a15f 253d a0e3 213b
00000240: 77f9 c93c bf56 933c c190 403b f38d 8b3a
00000250: 79d5 163a 53d0 bd39 0848 433c 6562 db3b
00000260: f3c7 a43b c5b6 aa3c b6d2 a23d 443d 4e3c
00000270: f8d3 363d d761 963a 23e5 813c d238 523a
00000280: 8dee a13a 2d37 bd3a 84e0 fc3a 9d78 3739
00000290: accb 133d e913 253d 194f c03b beb3 1b3c
000002a0: a43a e83c 503a 3b3e c74d 733d adb1 b53d
000002b0: dd04 e03c 6b65 ce39 f6a1 2c3d a0a4 373e
000002c0: 7e78 e03b dba7 a13a 7776 d83d 1d07 5a3d
000002d0: 642f 553e d856 893a 5cd7 873c 020e da3a
000002e0: ae9e a83a 6d68 db3a 70b5 ff3a 3348 d63d
000002f0: d6cb f53c b2d0 aa3c f8b6 783c 4918 a03c
00000300: 3ef2 4f3a 4a95 133e 0d0b db3a 9470 503c
00000310: c443 ba3d e91c 8f3b a3c0 803d 060a 8c3e
00000320: 048c 053d 8bd4 e43c b190 af3d 1cbe c73c
00000330: 3850 713e 5895 0f3c 25f0 a93a f7a0 463c
00000340: d6af 7c3d 7dc4 073b 6e94 903c a2ac ee3d
00000350: 36c7 413a eefd 8a3d c746 813c c071 093b
00000360: d1f9 c13b 2709 2d3a c044 c039 d485 da3a
00000370: 8007 c73a 3882 ec38 2b34 593c f7d3 d13c
00000380: 8026 e53c e9d7 c33d 9037 823c 832a 633d
00000390: 11eb ac3d 7756 ab3a 4ade 353a cdc6 513a
000003a0: 0000 0000 2861 2e3d e1e2 073a 0000 0000
000003b0: 0000 0000 47b9 083d f007 fd3b 037e 083a
000003c0: db2d be3b 3b4d 0f3e eecf 853d fb88 183d
000003d0: bb4e 503d dba4 2639 0000 0000 8430 5b3e
000003e0: 2513 d63c 3cb0 a53d 02a7 233d 70f3 323c
000003f0: 4a45 433e 646d 993a 6eb1 3e3b 1ea9 db3b

mlp2.bias f4 [24]
-0.049420148 -0.0789767 -0.06068822 -0.04728369 -0.05089323 -0.007976793 0.0047096633 -0.064845204
-0.04346576 -0.058153342 -0.036402605 -0.027221125 -0.0016759208 -0.040331386 -0.034439996 -0.010449008
-0.030548789 -0.047049075 -0.011030718 -0.08271238 -0.06304936 -0.046016853 -0.0098626055 -0.017004643
00000000: c86c 4abd 89be a1bd 3694 78bd 8bac 41bd
00000010: 6b75 50bd 18b1 02bc 8553 9a3b 90cd 84bd
00000020: 2709 32bd 3332 6ebd e61a 15bd d6fe debc
00000030: 92aa dbba 8632 25bd f410 0dbd 5132 2bbc
00000040: 7441 fabc 88b6 40bd 2fba 34bc 1c65 a9bd
00000050: 0620 81bd 2b7c 3cbd c496 21bc 524d 8bbc

bn2.weight f4 [72]
0.39998186 0.38964373 0.4185593 0.39657766 0.42328495 0.42021894 0.44488233 0.41102436
0.4189855 0.47095174 0.4640854 0.46974692 0.49115443 0.424611 0.3807658 0.4215969
0.42419285 0.4377106 0.4276915 0.37431714 0.45061517 0.45621112 0.4108037 0.4217243
0.40504834 0.49886382 0.4348855 0.41974428 0.4421546 0.434054 0.44576505 0.49950343
0.42210695 0.46174544 0.45491514 0.47394586 0.5 0.42664227 0.40850914 0.42561963
0.44348252 0.41075656 0.426695 0.4991979 0.42808765 0.44349325 0.441572 0.40254006
0.39207634 0.4987914 0.35084245 0.41237125 0.46525022 0.38594192 0.42361164 0.4996479
0.4258907 0.45864737 0.45788363 0.42066675 0.5 0.4048662 0.37240088 0.4496585
0.43278155 0.40816396 0.43144137 0.49924356 0.44156235 0.44582576 0.44362947 0.4006449
00000000: 6cca cc3e 627f c73e 684d d63e 3a0c cb3e
00000010: ceb8 d83e f026 d73e 9ec7 e33e c971 d23e
00000020: 4485 d63e 9620 f13e 9a9c ed3e ab82 f03e
00000030: 9878 fb3e 9d66 d93e bcf3 c23e 8ddb d73e
00000040: ce2f d93e 9b1b e03e 61fa da3e 7fa6 bf3e
00000050: 08b7 e63e 8194 e93e dd54 d23e 3fec d73e
00000060: 7f62 cf3e 146b ff3e 50a9 de3e b9e8 d63e
00000070: 1662 e23e 533c de3e 513b e43e eabe ff3e
00000080: 671e d83e e669 ec3e a3ea e83e 08a9 f23e
00000090: 0000 003f db70 da3e 1c28 d13e d1ea d93e
000000a0: 2410 e33e af4e d23e c477 da3e de96 ff3e
000000b0: 4e2e db3e 8c11 e33e ba15 e23e bb19 ce3e
000000c0: 3bbe c83e 9661 ff3e 9fa1 b33e 5322 d33e
000000d0: 4735 ee3e 2e9a c53e a0e3 d83e d9d1 ff3e
000000e0: 590e da3e d4d3 ea3e b96f ea3e a261 d73e
000000f0: 0000 003f 9f4a cf3e 54ab be3e a439 e63e
00000100: 8b95 dd3e defa d03e e2e5 dc3e da9c ff3e
00000110: 7614 e23e 4643 e43e 6723 e33e 5421 cd3e

bn2.bias f4 [72]
-0.0125380615 -0.012097056 -0.024846308 0.0066635655 -0.012072215 -0.0072091357 -0.027202217 -0.030932456
-0.021519484 -0.03570979 -0.026893998 -0.019997582 -0.021474982 -0.005074536 -0.020415178 -0.025931852
-0.061438445 -0.022992278 -0.050764114 -0.011281517 -0.04582638 -0.036242843 -0.010966681 -0.030071061
-0.004195824 -0.042522874 -0.02361111 -0.030871257 -0.018706689 -0.018495688 -0.026073942 -0.0527789
-0.02487471 -0.044650562 -0.044103548 -0.017341258 -0.02972813 -0.031788524 -0.028825838 0.0017155878
-0.037897065 -0.048805945 -0.04929417 -0.04380961 -0.031353097 -0.047599234 -0.012502594 -0.02652976
-0.018947687 -0.06233916 -0.024599181 -0.022040913 -0.02353744 -0.023693824 -0.03503588 -0.05219871
-0.0070297928 -0.03664936 -0.033152364 -0.046172895 -0.04389301 -0.023157015 -0.04075283 -0.042905886
-0.043406088 -0.034122884 -0.037159998 -0.049581066 -0.05456693 -0.037613783 -0.034254685 -0.046452153
00000000: 716c 4dbc bb32 46bc 7c8a cbbc 0a5a da3b
00000010: 8aca 45bc 9d3a ecbb 2fd7 debc 1066 fdbc
00000020: a149 b0bc 6e44 12bd cd50 dcbc f8d1 a3bc
00000030: 4dec afbc 4b48 a6bb bb3d a7bc 096f d4bc
00000040: e1a6 7bbd 4d5a bcbc 08ee 4fbd 1dd6 38bc
00000050: 71b4 3bbd 6073 14bd 98ad 33bc 9657 f6bc
00000060: 1f7d 89bb 772c 2ebd 166c c1bc b8e5 fcbc
00000070: c53e 99bc 4584 97bc 0599 d5bc b02e 58bd
00000080: 0cc6 cbbc 82e3 36bd eca5 34bd 410f 8ebc
00000090: 6888 f3bc af34 02bd 2a24 ecbc 93dd e03a
000000a0: f439 1bbd bee8 47bd afe8 49bd b571 33bd
000000b0: 1b6c 00bd 6af7 42bd aed7 4cbc f054 d9bc
000000c0: 2e38 9bbc 5957 7fbd 3984 c9bc 258f b4bc
000000d0: 97d1 c0bc 8d19 c2bc c881 0fbd 51ce 55bd
000000e0: 2d5a e6bb a41d 16bd c6ca 07bd ca1f 3dbd
000000f0: 28c9 33bd c8b3 bdbc 71ec 26bd 15be 2fbd
00000100: 95ca 31bd 70c4 0bbd 1535 18bd 8415 4bbd
00000110: 9381 5fbd e910 1abd a44e 0cbd 9d44 3ebd

bn2.running_mean f4 [72]
-0.32111764 0.64562875 0.033888012 0.14605117 0.10139566 -0.20676921 -0.088570885 0.6503677
0.22227295 0.19328237 0.16548525 -0.1978641 0.5456783 -0.09170355 0.050558805 -0.30143365
0.06839368 0.08059937 0.14128627 0.57757926 0.48411506 0.32833466 0.4058885 0.1286217
-0.32340738 0.35128877 -0.063172586 0.02781034 0.017778743 -0.21615951 -0.13588 0.35544991
0.21698403 0.087434664 0.04579699 -0.22261824 0.32331035 -0.104134 -0.009236641 -0.30378532
0.012975128 -0.019951837 0.1038661 0.3205502 0.21698552 0.1464119 0.2334608 0.02753158
-0.56296736 0.35117972 -0.23189224 -0.051489085 -0.04702645 -0.37925103 -0.3367534 0.35544991
0.21698403 0.05106009 -0.034602534 -0.5224071 0.32316506 -0.16420119 -0.07067581 -0.5526969
-0.037619684 -0.13884537 0.096188635 0.32034546 0.1915907 0.10898157 0.23228669 -0.045877784
00000000: 8869 a4be ed47 253f 28ce 0a3d 708e 153e
00000010: 87a8 cf3d 4fbb 53be a764 b5bd 7f7e 263f
00000020: 859b 633e d0eb 453e f774 293e e39c 4abe
00000030: 93b1 0b3f 12cf bbbd c016 4f3d 8355 9abe
00000040: fc11 8c3d 4811 a53d 59ad 103e 3cdc 133f
00000050: eedd f73e 7b1b a83e 9ed0 cf3e 68b5 033e
00000060: a795 a5be 1fdc b33e a160 81bd 83d2 e33c
00000070: baa4 913c eb58 5dbe 2024 0bbe 88fd b53e
00000080: 1031 5e3e f210 b33d a095 3b3d 09f6 63be
00000090: ef88 a53e 3544 d5bd 4855 17bc c089 9bbe
000000a0: a295 543c 0972 a3bc c0b7 d43d 281f a43e
000000b0: 7431 5e3e 00ed 153e 5910 6f3e e889 e13c
000000c0: a11e 10bf d4cd b33e 2975 6dbe 38e6 52bd
000000d0: cf9e 40bd 312d c2be f16a acbe 88fd b53e
000000e0: 1031 5e3e 6324 513d 63bb 0dbd 79bc 05bf
000000f0: e475 a53e 5b24 28be 7bbe 90bd 8b7d 0dbf
00000100: 1917 1abd 7b2d 0ebe 8cfe c43d 5204 a43e
00000110: 5a30 443e bb31 df3d 90dc 6d3e 58ea 3bbd

bn2.running_var f4 [72]
0.07530178 0.2564242 0.33880445 0.3371207 0.27343374 0.13048837 0.23938856 0.24834457
0.03855544 0.2804642 0.33372223 0.17805114 0.21663891 0.14289013 0.2356682 0.08598066
0.21953821 0.3304851 0.14849979 0.2577572 0.42814717 0.36741167 0.25316304 0.30794483
0.07064267 0.05064244 0.17295925 0.16580296 0.15840924 0.11338662 0.15571105 0.047286432
0.034998767 0.15042606 0.16409789 0.13028325 0.06078736 0.12403557 0.14911722 0.08133459
0.14444658 0.17087713 0.1085262 0.06338042 0.12850174 0.14587617 0.100205354 0.16207524
0.2522361 0.050842345 0.42534518 0.2882161 0.25157815 0.27605358 0.4195578 0.047286462
0.034998767 0.20655929 0.29153156 0.47570536 0.06104681 0.19157006 0.23663336 0.28510395
0.21577303 0.3537496 0.119524725 0.06375879 0.17577702 0.21058847 0.1022269 0.27660328
00000000: d237 9a3d 084a 833e c777 ad3e 169b ac3e
00000010: 82ff 8b3e be9e 053e 4622 753e 0a4e 7e3e
00000020: 4fec 1d3d 0199 8f3e a4dd aa3e 0a53 363e
00000030: 97d6 5d3e ca51 123e 0153 713e a116 b03d
00000040: a0ce 603e 5835 a93e 5410 183e c0f8 833e
00000050: 1b36 db3e 621d bc3e 969e 813e f2aa 9d3e
00000060: 1bad 903d 726e 4f3d 3b1c 313e 40c8 293e
00000070: 0836 223e 3f37 e83d b872 1f3e 6baf 413d
00000080: de5a 0f3d 4a09 1a3e 4709 283e f968 053e
00000090: 2bfc 783d 5c06 fe3d 2fb2 183e c092 a63d
000000a0: cee9 133e 6afa 2e3e fc42 de3d 98cd 813d
000000b0: f695 033e 9060 153e 7738 cd3d 0df7 253e
000000c0: 1725 813e 1040 503d d8c6 d93e 1091 933e
000000d0: dace 803e e556 8d3e 48d0 d63e 73af 413d
000000e0: de5a 0f3d 4784 533e a043 953e a78f f33e
000000f0: 380c 7a3d f12a 443e 0450 723e 25f9 913e
00000100: 9bf3 5c3e ab1e b53e 61c9 f43d f893 823d
00000110: e4fe 333e 81a4 573e 565c d13d f29e 8d3e

mlp3.weight f4 [24, 72]
0.0 0.0 0.0 0.0 0.0 0.0 0.0 0.0
0.0 0.0 0.0 0.0 0.0 0.0 0.0 0.0
0.0 0.0 0.0 0.0 0.0 0.0 0.0 0.0
0.0027383612 0.0038861828 0.01895231 0.0024143949 0.07304046 0.0042028357 0.0028151923 0.0012741034
0.003233748 0.05861968 0.0034214673 0.05956562 0.005991966 0.021941332 0.023485038 0.0016023746
0.072470956 0.060146492 0.0037027926 0.0031377573 0.0016333092 0.0039705434 0.008460957 0.026962591
0.107658096 0.12130854 0.11350894 0.10376647 0.058453955 0.0847053 0.06906786 0.11833429
0.096508995 0.04842184 0.11056202 0.11439826 0.00729062 0.11107162 0.10129378 0.044065062
0.007664058 0.13057461 0.030186506 0.0696845 0.11918843 0.086033866 0.10469605 0.117957205
0.0 0.0 0.0 0.0 0.0 0.0 0.0 0.0
0.0 0.0 0.0 0.0 0.0 0.0 0.0 0.0
0.0 0.0 0.0 0.0 0.0 0.0 0.0 0.0
0.2000682 0.15936731 0.13994072 0.1257122 0.14140186 0.23713504 0.18898506 0.17703333
0.17102121 0.1832942 0.20391746 0.23082636 0.15124825 0.24153051 0.21311778 0.12308054
0.25847623 0.19714567 0.14239639 0.2256424 0.21339363 0.18166032 0.17407054 0.19813824
0.0 0.0 0.0 0.0 0.0 0.0 0.0 0.0
0.0 0.0 0.0 0.0 0.0 0.0 0.0 0.0
0.0 0.0 0.0 0.0 0.0 0.0 0.0 0.0
0.16506761 0.15233824 0.18410353 0.10553336 0.11942074 0.19209918 0.14898552 0.10873329
0.14152724 0.20463122 0.13711244 0.2004466 0.17899244 0.2016089 0.121568635 0.1041758
0.15559384 0.1638148 0.17443976 0.117657945 0.16094202 0.11252308 0.13018113 0.13980925
0.051955786 0.14162235 0.16656184 0.00052741054 0.014679468 0.12697129 0.12439738 0.0005294383
0.055277087 0.06303245 0.08816362 0.050368838 0.021355527 0.06419553 0.12076575 0.0008737071
0.12471314 0.08985228 0.058665108 0.10357679 0.09812178 0.078336254 0.097178616 0.030255409
0.0 0.0 0.0 0.0 0.0 0.0 0.0 0.0
0.0 0.0 0.0 0.0 0.0 0.0 0.0 0.0
0.0 0.0 0.0 0.0 0.0 0.0 0.0 0.0
0.0 0.0 0.0 0.0 0.0 0.0 0.0 0.0
0.0 0.0 0.0 0.0 0.0 0.0 0.0 0.0
0.0 0.0 0.0 0.0 0.0 0.0 0.0 0.0
0.15610957 0.12490115 0.16260414 0.19056302 0.10958651 0.15943088 0.19763063 0.12049082
0.22223692 0.21289729 0.19420874 0.14265254 0.20164062 0.18303266 0.23795618 0.17767894
00000000: 0000 0000 0000 0000 0000 0000 0000 0000
00000010: 0000 0000 0000 0000 0000 0000 0000 0000
00000020: 0000 0000 0000 0000 0000 0000 0000 0000
00000030: 0000 0000 0000 0000 0000 0000 0000 0000
00000040: 0000 0000 0000 0000 0000 0000 0000 0000
00000050: 0000 0000 0000 0000 0000 0000 0000 0000
00000060: 1476 333b 54af 7e3b e041 9b3c d33a 1e3b
00000070: 3d96 953d f1b7 893b 177f 383b d1ff a63a
00000080: 4aed 533b 311b 703d b23a 603b 14fb 733d
00000090: 4158 c43b 4fbe b33c b263 c03c c506 d23a
000000a0: a76b 943d 2b5c 763d 8daa 723b d5a2 4d3b
000000b0: c314 d63a 551b 823b d39f 0a3c a7e0 dc3c
000000c0: d97b dc3d 9d70 f83d 6077 e83d 8483 d43d
000000d0: 6a6d 6f3d f979 ad3d 7373 8d3d 4059 f23d
000000e0: 82a6 c53d fb55 463d 576e e23d a349 ea3d
000000f0: 27e6 ee3b 8479 e33d 1d73 cf3d 917d 343d
00000100: c722 fb3b 5ab5 053e b149 f73c bfb6 8e3d
00000110: 1019 f43d 8632 b03d e26a d63d 8c93 f13d
00000120: 0000 0000 0000 0000 0000 0000 0000 0000
00000130: 0000 0000 0000 0000 0000 0000 0000 0000
00000140: 0000 0000 0000 0000 0000 0000 0000 0000
00000150: 0000 0000 0000 0000 0000 0000 0000 0000
00000160: 0000 0000 0000 0000 0000 0000 0000 0000
00000170: 0000 0000 0000 0000 0000 0000 0000 0000
00000180: aede 4c3e 2f31 233e 9f4c 0f3e b3ba 003e
00000190: a6cb 103e 87d3 723e 4d85 413e 3a48 353e
000001a0: 2f20 2f3e 7ab1 3b3e bdcf 503e bf5d 6c3e
000001b0: d2e0 1a3e c653 773e 8c3b 5a3e a611 fc3d
000001c0: ff56 843e 8ee0 493e 5cd0 113e cd0e 673e
000001d0: dc83 5a3e 2a05 3a3e 8c3f 323e c0e4 4a3e
000001e0: 0000 0000 0000 0000 0000 0000 0000 0000
000001f0: 0000 0000 0000 0000 0000 0000 0000 0000
00000200: 0000 0000 0000 0000 0000 0000 0000 0000
00000210: 0000 0000 0000 0000 0000 0000 0000 0000
00000220: 0000 0000 0000 0000 0000 0000 0000 0000
00000230: 0000 0000 0000 0000 0000 0000 0000 0000
00000240: 7c07 293e 8efe 1b3e a385 3c3e e021 d83d
00000250: dc92 f43d a6b5 443e a98f 183e 8faf de3d
00000260: 84ec 103e d98a 513e 3467 0c3e e041 4d3e
00000270: cb49 373e 9072 4e3e faf8 f83d 1f5a d53d
00000280: fe53 1f3e 11bf 273e 56a0 323e a6f6 f03d
00000290: fccd 243e 8072 e63d 344e 053e 282a 0f3e
000002a0: 97cf 543d 7305 113e 308f 2a3e ec41 0a3a
000002b0: 2782 703c c304 023e 0ec4 fe3d 01ca 0a3a
000002c0: 3a6a 623d 2817 813d 218f b43d 8e4f 4e3d
000002d0: c9f1 ae3c f278 833d 0954 f73d 7e09 653a
000002e0: 9a69 ff3d 7904 b83d d34a 703d 1120 d43d
000002f0: 12f4 c83d c26e a03d 9505 c73d 31da f73c
00000300: 0000 0000 0000 0000 0000 0000 0000 0000
00000310: 0000 0000 0000 0000 0000 0000 0000 0000
00000320: 0000 0000 0000 0000 0000 0000 0000 0000
00000330: 0000 0000 0000 0000 0000 0000 0000 0000
00000340: 0000 0000 0000 0000 0000 0000 0000 0000
00000350: 0000 0000 0000 0000 0000 0000 0000 0000
00000360: 0000 0000 0000 0000 0000 0000 0000 0000
00000370: 0000 0000 0000 0000 0000 0000 0000 0000
00000380: 0000 0000 0000 0000 0000 0000 0000 0000
00000390: 0000 0000 0000 0000 0000 0000 0000 0000
000003a0: 0000 0000 0000 0000 0000 0000 0000 0000
000003b0: 0000 0000 0000 0000 0000 0000 0000 0000
000003c0: 30db 1f3e 2dcc ff3d b381 263e f422 433e
000003d0: e46e e03d d941 233e af5f 4a3e e4c3 f63d
000003e0: 1392 633e bf01 5a3e a8de 463e 8213 123e
000003f0: e17a 4e3e ea6c 3b3e c9aa 733e 78f1 353e

mlp3.bias f4 [24]
0.08080297 -0.23651783 -0.27692112 0.05331695 -0.16809317 0.01041377 -0.18785271 0.13857232
-0.24560402 -0.06844684 0.05708485 -0.054453455 -0.15711017 0.11210933 -0.19251694 -0.13821551
-0.1295437 0.05108988 -0.15148623 -0.03364515 -0.26858455 -0.056679387 0.014226629 -0.29143855
00000000: 077c a53d bb31 72be 9bc8 8dbe e062 5a3d
00000010: 9e20 2cbe 849e 2a3c 765c 40be e7e5 0d3e
00000020: 9f7f 7bbe db2d 8cbd ced1 693d 960a 5fbd
00000030: 7de1 20be 9499 e53d 2923 45be 5e88 0dbe
00000040: 1ba7 04be 9f43 513d 351f 1bbe 7fcf 09bd
00000050: ea83 89be a528 68bd cf16 693c 6f37 95be

bn3.weight f4 [72]
0.44130737 0.4453363 0.42430678 0.40151533 0.4146392 0.48061097 0.41259494 0.41843513
0.44684806 0.45273554 0.4359765 0.45129842 0.4275039 0.4494024 0.41217068 0.4119881
0.42914143 0.44542122 0.43364927 0.42393547 0.4224463 0.41369024 0.42477 0.42251965
0.4770803 0.49097806 0.49187285 0.4612318 0.44509193 0.490615 0.47079483 0.42362544
0.49030447 0.5 0.4875398 0.49443674 0.4779085 0.4936334 0.48184147 0.44489068
0.48427615 0.48148388 0.47754997 0.49196953 0.48017982 0.49320665 0.4810332 0.4650605
0.38073614 0.38857704 0.38131326 0.39719573 0.3920315 0.39477026 0.38946235 0.39461973
0.39401197 0.37019053 0.38327038 0.38863283 0.39573875 0.3788269 0.38057166 0.3800353
0.3856901 0.3991812 0.37887767 0.37853596 0.3766574 0.3833709 0.38883227 0.38025072
00000000: 0af3 e13e 1f03 e43e bd3e d93e 6b93 cd3e
00000010: 974b d43e a412 f63e a53f d33e 213d d63e
00000020: 45c9 e43e f4cc e73e 5038 df3e 9610 e73e
00000030: cbe1 da3e 1218 e63e 0908 d33e 1bf0 d23e
00000040: 6db8 db3e 400e e43e 4707 de3e 120e d93e
00000050: e24a d83e 35cf d33e 747b d93e 7f54 d83e
00000060: de43 f43e 7a61 fb3e c2d6 fb3e 9326 ec3e
00000070: 17e3 e33e e431 fb3e 050c f13e 6fe5 d83e
00000080: 3009 fb3e 0000 003f d19e f93e d026 fd3e
00000090: 6cb0 f43e 84bd fc3e edb3 f63e b6c8 e33e
000000a0: 0bf3 f73e 0e85 f63e 6e81 f43e 6ee3 fb3e
000000b0: 21da f53e 9585 fc3e fc49 f63e 691c ee3e
000000c0: d9ef c23e 92f3 c63e 7e3b c33e 3d5d cb3e
000000d0: 5ab8 c83e 541f ca3e 9c67 c73e 990b ca3e
000000e0: f0bb c93e 9d89 bd3e 043c c43e e2fa c63e
000000f0: 459e ca3e 99f5 c13e 4ada c23e fd93 c23e
00000100: 2c79 c53e 7a61 cc3e 41fc c13e 77cf c13e
00000110: 3dd9 c03e 3149 c43e 0615 c73e 39b0 c23e

bn3.bias f4 [72]
-0.22561939 -0.19431266 -0.21437706 -0.20322679 -0.22997771 -0.22234967 -0.20366101 -0.20362046
-0.21083352 -0.20279479 -0.20771171 -0.20521542 -0.215731 -0.20167144 -0.2042749 -0.21643293
-0.21007812 -0.22072732 -0.21464288 -0.21428852 -0.20526329 -0.2088008 -0.20224302 -0.20028158
-0.18787204 -0.1861007 -0.19123334 -0.15714815 -0.14595513 -0.17398475 -0.18593323 -0.16916923
-0.16858941 -0.16079424 -0.16425969 -0.1469991 -0.1662578 -0.17442547 -0.16872388 -0.14514111
-0.1582414 -0.1598027 -0.15515561 -0.14920957 -0.15054098 -0.16606465 -0.15632978 -0.14208756
-0.040232394 -0.063135244 -0.033029914 -0.066202864 -0.071596436 -0.10410348 -0.0406113 -0.058208346
-0.09036098 -0.13806994 -0.038646113 -0.08881861 -0.113207944 -0.07351123 -0.053800687 -0.09749103
-0.12805417 -0.043596327 -0.079393454 -0.077827536 -0.062013898 -0.075115815 -0.0368651 -0.065875486
00000000: c508 67be e6f9 46be a985 5bbe af1a 50be
00000010: 477f 6bbe a2af 63be 838c 50be e281 50be
00000020: bee4 57be 70a9 4fbe 61b2 54be fe23 52be
00000030: 96e8 5cbe f582 4ebe 702d 51be 98a0 5dbe
00000040: b81e 57be 5806 62be 58cb 5bbe 736e 5bbe
00000050: 8a30 52be e0cf 55be cb18 4fbe 9d16 4dbe
00000060: 8761 40be 2f91 3ebe acd2 43be 72eb 20be
00000070: 4375 15be 0f29 32be 4865 3ebe b33a 2dbe
00000080: b4a2 2cbe 3fa7 24be b133 28be ef86 16be
00000090: 7c3f 2abe 979c 32be f4c5 2cbe df9f 14be
000000a0: 090a 22be 52a3 23be 1de1 1ebe 65ca 18be
000000b0: 6a27 1abe da0c 2abe ea14 20be 677f 11be
000000c0: b9ca 24bd 0d4d 81bd 604a 07bd 5e95 87bd
000000d0: 27a1 92bd 3534 d5bd 0958 26bd e06b 6ebd
000000e0: 2d0f b9bd 3562 0dbe 634b 1ebd 88e6 b5bd
000000f0: 91d9 e7bd 0e8d 96bd 1c5e 5cbd 61a9 c7bd
00000100: a220 03be 1092 32bd 0999 a2bd 0b64 9fbd
00000110: 4902 7ebd 52d6 99bd dcff 16bd bae9 86bd

bn3.running_mean f4 [72]
0.12826751 0.10084134 0.11904013 0.115639195 0.12356492 0.15307982 0.15615587 0.105896324
0.124133304 0.12702282 0.13812174 0.14027548 0.15052968 0.13696666 0.12646857 0.1504615
0.13143916 0.12278756 0.14023641 0.10863302 0.11476125 0.13711765 0.1542195 0.13856573
-0.015175276 -0.017267002 -0.015597138 -0.014974854 -0.015025155 -0.015117534 -0.014765078 -0.014256755
-0.015386724 -0.01673148 -0.016195832 -0.016729785 -0.013416024 -0.016690806 -0.01479289 -0.013368052
-0.015649498 -0.016491998 -0.013687869 -0.01634652 -0.015573235 -0.01399582 -0.016284801 -0.015811805
-0.30848086 -0.31283563 -0.30621567 -0.29122302 -0.30029604 -0.29212555 -0.27597454 -0.3009418
-0.29553637 -0.31888458 -0.30402583 -0.2940923 -0.27761078 -0.30632666 -0.29149038 -0.28532773
-0.28813818 -0.30208308 -0.2806527 -0.3272568 -0.311004 -0.31195873 -0.29057556 -0.28563485
00000000: 8f58 033e e885 ce3d 50cb f33d 3ed4 ec3d
00000010: 9b0f fd3d f5c0 1c3e 53e7 1f3e 2ce0 d83d
00000020: 9a39 fe3d 4512 023e c96f 0d3e 60a4 0f3e
00000030: 7424 1a3e fd40 0c3e fa80 013e 9412 1a3e
00000040: fd97 063e 0b78 fb3d 229a 0f3e fd7a de3d
00000050: f207 eb3d 9268 0c3e b7eb 1d3e 2de4 0d3e
00000060: b9a1 78bc 8773 8dbc 238b 7fbc 1759 75bc
00000070: 112c 76bc 89af 77bc 3ae9 71bc 2a95 69bc
00000080: 9918 7cbc 7510 89bc 1fad 84bc e70c 89bc
00000090: e2ce 5bbc 28bb 88bc e15d 72bc ad05 5bbc
000000a0: 6033 80bc 3a1a 87bc 1543 60bc 23e9 85bc
000000b0: e226 7fbc b94e 65bc b467 85bc c287 81bc
000000c0: 34f1 9dbe fe2b a0be 4dc8 9cbe 2f1b 95be
000000d0: 67c0 99be 7b91 95be 894c 8dbe 0b15 9abe
000000e0: 8b50 97be d744 a3be 46a9 9bbe 4493 96be
000000f0: 0023 8ebe d9d6 9cbe 3a3e 95be 7a16 92be
00000100: d986 93be a2aa 9abe b6b1 8fbe 348e a7be
00000110: eb3b 9fbe 0eb9 9fbe 52c6 94be bb3e 92be

bn3.running_var f4 [72]
0.40738058 0.36205465 0.39102563 0.3829722 0.39761344 0.45780057 0.46051517 0.3643991
0.39981437 0.40914965 0.43099135 0.43378264 0.44901305 0.42933887 0.4028154 0.44641903
0.4150348 0.39958647 0.4277255 0.37458014 0.38364673 0.42451945 0.46465668 0.42881367
0.2011841 0.20037192 0.20114118 0.19936027 0.20004694 0.20137714 0.2014397 0.19948606
0.20088589 0.20135906 0.20115937 0.20130306 0.20085682 0.2013807 0.20030002 0.19987838
0.20074698 0.20049267 0.20059866 0.20047532 0.20027679 0.20161954 0.20125799 0.20048282
0.78250635 0.7869846 0.7715288 0.7362194 0.76153773 0.7300018 0.6869627 0.7645443
0.7407144 0.8106794 0.7604154 0.73431253 0.69730717 0.7658378 0.7359703 0.7286145
0.71434987 0.75787914 0.70651346 0.83396584 0.7888552 0.78937703 0.7207487 0.7124897
00000000: 3094 d03e 3a5f b93e 8334 c83e ef14 c43e
00000010: fd93 cb3e d664 ea3e a5c8 eb3e 8592 ba3e
00000020: 78b4 cc3e 107c d13e e6aa dc3e c218 de3e
00000030: 0ae5 e53e 4ed2 db3e d23d ce3e 0991 e43e
00000040: 717f d43e 9996 cc3e d6fe da3e f8c8 bf3e
00000050: 586d c43e 9d5a d93e 7be7 ed3e 778d db3e
00000060: 3403 4e3e 4c2e 4d3e f4f7 4d3e 1925 4c3e
00000070: 1bd9 4c3e cf35 4e3e 3546 4e3e 1346 4c3e
00000080: 08b5 4d3e 1231 4e3e b9fc 4d3e 6422 4e3e
00000090: 69ad 4d3e be36 4e3e 731b 4d3e ebac 4c3e
000000a0: 9e90 4d3e f34d 4d3e bc69 4d3e 6749 4d3e
000000b0: 5c15 4d3e 5a75 4e3e 9316 4e3e 5e4b 4d3e
000000c0: 5652 483f d377 493f e982 453f e078 3c3f
000000d0: 23f4 423f 66e1 3a3f cadc 2f3f 2db9 433f
000000e0: 759f 3d3f af88 4f3f 95aa 423f e8fb 3b3f
000000f0: b982 323f f20d 443f 8d68 3c3f 7b86 3a3f
00000100: a2df 363f 5e04 423f 11de 343f c97e 553f
00000110: 6af2 493f 9d14 4a3f fd82 383f ba65 363f

mlp4.weight f4 [1, 72]
0.022157911 0.044969566 0.0 0.0 0.0 0.02483045 0.0 0.0075019295
0.0 0.0 0.03316881 0.02891981 0.0 0.040296834 0.0 0.01779568
0.0 0.031811364 0.05350737 0.020617723 0.0 0.0011169185 0.07568547 0.0
0.032018717 0.0 0.022712283 0.0 0.19409302 0.0 0.15217027 0.0
0.23092929 0.0 0.0 0.0 0.0 0.0 0.15761843 0.0
0.0070299413 0.0 0.0 0.0 0.15053631 0.0 0.0 0.16643208
0.0 0.11115433 0.14656697 0.092681214 0.029255612 0.0 0.14382717 0.059381
0.2090488 0.13187224 0.0026941947 0.10350189 0.06910615 0.024836289 0.14652911 0.1332163
0.11589279 0.111998096 0.09869335 0.04718929 0.09896501 0.10371805 0.0 0.29156157
00000000: 8284 b53c 0232 383d 0000 0000 0000 0000
00000010: 0000 0000 3a69 cb3c 0000 0000 bfd2 f53b
00000020: 0000 0000 0000 0000 05dc 073d 3de9 ec3c
00000030: 0000 0000 4b0e 253d 0000 0000 3fc8 913c
00000040: 0000 0000 a24c 023d 8b2a 5b3d 80e6 a83c
00000050: 0000 0000 9165 923a fc00 9b3d 0000 0000
00000060: 0f26 033d 0000 0000 1c0f ba3c 0000 0000
00000070: 52c0 463e 0000 0000 86d2 1b3e 0000 0000
00000080: ba78 6c3e 0000 0000 0000 0000 0000 0000
00000090: 0000 0000 0000 0000 ba66 213e 0000 0000
000000a0: 6c5b e63b 0000 0000 0000 0000 0000 0000
000000b0: 3126 1a3e 0000 0000 0000 0000 2c6d 2a3e
000000c0: 0000 0000 e2a4 e33d a715 163e a6cf bd3d
000000d0: 77a9 ef3c 0000 0000 6e47 133e 7e39 733d
000000e0: e310 563e 8409 073e 1691 303b cdf8 d33d
000000f0: 8687 8d3d 7975 cb3c ba0b 163e db69 083e
00000100: 3359 ed3d 425f e53d bd1f ca3d 8f49 413d
00000110: 2bae ca3d 216a d43d 0000 0000 8f47 953e
