utility-model-selected/dim-3/utility-88.pt (torch, 23458 bytes, 17 tensors)

bn1.running_mean f4 [3]
00000000: e282 003f df04 003f 3b6e ff3e
0.5019971 0.5000743 0.49888787

bn1.running_var f4 [3]
00000000: 1e52 673d 2814 5c3d cfad 583d
0.056474797 0.05373016 0.05290013

mlp1.weight f4 [24, 3]
00000000: 439f 703e 8e40 fb3d 5e2a c43e d3db 793e
00000010: b4aa c43e 9055 a73e 0fd4 fd3e 2afe 9c3e
00000020: d582 dd3e 995a f83e 2bd9 ee3e 617e fa3d
00000030: 0000 003f bcf3 d93e 1a27 e23d 0000 003f
00000040: be9f e33e a1f9 b63e 7272 383e 0000 003f
00000050: 0000 0000 e665 d83e 0000 0000 f209 e13d
00000060: 1277 b83e 8965 423e 48c3 c53e 6d77 d83e
00000070: 9171 3f3e 0000 003f a666 ed3e d67a e93e
00000080: 6310 bc3c 0000 0000 80c1 b13e 18d7 2c3e
00000090: b625 af3d 1d29 243e 8fc9 c73e fcce 803e
000000a0: 9719 793e ed30 dc3e b292 ec3d 23ba 7e3e
000000b0: 757f 783e ce42 f03e 6cb6 2a3e 135d d13e
000000c0: f0e0 ec3e b863 b73e b65d ad3e ff00 ec3e
000000d0: 32f4 fd3e 18f6 8d3d 60b6 f33d aeaf 453e
000000e0: 2e37 d93e cea1 fa3e cddb 8c3e b6a6 273d
000000f0: bacb 883e 890b b33e b7db e43e 3193 a73e
00000100: ef15 e73e 0000 003f b68d 843e b8b7 ba3e
00000110: 3501 b63e 0000 0000 9e77 963e 0000 003f
0.23498254 0.12268172 0.38313574 0.24400263 0.38411486 0.32682467 0.4957585 0.30662662
0.4326388 0.4850662 0.4665006 0.12231136 0.5 0.42568767 0.11042614 0.5
0.4445781 0.35737327 0.18012407 0.5 0.0 0.42265242 0.0 0.10988225
0.36028343 0.18984045 0.3862555 0.42278615 0.18695666 0.5 0.46367377 0.4560153
0.022957033 0.0 0.3471794 0.16878927 0.08552115 0.16031308 0.39020965 0.25157917
0.24326168 0.43006077 0.115514174 0.24875693 0.24267371 0.46925968 0.16671151 0.40891322
0.46265364 0.35818267 0.33860558 0.4609451 0.4960037 0.06931704 0.1190002 0.19305298
0.4242491 0.48951572 0.27511445 0.040930472 0.2671793 0.34969738 0.4469888 0.32729486
0.45133922 0.5 0.25889367 0.3646829 0.35547796 0.0 0.29388136 0.5

mlp1.bias f4 [24]
00000000: 9bb9 c43e 77cb ecbd 46c8 123f 1e7d a9be
00000010: a025 bb3e 381d b63e c7cc 05bf 162a c43e
00000020: 50df 77bd 4f2c 75be 05f6 cbbe 7409 dd3e
00000030: 0669 783d f27f 7abd 882d 0e3d ba09 5ebe
00000040: 2b9a 8fbe 6250 e8be a3de f13c 9e37 36be
00000050: 224e 1d3f aa1d 153f d1b2 20bf d295 3a3f
0.38422856 -0.11562245 0.57336843 -0.3310327 0.36552143 0.35569167 -0.5226559 0.3831336
-0.0605157 -0.23942684 -0.39836136 0.43171275 0.060647033 -0.061157174 0.03471139 -0.21683398
-0.28047308 -0.45373827 0.029525107 -0.17794654 0.61447346 0.5824839 -0.6277285 0.7288486

mlp2.weight f4 [24, 72]
00000000: d2a6 613c 0000 0000 0000 0000 9fc2 593c
00000010: 2379 b33d 4554 8b3d 143b 903d 49e8 893d
00000020: e3cc 293d 7cc8 763c 08ab d53d e1e7 9f3c
00000030: ec64 643d 0000 0000 0000 0000 ee14 0a3b
00000040: 519d e83c b580 003d 9ac7 7e3c 43c9 813d
00000050: 51af 753d 0000 0000 6368 a13c 9c58 9a3d
00000060: e4c9 7c3c f252 923c 3a6c 373d d195 023e
00000070: d08a 103e 2f78 b33d a45f a13d 2faa 5b3d
00000080: aba0 e93d 5107 143e 4b8b af3d ad27 0b3e
00000090: 01e7 a13d a7a5 713c a91a 523d 2124 d03d
000000a0: 6d71 4c3d 0372 ea3d aa47 913b a849 0c3e
000000b0: 3281 783d e8c9 5d3d cfcd 693d 9531 c63d
000000c0: 3246 2d3d 8edc 263d e50d 803d 6c08 983d
000000d0: 88ae 423d 8c7f 9f3d fb3b 903d ad59 b13d
000000e0: b5ef dc3d dfb1 b53c d160 2f3d d06b b53d
000000f0: 0293 533d b2b0 ba3c c63b 703c 062a 233d
00000100: e670 c53d da13 af3d cf6d d43d 7f03 eb3d
00000110: 9007 5f3d cc16 323d 0755 9c3d bca0 013e
00000120: 0000 0000 5244 873c 7b0b 863c 0766 043c
00000130: 043e 823d 0000 0000 5fa7 f23d 9f7a c83d
00000140: b430 f83c b581 363d 342f ec3d 0000 0000
00000150: 3be3 103d 0000 0000 0000 0000 f11c 063b
00000160: 0000 0000 994e 0b3e 14c6 053d 73ea 0f3d
00000170: e48c c53b 0000 0000 0000 0000 306f 373d
00000180: 57ea e93b 8bb4 cd3c e085 dc3c 6088 a03d
00000190: 225f ca3d ae55 163d 4a80 df3d 6e26 213e
000001a0: 6300 183d 2875 143e 39af f43d 4d6c 113e
000001b0: df2d 9f3d 3779 1b3d 219f 6b3d f419 da3d
000001c0: 7e77 f83d 16d1 f93d 8032 513d c1c2 d33d
000001d0: cc24 db3d e0bf ed3d 30d3 0e3d fb9d 393e
000001e0: 6805 5e3d 475c 813d 0f0e 8d3d a034 213d
000001f0: 2938 643d 0000 0000 97ff 6d3c 7cf1 0f3e
00000200: b36b 063d 3c36 cc3c 4d54 a63d 47c5 0b3e
00000210: e11f 403c 64c6 913d 2e35 3f3d 9599 c53c
00000220: a910 243c 79b6 4d3c 1272 cf3c 930a b13d
00000230: 5919 f43d 966c ae3d 9fe3 f63c 9272 243e
00000240: 0000 0000 0000 0000 63dc c93b e2f8 3c3c
00000250: 6f18 9b3d f312 873d 3863 993d 1855 203d
00000260: 0000 0000 0000 0000 9d47 eb3d 4e31 b23a
00000270: 4d31 2c3c 3f6a df3b 0000 0000 8b8d 153d
00000280: 2a5d 783d ba48 373d fbdc a63b 89d7 8f3d
00000290: b3f3 093d ec7c 133d 2978 c33c 7c3b 623d
000002a0: d7de ee3c 17cc b83d 8334 053e 2b94 d63d
000002b0: 8a4d ba3d 0946 0b3e 8108 ad3d 24a2 f03d
000002c0: 6f85 dd3d a481 353d 417a 003e 5c93 c23d
000002d0: 9ae9 a53d b529 943d 2c08 b63b 006e f53c
000002e0: ba22 653d 42d9 193e 1f25 833d 6ff2 0a3e
000002f0: 51fe 933d c3c6 9d3d 1c42 0a3d 0506 053e
00000300: 2afb e73b 9da6 d33c bc27 f83d 0ed6 e43d
00000310: 6fe3 2a3d 26d6 cc3d 3a0a e53c 4ceb d23d
00000320: 1d0a a53c 833c 2e3d c6e0 c63d c5b9 813d
00000330: 1afb 923b 1553 bd3d c568 cb3b 820c ec3d
00000340: 39f3 fb3d fb02 903d 5ca4 123d 5caf 623d
00000350: 5e74 b53d 6a3d 083e bf25 333b 86b8 c13d
00000360: 0000 0000 0000 0000 c9f5 ef3c bdd1 5c3c
00000370: 70de be3d 819d 3a3d c399 943d 7ff7 893c
00000380: 0000 0000 0000 0000 64e5 4b3d d8fe 393d
00000390: 0000 0000 0000 0000 9333 4d3c 0000 0000
000003a0: 634c 413d c99a c83d 0000 0000 bcad e33d
000003b0: 50ed 513c 0000 0000 6bbb 383d 0000 0000
000003c0: f411 653d 16ef f13d 2b80 f83d 1bf6 903d
000003d0: 3327 9c3d f09d c83d 5fc0 d83d 8bb4 e13d
000003e0: eb07 1b3e d159 df3d 2247 313e f1e8 b53d
000003f0: 51ab 343d b195 dd3d 678c 8a3b aa30 803d
0.013772683 0.0 0.0 0.01329103 0.08763339 0.068031825 0.07042518 0.06733758
0.04145516 0.015062448 0.10433012 0.019519748 0.05576031 0.0 0.0 0.0021069604
0.028395327 0.031372745 0.015550518 0.06337216 0.059981648 0.0 0.019703096 0.07536432
0.015428994 0.017861817 0.044780947 0.12752463 0.14115453 0.087631576 0.0787957 0.053629097
0.11407598 0.14455916 0.0857149 0.13589354 0.079053886 0.014748967 0.051294956 0.10163141
0.04991286 0.11447527 0.004433592 0.13699973 0.060670085 0.05414763 0.05708104 0.09677426
0.04230327 0.04073768 0.0625265 0.07423481 0.047529727 0.077879995 0.0704269 0.086596824
0.10787908 0.022179542 0.04281694 0.08858454 0.05165387 0.022789333 0.014662689 0.039835
0.09640674 0.08548708 0.10372507 0.11475276 0.05445057 0.043478772 0.07633405 0.12658972
0.0 0.01651207 0.016362896 0.008080966 0.06359485 0.0 0.1184833 0.09789013
0.030296661 0.044557292 0.11532441 0.0 0.035372954 0.0 0.0 0.0020464028
0.0 0.13604201 0.032659605 0.035135698 0.0060287584 0.0 0.0 0.04478377
0.007138531 0.025110504 0.026919305 0.078385115 0.098814264 0.036702804 0.10913141 0.15737316
0.037109744 0.14497817 0.119474836 0.1420147 0.07772421 0.037957396 0.057524804 0.106494814
0.12132166 0.12198083 0.05107355 0.10339881 0.10700378 0.11608863 0.034869373 0.18126671
0.054204375 0.06316429 0.06887447 0.039356828 0.05571762 0.0 0.014526269 0.14056963
0.032817554 0.024928205 0.08121548 0.13649474 0.0117263505 0.07117918 0.046681575 0.024121085
0.010013738 0.012555712 0.025322948 0.08644595 0.11918897 0.08516805 0.030137835 0.1605933
0.0 0.0 0.0061603053 0.011533948 0.0757302 0.06595411 0.074896276 0.03914365
0.0 0.0 0.114882685 0.0013595016 0.010509801 0.0068180854 0.0 0.03651194
0.060635723 0.04474709 0.005092261 0.07023532 0.033679675 0.036007807 0.023861008 0.05523251
0.029158993 0.09023302 0.13008313 0.104774795 0.09096821 0.13600935 0.084488876 0.11749676
0.10816466 0.044313088 0.12546636 0.09500763 0.081011966 0.072345175 0.0055551734 0.029959679
0.05594132 0.15024284 0.06403565 0.13569044 0.072262414 0.077039264 0.033754453 0.12990578
0.0070795016 0.025836283 0.12116954 0.1117364 0.041720804 0.10001783 0.027958978 0.102987856
0.020146424 0.042538177 0.09710841 0.06334261 0.0044855 0.09244362 0.006207558 0.11525823
0.123022504 0.070318185 0.035801277 0.055343017 0.08860086 0.13304678 0.002733573 0.09459023
0.0 0.0 0.029292004 0.01347774 0.0931977 0.045560364 0.0725589 0.016841648
0.0 0.0 0.04977931 0.045409054 0.0 0.0 0.012524503 0.0
0.04719199 0.09795148 0.0 0.111171216 0.012812927 0.0 0.04510061 0.0
0.055925325 0.1181318 0.12133821 0.07078191 0.07624664 0.09795749 0.10583567 0.11020764
0.15139739 0.10905803 0.17312291 0.08882321 0.044108693 0.10819567 0.004228163 0.06259282

mlp2.bias f4 [24]
00000000: 32d5 653c f3a7 143c 777c 33bc 6042 a33c
00000010: 6d62 3abd 82df 103c cfbb 503d 34cf 38bd
00000020: e150 6b3d 26de c13d 0904 123d 436b 813d
00000030: 56dc ad3d 15ae e83d 9928 5abd 2e9e d93d
00000040: 0c46 87ba f953 b73c 8f1c 07bd 1707 a23d
00000050: 480f 93bd fe00 503d bfff 833d 66e5 3bbd
0.0140278805 0.009073245 -0.010954968 0.019929111 -0.045504022 0.008842351 0.05096036 -0.04511948
0.05745018 0.094661996 0.03564838 0.06319287 0.08489291 0.113613285 -0.053261373 0.106258735
-0.0010320558 0.022378908 -0.03298622 0.079115085 -0.07180649 0.050782196 0.06445264 -0.04587307

bn2.weight f4 [72]
00000000: 8ecc d63e 64f0 df3e a6d3 d33e 15ba eb3e
00000010: 3111 eb3e da73 d73e 0000 003f 5596 f13e
00000020: f08f d13e 0a7d d83e 21fc fe3e 2ffc ea3e
00000030: c2e3 de3e 133d d93e adff df3e 48f5 e23e
00000040: ebe1 e33e b96c fb3e 69a2 da3e d99a fd3e
00000050: 928d d73e f5d4 dc3e fe1a df3e 1f31 e43e
00000060: 00cd f83e 3202 f73e 4ff5 ff3e 536b fc3e
00000070: 2a0b ed3e 682c e03e 0000 003f 0000 003f
00000080: 0000 003f 0000 003f 0000 003f 0000 003f
00000090: 1fde f93e 0000 003f 6a17 f03e 3e61 fb3e
000000a0: 95d2 ff3e 0000 003f 5bf5 f43e 0000 003f
000000b0: 0000 003f 0000 003f 0889 eb3e 0000 003f
000000c0: 6e95 f83e 2434 f63e 2af4 ff3e 1c24 f03e
000000d0: 0f39 e93e 270d e73e e7b6 f33e 0000 003f
000000e0: ee2b fd3e 32ed fd3e 1921 f83e 0000 003f
000000f0: b05e f93e 713e f93e 07f1 ef3e 60fe ff3e
00000100: 693a fb3e 99d1 f73e b9ed f73e d953 f83e
00000110: 0000 003f 0000 003f be51 eb3e 0000 003f
0.41952938 0.4373809 0.41372412 0.46040407 0.45911554 0.42080575 0.5 0.47185007
0.40930128 0.42282897 0.49801734 0.45895526 0.4353314 0.42429408 0.43749753 0.4432776
0.445083 0.49106386 0.42702034 0.49532202 0.42100197 0.43131223 0.4357528 0.44568726
0.48593903 0.48243862 0.49991843 0.49300632 0.4629758 0.4378388 0.5 0.5
0.5 0.5 0.5 0.5 0.48802277 0.5 0.46892864 0.49097627
0.4996535 0.5 0.4784344 0.5 0.5 0.5 0.46002984 0.5
0.48551506 0.48086655 0.4999097 0.4690255 0.45551345 0.45127222 0.4760048 0.5
0.49447578 0.49595028 0.48462752 0.5 0.48705053 0.48680452 0.46863577 0.4999876
0.49068 0.48402098 0.48423555 0.4850147 0.5 0.5 0.45960802 0.5

bn2.bias f4 [72]
00000000: 8a44 6b3a a96b 043c 3515 e13b f6dd 5a3c
00000010: 87e2 063c 1b48 083c f20c 003c 726b 0d3c
00000020: b0c6 403c 84da 283c b5e5 3e3c 2916 f93b
00000030: 2a87 b03b 9e65 ef3b da4b 073c 4f3d 3f3c
00000040: 3656 6d3c 7f97 343c c736 4038 4cc5 403c
00000050: 2ee0 ec3b ab58 1a3c 5e8b 4a3c 9bb6 9e3b
00000060: 1015 703b 9f06 983b 87eb dc3a 8ae4 463c
00000070: 86df 2b3c 36b6 a03b 9b81 ea3b 19e7 133c
00000080: 9afe 163c 736c 2c3c b79a 2b3c fde6 683b
00000090: e800 af3b 9b65 ca3b 7e2e 643b 9332 543c
000000a0: 29bd 533c 37a8 633c 55d0 c13a 31f5 583c
000000b0: 0f01 25bb 4a42 523b e57e 263c 8c0d 94ba
000000c0: 8c29 073b 0889 b03b 6a0e 5a3b bf81 2c3c
000000d0: 921a ce3b 630b c73b d12d 303c b873 013c
000000e0: 349f 853b f2f4 7e3a f7c4 1b3c 8ccd 8a3a
000000f0: d7b1 033b 9414 9f3b 7ece db3b 8cd9 2a3c
00000100: f241 fd3b 8886 763c 6f1f d83b 4f8d e03b
00000110: d006 6eba 5f1f c83b f050 fe3b 4900 413b
0.00089747517 0.008082309 0.006868983 0.013358584 0.008232719 0.0083179725 0.007815586 0.008631574
0.011766121 0.010306004 0.011651446 0.0076015186 0.0053872066 0.007305815 0.0082578305 0.011672332
0.014485886 0.011022448 4.5827383e-05 0.011765789 0.0072288727 0.009420554 0.012362329 0.0048435456
0.0036633648 0.004639461 0.0016854861 0.012139449 0.010490304 0.0049045337 0.0071565635 0.009027266
0.009215975 0.010523903 0.010473899 0.003553807 0.005340684 0.006176663 0.003481775 0.012951511
0.012923517 0.013895086 0.0014786819 0.013242052 -0.0025177633 0.0032082968 0.01016209 -0.0011295541
0.002062413 0.005387429 0.0033272752 0.010528981 0.0062897885 0.0060743554 0.010753111 0.007901125
0.0040778164 0.0009725831 0.009507409 0.0010589822 0.0020095014 0.004854748 0.0067079654 0.010427844
0.0077288086 0.015046723 0.006595544 0.006852783 -0.00090799946 0.0061072554 0.0077611133 0.0029449633

bn2.running_mean f4 [72]
00000000: 4ac0 c43e 1b3d febc 113d 163f 657e e8bd
00000010: bd87 c73e 7b80 cd3e 3411 92be c983 c53e
00000020: 4e4e 3e3c e6f1 90bd c46e 30be 73e8 dd3e
00000030: 8a84 9c3d 48e0 ec3b cf1f 383d 9cf1 99bd
00000040: 4c56 c6bd dad8 3fbe a427 793d b47f 90bd
00000050: 2344 1e3f afba 1b3f 1c57 a5be 01a6 373f
00000060: e7c2 7c3e 9e44 8ebd 2f40 813e 4b72 1abe
00000070: d146 303e 51ab 1b3e c2a5 92be 7056 813e
00000080: d27f 17bd 9238 f7bd eb44 46be e596 9a3e
00000090: 56ce 2d3d 0145 1fbd a897 e93c e2e2 f2bd
000000a0: 5d66 0ebe 3cdc 55be 6963 983c 4363 c9bd
000000b0: 02fe 993e c568 813e 5749 a7be 7a5a b33e
000000c0: fc78 793e f94e 1ebe 96b1 6e3e b482 b5be
000000d0: 6a90 143e 7091 d63d 0751 06bf 122e 813e
000000e0: 997b debd d6cd 91be 2f04 d6be 7f7e 9a3e
000000f0: 76d5 d03c 87e5 dfbd 048c 8c3c eef1 86be
00000100: e3f1 a4be b4b5 efbe 8f46 64bc 74ee 52be
00000110: 8f22 963e a0cd 693e 58d6 21bf 3393 b23e
0.38427955 -0.031034997 0.5868693 -0.11352233 0.38970748 0.40137085 -0.2852875 0.38577107
0.011615349 -0.070773885 -0.17229754 0.43341407 0.07642467 0.007228885 0.04495221 -0.075167865
-0.096844286 -0.18735066 0.06082882 -0.070556074 0.6182272 0.6083173 -0.32293022 0.71737677
0.24683724 -0.069466814 0.2524428 -0.15082662 0.17214514 0.15202071 -0.28642088 0.2526126
-0.036987133 -0.12071337 -0.19362228 0.30193248 0.042433105 -0.038884167 0.028514698 -0.11859681
-0.13906236 -0.20884794 0.01860209 -0.09833386 0.30076605 0.25275245 -0.3267314 0.35029966
0.24362558 -0.15459813 0.23309931 -0.3545128 0.14508215 0.10476959 -0.5246739 0.2523046
-0.10863418 -0.28477353 -0.41800067 0.30174634 0.025492411 -0.10932451 0.017156608 -0.26356453
-0.32215795 -0.46818316 -0.013932838 -0.20598775 0.2932324 0.22832346 -0.6321769 0.3487793

bn2.running_var f4 [72]
00000000: 6627 593e c312 533e c10c fa3e b330 5e3e
00000010: d94d cd3e 6680 f73e 68a4 af3d 693c 433e
00000020: c45d 5f3e a474 763e 6b98 323e 81ca 193e
00000030: 6277 283e df76 593e 1d41 fb3d 0108 663e
00000040: 3b5b 683e a643 333e 1348 423e e9bf 443e
00000050: 9603 c43e 107c 043f e00c ab3d 9882 b13e
00000060: e18a b73d 298a 163e 4396 f13d f671 1c3e
00000070: 428d 113e aefa 1c3e dc6e ab3d f5ed aa3d
00000080: e076 143e d8e6 1c3e 172a 0c3e 37a9 773d
00000090: fe96 fe3d f958 133e ee14 d33d 29f3 193e
000000a0: b7e8 1b3e fc6c 0b3e 6ed9 0a3e 829d 193e
000000b0: 0755 bb3d f37b f43d 899c 9a3d a3c5 883d
000000c0: 555e c33d e633 843e 4ab1 203e 89c2 ce3e
000000d0: 5990 413e eaaa 763e e584 913e ee02 ac3d
000000e0: ed8a 773e 9ec4 bc3e cb32 c83e 2306 793d
000000f0: 626c 163e dd5a 743e 061e f13d a2b5 ab3e
00000100: 2d0b c43e acb6 db3e 19c4 373e c738 8e3e
00000110: 21e2 da3d 14a6 2c3e b816 a63e d0ec 8e3d
0.21206436 0.20612626 0.48837855 0.21698265 0.40098456 0.48340148 0.0857628 0.19066013
0.21813112 0.24067932 0.17440955 0.15018655 0.16451791 0.21236752 0.12268279 0.22463991
0.22691052 0.17506275 0.18972807 0.19213833 0.38283986 0.51751804 0.08352065 0.34669948
0.08962036 0.14701141 0.11796238 0.15277848 0.14214042 0.15330002 0.08370754 0.08346168
0.14498472 0.15322435 0.13687931 0.06046411 0.12431143 0.14389409 0.103067264 0.15034164
0.15225492 0.13615793 0.13559505 0.1500149 0.09147077 0.11937704 0.07549388 0.06678321
0.09539477 0.25820845 0.1569263 0.40382794 0.1890272 0.24088636 0.28421703 0.08398996
0.2417409 0.36868757 0.39101252 0.060796868 0.14689782 0.23862787 0.11773305 0.33537012
0.38289776 0.42912805 0.17945899 0.27777693 0.10687662 0.16860229 0.32439208 0.06978762

mlp3.weight f4 [24, 72]
00000000: e1dc a03d 3a23 a13d 1d2f 043b a84f 883d
00000010: 9a93 c53b 7493 843c 5db3 7b3d 7136 b13c
00000020: 6fe4 943d eb11 b33d 47ce 213d 2666 973c
00000030: ef97 0a3c 0000 0000 2720 fe3c ebed dc3b
00000040: a2e0 0a3d bbd3 a43d dbff 393d b25b 7a3d
00000050: d717 193d 125b 863d 5840 b13d 8dbe 983d
00000060: cbec 543c 6094 313e 88dc e13c 7fbe 853d
00000070: 5894 e63d 66fd 933d f407 f83d adab 883d
00000080: 66e8 6e3d 3f47 dd3d 9623 9f3d df7f ce3d
00000090: 94d8 933d 7796 fc3d 3595 b13d adae 763b
000000a0: b575 bf3d 162f bb3d a371 513c 1e19 fe3d
000000b0: d30b 0d3e 19f9 6c3c 92db 843d ae0e d33b
000000c0: 5488 593c 9181 083d 0000 0000 0000 0000
000000d0: 0000 0000 d1d6 293a 6675 a536 9df7 8a3c
000000e0: 0000 0000 0000 0000 0000 0000 6332 a03c
000000f0: a448 013a 0503 c939 08dc e13c 0000 0000
00000100: b62f a33c 0000 0000 0000 0000 0000 0000
00000110: 0000 0000 0000 0000 40ad bc39 0000 0000
00000120: b476 3b3d 5305 833d 3dc9 c53d 2857 a03c
00000130: 83bc ce3d f77c 9f3d 78b9 c03c eb54 4e3c
00000140: 8f5a 883d 12f3 ef3c 0c59 1f3d 0c1d fc3c
00000150: 92a1 963c 5b16 c23d 39d0 863d d5c2 8c3c
00000160: 85e0 743d f9f4 8d3d 337c c73d 0e4c 213d
00000170: cdb1 213d 7f0b e83c 66a9 8d3d 93bb ce3d
00000180: 3b1d a13b 3118 fb3c eed0 4a3d d4ee af3b
00000190: 0438 133d 5b17 e13c d346 313d a367 8d3b
000001a0: 3548 c83c b02e 9d3c 3962 923c b6d8 463d
000001b0: d3a5 4f3d 8ddd 1b3d 32c1 5c3d 0000 0000
000001c0: f668 fa3c d379 023d 0000 0000 e8d5 8f3d
000001d0: 1499 073d 37e4 883d 84d5 913c 0000 0000
000001e0: 0000 0000 0000 0000 bd2f 833c 0000 0000
000001f0: 0df4 6b3b 0000 0000 0000 0000 0000 0000
00000200: 0000 0000 0000 0000 0000 0000 5813 313c
00000210: e8ee 003c e121 2e3c 0000 0000 2f94 a83c
00000220: 0000 0000 0000 0000 0000 0000 77db e83c
00000230: 0501 4d3b c081 fc3c d86f 6a3d 0000 0000
00000240: c688 003d 192d 913c e0f2 333d 4892 983d
00000250: d978 e73b 37dc a83d 3496 133d e137 043d
00000260: cfc1 943d aedc 873d d296 6839 a50b da3d
00000270: 6ba6 923c 36c8 073d 9a25 aa3d da81 bb3b
00000280: 21e4 2b3d 1fdf 6f3d 5515 8f3d 9b28 d03c
00000290: 74ec 7a3b fcaf 133d 24a4 923d 06c9 723b
000002a0: f6ab 073e 6e0d 173e ee93 1f3e 018e b53d
000002b0: 915a 5a3d a5fd 483e d852 313e e685 c73d
000002c0: abd6 603e 7934 423e 9c1a 063e 522e 463e
000002d0: a157 7c3e fe1e 493e 166c 3a3e e1f9 993d
000002e0: b39e 3e3e 92b5 e03d 680f c83d 2b03 043e
000002f0: 3d10 003e 0579 103e 3b7f 6e3e 3551 993d
00000300: d444 ed3d 322f 8c3d 79fb d23d ee30 fc3d
00000310: 8850 fa3d 5ab1 bb3d e6f6 a83d eb7b 7b3d
00000320: 668f 923d 0f9c 023e a6bc 023e ad1a ec3d
00000330: e930 8d3d 5451 a53d 0e47 9c3d 96c7 5a3d
00000340: 5033 dc3d 697b a23d bec8 a13d a305 5f3d
00000350: c2c6 863d 43e8 723d 1823 af3d 359d 5e3d
00000360: 2d08 953d efbd f13b 0000 0000 0307 b43b
00000370: 2b41 533b 2a5b 6e3c 2049 893d 9a0a 3a3d
00000380: 328a ac3d 0000 0000 4008 cf3c d8fd ae3d
00000390: 8ee4 e13c 0000 0000 5095 243d 6189 243d
000003a0: 564d 323c fb73 833d 9a9e be3a a1ad 853d
000003b0: 513e 4b3b 03e9 b73d 35fb c33c c248 903d
000003c0: 53c3 dc3c 6071 083e 934c 1d3e a9d3 153e
000003d0: 2a10 e13d 1275 6d3e 425e fb3d d25c ef3d
000003e0: 125d 273e a232 0b3e 4061 0b3e 3494 5a3e
000003f0: 40fb 093e 56de 203e cfa4 883d 1c99 a23d
0.07854629 0.07868047 0.0020169683 0.06655818 0.0060295584 0.016183592 0.06145035 0.021632405
0.07270133 0.08743652 0.039503362 0.018481325 0.008459075 0.0 0.03102119 0.006742229
0.033905633 0.08048197 0.04541002 0.061122604 0.03737625 0.06560339 0.08654851 0.0745822
0.012995909 0.17341757 0.027570978 0.06530475 0.11258763 0.07226066 0.12110892 0.066733696
0.0583271 0.10804605 0.07770459 0.10082983 0.072190434 0.123333864 0.08671037 0.0037640736
0.09348623 0.0913984 0.012783441 0.124071345 0.13774042 0.014463686 0.06487192 0.006440959
0.013277132 0.03332669 0.0 0.0 0.0 0.00064788485 4.93105e-06 0.016963774
0.0 0.0 0.0 0.019555276 0.0004931784 0.00038339957 0.02757074 0.0
0.019920211 0.0 0.0 0.0 0.0 0.0 0.00035987236 0.0
0.0457675 0.063975 0.09657524 0.01957281 0.100945495 0.07787507 0.023525938 0.012593488
0.06657898 0.02929071 0.03890328 0.03077557 0.01838759 0.0947692 0.06582684 0.017182747
0.05978443 0.069314905 0.09740486 0.039379172 0.039476205 0.028325794 0.06917076 0.10094371
0.0049168146 0.030651184 0.049515657 0.0053690467 0.035942093 0.027476957 0.043280434 0.004315333
0.024448493 0.019187301 0.017869102 0.048546515 0.05069525 0.038053084 0.053895183 0.0
0.030567627 0.031854462 0.0 0.07023221 0.03310497 0.066841535 0.017802007 0.0
0.0 0.0 0.016013974 0.0 0.003600362 0.0 0.0 0.0
0.0 0.0 0.0 0.010807835 0.00786946 0.010628195 0.0 0.020578472
0.0 0.0 0.0 0.028424961 0.0031281125 0.030823588 0.05723557 0.0
0.031380437 0.0177217 0.043932796 0.07449776 0.0070639667 0.08245128 0.036031917 0.032279853
0.072635286 0.06633888 0.00022181429 0.10646752 0.01790162 0.03314992 0.08307953 0.0057222666
0.041965608 0.058562394 0.06986491 0.025409987 0.003828791 0.036056504 0.071602136 0.003704609
0.13249192 0.14751217 0.15583774 0.08864976 0.053309027 0.19628008 0.17316759 0.09742336
0.2195689 0.18965329 0.13096088 0.19353607 0.24642803 0.19640729 0.18205294 0.07518364
0.18615226 0.10972132 0.097685635 0.12891833 0.12506194 0.14108665 0.23290722 0.07486192
0.115853935 0.06844939 0.10301871 0.1231402 0.12222391 0.091646865 0.08250217 0.061397474
0.07156257 0.12754844 0.12767276 0.115285255 0.068940945 0.08072153 0.0763074 0.053412996
0.107519746 0.07933695 0.07899617 0.054448735 0.06580879 0.059303533 0.085516155 0.054349143
0.0727695 0.007377378 0.0 0.005494 0.0032234888 0.014548102 0.067034006 0.045420267
0.08424796 0.0 0.025272489 0.085445106 0.027574804 0.0 0.040181458 0.040170077
0.010882696 0.06418606 0.0014543117 0.06527258 0.0031012485 0.0897999 0.023923496 0.070451275
0.026948607 0.13324499 0.15361242 0.14631523 0.10989411 0.2318919 0.122738376 0.11687626
0.16344097 0.13593534 0.13611317 0.21345598 0.1347475 0.15709814 0.0667206 0.079393595

mlp3.bias f4 [24]
00000000: 1f2a 5b3d eb24 d1bd 5278 8a3d 7394 ff3d
00000010: 5fd0 373e ad71 a5bd 7463 113e 3de1 e73c
00000020: efa2 453e 5c67 07bd cff0 993d 6150 793c
00000030: 3c78 c43d 0196 393e 2b27 28bd 5fec 803d
00000040: be39 98bc 51a7 1b3e aa01 2f3e 3d3a bdbd
00000050: afe3 adbd 24ba dd3d 90dd e73d b1d5 5c3e
0.053506967 -0.1021212 0.067612305 0.12479486 0.17950581 -0.080783226 0.14198095 0.028305644
0.19300435 -0.033057556 0.07516634 0.015216918 0.095932454 0.18123628 -0.04105298 0.06295084
-0.018582221 0.15200545 0.17090479 -0.09239624 -0.08490693 0.10826519 0.113215566 0.21565892

bn3.weight f4 [72]
00000000: 1a5e e83e 3c16 e93e 7f7e eb3e 0e02 f03e
00000010: 6139 ed3e 4c07 f63e 77bb f43e cd24 ec3e
00000020: 602f f13e a538 ec3e a9b5 ec3e c6b5 f73e
00000030: 79b7 ef3e bdfc e93e 5cc2 ef3e eb91 ee3e
00000040: 1a36 f23e eb6a ed3e 032e eb3e 4b9e e63e
00000050: fa07 ec3e d39a f53e 7170 f13e 6079 ed3e
00000060: e843 f23e 0000 003f b310 f83e 0000 003f
00000070: dc0b f63e 0000 003f 0000 003f 0000 003f
00000080: 0000 003f 0000 003f 904a fc3e 0000 003f
00000090: 0000 003f 0000 003f b272 fe3e 87b6 f83e
000000a0: 0000 003f 0000 003f adc5 f73e aabc fd3e
000000b0: 0000 003f 0000 003f 0000 003f 58ff f33e
000000c0: a1f6 da3e a73a e43e d65f d93e 9b00 dc3e
000000d0: 0306 e13e be00 e83e 4007 e73e fc5c da3e
000000e0: 641c e93e d261 e83e 9192 de3e dbbc e23e
000000f0: 4d9b e83e 0498 df3e 4ba4 d93e cca3 da3e
00000100: 414d de3e 3365 db3e 344a d93e 36fc db3e
00000110: 771c e33e 3b46 dd3e bbe4 e03e 0bdf e13e
0.45384294 0.45524776 0.45994946 0.46876568 0.4633284 0.48052442 0.47799274 0.46121827
0.47106457 0.46136966 0.46232346 0.4838087 0.46819666 0.45700637 0.46827972 0.46595702
0.473069 0.46370634 0.45933542 0.45042643 0.46099836 0.47969684 0.47156098 0.46381664
0.47317433 0.5 0.4845024 0.5 0.48055923 0.5 0.5 0.5
0.5 0.5 0.49275637 0.5 0.5 0.5 0.4969688 0.48576757
0.5 0.5 0.48393002 0.49558002 0.5 0.5 0.5 0.4765575
0.42766288 0.44575998 0.4245593 0.42969212 0.439499 0.45313066 0.4512272 0.42649066
0.45529473 0.4538713 0.43471196 0.4428471 0.45430985 0.43670666 0.42508158 0.42703092
0.43418315 0.42850646 0.42439425 0.4296586 0.44357654 0.43217644 0.43924507 0.4411548

bn3.bias f4 [72]
00000000: 9c03 b33d 2255 ba3d 0291 ac3d f555 b43d
00000010: c9a7 923d 0654 963d d18c ad3d 32fe b23d
00000020: 1645 9f3d 87a4 be3d 49ec 9f3d 50e0 bf3d
00000030: 0ccb a63d d31b a83d 145f 9f3d 7401 a53d
00000040: fd09 b23d 95b4 963d 32cb b13d c4e2 c93d
00000050: 18af b93d 5b45 bb3d 93f9 ad3d 7004 933d
00000060: b0cd b93d 2549 a43d 720d 9e3d ba0a ab3d
00000070: dbec b33d 8921 af3d b1aa 943d 93b5 bb3d
00000080: e237 b63d 21e1 a33d 6170 a73d 6dd5 953d
00000090: 9cc0 9b3d bbdc 973d 9e07 b03d df6f a83d
000000a0: c13d b03d 1080 b13d 76fe a43d 29c6 ab3d
000000b0: 2b00 a53d 5f40 ae3d bda7 b13d 5bd5 b13d
000000c0: 0235 4f3d 0fce 413d 7bd2 3d3d 6164 413d
000000d0: 3a6a 243d a00b 403d 08af 3d3d 7e79 503d
000000e0: a1db 4c3d dcfb 2f3d 73a1 323d e2ee 2e3d
000000f0: 4046 333d fd3a 2a3d 7c20 483d 25c0 273d
00000100: 9975 5a3d bb48 723d 3fcf 313d 6f15 273d
00000110: ea8c 453d cb9f d83c 68ce 243d ac91 1f3d
0.08740923 0.09098269 0.084260955 0.088054575 0.07160909 0.07340245 0.08474124 0.0873989
0.07776849 0.09308725 0.0780874 0.09368956 0.08144197 0.08208432 0.077818066 0.08056918
0.08693311 0.07358662 0.086813346 0.09857705 0.090665996 0.09144088 0.08494868 0.07178581
0.09072435 0.08021764 0.07717408 0.08351655 0.08785411 0.08551318 0.07259119 0.09165492
0.088973776 0.08001924 0.081757315 0.07316098 0.07605097 0.07415148 0.08595203 0.08224463
0.086055286 0.08667004 0.08056347 0.083874054 0.08056673 0.085083716 0.08674572 0.086832725
0.05058766 0.047315653 0.046343308 0.04721487 0.040140368 0.046886086 0.0463095 0.050897114
0.050014142 0.0429648 0.043611 0.042708285 0.043768167 0.04156016 0.048859105 0.040954728
0.053334806 0.059151392 0.043410536 0.040791925 0.04823009 0.026443383 0.040235907 0.038957283

bn3.running_mean f4 [72]
00000000: 329d 0a3f e587 053f 33da 0d3f a5f0 0f3f
00000010: 445e f93e 8ac3 f03e 510a 003f 26ee fd3e
00000020: 0034 063f cb2d 393f 8886 113f cc9c 153f
00000030: cd87 053f 7376 4f3f 401d 003f e950 1b3f
00000040: 92bd 093f 0043 033f 1ba4 063f 33e4 143f
00000050: f446 013f 5e88 0d3f 8c8e 3a3f 3b46 013f
00000060: 08c1 163c e006 303c 577a 803c 9958 413c
00000070: d581 263c d2c7 993c 5544 843c 35d4 3e3c
00000080: 552e 6e3c 52f3 343d 9771 393c a472 b23c
00000090: b50e 9a3c 6c30 363d c8a2 543c 0885 913c
000000a0: 4084 2f3c 41c9 673c 987c 3c3c 3211 633c
000000b0: c787 263c 5828 833c cb54 473d 9439 6c3c
000000c0: 8709 f8be eed0 f0be cc50 04bf 9a55 ffbe
000000d0: a1c5 fbbe 376e d4be 13a3 cebe 85f3 febe
000000e0: 342f d8be a4ad 0cbf ac32 fabe 92d9 efbe
000000f0: f65c c7be 5c46 1dbf 778b 02bf 1471 e6be
00000100: 5c03 febe 9afc e3be 9bb3 03bf 7bfc e8be
00000110: ccc9 08bf 864d e8be 6c44 15bf b226 01bf
0.5414611 0.52160484 0.5541107 0.5622657 0.4870473 0.47024184 0.5001574 0.49595755
0.52423096 0.723355 0.56845903 0.5844238 0.5216034 0.81040114 0.5004463 0.60670334
0.53804886 0.5127411 0.52594155 0.58160704 0.5049889 0.55286205 0.7287376 0.5049779
0.009201296 0.010743827 0.015683336 0.0118009085 0.01016279 0.01877204 0.016145865 0.011647274
0.014537414 0.04417736 0.011318586 0.02178318 0.018805841 0.044479772 0.012978263 0.01776363
0.010712683 0.014147104 0.011504315 0.01385908 0.010164208 0.016010448 0.04866485 0.014418025
-0.4844477 -0.470344 -0.51685786 -0.49869996 -0.49174216 -0.41490337 -0.4035879 -0.49795166
-0.42223513 -0.54952455 -0.48866785 -0.4684568 -0.3893811 -0.61435485 -0.50994056 -0.45008147
-0.49611938 -0.44528657 -0.5144593 -0.45505127 -0.5343292 -0.45371646 -0.5830753 -0.5044967

bn3.running_var f4 [72]
00000000: 737b ae3f 92b3 a53f 9e51 ad3f 7a38 b33f
00000010: b505 973f 774d 8c3f 24df 983f 61db 993f
00000020: a585 a33f 571c dc3f c1cd b63f 5d41 b63f
00000030: 3a4b a03f 5dc2 0040 a9af 9a3f c9b6 c33f
00000040: 30c7 aa3f 0b97 9f3f eaa6 a63f 763e bc3f
00000050: db89 9e3f e723 ad3f 1bbd d63f c61c 9b3f
00000060: b268 613e 5059 603e e1cd 613e dc45 623e
00000070: 92ec 603e 8a9a 5d3e 3f90 5e3e 28ab 603e
00000080: b647 5f3e a3b0 643e 154d 623e 4b33 613e
00000090: c5b3 5d3e 1837 673e 7a0f 613e 491e 613e
000000a0: 2f8d 613e ca26 603e b344 613e e92b 613e
000000b0: dc59 613e fd38 613e 6f17 663e c334 613e
000000c0: 3013 b03f a07c af3f bb4f c43f eb8c b73f
000000d0: da2c b63f 2210 9d3f 2129 943f 6cac ba3f
000000e0: 3152 9a3f 04a8 f43f 04cb b13f b932 b53f
000000f0: af3c 913f bf7f 0b40 7215 c23f 8c8c a63f
00000100: 1257 b83f 9805 a23f 8213 c13f c09b a63f
00000110: 8f97 cb3f cc85 a73f b311 0540 4b1b bf3f
1.3631424 1.2945426 1.3540533 1.400161 1.1798617 1.096114 1.1943097 1.2020074
1.277516 1.7196149 1.4281541 1.4238697 1.2522957 2.011863 1.2084857 1.5290157
1.3342037 1.246797 1.3019688 1.4706562 1.238582 1.3526582 1.677646 1.2118156
0.22012594 0.2190907 0.22051193 0.22096962 0.21965244 0.21640983 0.21734713 0.21940291
0.218047 0.22333007 0.22099717 0.21992223 0.21650608 0.2257961 0.2197856 0.21984209
0.22026514 0.21889797 0.21998863 0.21989407 0.22006935 0.21994396 0.22469877 0.21992783
1.3755856 1.3709908 1.5336832 1.433988 1.4232438 1.2270548 1.1575052 1.4583869
1.2056333 1.9113774 1.389008 1.4156104 1.1346644 2.179672 1.5162795 1.3011642
1.4401572 1.2657957 1.5084078 1.3016281 1.5905627 1.3087707 2.0792053 1.4930204

mlp4.weight f4 [1, 72]
00000000: 38c3 ef3d 4d2d 873d 5e39 fb3d de8b 263e
00000010: a803 163e 7035 e53d c298 253e 4d00 0a3e
00000020: 4ceb 0b3e ee1b 453d 7926 2b3e e926 3f3e
00000030: 9bc6 203e 8747 1e3e bcda 053e 5446 123e
00000040: 8a56 543e 6b11 063e 2d1d f13d f919 c83d
00000050: a3f1 7f3d e949 c53d 2703 2d3e 2398 4a3e
00000060: 84ce 8d3d 9565 0a3e 8205 023e 5b69 0e3e
00000070: 8c28 3e3e 0000 0000 23f5 a13d 5a10 163e
00000080: 83d4 863d f0c5 133d 6f66 e33d 2bec 763e
00000090: 79fb d63d 974c 983d e374 353e d1c8 393d
000000a0: 82d0 323e a81a e13d 7a82 a73d 6def f83b
000000b0: c2a7 f53d 8ace 093e ff62 243e e2c2 453e
000000c0: 0000 0000 0000 0000 0000 0000 0000 0000
000000d0: 0000 0000 0000 0000 0000 0000 0000 0000
000000e0: 0000 0000 0000 0000 0000 0000 0000 0000
000000f0: 0000 0000 0000 0000 0000 0000 0000 0000
00000100: 0000 0000 0000 0000 0000 0000 0000 0000
00000110: 0000 0000 0000 0000 0000 0000 0000 0000
0.11707157 0.06600437 0.12266801 0.16264293 0.14649832 0.11191833 0.16171554 0.13476677
0.13663977 0.04812234 0.16713895 0.18667187 0.15700762 0.15456973 0.13071722 0.1428464
0.20736137 0.13092582 0.11773143 0.09770579 0.062486302 0.09633238 0.16895734 0.19784598
0.06924155 0.13515313 0.12697414 0.13907377 0.18570155 0.0 0.07908084 0.14654675
0.06583502 0.03607744 0.11103522 0.24113528 0.10497183 0.07436483 0.1772037 0.04535753
0.17462352 0.109914124 0.08179183 0.007596901 0.11994888 0.13457695 0.16053389 0.19312623
0.0 0.0 0.0 0.0 0.0 0.0 0.0 0.0
0.0 0.0 0.0 0.0 0.0 0.0 0.0 0.0
0.0 0.0 0.0 0.0 0.0 0.0 0.0 0.0
