utility-model-selected/dim-3/utility-14.pt (torch, 23458 bytes, 17 tensors)

bn1.running_mean f4 [3]
00000000: e282 003f df04 003f 3b6e ff3e
0.5019971 0.5000743 0.49888787

bn1.running_var f4 [3]
00000000: 1e52 673d 2814 5c3d cfad 583d
0.056474797 0.05373016 0.05290013

mlp1.weight f4 [24, 3]
00000000: 0000 0000 8812 983d d045 4d3e 0000 0000
00000010: 4384 013e 0000 003f 96d5 d63d f508 cb3d
00000020: 4954 ed3e c64b c23e 0000 0000 d5e5 cc3e
00000030: 0000 0000 0000 0000 02f2 ff3e 110a fb3e
00000040: ffce dd3c 037d d33e b014 e43e 1c85 e53e
00000050: 2372 a83e 3a0a 533e e821 ce3e 391b f83e
00000060: 313a e33e 289f d73e a899 ba3e e9b4 743d
00000070: 7309 713d deb3 283e 0000 0000 56f6 783d
00000080: 3228 2c3e 856c ab3d cab9 c63e 10d0 e93e
00000090: 180f be3e 192a 2e3e da7a 8f3e fdad 7d3d
000000a0: 0f7c 223e 57b2 af3e 0866 e43e eeee df3e
000000b0: e62e be3e 5b04 ea3e 0000 0000 9ee4 fa3e
000000c0: c8e9 d53e 7129 d63e abf4 8d3e c16b 083e
000000d0: c9a4 2e3d 6a33 813e 0000 0000 0000 0000
000000e0: 46fc ff3e 20ce 0a3e bb68 d43e 0000 0000
000000f0: d06e b53e bf9e 233e 2ebf 213e 8e14 593d
00000100: 1e78 913c e795 9e3e 0000 0000 9a39 fc3d
00000110: dca0 c43d a6fb 903e 98c8 553e 0000 003f
0.0 0.074254096 0.20046163 0.0 0.1264811 0.5 0.10489957 0.09913818
0.46353367 0.37948436 0.0 0.40019098 0.0 0.0 0.49989325 0.49031118
0.027076242 0.41306314 0.44547033 0.44828117 0.3289958 0.2060937 0.40260243 0.4845827
0.44380334 0.42113614 0.36445355 0.059742842 0.058846902 0.16474864 0.0 0.0607818
0.16812208 0.08370308 0.3881362 0.45666552 0.3712089 0.17008246 0.28023416 0.061933506
0.15867637 0.3431575 0.44609094 0.43736976 0.37145156 0.45706448 0.0 0.49002546
0.41779923 0.41828492 0.2772573 0.13322355 0.04263762 0.25234538 0.0 0.0
0.49997157 0.13555193 0.41486153 0.0 0.35436106 0.15978526 0.15795586 0.052998118
0.017757472 0.3097374 0.0 0.12315674 0.09600994 0.28316993 0.20877302 0.5

mlp1.bias f4 [24]
00000000: 2b96 c53e e436 333e 9188 d6bd 7ae4 0d3f
00000010: 466b 09bf fb1b dc3e 1da5 23bf d7bb 9a3d
00000020: 585c 24bf 300f 883e e1c6 ce3e aa37 663e
00000030: f3d8 51be cfcf e6bc 1b70 2bbf cca3 583e
00000040: 2761 1cbf 29b8 183c 6d09 0abf dbd4 bdbe
00000050: 77eb 23be dce6 0f3f 1e39 acbe 1bcd 09be
0.38591132 0.17501408 -0.10475267 0.5542675 -0.5367931 0.42990097 -0.6392382 0.07555359
-0.64203405 0.26574087 0.40386108 0.22482172 -0.20492916 -0.028175263 -0.66967934 0.21156234
-0.6108574 0.009321251 -0.5392063 -0.37076458 -0.16007791 0.5621164 -0.33637327 -0.13457148

mlp2.weight f4 [24, 72]
00000000: 0000 0000 0000 0000 0000 0000 0000 0000
00000010: 284d 143e 0000 0000 0b35 9c3d 0000 0000
00000020: 668e 353d 0000 0000 0000 0000 0000 0000
00000030: 0000 0000 0000 0000 a3b8 fa3c 0000 0000
00000040: 220c b23d 0000 0000 5160 4f3e 1b06 023d
00000050: 0000 0000 0000 0000 0000 0000 0000 0000
00000060: 9c6a ba3c 9bf4 313c d7d7 873c b01a 073e
00000070: be18 073e d0ca 9d3d 155c 123e 0000 0000
00000080: f961 dc3d 0000 0000 9560 5b3d 0000 0000
00000090: 0000 0000 0000 0000 0121 513e 9242 e03d
000000a0: 3ab0 473d 0000 0000 730b 1c3e f656 cd3d
000000b0: 0000 0000 0000 0000 0000 0000 0000 0000
000000c0: 6921 c23b 0000 0000 0000 0000 0ede ae3d
000000d0: 4659 cc3d b190 e23c 0000 0000 0000 0000
000000e0: 0000 0000 0000 0000 e6b0 513d 0000 0000
000000f0: 0000 0000 0000 0000 0000 0000 ae3c 5b3c
00000100: 0000 0000 0000 0000 bcd5 ac3d 0000 0000
00000110: 0000 0000 0000 0000 0000 0000 0000 0000
00000120: 0000 0000 0000 0000 0000 0000 0000 0000
00000130: fc3d dc3d 0000 0000 f00a 173d 0000 0000
00000140: 2b0b 683b 0000 0000 0000 0000 0000 0000
00000150: 0000 0000 0000 0000 e98d 0b3d 0000 0000
00000160: 751a 463d 0000 0000 bb14 f83d 5031 233d
00000170: 0000 0000 0000 0000 0000 0000 0000 0000
00000180: 509a 213c 0368 893d 61e8 193d 6ac7 173e
00000190: 5639 413e 3dcc 133d acce 1a3e 0000 0000
000001a0: 28b7 283e 0000 0000 b2f3 a13d 0000 0000
000001b0: 0000 0000 0000 0000 4d37 143e f4ec ff3d
000001c0: 9dc1 eb3d 0000 0000 f219 523e 6d6e 913d
000001d0: 0000 0000 a1ba 623b 0000 0000 0000 0000
000001e0: 227f 203c 82db 6539 0000 0000 df39 a43d
000001f0: 1f48 a03d 4e75 993d 0000 0000 0000 0000
00000200: 0000 0000 0000 0000 d1e3 953c 0000 0000
00000210: 0000 0000 0000 0000 0000 0000 a86a 843c
00000220: 0000 0000 0000 0000 0000 0000 0000 0000
00000230: 0000 0000 f25b 683b 0000 0000 0000 0000
00000240: 0000 0000 0000 0000 0000 0000 0000 0000
00000250: b316 523e 0000 0000 2358 663d 0000 0000
00000260: ff13 853d 0000 0000 0000 0000 0000 0000
00000270: 0000 0000 0000 0000 c548 a93d 0000 0000
00000280: 8db0 5d3d 0000 0000 8f6a 553e 8e5d a23c
00000290: 0000 0000 0000 0000 0000 0000 0000 0000
000002a0: 20c0 a83c 62ca 583a 0000 0000 5f49 103e
000002b0: 3ae0 0c3e 0f50 923d 63bb 4b3e 0000 0000
000002c0: 5344 1f3e 0000 0000 6ad0 c53c 0000 0000
000002d0: 0000 0000 0000 0000 c410 7e3e b744 d43d
000002e0: 449d 893d 0000 0000 ca40 773e 99cf 963c
000002f0: 0000 0000 d6a1 db3c 0000 0000 0000 0000
00000300: f204 a83c 0000 0000 0000 0000 2ffe 703d
00000310: 6d5b c83c 117e c03d 0000 0000 0000 0000
00000320: 0000 0000 0000 0000 2b06 2d3d 0000 0000
00000330: 0000 0000 0000 0000 0000 0000 3958 5a3c
00000340: 0000 0000 0000 0000 2efd 8f3d 0000 0000
00000350: 0000 0000 63e2 db3c 0000 0000 0000 0000
00000360: 0000 0000 0000 0000 0000 0000 0000 0000
00000370: 0559 303e 0000 0000 9f61 9f3d 0000 0000
00000380: eaa4 a23d 0000 0000 0000 0000 0000 0000
00000390: 0000 0000 0000 0000 93e6 c13d 0000 0000
000003a0: 42db 913d 0000 0000 51ee 433e c96b f43c
000003b0: 0000 0000 0000 0000 0000 0000 0000 0000
000003c0: e6cf 3a3d 99b9 933d 0000 0000 bcb0 893d
000003d0: 957c 2a3e 0a5a ab3d f1c8 313e 0000 0000
000003e0: 39eb 0f3e 0000 0000 a847 d63c 0000 0000
000003f0: 0000 0000 0000 0000 3b42 213e 8d26 dc3d
0.0 0.0 0.0 0.0 0.14482558 0.0 0.07627305 0.0
0.044325255 0.0 0.0 0.0 0.0 0.0 0.03060562 0.0
0.086937204 0.0 0.20251586 0.031744104 0.0 0.0 0.0 0.0
0.022755913 0.010861541 0.016582413 0.13193774 0.13193032 0.07704699 0.14292939 0.0
0.10760874 0.0 0.053558905 0.0 0.0 0.0 0.20422746 0.10950197
0.048752047 0.0 0.15238743 0.10026352 0.0 0.0 0.0 0.0
0.005924393 0.0 0.0 0.08538447 0.09977965 0.027656885 0.0 0.0
0.0 0.0 0.051194094 0.0 0.0 0.0 0.0 0.013381166
0.0 0.0 0.08439204 0.0 0.0 0.0 0.0 0.0
0.0 0.0 0.0 0.0 0.1075401 0.0 0.036875665 0.0
0.0035407047 0.0 0.0 0.0 0.0 0.0 0.034070883 0.0
0.048365075 0.0 0.12113329 0.03984195 0.0 0.0 0.0 0.0
0.009863451 0.06709292 0.03757513 0.14822164 0.18869528 0.03608345 0.15117902 0.0
0.16476119 0.0 0.07907809 0.0 0.0 0.0 0.1447422 0.12496367
0.11511538 0.0 0.2051771 0.0710114 0.0 0.0034596103 0.0 0.0
0.009795936 0.00021920915 0.0 0.080188505 0.07826256 0.07493077 0.0 0.0
0.0 0.0 0.018297108 0.0 0.0 0.0 0.0 0.016164139
0.0 0.0 0.0 0.0 0.0 0.0035455194 0.0 0.0
0.0 0.0 0.0 0.0 0.20516472 0.0 0.056236397 0.0
0.064979546 0.0 0.0 0.0 0.0 0.0 0.08265833 0.0
0.05412345 0.0 0.2084143 0.019820001 0.0 0.0 0.0 0.0
0.020599425 0.00082699035 0.0 0.14090489 0.1375741 0.07144176 0.19895701 0.0
0.15553407 0.0 0.024147231 0.0 0.0 0.0 0.24811083 0.10364669
0.06719449 0.0 0.24145809 0.018409537 0.0 0.026810568 0.0 0.0
0.02051017 0.0 0.0 0.05883616 0.024457658 0.09399045 0.0 0.0
0.0 0.0 0.04224221 0.0 0.0 0.0 0.0 0.013326698
0.0 0.0 0.07030712 0.0 0.0 0.026841348 0.0 0.0
0.0 0.0 0.0 0.0 0.17221458 0.0 0.077822916 0.0
0.07941611 0.0 0.0 0.0 0.0 0.0 0.09467807 0.0
0.07121898 0.0 0.19133879 0.029836552 0.0 0.0 0.0 0.0
0.045608424 0.07213134 0.0 0.067231625 0.16649087 0.08366783 0.1736181 0.0
0.14054574 0.0 0.026157215 0.0 0.0 0.0 0.15747921 0.107495405

mlp2.bias f4 [24]
00000000: 8dfa 4bba caff 003c c8ff 65bd 25ed c4bd
00000010: ba87 c6bd 2c44 66bd e06c 2dbb fe45 bcbd
00000020: 94e8 0ebd 8f50 b2bd 16f5 76bd 9c4d 08b9
00000030: 3d05 99bd d51b 6abc eec5 7fbd e766 8bbd
00000040: 7337 01bd c2ee 90bd 7504 53bd c34c c9bd
00000050: dcde 84bd 113c 9fbd 5e49 a6bd 4108 c7bd
-0.00077811704 0.007873485 -0.056152135 -0.09615544 -0.096938565 -0.056217358 -0.00264626 -0.091930375
-0.034889773 -0.087067716 -0.060292326 -0.00012998882 -0.07471702 -0.014288862 -0.06244462 -0.068067364
-0.03154702 -0.070767894 -0.051517922 -0.09829094 -0.064878196 -0.07775129 -0.081194624 -0.09718371

bn2.weight f4 [72]
00000000: 167f cd3e b333 be3e df79 b83e f6e2 c63e
00000010: 0000 003f c902 c33e 34b9 fe3e 2f11 c93e
00000020: 767b fe3e 71ec cc3e 3c7a c63e e5c8 ca3e
00000030: faa1 c73e a6b4 c43e d1f3 fd3e 307c c13e
00000040: 5725 fa3e 857f cb3e 0000 003f 1dbe c93e
00000050: aee2 c93e fa72 ca3e 78ee cb3e 72b0 bc3e
00000060: 4dd0 cc3e e6f8 d13e 6c08 ab3e 0000 003f
00000070: 0000 003f 4f8b f93e 0000 003f d487 c83e
00000080: 0000 003f b02b ca3e fe55 d93e 62bf c73e
00000090: d91e c83e 84a3 bd3e 0000 003f 9fd1 fa3e
000000a0: 0000 003f c6a7 c23e 0000 003f af30 cb3e
000000b0: d262 c73e ca68 c93e 9590 ca3e 2633 b53e
000000c0: ce0a c83e 8c2e c53e 6669 c03e 0000 003f
000000d0: ebfd d53e 6962 ec3e 0f38 cc3e 81e1 cb3e
000000e0: 785d c73e 9c81 cc3e 099b da3e 92c9 c83e
000000f0: 9d57 c73e d64b c03e 0570 cb3e c7b9 e03e
00000100: 4697 c93e 19b2 c63e 2c78 d53e 2651 cc3e
00000110: a05b cb3e c76c cb3e 20d1 cb3e b21b c53e
0.4013602 0.37148818 0.3603048 0.38845032 0.5 0.38088062 0.49750674 0.39270923
0.49703568 0.4002414 0.38765132 0.39606395 0.38990766 0.38419074 0.4960008 0.3779006
0.48856613 0.39745727 0.5 0.39402857 0.39430755 0.39540845 0.39830375 0.36853367
0.4000267 0.41010207 0.33404863 0.5 0.5 0.48739097 0.5 0.3916613
0.5 0.39486456 0.4244842 0.390132 0.39086035 0.37038815 0.5 0.48988053
0.5 0.38018626 0.5 0.3968558 0.3894258 0.3933776 0.39563432 0.35390586
0.39070743 0.38512075 0.37580413 0.5 0.41795287 0.4616883 0.3988652 0.39820483
0.38938498 0.39942634 0.42696407 0.39216286 0.3893403 0.37557858 0.39733902 0.43891737
0.39373225 0.38807753 0.41693246 0.3990566 0.39718342 0.39731428 0.39807987 0.38497692

bn2.bias f4 [72]
00000000: 88b9 c0bd 1fc2 b7bd cdca bcbd 14e7 c9bd
00000010: ea64 82bd 73de c0bd 4e96 7cbd 1bf4 b5bd
00000020: c9f8 a5bd ff6f b9bd ef1d bcbd 5676 c9bd
00000030: 0f27 c3bd 5d78 d0bd 9fbe 99bd 4875 b4bd
00000040: c1ef 93bd 7bb2 d1bd eb53 87bd 5852 74bd
00000050: d911 b0bd baa5 ccbd 203a acbd f02a ccbd
00000060: cdc1 bebd 24f3 a1bd 0229 9bbd 44d6 a7bd
00000070: 13d5 84bd 805b 95bd a826 8cbd 3d35 b4bd
00000080: 5c37 9dbd 0d02 cebd 32a5 c2bd 05ba bcbd
00000090: b25b c1bd 48ae b5bd a39c 8bbd 98ce 97bd
000000a0: 2b62 93bd 3281 cebd a491 93bd ab83 4fbd
000000b0: 9dc0 b0bd 7b7d d4bd 0cc3 b5bd 434c a0bd
000000c0: bd69 d9bd b361 b6bd b6ad b0bd b5d8 bbbd
000000d0: 78b8 93bd 3c83 a2bd 6ff5 c5bd 43f7 b2bd
000000e0: a205 b9bd 2093 bebd 2fb8 b0bd 7830 cfbd
000000f0: 4039 c2bd 1cd1 cdbd 86f4 bbbd 7d10 b0bd
00000100: 7bbb bfbd d60e bcbd f54e 92bd 27a3 bebd
00000110: 0407 b9bd 0345 c7bd 919d 9fbd cecb c8bd
-0.09410387 -0.089725725 -0.09218369 -0.09858528 -0.06366904 -0.09417429 -0.06166678 -0.0888445
-0.08104093 -0.09054565 -0.09185397 -0.09837024 -0.09528934 -0.101792075 -0.07507061 -0.08811432
-0.07223464 -0.102391206 -0.06607803 -0.05964884 -0.08597154 -0.09992547 -0.08409524 -0.09969127
-0.09314308 -0.079077035 -0.07576181 -0.08195165 -0.06485953 -0.07292843 -0.068433106 -0.08799217
-0.076765746 -0.10058985 -0.09504165 -0.09215168 -0.094413176 -0.08871132 -0.068169855 -0.074124515
-0.071964584 -0.10083236 -0.07205513 -0.050662678 -0.08630488 -0.10375496 -0.08875093 -0.07827046
-0.10615871 -0.089053534 -0.08626883 -0.09172193 -0.07212919 -0.07935187 -0.09665953 -0.08738568
-0.090342775 -0.093054056 -0.0862888 -0.101166666 -0.09483576 -0.1004965 -0.091774985 -0.08596895
-0.09361931 -0.09182517 -0.07143966 -0.093084626 -0.09034541 -0.0972996 -0.07793725 -0.09804498

bn2.running_mean f4 [72]
00000000: 3a3f c63e e1bc 433e 499c 42bd 2384 0e3f
00000010: 1ced 9abe 22a5 e53e 01f9 88be 6ecb 183e
00000020: 275a 8abe f50e 883e 7609 cf3e b8d5 843e
00000030: 97eb f2bd 4378 1ebc 6ca0 8cbe 06ed 843e
00000040: 5b46 8fbe 5706 433c 1097 9bbe 6377 7bbe
00000050: c113 e2bd 6210 103f 48f0 a5be dfdd dabc
00000060: 07b5 af3e 35ed ce3d 48d6 8cbd 9dfd 9b3e
00000070: 20f4 9abe 5112 603e 38f5 8fbe 33b2 223d
00000080: 177c 91be 65ce 833e ef70 bc3e 54f9 fe3d
00000090: 7043 0abe 3a23 b1bc 3bd6 93be 03bf da3d
000000a0: decd 93be b0ce 053c bd9d 9bbe cf0e 7cbe
000000b0: 4034 f2bd 6094 ca3e 48f0 a5be 0d06 9abd
000000c0: 07b5 af3e ddff ac3d 7a69 01be 4a44 9a3e
000000d0: 2e5d 09bf 57ff 4e3e 806f 27bf 4efc 0abd
000000e0: 8aad 28bf 65ce 833e ef70 bc3e 9810 b83d
000000f0: 74a2 62be 9562 24bd 3f3f 2fbf 6bcc 763d
00000100: ceb1 1ebf 30dc b63b f013 0abf 2ced c0be
00000110: adfe 2bbe 6094 ca3e 9e37 acbe 8d79 3bbe
0.38720113 0.1911502 -0.047512326 0.55670375 -0.30259025 0.4485255 -0.26752475 0.14921352
-0.27021906 0.2657391 0.40436906 0.25944304 -0.118613414 -0.009672227 -0.27466142 0.25962085
-0.27983364 0.011903367 -0.3038869 -0.24557261 -0.11038924 0.56275 -0.32409883 -0.026717125
0.343178 0.101038374 -0.068768084 0.3046693 -0.30264378 0.21881987 -0.28116775 0.039720725
-0.28414986 0.25743404 0.36804911 0.12449899 -0.13502288 -0.021623243 -0.28874382 0.10680964
-0.28868002 0.008166954 -0.30393782 -0.24615024 -0.11826372 0.39566326 -0.32409883 -0.07520685
0.343178 0.084472395 -0.12637892 0.30130225 -0.53657806 0.20214592 -0.6540451 -0.033932023
-0.658898 0.25743404 0.36804911 0.0898754 -0.22132283 -0.040133078 -0.6845588 0.060253542
-0.6199006 0.0055804476 -0.5393667 -0.37680948 -0.1679637 0.39566326 -0.33636183 -0.18308087

bn2.running_var f4 [72]
00000000: 90ff 3d3d 5ef3 773e f7c6 2c3e 06a4 973e
00000010: 3358 963d 2d9a bf3e cc28 0c3e 2a11 a33e
00000020: 2442 0b3e a047 0e3d 8d8e 043d 1f02 9e3e
00000030: 292b 1b3e 7a26 023e cbf0 0a3e 971f b73e
00000040: 6853 f23d b4a3 a53d 7d2d 953d 0b54 b03d
00000050: 254c 023e ccdf ca3d 65e9 9d3c 2f13 693e
00000060: 584d d63c 5724 103e 93bf 0e3e 55e8 a73d
00000070: 5229 963d f4fa fb3d 7144 de3d 4dea 243e
00000080: 5ff3 da3d 61fc f33c 7180 963c dd80 133e
00000090: 371e 003e 6da7 e53d e710 d93d 201f 1d3e
000000a0: 960e cd3d ecf3 9c3d f500 953d 744f ae3d
000000b0: b06d ec3d c5ea bb3c 65e9 9d3c d81c 1a3e
000000c0: 584d d63c 367f 283e 7baf 533e 36c2 b43d
000000d0: 3404 803e 6ee9 1c3e 10c7 f83e c53b 8e3e
000000e0: d00b f83e 61fc f33c 7180 963c 69ea 4d3e
000000f0: 3c5d 623e 6148 093e 8d6d 013f 0f6a 6c3e
00000100: f1d8 d33e 992d a33d 240a 803e 71e1 453e
00000110: 8369 2b3e c5ea bb3c b6b5 cb3c 5031 963e
0.0463863 0.24213931 0.16872774 0.29617327 0.073410414 0.37422314 0.13687438 0.31849033
0.1359945 0.034736276 0.03236251 0.30860993 0.15153183 0.1270999 0.13568418 0.3576629
0.11832315 0.080878645 0.07284067 0.0860978 0.1272436 0.09905967 0.01927633 0.22761224
0.026159927 0.14076363 0.13940267 0.08198611 0.073321 0.12303725 0.10852898 0.16105004
0.106909506 0.02978343 0.018371793 0.14404626 0.12511526 0.112135746 0.10598927 0.15343904
0.10012548 0.07663712 0.07275573 0.08511248 0.11544359 0.022939095 0.01927633 0.15050066
0.026159927 0.16454777 0.20672409 0.08826105 0.25003207 0.15323421 0.48589373 0.27779976
0.48446512 0.02978343 0.018371793 0.20108952 0.22105879 0.13406517 0.50557786 0.23087333
0.4137645 0.079676814 0.25007737 0.1932428 0.16739468 0.022939095 0.02486692 0.29334497

mlp3.weight f4 [24, 72]
00000000: 0000 0000 0000 0000 0000 0000 0000 0000
00000010: 0000 0000 0000 0000 0000 0000 0000 0000
00000020: 0000 0000 0000 0000 0000 0000 0000 0000
00000030: 0000 0000 0000 0000 0000 0000 0000 0000
00000040: 0000 0000 0000 0000 0000 0000 0000 0000
00000050: 0000 0000 0000 0000 0000 0000 0000 0000
00000060: 22c8 983d 6f43 2a3c ca4e 1d3e b903 0a3e
00000070: 8428 043e d631 0c3e 3f9b 333e 69c8 213e
00000080: 9703 293e 4b00 083e dfb6 2a3e ae80 173e
00000090: d4ae 253e 62b2 2d3e da6f 523e 22da 0b3e
000000a0: b52f 223e d894 263e 94a9 5c3e 0045 f23d
000000b0: 1ef8 dc3d c1dc 373e 525b 3a3e 9e23 4d3e
000000c0: 1e3e f43a 32b4 093b 80a8 763b 0974 6b3b
000000d0: e6dc 893b 6b7f 673b fecd 413b c8c1 823b
000000e0: 0475 563b 4d81 823b 704b 643b 4daf 1f3b
000000f0: 9e46 693b f200 4d3b 3ae6 753b 24a0 543b
00000100: 5e87 483b 4a60 883b 588f 903b 76a3 8c3b
00000110: 0068 7a3b 2744 893b 6854 9a3b 1d90 813b
00000120: 0000 0000 0000 0000 0000 0000 0000 0000
00000130: 0000 0000 0000 0000 0000 0000 0000 0000
00000140: 0000 0000 0000 0000 0000 0000 0000 0000
00000150: 0000 0000 0000 0000 0000 0000 0000 0000
00000160: 0000 0000 0000 0000 0000 0000 0000 0000
00000170: 0000 0000 0000 0000 0000 0000 0000 0000
00000180: 2172 5f3d 0863 5d3d 6b1e 133e e28f 353e
00000190: 3f45 503e 43dd 133e 6c3a d83d 8bd1 0e3e
000001a0: 57f5 423e 1703 0e3e e50d 273e 1044 2e3e
000001b0: be9b ca3d 7ebb b43d 1e24 f03d 1c0e 543e
000001c0: ade5 c03d a5da 4b3e 13ad 763e c511 343e
000001d0: 498f 183e 0ddf 6d3e b875 643e 3ee3 263e
000001e0: ae2b d23b 7a37 273c e10e 413c 055c 3d3c
000001f0: 74fa 903c 9f09 da3c d7b2 203c b146 4b3c
00000200: ef6d 2b3c 5f6e 513c 3248 333c 5e25 ff3b
00000210: c252 393c fece 2a3c 99ec 473c 7b68 2f3c
00000220: e500 1d3c 56b9 543c aa0f 623c 2d79 593c
00000230: 6e6c 4a3c 2b36 543c e70d 753c b6ce 5b3c
00000240: fa9f 2f3c 0000 0000 0000 0000 0000 0000
00000250: 0000 0000 0000 0000 850d d43b 0000 0000
00000260: 0000 0000 0000 0000 0000 0000 0000 0000
00000270: 0000 0000 0000 0000 0000 0000 0000 0000
00000280: 0000 0000 7447 7a3c eeac 7a3c e09f fb3b
00000290: ed23 6d3b 0000 0000 0000 0000 0000 0000
000002a0: 2f35 8b3d 19a7 553c 813d 2e3e d001 253e
000002b0: 9b30 2b3e 4c4d a13d dd9c 083e efcd f63d
000002c0: de83 303e 5297 e33d f1e1 223e 4d98 053e
000002d0: dacb 463e 29bc 073e 6fdf e73d 36ce 013e
000002e0: fc2a a93d 2d4c 183e b1b8 a53d 3f91 2e3e
000002f0: 0a2a 003e ebf7 4a3e 5c8e 263e 3eff 183e
00000300: 8d77 1739 d0c8 1639 0957 9138 002f fb38
00000310: 5384 e938 9c2f a538 110a 4b38 ceaf c838
00000320: 1b0f a938 d958 0039 0ea1 0139 f4ac b038
00000330: a141 eb38 40e6 cb38 a24c b838 77e9 e438
00000340: c06f e638 3654 c038 b683 8d38 7cae c438
00000350: 3449 7138 a1ca a538 dfe7 de38 02ee 0539
00000360: 0000 0000 0000 0000 0000 0000 0000 0000
00000370: 0000 0000 0000 0000 0000 0000 0000 0000
00000380: 0000 0000 0000 0000 0000 0000 0000 0000
00000390: 0000 0000 0000 0000 0000 0000 0000 0000
000003a0: 0000 0000 0000 0000 0000 0000 0000 0000
000003b0: 0000 0000 0000 0000 0000 0000 0000 0000
000003c0: 90b7 873d 1f30 363c b239 163e 6c10 653e
000003d0: cbd0 4d3e 9e01 1b3e e11e fd3d 41ea 233e
000003e0: 90ff 4f3e 8b6b 5c3e 7028 283e f841 033e
000003f0: 87e2 fd3d 942f 043e b514 5a3e 2097 143e
0.0 0.0 0.0 0.0 0.0 0.0 0.0 0.0
0.0 0.0 0.0 0.0 0.0 0.0 0.0 0.0
0.0 0.0 0.0 0.0 0.0 0.0 0.0 0.0
0.07460047 0.010392054 0.15362087 0.13477983 0.1290608 0.13690886 0.1753969 0.15799107
0.16505276 0.13281362 0.16671322 0.14795181 0.16179973 0.16962579 0.2055048 0.1365743
0.15838511 0.16267717 0.21549064 0.11829567 0.10789512 0.17955305 0.18198898 0.20033118
0.0018634235 0.0021011946 0.0037637055 0.0035927317 0.0042072413 0.003532375 0.0029572244 0.0039903857
0.0032723555 0.003982699 0.0034835003 0.0024365962 0.003559507 0.003128108 0.003752126 0.0032444084
0.0030598263 0.004161869 0.004411619 0.004291947 0.0038208961 0.0041890326 0.004709769 0.003953947
0.0 0.0 0.0 0.0 0.0 0.0 0.0 0.0
0.0 0.0 0.0 0.0 0.0 0.0 0.0 0.0
0.0 0.0 0.0 0.0 0.0 0.0 0.0 0.0
0.0545522 0.05404952 0.14367072 0.17730668 0.20338915 0.14439873 0.10558018 0.13947122
0.19038902 0.13868366 0.16313894 0.17018151 0.09892987 0.08824824 0.11725639 0.20708507
0.09418807 0.19907625 0.2408946 0.17584904 0.14898409 0.23229618 0.22310531 0.16297624
0.0064138984 0.010206098 0.011783333 0.011557584 0.01769755 0.026615916 0.009808264 0.012406991
0.010463222 0.012782662 0.010942506 0.007786437 0.011311235 0.010425327 0.012202405 0.010706062
0.009582733 0.012983641 0.01379768 0.013273519 0.012354953 0.012952368 0.014956928 0.013415983
0.010719294 0.0 0.0 0.0 0.0 0.0 0.006471338 0.0
0.0 0.0 0.0 0.0 0.0 0.0 0.0 0.0
0.0 0.015275825 0.015300019 0.0076789707 0.0036184744 0.0 0.0 0.0
0.06797253 0.0130403275 0.1701565 0.16113973 0.1671776 0.07876071 0.13341089 0.120509975
0.17237803 0.111128464 0.15906502 0.1304638 0.194137 0.13255371 0.113219135 0.1267632
0.08260152 0.14872809 0.08091868 0.17047594 0.12516037 0.19821136 0.16265243 0.14941117
0.00014445018 0.00014379923 6.93035e-05 0.00011977367 0.00011134953 7.876681e-05 4.8408347e-05 9.569489e-05
8.0613616e-05 0.0001224013 0.00012362396 8.424549e-05 0.000112178976 9.722682e-05 8.788078e-05 0.000109153734
0.0001098807 9.170959e-05 6.747937e-05 9.3785085e-05 5.7527053e-05 7.905556e-05 0.00010628974 0.00012772533
0.0 0.0 0.0 0.0 0.0 0.0 0.0 0.0
0.0 0.0 0.0 0.0 0.0 0.0 0.0 0.0
0.0 0.0 0.0 0.0 0.0 0.0 0.0 0.0
0.06626809 0.011119871 0.14670447 0.22369546 0.2009918 0.15137336 0.12359405 0.1600733
0.20312333 0.215254 0.16421676 0.12818134 0.12396722 0.12908775 0.21296962 0.14510775

mlp3.bias f4 [24]
00000000: 4a49 c83d 3e51 fd3d 3d2c 61be b939 983d
00000010: 9c7c 9f3d 691f c63d 9d31 073e 08b1 5e3d
00000020: 2f9a 3a3d d16f 003e de8c 0a3e 6ddc 693d
00000030: 6c92 ee3d d09b bb3d a202 04bb 1089 143d
00000040: 3228 f83d ed59 cf3b 1a67 183e f630 0b3e
00000050: ccb5 1c3e eec2 173e 1ba9 203e 8ada b33d
0.09779604 0.12369011 -0.21989532 0.07432885 0.07787439 0.0967396 0.1320252 0.05436805
0.045557197 0.12542655 0.13530299 0.05709498 0.116490215 0.09160578 -0.002014317 0.036263525
0.12117042 0.0063278587 0.1488308 0.13592896 0.15303725 0.14820454 0.15689509 0.087819174

bn3.weight f4 [72]
00000000: d639 b43e 461c b73e 471c b73e a1b2 b63e
00000010: 5bee ba3e 7807 b73e 5bb9 b33e 7ab6 b33e
00000020: 3067 b73e 0249 b63e eaf7 b63e ddf1 b43e
00000030: 4455 b73e a9bd b63e 535a b63e 5446 b93e
00000040: 16bd b63e ce97 b03e 9420 b63e 7a37 b83e
00000050: 70e6 b93e f7e5 b73e 5fbb b53e 520e b73e
00000060: 6a42 eb3e 3f90 d63e 0000 003f 0000 003f
00000070: 0000 003f 0000 003f 0000 003f 0000 003f
00000080: 0000 003f 0000 003f 0000 003f 0000 003f
00000090: 0000 003f 0000 003f 0000 003f 0000 003f
000000a0: 0000 003f 0000 003f 0000 003f 0000 003f
000000b0: 0000 003f 0000 003f 0000 003f 0000 003f
000000c0: 9ca7 d03e 2847 d53e e0e8 e53e cf5f ed3e
000000d0: e34f ea3e 42dd e93e e9ba ef3e 0ae0 e53e
000000e0: 3580 e23e 7df0 e23e c54b da3e 63d1 d83e
000000f0: b817 ea3e 95c3 e33e 80fc dd3e 7c75 df3e
00000100: 0f5c e23e d5ae ec3e 64ea f43e 986b e63e
00000110: e10c fa3e 392f f83e c821 e33e 3754 e93e
0.35200375 0.35763758 0.3576376 0.35683158 0.36509976 0.35747886 0.35102352 0.35100156
0.35820913 0.35602576 0.35736018 0.35340777 0.3580724 0.35691574 0.35615787 0.3618647
0.35691136 0.34490818 0.3557173 0.35979825 0.36308622 0.35917637 0.35494515 0.35753113
0.45949107 0.41906926 0.5 0.5 0.5 0.5 0.5 0.5
0.5 0.5 0.5 0.5 0.5 0.5 0.5 0.5
0.5 0.5 0.5 0.5 0.5 0.5 0.5 0.5
0.40752876 0.4165585 0.44904232 0.4636216 0.45764074 0.4567662 0.4682229 0.4489749
0.4423844 0.44324103 0.42635933 0.4234725 0.4572122 0.44485155 0.43356705 0.4364432
0.4421086 0.46227136 0.47835076 0.45003963 0.4883795 0.48473528 0.4436171 0.45572063

bn3.bias f4 [72]
00000000: 2929 c33d 1b15 be3d 5cc2 c13d 1c45 cd3d
00000010: a649 be3d cd9d b63d db92 b53d e734 c13d
00000020: 2c9a b73d e432 cd3d 0c3d c53d 70d2 b33d
00000030: 6783 c73d ad56 c63d 33b6 ca3d 5275 bf3d
00000040: e2c8 c83d 13b9 ce3d b6ce bf3d e995 b73d
00000050: 6b43 a83d 4423 be3d 24d1 c63d 93de ba3d
00000060: 3fe5 0a3e f913 0d3e 939c 093e 049b 0b3e
00000070: e176 0c3e 4608 073e 396c 073e a506 0f3e
00000080: a796 0a3e b2e1 0f3e ca89 113e f4ca 083e
00000090: de62 0c3e 3185 0f3e 20a0 093e bde0 0b3e
000000a0: 82f0 0b3e b742 0f3e 6ac4 073e 0207 0d3e
000000b0: a2eb 0b3e 75df 063e 5a67 0a3e 8bac 0c3e
000000c0: 317b bf3d 86ca c03d 1019 a93d 3941 c83d
000000d0: 6942 be3d bb27 be3d c90c b23d 6561 c13d
000000e0: e544 b03d f3a5 be3d 2819 d53d e210 bf3d
000000f0: 1f2e bf3d 04c9 c13d 7b49 d03d f38e c73d
00000100: 8232 ab3d 43a7 be3d 8f40 b43d bd00 d43d
00000110: fbd3 ad3d 0906 ae3d 1533 d43d 2989 c83d
0.09529335 0.09281369 0.09460899 0.10022947 0.09291391 0.08916817 0.08865901 0.094339184
0.08964953 0.10019472 0.096307844 0.08780372 0.0974186 0.09684501 0.09898033 0.09348549
0.0980394 0.10093894 0.09365599 0.0896414 0.08215984 0.0928407 0.09707859 0.09124484
0.13564013 0.1377715 0.13438635 0.13633353 0.13717224 0.1318675 0.13224877 0.13967378
0.13534032 0.1405094 0.14212719 0.1335867 0.1370959 0.14015652 0.13439989 0.1365995
0.13665965 0.13990293 0.1325852 0.13772205 0.13664106 0.1317118 0.13515988 0.13737695
0.09349669 0.09413628 0.082567334 0.09778065 0.092900105 0.09284922 0.08693845 0.09442405
0.086068906 0.09308996 0.10405189 0.09329392 0.09334969 0.09462169 0.10170265 0.09744062
0.08359243 0.093092464 0.08801376 0.10351703 0.08487698 0.08497245 0.103613056 0.09791786

bn3.running_mean f4 [72]
00000000: 0643 d13c 8921 c43c d4e9 bc3c 2a9c a23c
00000010: b469 b73c c1a8 c53c 7b47 d33c c84f 993c
00000020: 9ee8 c33c ea12 a73c 751c aa3c d1e0 dc3c
00000030: d673 a53c 370f cd3c 79d2 c13c f146 e43c
00000040: d83f c03c 8b2e aa3c cd9d b33c 6cb3 ae3c
00000050: 4f95 de3c ac6b cd3c 0fbd b73c 8402 a83c
00000060: 6049 dabd 6c7a cbbd 5f0c 05be 2f96 08be
00000070: 5f9f 07be b66a 05be 0682 f7bd 3b4b 09be
00000080: 1c33 f7bd f1c2 04be 94b0 fcbd f6cd e2bd
00000090: cc69 03be 2ffa edbd f98a 08be 2036 08be
000000a0: 8671 ebbd 1e13 08be 81dc 03be a0a5 0dbe
000000b0: 307a 0cbe e78e 08be 6948 09be fa06 08be
000000c0: 6258 98be c7a2 8dbe 096f c7be 7904 e4be
000000d0: 9e9c e5be cc2d c9be 521e 9fbe 1a87 debe
000000e0: 5bba b5be d438 dbbe 0d30 c6be 074f 9cbe
000000f0: 0c89 d2be 6fbb a6be d864 cebe 1a92 d5be
00000100: 4735 b1be 0735 d1be 9557 c2be fd17 e6be
00000110: 82d0 d3be 86dd dbbe 7f14 dbbe 7985 e3be
0.025544655 0.023941772 0.023060717 0.019849855 0.02238927 0.02412832 0.02579092 0.0187148
0.023914631 0.020394761 0.020765522 0.02696267 0.020196836 0.025031669 0.023659931 0.027865859
0.023467943 0.020774147 0.021925831 0.02132579 0.027170805 0.025075756 0.022429017 0.020509012
-0.106585264 -0.099354595 -0.12993 -0.1333854 -0.13244389 -0.13028988 -0.12085347 -0.13407604
-0.12070295 -0.12964989 -0.12338367 -0.1107444 -0.12833327 -0.11619984 -0.13334264 -0.13301897
-0.11496262 -0.13288543 -0.12877084 -0.13832712 -0.13718486 -0.13335763 -0.13406529 -0.13283911
-0.2975493 -0.27663252 -0.389519 -0.44534662 -0.44846052 -0.39292753 -0.3107782 -0.4346245
-0.3549374 -0.42816794 -0.38708535 -0.30529043 -0.41120183 -0.32564875 -0.40311313 -0.4171303
-0.3461096 -0.4086077 -0.37957445 -0.44940177 -0.41370016 -0.42942446 -0.42789075 -0.4443777

bn3.running_var f4 [72]
00000000: 0ff0 e43e 5c9b d63e 0e48 043f f63a 053f
00000010: 07bd 063f ddaf 053f 8e9d fc3e 5981 043f
00000020: a764 fa3e 4aa8 023f df12 fb3e a2df ed3e
00000030: b7f3 003f b023 f43e fad0 073f ddbf 0b3f
00000040: b37a f03e eef8 043f b778 023f 78c5 0a3f
00000050: 3200 0f3f 6e45 093f 9f01 083f 4fb7 053f
00000060: c897 3c3e 2f17 3c3e d912 3e3e 38f9 3e3e
00000070: eaba 3e3e 248c 3e3e 4ff5 3c3e 32a8 3e3e
00000080: 8791 3d3e 41e3 3e3e 81db 3d3e d19a 3c3e
00000090: cf73 3e3e 2c34 3d3e d9ab 3e3e 26ce 3e3e
000000a0: 1e47 3d3e 8d9b 3e3e 070d 3e3e 49de 3e3e
000000b0: d6b4 3e3e dd1f 3f3e 9ec8 3e3e 33e4 3e3e
000000c0: 5d08 d33e 4808 cc3e 40fe fc3e e9a6 143f
000000d0: 43a3 183f 9a51 fd3e b95f c83e 7cde 0e3f
000000e0: d6ee ee3e 7812 103f 83ef 033f ef43 d63e
000000f0: 2c18 0a3f 5087 dc3e cbba ff3e 9936 073f
00000100: d77a f23e dd05 033f 9854 f43e 949f 103f
00000110: 82d0 003f 08cc 0c3f 0543 0b3f 17ba 143f
0.447144 0.41915405 0.51672447 0.5204309 0.5263218 0.5222147 0.49338955 0.5175987
0.48904917 0.5103804 0.49037835 0.4645968 0.5037188 0.47683477 0.5305325 0.54589635
0.46968612 0.51942337 0.50965446 0.54207563 0.55859673 0.53621566 0.53127474 0.5223283
0.18417275 0.18368219 0.18561877 0.18649757 0.1862599 0.18608147 0.18452953 0.18618849
0.18512546 0.18641378 0.18540765 0.18418433 0.18598865 0.18476933 0.18620242 0.18633327
0.1848416 0.18614025 0.18559657 0.18639483 0.18623671 0.18664499 0.18631217 0.18641739
0.41217318 0.39850068 0.49412727 0.58067185 0.5962412 0.4947632 0.3913553 0.55808234
0.46666592 0.5627818 0.5153734 0.41848704 0.53943133 0.43071985 0.499472 0.52817684
0.47359344 0.5118082 0.4772079 0.56493497 0.5031816 0.54998827 0.5439914 0.5809645

mlp4.weight f4 [1, 72]
00000000: fc72 e23d ca23 d93d 0000 0000 d9a4 643e
00000010: 4d0d 5d3e cbc3 3a3e e590 353e 5c0c 443e
00000020: b4ba 603e edbf 563e 79fe bd3c 5396 3e3e
00000030: 44df 7a3e 745e 303e 0000 0000 0000 0000
00000040: 9ad7 663e d806 383e 8f93 743e 0000 0000
00000050: 6d5c 923c d569 d23d 662f 373e 0a27 683e
00000060: b576 a43d a7dc c23d 14fb a43d 378d 9e3d
00000070: 5111 c03d 9e28 533e 22ab fe3d 5ad2 633e
00000080: 59a0 733e 533b 243e c92f 1c3e 6645 533e
00000090: 0852 513e 9f6f 363e 85d5 363c 3959 903d
000000a0: 36e8 ab3d b0cb 5f3e 6d94 363e a6aa 0a3e
000000b0: ff7e 0d3e cee0 0a3e b7b7 2e3e fbfc 1d3e
000000c0: 0000 0000 0000 0000 0000 0000 0000 0000
000000d0: 0000 0000 0000 0000 0000 0000 0000 0000
000000e0: 0000 0000 0000 0000 0000 0000 0000 0000
000000f0: 0000 0000 0000 0000 0000 0000 0000 0000
00000100: 0000 0000 0000 0000 0000 0000 0000 0000
00000110: 0000 0000 0000 0000 0000 0000 0000 0000
0.11057088 0.10602529 0.0 0.2232851 0.21587105 0.18238752 0.17731054 0.1914534
0.21946222 0.20971651 0.023192631 0.18612032 0.24499232 0.17223531 0.0 0.0
0.22543183 0.1797136 0.23884414 0.0 0.017866338 0.10274092 0.17889175 0.22671142
0.08030454 0.09514742 0.08055702 0.07741778 0.09378303 0.20620963 0.12434985 0.22248212
0.23791637 0.16038255 0.15252604 0.20631942 0.20441449 0.17816018 0.011159305 0.07048268
0.083939 0.21855044 0.17830057 0.1354166 0.13817976 0.13562319 0.17062269 0.15428536
0.0 0.0 0.0 0.0 0.0 0.0 0.0 0.0
0.0 0.0 0.0 0.0 0.0 0.0 0.0 0.0
0.0 0.0 0.0 0.0 0.0 0.0 0.0 0.0
