utility-model-selected/dim-3/utility-19.pt (torch, 23458 bytes, 17 tensors)

bn1.running_mean f4 [3]
00000000: e282 003f df04 003f 3b6e ff3e
0.5019971 0.5000743 0.49888787

bn1.running_var f4 [3]
00000000: 1e52 673d 2814 5c3d cfad 583d
0.056474797 0.05373016 0.05290013

mlp1.weight f4 [24, 3]
00000000: 56f8 b23e 2fd7 f53e 752f eb3e 7f38 e73e
00000010: 0000 0000 1cab da3e 1c69 893e 8a97 e13e
00000020: ff26 163e 337c f33e db37 ed3d b5d8 de3e
00000030: 0000 003f 6bc2 223e 0000 0000 951c f43e
00000040: f343 d83e 1a25 8b3e 955d fc3e b52b 483e
00000050: 342a b33b 2659 4a3e 0533 b93e 1f2c 8c3e
00000060: 2e3f a73e 38a2 323e dbfb ff3e 8afe 2c3e
00000070: f8cb dd3e 60ee 7a3e d1d7 a03e 986c bd3e
00000080: 5ccd 343e 52d1 713e 6526 e93d 3d97 f73e
00000090: 555e 8e3e 5a28 993e 6072 dc3e 3e14 a93c
000000a0: cc8a 983e 0000 003f 8b6a 0c3d 0000 003f
000000b0: 08f3 f23e 197f c33d 0000 003f 6b59 6b3d
000000c0: 251e 7a3e 1960 f43e 9eb0 453d b590 ff3e
000000d0: af83 c93e 0000 0000 f721 a83d e1af b63e
000000e0: 8444 8c3e 6916 203e 0039 4a3e 7118 f63e
000000f0: cbf1 fc3e 0000 0000 84cf fc3e 40ce bc3e
00000100: be36 c33e eae1 e83d c9a2 dd3e e883 e43e
00000110: 3876 353d 0000 003f ba94 f83e bf40 cd3e
0.3495509 0.48015735 0.45934644 0.4516029 0.0 0.4270867 0.26838005 0.44060928
0.14663313 0.47555694 0.11582919 0.4352471 0.5 0.15894477 0.0 0.47678056
0.4223934 0.27176744 0.49290147 0.19547923 0.0054676775 0.1976057 0.36171737 0.27377412
0.3266539 0.17444694 0.49996838 0.16893974 0.43319678 0.24504995 0.31414655 0.36996913
0.17656463 0.23615006 0.11384276 0.48357573 0.27806345 0.29913598 0.4305601 0.020639535
0.29793394 0.5 0.034281295 0.5 0.47451043 0.09545726 0.5 0.057458322
0.24425562 0.47729567 0.04826414 0.4991509 0.3935828 0.0 0.08209603 0.3568106
0.27396023 0.15633549 0.19748306 0.48065522 0.49403223 0.0 0.49377072 0.36876106
0.38127702 0.11371215 0.43288258 0.44631886 0.044302195 0.5 0.4855097 0.4008846

mlp1.bias f4 [24]
00000000: bc0a 2dbd eb80 2ebe e2e9 283d 4e0e bf3c
00000010: bc76 f0bd 8b22 743e cf1a ce3e 874d 93bd
00000020: 973b 093f b19c c33e ae57 323e d077 e83e
00000030: 660a acbe 7ba3 d13e d491 353e 1f17 9cbe
00000040: b34f 413e 7b82 1a3e aed1 b13e 502f 163f
00000050: e307 1c3e 617a 9b3e 4550 803e 72eb 853e
-0.042246565 -0.17041366 0.041238673 0.02332225 -0.11741397 0.23841302 0.40254828 -0.071925215
0.5360655 0.38205484 0.1741626 0.4540391 -0.33601683 0.40945038 0.1773141 -0.3048639
0.18878059 0.15088837 0.34730285 0.58665943 0.15237384 0.30366805 0.2506124 0.26156193

mlp2.weight f4 [24, 72]
00000000: 0000 0000 eff4 783d 0000 0000 6920 643d
00000010: 88c9 2d3c 99c6 283c 5d6d f23c 038a 473c
00000020: 0000 0000 0000 0000 0000 0000 0000 0000
00000030: a995 1038 0000 0000 0000 0000 f69f 553d
00000040: f39a 303c 254f 0e3c 0000 0000 0000 0000
00000050: 90ad 843b 3c00 bd3b 9375 c63c 0000 0000
00000060: 0000 0000 f835 9c3d 0889 5f3d 6379 143e
00000070: ab44 943c b311 363e 8b5c 7a3d ff63 cc3c
00000080: e651 db3d 95ae 343d b95c 683d 5ee8 453e
00000090: 0000 0000 4724 d63d 640a 083e 4294 c43d
000000a0: 5756 1a3d 546a dc3d 6fb9 023d b454 e43d
000000b0: 41c4 3e3d b74c 1e3a 2772 043e 7f6c 293e
000000c0: 0000 0000 dc42 423c 0000 0000 5eb8 513d
000000d0: f8a9 f83d 0000 0000 f606 e03d 0000 0000
000000e0: 4867 573d 3022 9c3d 0000 0000 cd59 1c3e
000000f0: 0000 0000 8fbd 423d 9c9e 143d 0000 0000
00000100: fd01 f03c f185 963d 5a24 fe3c 14b5 b73d
00000110: cdc1 a23a 0d51 563a 615f 893d 0000 0000
00000120: 0000 0000 5ae5 cd3d 5bcc b33c 2a3a 623d
00000130: beb0 2c3c 0000 0000 4b5a 743c 0000 0000
00000140: 0000 0000 0000 0000 0000 0000 0000 0000
00000150: 0000 0000 0000 0000 9fad 153c 28a4 383e
00000160: 1b23 ea3b 2514 a63c 0000 0000 0000 0000
00000170: 699c 753b 0000 0000 6812 c23a 0000 0000
00000180: 0000 0000 d2a2 233e 64cd 903d 6c71 283e
00000190: 4ebb d53d d9be 8f3d 6638 193d fd45 aa3c
000001a0: dad6 a23d 4ff7 883d bf23 223d 3b43 d13d
000001b0: 0000 0000 6d6a a93d 9cbb fe3d 5e42 323e
000001c0: 18a0 853d dc5b 713d b745 463c c32f 073e
000001d0: 8514 993d 2743 773c 10bb 333e f571 283e
000001e0: 0000 0000 5d65 263d 0000 0000 0000 0000
000001f0: 3e42 ab3d 0000 0000 cc14 903c 0000 0000
00000200: 8173 563c db1f eb3c 0000 0000 1170 523d
00000210: 0000 0000 35b5 0d3c cc9c 693c 0000 0000
00000220: fc15 653d ab7f 8f3d 4fd5 7b3c 133a 923d
00000230: 8463 a239 9162 833d f164 d13d 0000 0000
00000240: 0000 0000 8d6f b13d 94c3 b13c 18a1 953d
00000250: e3bb 933c fec1 903c c6ed 6b3d 0000 0000
00000260: 0000 0000 0000 0000 0000 0000 0000 0000
00000270: 0000 0000 0000 0000 06dd ee3c c5bc 093e
00000280: d68d 1f3d 35c6 b33b 0000 0000 0000 0000
00000290: 1995 b73c f71a c93b 201b d73b 0000 0000
000002a0: bdaa 0b3d b550 e83d 0000 0000 68a5 be3d
000002b0: aa1c 803d 1140 933d 0a23 c53c 773c e73b
000002c0: d062 603d cbe7 753d baf7 1e3d 8cd0 0b3e
000002d0: 0000 0000 2176 e93d 5cc6 bd3d 05c0 203e
000002e0: 93c8 873d 89d2 0e3e 702f 5d3d 9da8 a33c
000002f0: 60d9 fc3d 87e5 cb3b 9340 a43d dd63 ec3d
00000300: 0000 0000 0341 d23c 0000 0000 0480 de3c
00000310: 11b7 7e3d 0000 0000 0000 0000 0000 0000
00000320: 73c5 2d3c a598 d83c af41 c53a c57f e93c
00000330: 0000 0000 7830 fb3c d84d 013d 0000 0000
00000340: 516a 803d 62c1 ed3d 5395 053d 00ef e13c
00000350: 6bd6 df3c 0000 0000 0400 b33d 0000 0000
00000360: 0000 0000 bc31 6e3d 23d0 273c dc15 743d
00000370: cf3f 283d 83d1 9c3a 9fc1 023d 0000 0000
00000380: 0000 0000 0000 0000 5fde 163a 0000 0000
00000390: d5bd d33a 0000 0000 0000 0000 0103 9d3d
000003a0: 0d6e fb3c 3a6c 193c 0000 0000 cbf6 cc3a
000003b0: 0000 0000 89c3 223c 0ba0 233d 7b36 b839
000003c0: 4fad 8d3d 7e17 ae3d 0000 0000 7197 9b3d
000003d0: 8b74 a73d b7d2 313e 146e ed3d 0000 0000
000003e0: 8b48 743d 1279 5a3d a4c4 c53d 9d3d 573e
000003f0: 3d0d bf3a 4868 e93d 2973 ed3d e372 803d
0.0 0.060780462 0.0 0.05569497 0.010607131 0.010301256 0.029593164 0.012178901
0.0 0.0 0.0 0.0 3.4471657e-05 0.0 0.0 0.052154504
0.01077913 0.008685862 0.0 0.0 0.0040490106 0.00576785 0.024225986 0.0
0.0 0.07627481 0.054574043 0.1449943 0.01809915 0.17780189 0.061123412 0.024950026
0.1070898 0.044111807 0.056729052 0.19326922 0.0 0.10456138 0.13285214 0.095985904
0.037679996 0.10762468 0.031915125 0.11148968 0.04657388 0.0006038653 0.1293417 0.16545294
0.0 0.011856761 0.0 0.051201217 0.12141794 0.0 0.10938828 0.0
0.05258873 0.07623708 0.0 0.15268631 0.0 0.04754406 0.036284074 0.0
0.029297823 0.07349766 0.031023193 0.08970085 0.0012417376 0.00081755297 0.06707645 0.0
0.0 0.10053511 0.02194803 0.05523125 0.0105401855 0.0 0.014914106 0.0
0.0 0.0 0.0 0.0 0.0 0.0 0.009135633 0.1803137
0.007145298 0.020273278 0.0 0.0 0.003747726 0.0 0.0014806511 0.0
0.0 0.1598008 0.07070425 0.16449517 0.10436116 0.07018823 0.0374073 0.020785326
0.07951136 0.06687795 0.03958487 0.10217901 0.0 0.08272252 0.124381274 0.1740813
0.06524676 0.058925495 0.012101582 0.13201813 0.07474617 0.015091694 0.17551827 0.16449721
0.0 0.04062401 0.0 0.0 0.08362244 0.0 0.017588042 0.0
0.013089062 0.028701713 0.0 0.051376406 0.0 0.00864916 0.014258575 0.0
0.05592917 0.070067726 0.015370681 0.07139983 0.00030973193 0.064152844 0.10224331 0.0
0.0 0.08663855 0.021699704 0.07306117 0.018033927 0.017670628 0.057599805 0.0
0.0 0.0 0.0 0.0 0.0 0.0 0.029158127 0.13450916
0.038953625 0.0054862746 0.0 0.0 0.022409962 0.0061372477 0.006564513 0.0
0.034098376 0.11343519 0.0 0.093088925 0.06255467 0.07189954 0.02406456 0.0070567685
0.054781735 0.060035508 0.03881047 0.13653773 0.0 0.113994844 0.0926635 0.1569825
0.06630053 0.139475 0.054000318 0.019977862 0.123461485 0.00622243 0.08020129 0.11542485
0.0 0.025665766 0.0 0.027160652 0.062186304 0.0 0.0 0.0
0.010606158 0.026439974 0.0015049482 0.028503308 0.0 0.03066276 0.03156838 0.0
0.06270278 0.116091505 0.03261311 0.027579784 0.027323922 0.0 0.08740237 0.0
0.0 0.0581529 0.010242495 0.05959116 0.041076478 0.0011964295 0.031922933 0.0
0.0 0.0 0.0005755182 0.0 0.0016154597 0.0 0.0 0.076665886
0.030692125 0.009364182 0.0 0.0015637515 0.0 0.0099343145 0.03994755 0.00035135806
0.069178216 0.085005745 0.0 0.075972445 0.08176526 0.17365538 0.11593261 0.0
0.059639495 0.053338118 0.09656647 0.21019597 0.0014576089 0.11396843 0.11594231 0.06271913

mlp2.bias f4 [24]
00000000: 5110 afbd c8b0 8c3d 306f be3c 3944 94bd
00000010: 40fc a33d 2478 b43c 12c1 953d 87bb a93d
00000020: ab2a 963d 8997 62bd 3462 83be 54cc d23d
00000030: bd5f 8e3d f6fc dd3d b888 d13d 4d46 573d
00000040: 6ca4 ac3b 5516 ffbc 2123 493d 22c4 a33d
00000050: fe03 ef3c 7eb2 f23c 9301 933d 48d0 54bc
-0.08548034 0.06869656 0.023246378 -0.07239575 0.08007097 0.022029944 0.07312216 0.08287721
0.07332357 -0.055320296 -0.2566086 0.10292879 0.069518544 0.10839264 0.10231155 0.05255728
0.005268624 -0.031138578 0.049105767 0.07996394 0.029176708 0.029626127 0.07178035 -0.012989111

bn2.weight f4 [72]
00000000: 70a8 d33e 91b1 ff3e 4824 d63e 78a5 ee3e
00000010: bee0 d93e a44b cf3e cb33 e53e ac5e d63e
00000020: ebf2 c93e c124 d43e 10cf d43e 749e c33e
00000030: 91cd e23e 0891 d13e 9899 d43e 0000 003f
00000040: 1937 d63e a43e d93e 6951 d53e 831f cd3e
00000050: df3e c63e 320e cb3e 392e d83e 2da9 cf3e
00000060: 816a e53e 03dc ff3e 9d48 e43e de1c ff3e
00000070: d1ea f03e 4ba8 ed3e 6852 de3e b1ce d73e
00000080: 5d0d e83e c86d fa3e 7239 e73e 0000 003f
00000090: 2b2d e13e 0000 003f 0000 003f 0000 003f
000000a0: 28d3 f83e 0000 003f e470 d33e 214f f23e
000000b0: b3b1 f83e fdb9 f03e 0000 003f 400c e23e
000000c0: 86a0 c43e f601 d43e ddc0 ce3e fd9f d23e
000000d0: fc48 f73e f155 c63e 880a d93e b74b cd3e
000000e0: 7405 d33e 02a6 df3e 71e2 c13e 3966 fa3e
000000f0: 6319 cd3e d1f5 d83e cedd d63e 51bc d23e
00000100: edfd e13e 48d1 fb3e e798 cf3e 7335 db3e
00000110: 5eee d23e a1fe db3e 9852 f83e 5b29 c43e
0.41339445 0.4994016 0.41824555 0.46610618 0.42554277 0.40487397 0.44766077 0.41869104
0.39443144 0.4143429 0.41564226 0.38206828 0.4429746 0.40930963 0.41523433 0.5
0.4183891 0.42430604 0.41663674 0.40063104 0.38719842 0.39659268 0.42222765 0.40558758
0.4480782 0.49972543 0.4458665 0.4982671 0.4705415 0.4641746 0.43422246 0.4214988
0.45322695 0.4891188 0.45161015 0.5 0.43979773 0.5 0.5 0.5
0.485986 0.5 0.41297066 0.47325996 0.48573074 0.47016898 0.5 0.4414997
0.3840372 0.41407746 0.40381518 0.41137686 0.4829787 0.38737443 0.42390847 0.40096828
0.41215098 0.4368134 0.37868074 0.48906115 0.4005843 0.42375043 0.419661 0.411593
0.44139042 0.49183106 0.40546343 0.42814216 0.41197485 0.42967704 0.48500514 0.38312802

bn2.bias f4 [72]
00000000: 6cb2 783d 21e8 9d3c bc42 943d 2db1 573d
00000010: ac18 0b3d 5fb9 713d 340b 163d e688 563d
00000020: 5205 373d 2a1a 713d 3287 663d 20c7 063d
00000030: 82b3 fbbb 6e59 663d 839c 403d ab92 8c3d
00000040: dd67 723d a645 cc3c de4a 9e3c cf84 6d3d
00000050: 5065 403d a629 4f3d d54b 423d 0ffa 843d
00000060: 97fa 2d3d 4d3f 1d3d 870a 623d 6562 313d
00000070: aaee 593d 7a7c 283d 1adc 5c3d 8a2e d03c
00000080: 7941 313d 23f2 613d df28 493d c784 2d3d
00000090: 8abe eb3b 3d4a 743d fc52 7e3d 95db 5d3d
000000a0: 38b0 463d 4951 393d 380e 4a3d 5e8a 433d
000000b0: 3f52 5b3d bf86 773d 738e 553d 31c0 303d
000000c0: 7441 803d c572 223d c761 363d 9d60 f53c
000000d0: 7df9 4a3d 59d5 6a3d 8f58 3d3d 8780 563d
000000e0: 2dc2 003d 490e 533d 41ab 6a3d 4731 393d
000000f0: 01e4 053d eeb9 613d 53cc 6e3d df1a 023d
00000100: 626f 7e3d 8080 5f3d 5c8c 2e3d 8645 503d
00000110: faf1 063d 645e 753d cbcf 333d ff9a 783d
0.06071703 0.019275727 0.07239291 0.052659202 0.033959076 0.059014674 0.036631778 0.05237665
0.04468281 0.058862843 0.056281276 0.032904744 -0.007681311 0.05623763 0.04702426 0.06863912
0.059181083 0.024935555 0.019322809 0.057987984 0.04697162 0.05057683 0.0474356 0.064930074
0.04247531 0.038390446 0.05518582 0.043306727 0.053206123 0.041134335 0.053920843 0.025412817
0.04327533 0.05516256 0.049111243 0.042362954 0.007194345 0.05964111 0.06209086 0.054164488
0.0485079 0.045243535 0.049329966 0.04773938 0.053545233 0.06043124 0.052137803 0.043152038
0.06262484 0.039660234 0.04452684 0.029953295 0.049554337 0.05733237 0.046227034 0.052368667
0.03143518 0.051527295 0.057292227 0.04521301 0.032688145 0.055108957 0.058300328 0.031763908
0.06211794 0.054565907 0.042614326 0.050847553 0.03294561 0.05990447 0.04389934 0.06069469

bn2.running_mean f4 [72]
00000000: 2481 b63d c081 4abd 645c ae3d eaea d43d
00000010: d51d 1cbd 8568 933e 2b4d d13e 0745 89bc
00000020: ec87 0a3f 8f0c c83e 8352 483e 3b11 ea3e
00000030: 9f39 29be 5058 d93e 7f12 823e 0fa7 2ebe
00000040: 5d26 573e 5b99 4f3e bdae b53e 5f07 163f
00000050: 7fbd 5c3e 5dfd a43e 71e5 923e f92b ac3e
00000060: 1004 b0bc 4d51 c2bd 1f4e c03c e76c 2f3c
00000070: b764 81bd c65c e13d ede8 653e fd63 3cbd
00000080: 6376 8a3e ee7e 643e bb6e d63d fd49 813e
00000090: 8f30 3ebe 17bf 633e bd1e c83d 4700 34be
000000a0: 4b68 de3d 9749 9c3d 66d4 6a3e 4d90 a13e
000000b0: eb44 973d a26f 343e 9e06 053e 4bb7 d93d
000000c0: 6728 19be 78b9 5cbe 7fff a6bc 57a9 8fbd
000000d0: cb61 0dbe e015 7b3d 9fc1 623e f70b cdbd
000000e0: e8bc 853e b9ef 5c3e 56b6 ab3d 9ef0 7c3e
000000f0: 4eea b5be 163e 583e 6232 1d3d 609a 9ebe
00000100: bdb4 af3d a08e d53c a223 673e 876a a03e
00000110: e5fe 2c3c be96 273e 5974 c73d bd1b 053d
0.0891135 -0.049440145 0.08513716 0.10396369 -0.038114388 0.2879068 0.40879187 -0.016756548
0.5411365 0.3907208 0.19562726 0.4571627 -0.16525887 0.4245019 0.25404736 -0.17055915
0.21010728 0.20273344 0.35484877 0.58605 0.21556662 0.3222455 0.28690675 0.33627298
-0.021486312 -0.09488163 0.023474751 0.010707117 -0.06318038 0.11004023 0.22452135 -0.045993794
0.27043447 0.22314045 0.10470339 0.2525176 -0.18573211 0.22240864 0.09771488 -0.17578231
0.10859736 0.07631224 0.22932586 0.31555405 0.07386192 0.1762071 0.12990806 0.106306635
-0.14956819 -0.21555126 -0.020385502 -0.07014721 -0.13806836 0.06130016 0.22144173 -0.10012048
0.26120687 0.21575822 0.08384387 0.24701163 -0.35530323 0.21117434 0.038378127 -0.30977154
0.08579395 0.026068985 0.22572187 0.31331274 0.0105588185 0.16366097 0.097389884 0.032497156

bn2.running_var f4 [72]
00000000: b44e b43e 29b8 623e a15b 6b3e 2c1e 993e
00000010: 356f 3f3e 47ca c93e 9446 8f3e c51a 383e
00000020: 69b7 bd3e c557 893e 8073 753e fe53 963e
00000030: 62cb 283e df53 a53e 2ee5 bb3e 8f7f 053e
00000040: 2831 853e b563 a53e 03dd 543e ab41 973e
00000050: 5631 b93e f152 8f3e c1ae ac3e 7139 003f
00000060: 7ed9 303e 780f 173e cca0 183e c22f 233e
00000070: fbed 1b3e d8d6 203e da65 dd3d 6a08 0d3e
00000080: 2bdd d43d d850 db3d d168 083e 14e1 cd3d
00000090: b159 033e ab99 f13d ce02 233e b06d fa3d
000000a0: d3a5 113e 508b 213e 8f2a c43d bf53 9c3d
000000b0: dfaf 243e 63b5 fc3d d472 153e e99e 2b3e
000000c0: caee be3e 32c2 9a3e fb65 573e 9e96 8f3e
000000d0: 470f 763e 2a06 763e 1ae0 e73d 204d 543e
000000e0: b6ac f93d ddd7 f53d 8073 293e e885 e23d
000000f0: 14f5 a23e 82ed 0c3e cd3d 843e 465f 833e
00000100: 28a1 343e 0516 713e 02d6 d03d 3366 a53d
00000110: 242b 873e aabf 133e 3880 4b3e ce92 9a3e
0.35216296 0.22140564 0.22984172 0.29905832 0.18694766 0.39412138 0.27983534 0.17978962
0.37053993 0.26824775 0.23969841 0.29360956 0.16483834 0.3229055 0.36698288 0.13036941
0.26014066 0.32302633 0.20787434 0.29542288 0.36170453 0.27992967 0.33727077 0.5008765
0.17270467 0.14751995 0.14905089 0.15936187 0.15227501 0.15706956 0.10810442 0.13772741
0.10393747 0.10708779 0.13321234 0.10052696 0.12827183 0.11796888 0.15919039 0.122279525
0.14223413 0.157758 0.0957843 0.07633161 0.16082714 0.12339284 0.14594585 0.16759838
0.37291557 0.30226284 0.21034996 0.280446 0.24029265 0.24025789 0.11322041 0.20732546
0.12191145 0.12004063 0.16547966 0.11060697 0.31827605 0.13762477 0.258284 0.25658625
0.17639601 0.23543556 0.10197069 0.080761336 0.264001 0.14428583 0.1987313 0.30190128

mlp3.weight f4 [24, 72]
00000000: 75c2 823a 9694 8f3a 762a 273a bf4a 7a3a
00000010: 6357 753a a06d 413a 0df5 353a 9b9c c239
00000020: 7faa 5a3a 82b8 253a fc0e 993a ff55 493a
00000030: 95bc 083a fcea 393a cce7 453a e9e0 803a
00000040: 44aa 873a 9c8a 9539 74ed 353a 83da 763a
00000050: bdc7 0a3a 8406 673a 1519 843a 51e8 893a
00000060: 2da4 413e 17f4 e63d 59b5 073e 4d82 093e
00000070: 2503 0e3e 1a2a 013e 5a29 123e 724e df3d
00000080: 4fa6 3f3e 7d76 f33d 3189 d23d 82bd 023e
00000090: f5fe 393e 9964 2c3e e6b6 463e 01a3 f83d
000000a0: 2cce 203e 11d2 183e ce11 4f3e c3e9 fe3d
000000b0: a6ee d23d d6ce 3d3e 07be 343e 30a9 583e
000000c0: a4f4 8739 0000 0000 0000 0000 0000 0000
000000d0: 0000 0000 0000 0000 0000 0000 0000 0000
000000e0: a815 463b 0000 0000 40c7 a63c 0000 0000
000000f0: e33c ab39 0000 0000 0000 0000 0000 0000
00000100: 6156 bb39 0000 0000 0000 0000 0000 0000
00000110: bcd2 743c 0000 0000 0000 0000 384a 973c
00000120: 440f 823d a510 043e fbf1 133e 681e 173e
00000130: 0517 ff3d b9a3 e73d 72c5 103e 6394 dd3d
00000140: 09f5 373e 99db 233e 1f08 b23d 161f dc3d
00000150: 445c e63d cccf 243e 3d1d 0b3e 25eb 683e
00000160: bd1f 423e a191 233e da24 083e 7570 1c3e
00000170: a646 c63d 21ef f43d 15b0 063e 8bb7 d03d
00000180: d80e f33d da12 303e 42e1 313e 06f5 2b3e
00000190: b178 493e 436b 433e d4e5 7b3e c78d 2e3e
000001a0: e0a0 273e dd66 d23d cb2d 363e d7b2 4b3e
000001b0: 9437 343e 6415 963e 92bd 743e 5a8b 5c3e
000001c0: e5eb 3c3e d3fe 793e 799e 553e d5da 423e
000001d0: c4ff 613e fd5b 273e 272a 243e 24c4 423e
000001e0: 0000 0000 0000 0000 0000 0000 0000 0000
000001f0: 0000 0000 0000 0000 0000 0000 0000 0000
00000200: 0000 0000 0000 0000 0000 0000 0000 0000
00000210: 0000 0000 0000 0000 0000 0000 0000 0000
00000220: 0000 0000 0000 0000 0000 0000 0000 0000
00000230: 0000 0000 0000 0000 0000 0000 0000 0000
00000240: 1d1d 283d 97ed 0c3e cc60 303e aa3b 033e
00000250: 47e4 0b3e edde 1a3e a525 1b3e 79f8 0c3e
00000260: 458c 173e 3be7 953d 117e 9e3d ab53 2a3e
00000270: 8417 f13d 89a1 ee3d 51ac 053e a2a5 153e
00000280: eb61 323e 4275 e33d db66 1a3e 8840 ea3d
00000290: ed97 2f3e 1657 993d 73ed 113e 6f05 983d
000002a0: 9aff 0b3e 21eb 233e 3ae1 7b3e 4ab1 233e
000002b0: 49ca a43e 42f6 963e c8d0 873e 34ff 763e
000002c0: 0555 8b3e 0c32 313e 75dc 5b3e 47f3 2e3e
000002d0: 0b8d 8c3e 548a 483e 666d 563e 5814 843e
000002e0: a43c 343e 2fc1 733e 4528 903e 8ac2 893e
000002f0: 7de5 713e bd0f 653e 7293 203e 28dc 563e
00000300: 0000 0000 0000 0000 0000 0000 0000 0000
00000310: 0000 0000 0000 0000 0000 0000 0000 0000
00000320: 0000 0000 0000 0000 0000 0000 0000 0000
00000330: 0000 0000 0000 0000 0000 0000 0000 0000
00000340: 0000 0000 0000 0000 0000 0000 0000 0000
00000350: 0000 0000 0000 0000 0000 0000 0000 0000
00000360: 8fc4 ab3c ebc4 ba3c f19f b73b 7bda 183c
00000370: e443 173c ef99 c23b cf9d e73b e7ae 973b
00000380: 1db9 c83c bbf7 b73c 332a 963c 03a8 f13b
00000390: 6c7e ad3b ba1e d33c 2a22 e13b 8003 a03c
000003a0: 8f6d 903c 28c4 c33a b16c f53c 74f3 0e3c
000003b0: 4a7d 983b 1d10 f13b af18 683c 925a e93b
000003c0: 4507 533e 4392 e73d 87c2 273e 8d61 443e
000003d0: 262b 1c3e 04d3 2c3e 2935 df3d a696 093e
000003e0: 0989 103e fd0b f83d bf1d 623e 415e 1b3e
000003f0: 5c61 ae3d acee 023e 737f 243e 75d7 293e
0.0009976166 0.0010954316 0.00063768716 0.0009547881 0.000935903 0.0007378701 0.00069411175 0.00037119244
0.0008341446 0.00063217443 0.0011677439 0.0007680356 0.0005216089 0.00070922053 0.0007549494 0.0009832653
0.0010350426 0.00028522767 0.00069399853 0.0009416716 0.00052940455 0.00088129216 0.0010078276 0.0010521506
0.18910284 0.11277025 0.13252772 0.13428612 0.13868387 0.12613717 0.14273587 0.10903634
0.18715785 0.11887834 0.102800734 0.12767604 0.18163665 0.1683525 0.19405708 0.121404655
0.15703648 0.14923884 0.20221636 0.1244693 0.10299425 0.18535933 0.17650615 0.2115829
0.00025931478 0.0 0.0 0.0 0.0 0.0 0.0 0.0
0.003022531 0.0 0.020358682 0.0 0.00032661026 0.0 0.0 0.0
0.00035731777 0.0 0.0 0.0 0.014942821 0.0 0.0 0.018468007
0.06350568 0.12896974 0.14447777 0.14757693 0.124555625 0.113105245 0.1413782 0.10819318
0.17964567 0.16001739 0.08692955 0.10748117 0.11248067 0.16094893 0.13585372 0.2274595
0.1895742 0.15973522 0.13295308 0.15277274 0.09681444 0.11959673 0.13153107 0.10191258
0.118680656 0.17194691 0.17371085 0.16792688 0.19674946 0.19083886 0.24599391 0.17046271
0.16369963 0.10273526 0.17790906 0.1989244 0.17599326 0.29313195 0.2390044 0.21537533
0.18449362 0.24413614 0.20861234 0.1902879 0.22070223 0.16343684 0.16031705 0.19020134
0.0 0.0 0.0 0.0 0.0 0.0 0.0 0.0
0.0 0.0 0.0 0.0 0.0 0.0 0.0 0.0
0.0 0.0 0.0 0.0 0.0 0.0 0.0 0.0
0.04104339 0.13762508 0.17224425 0.12815729 0.136613 0.15124102 0.15151079 0.1376666
0.14799602 0.07319494 0.07738889 0.1663348 0.117720634 0.11651904 0.13054015 0.14613965
0.17420165 0.111063495 0.15078299 0.114380896 0.17147799 0.074873134 0.14250736 0.074229114
0.13671723 0.16007663 0.24597636 0.15985599 0.3218558 0.29484755 0.26526475 0.2412079
0.27213302 0.17304248 0.21470816 0.1708499 0.27451357 0.19584018 0.2094017 0.2579677
0.17601258 0.23804162 0.28155723 0.26906234 0.23622699 0.22369285 0.15681246 0.2098242
0.0 0.0 0.0 0.0 0.0 0.0 0.0 0.0
0.0 0.0 0.0 0.0 0.0 0.0 0.0 0.0
0.0 0.0 0.0 0.0 0.0 0.0 0.0 0.0
0.02096775 0.022798976 0.0056037833 0.009329434 0.009232495 0.0059387605 0.007068373 0.0046290043
0.024502331 0.022456994 0.018330669 0.007374765 0.0052946117 0.025771488 0.0068705278 0.019532919
0.017630367 0.0014935778 0.029959055 0.008725036 0.0046536075 0.007356657 0.014166041 0.0071213925
0.20608242 0.11307194 0.163828 0.19177838 0.15250835 0.16877371 0.10898811 0.13436374
0.14114775 0.121116616 0.2208166 0.15172674 0.085146636 0.12786359 0.16064243 0.16586097

mlp3.bias f4 [24]
00000000: eab6 06bc adee 86bc 34f0 2fbe 3f9b 93bd
00000010: aa48 05be fd6d 78bd c024 e53d 7581 21be
00000020: 5349 15be 879b 6abd 75fa 36bc 3bfd 21be
00000030: 5317 cfbc 27b4 1bbe a835 193d fc6c c8bd
00000040: 4425 dcbd 8a22 1abe dcf9 adbd 6f33 d4bd
00000050: 3688 663e 3f80 03be bc35 09be f96d 833d
-0.008222321 -0.016471231 -0.17181474 -0.07207345 -0.13016 -0.060651768 0.1118865 -0.1577204
-0.14578752 -0.05727723 -0.011168112 -0.15819256 -0.025279677 -0.15205441 0.037404686 -0.09786412
-0.10749295 -0.15052238 -0.084949225 -0.10361373 0.22512898 -0.12841891 -0.13399404 0.0641746

bn3.weight f4 [72]
00000000: 8c70 cc3e 85f8 da3e 6fab d13e 9d26 d03e
00000010: e563 eb3e a95c e13e 1838 e23e 89c1 e33e
00000020: 1e2b df3e 5ea6 d53e da5f d43e d259 d33e
00000030: 035d e03e f02a e83e b418 df3e 1ba6 e83e
00000040: 339f dd3e 65a1 d63e 772e e03e e42e f33e
00000050: 4723 d43e ec4b df3e 0f64 de3e 2e2c d83e
00000060: 269d f73e 55ee ff3e 0000 003f 7a5c fa3e
00000070: 0000 003f 0000 003f 0000 003f 62f8 ff3e
00000080: 0000 003f ef96 f53e 0000 003f c9f4 ff3e
00000090: 10ee ff3e 0000 003f 0afb ff3e 0000 003f
000000a0: 0000 003f 0000 003f 0000 003f 0000 003f
000000b0: 0000 003f 0000 003f 77ff ff3e 0000 003f
000000c0: 12ef b23e 904a b63e ec3b b53e 2c62 ba3e
000000d0: 889b b73e 619a b33e 301a b93e c3af b33e
000000e0: 9d17 b63e 5d13 b63e 8f1f b73e 8db7 b73e
000000f0: bbaa b73e 06aa b23e 3e47 b43e fb27 b83e
00000100: a2fc b73e 70b2 b83e 7bf8 b13e 45e9 b63e
00000110: 88cc b53e 27cd b63e 1488 b23e 8aca b53e
0.39929616 0.4276773 0.40951106 0.4065446 0.4597465 0.44016007 0.4418342 0.44483593
0.43587583 0.4172849 0.4147938 0.41279465 0.43820962 0.4534526 0.43573534 0.45439228
0.43285522 0.4192001 0.4378545 0.47496712 0.41433164 0.4361261 0.43435714 0.42221206
0.48362082 0.4998652 0.5 0.4889868 0.5 0.5 0.5 0.4999419
0.5 0.47966716 0.5 0.49991444 0.49986315 0.5 0.49996215 0.5
0.5 0.5 0.5 0.5 0.5 0.5 0.49999592 0.5
0.3494802 0.35603762 0.3539728 0.36403024 0.35860848 0.3507872 0.36152792 0.35095033
0.3556489 0.35561648 0.35766265 0.35882226 0.35872445 0.34895343 0.35210603 0.35968003
0.3593493 0.36073637 0.34759888 0.35724846 0.35507607 0.35703394 0.34869444 0.35506088

bn3.bias f4 [72]
00000000: 1626 51bd 61ee 89bd d06d 58bd 286f 7cbd
00000010: 3844 4fbd c1ac 33bd 47df 38bd 3221 20bd
00000020: 914b 89bd f61d 80bd a7ab 84bd fd2f 48bd
00000030: 2fa4 20bd d55c 8dbd ce0a 5dbd 8a76 59bd
00000040: 80d3 52bd dfb0 84bd 21e2 1bbd 9e36 31bd
00000050: 7cb7 48bd d668 50bd d15b 44bd 8780 45bd
00000060: 0ff1 d5bd aaa1 a3bd eebc c2bd 94a4 b8bd
00000070: 44b1 aebd 1ba2 b8bd f9f5 b6bd dd37 bbbd
00000080: 46a8 b8bd 7863 b3bd 52fb ccbd 11a4 b8bd
00000090: 702d b4bd ae26 bdbd ae69 a8bd 5656 b9bd
000000a0: c34d bfbd e768 c8bd f9f9 c1bd 209c b6bd
000000b0: 5cde bdbd afcd c8bd 4f00 bebd 4d5e c9bd
000000c0: 1e51 e6bd b895 dcbd e623 e0bd 2356 d7bd
000000d0: 8a29 dabd d490 e1bd 89be d3bd c1b1 e1bd
000000e0: 0c6d d3bd 4df9 eabd d841 d7bd 97ff dcbd
000000f0: 8317 cfbd 23a8 eabd 5906 e6bd 4f74 dcbd
00000100: 9ddc dabd a867 dabd 58c4 d4bd 5e57 debd
00000110: 96d8 e2bd c6f2 dfbd c2f9 b1bd d780 e0bd
-0.051061712 -0.0673492 -0.0528391 -0.061629444 -0.050602168 -0.043865923 -0.04513481 -0.039094158
-0.06703866 -0.062557146 -0.064780526 -0.04887389 -0.039219078 -0.06902472 -0.053965382 -0.053091563
-0.051471233 -0.06479048 -0.03805745 -0.043264978 -0.04900311 -0.05088123 -0.047939125 -0.048218276
-0.10446369 -0.07989819 -0.09508692 -0.09015766 -0.085299045 -0.09015294 -0.08933634 -0.091415145
-0.090164706 -0.087592065 -0.10008873 -0.09015668 -0.08797729 -0.09235893 -0.08223282 -0.090496704
-0.09341004 -0.097856335 -0.094715066 -0.08916497 -0.09270927 -0.09804856 -0.092774026 -0.098324396
-0.112459406 -0.10770744 -0.10944347 -0.10514476 -0.10652454 -0.11013952 -0.10339076 -0.11020232
-0.103235334 -0.114733316 -0.105106056 -0.107909374 -0.101119064 -0.11457851 -0.112316795 -0.107643716
-0.1068661 -0.10664302 -0.10389012 -0.10856508 -0.11076467 -0.10934977 -0.08690216 -0.10962074

bn3.running_mean f4 [72]
00000000: 1048 bb3e 1564 e63e 9435 b83e 05a6 dc3e
00000010: 78a1 f13e 1633 c03e 83f1 e03e dd4f e53e
00000020: bc2e dd3e 96d0 ce3e aa49 133f 9091 f03e
00000030: a365 d73e d985 fe3e db2e f43e f11f e13e
00000040: 0aae af3e 30cf 1a3f c782 cd3e 524f e93e
00000050: 6679 b73e 6123 cd3e f96e f53e cb29 a33e
00000060: 80cb 813d 3337 ad3d 96a0 8f3d 8835 933d
00000070: cd7e b23d f444 9a3d 26d3 ab3d 10f4 af3d
00000080: cbc8 aa3d e4ef 8f3d 6868 6abc 63eb b03d
00000090: f905 ab3d 9900 b33d e53b b53d ab21 ac3d
000000a0: 434b 8e3d 7d22 873d 7d19 a83d 0537 b13d
000000b0: db0a 943d b97b 903d 664c a93d 4f2d 813d
000000c0: df18 71be dd34 13be a57b 03be e6e0 84be
000000d0: af27 18be ec4c 09be 0d23 09be 376e 04be
000000e0: 5999 03be ab67 6bbe f4bd 20bf 41a3 05be
000000f0: ef34 ffbd 415d 10be fa48 07be ca42 16be
00000100: 3bb4 07be 2a02 b6be 2c0f 05be e509 0dbe
00000110: b7fe fabd 65c1 1bbe 0b67 29be 42c8 08be
0.36578417 0.44998232 0.35978377 0.43095413 0.47193503 0.37538975 0.4393426 0.44787493
0.43199718 0.40393513 0.5753428 0.46986055 0.4206973 0.49711493 0.47691998 0.43969682
0.3431247 0.60472393 0.40138838 0.4556833 0.35834807 0.40066054 0.47936228 0.31867823
0.06337643 0.08457794 0.07013051 0.07187945 0.087155916 0.07532683 0.08389883 0.08591473
0.083390795 0.070281774 -0.014307119 0.086386465 0.083507486 0.08740348 0.088493146 0.08404859
0.06947949 0.06598375 0.082079865 0.08653072 0.07228633 0.07054848 0.08266525 0.0630747
-0.23544644 -0.14375634 -0.12840135 -0.25952834 -0.14858888 -0.1340825 -0.13392277 -0.12932669
-0.12851466 -0.22988765 -0.62789845 -0.13050558 -0.12461268 -0.14098074 -0.13211432 -0.14673916
-0.13252346 -0.35548526 -0.12994069 -0.13773306 -0.12255614 -0.15210493 -0.16543214 -0.13357642

bn3.running_var f4 [72]
00000000: c527 223f 50be 3d3f 047b 1d3f 9100 3b3f
00000010: d952 473f 2ff7 1f3f 0162 393f 8922 3b3f
00000020: 7e45 353f 5159 2f3f 52da cf3f 0e31 473f
00000030: ff72 2e3f dce8 563f 78da 483f b85b 393f
00000040: 1e01 153f a5f1 943f 5653 263f 68a0 3e3f
00000050: 638f 193f 699d 323f 501c 513f 5c30 0e3f
00000060: 843f 543e 10d2 503e 95bf 4c3e a67c 563e
00000070: d6c6 503e 5ac8 4d3e e06a 4f3e 0f48 503e
00000080: 1f7f 4f3e a25f 553e 1fbb 683e 9c0a 503e
00000090: 919e 4f3e 6aad 503e f054 503e a381 4f3e
000000a0: db72 4c3e 1544 5f3e cf59 4f3e 2228 503e
000000b0: 7935 4d3e 57b1 503e 90e2 513e cc47 4b3e
000000c0: fb25 5c3f 760d 2b3f 19f1 133f cc37 7b3f
000000d0: 81ff 313f 4763 1c3f 6536 233f 137d 203f
000000e0: 6e00 1f3f 9855 5e3f 534d c63f 2bee 223f
000000f0: 396a 1b3f 2a28 2c3f 2c02 263f cd61 2e3f
00000100: d682 163f 88cb 9b3f 1a0e 1e3f 129c 283f
00000110: 3214 113f cc64 233f e3b8 393f b373 123f
0.63341933 0.7411852 0.6151583 0.7304774 0.7786079 0.6248655 0.7241517 0.7309957
0.7080916 0.6849566 1.6238501 0.77809227 0.6814422 0.83949065 0.78458357 0.72405577
0.5820483 1.1636244 0.6497091 0.7446351 0.59984416 0.6977144 0.81683826 0.5554254
0.20727354 0.20392632 0.19994958 0.20945987 0.2038835 0.2009596 0.20255613 0.20339988
0.20263337 0.20837262 0.22727631 0.20316547 0.20275332 0.20378652 0.20344901 0.20264296
0.19965689 0.21803315 0.20249103 0.2032781 0.2003993 0.2038015 0.20496583 0.19851607
0.85995454 0.66817415 0.5778976 0.98132014 0.69530493 0.61088985 0.63754874 0.6269085
0.6211003 0.86849356 1.5492347 0.63644665 0.6070896 0.67248785 0.64847064 0.6811798
0.5879339 1.2171488 0.6174027 0.65863144 0.5667144 0.6382568 0.7254774 0.57207793

mlp4.weight f4 [1, 72]
00000000: 0000 0000 0000 0000 0000 0000 0000 0000
00000010: 0000 0000 0000 0000 0000 0000 0000 0000
00000020: 0000 0000 0000 0000 0000 0000 0000 0000
00000030: 0000 0000 0000 0000 0000 0000 0000 0000
00000040: 0000 0000 0000 0000 0000 0000 0000 0000
00000050: 0000 0000 0000 0000 0000 0000 0000 0000
00000060: 6387 ce3d 58bf 423e 30ba e43d 5316 1a3e
00000070: 0f17 1c3e 680f 503e d11d 413e f27a 4a3e
00000080: ff00 1f3e ed99 343e 6995 4a3e cdd7 4c3e
00000090: 4a31 063e 5ace 613e 61ef 3d3e 41a6 4e3e
000000a0: e4e9 343e 39a8 693e 3bbf 013e 4705 ea3d
000000b0: b7fa 0e3e c78d 433e 46d9 3f3e 331d 0e3e
000000c0: 0000 0000 47ab 523e bba2 023e 35e7 9e3c
000000d0: a186 1b3e 7d4b 533e 9801 5f3d 0d38 2d3e
000000e0: df33 c63d d207 633e a329 d53d 41fc 313e
000000f0: c9fd 673e f8fe 153e 0000 0000 a035 573e
00000100: 3efc 063e 8459 3f3e b07c 673e 1df0 cf3d
00000110: 0000 0000 23b7 9d3d 0000 0000 d42c 943d
0.0 0.0 0.0 0.0 0.0 0.0 0.0 0.0
0.0 0.0 0.0 0.0 0.0 0.0 0.0 0.0
0.0 0.0 0.0 0.0 0.0 0.0 0.0 0.0
0.10084417 0.19018304 0.11168325 0.15047579 0.15243171 0.20318377 0.1885903 0.19773462
0.15527724 0.17636843 0.19783558 0.20004196 0.1310474 0.22051373 0.18548347 0.20180608
0.17667347 0.22818078 0.12670605 0.11426788 0.13962828 0.19097053 0.18735227 0.13878326
0.0 0.2057315 0.12757389 0.019397357 0.15188076 0.20634265 0.05444488 0.16915913
0.096778624 0.22170952 0.10408332 0.17381383 0.22655405 0.14648044 0.0 0.2101655
0.1318216 0.18686491 0.22606158 0.1015322 0.0 0.07700946 0.0 0.07235113
