utility-model-selected/dim-3/utility-60.pt (torch, 23458 bytes, 17 tensors)

bn1.running_mean f4 [3]
00000000: e282 003f df04 003f 3b6e ff3e
0.5019971 0.5000743 0.49888787

bn1.running_var f4 [3]
00000000: 1e52 673d 2814 5c3d cfad 583d
0.056474797 0.05373016 0.05290013

mlp1.weight f4 [24, 3]
00000000: 0000 003f 7ed0 e33e 38d0 3b3d a970 fe3e
00000010: 24ed 633e b35b 713e 81ad 273e 70c0 873e
00000020: 52c9 c73d 54b3 9a3e befc ef3e 028e 9c3e
00000030: 4f16 413e 25c4 2c3e 4e38 c93e a7c7 e93e
00000040: c249 a53e 0983 b83e bb96 e33e 0000 0000
00000050: 239a b43e 8629 fe3e a0ce a23e 1e0c d93e
00000060: 8eba 5f3e a81a 2f3e 2a85 cf3b 072c ea3e
00000070: b8e4 023e 1dff a03e 0000 003f 2a21 e03e
00000080: a00c 853e 5fd2 5d3e 94be e63e 4256 833e
00000090: 0000 0000 7eaa cf3e b34c 993a 0000 003f
000000a0: 5519 cd3e 5426 613e 0000 003f c4af 763d
000000b0: 2ea1 953e 725e d93e f427 e83e 3956 e83e
000000c0: 5f27 043e 0000 003f e7ae 673e 0000 003f
000000d0: 9a81 a43e c944 e83c 09e1 bf3e e94e d83e
000000e0: f30d c33e 062d a03e 3868 f43e b4ed ec3e
000000f0: b916 793e 6ee6 ec3d fae3 893d 5033 5d3e
00000100: 0000 003f 7f2c c83e e63e b63e fa05 4a3e
00000110: d412 5d3c 8eec 5c3e 0000 0000 0000 0000
0.5 0.44495004 0.04585287 0.49695328 0.2225843 0.23570137 0.1637478 0.26514006
0.09755196 0.30214942 0.46872514 0.30577093 0.18856166 0.16871698 0.3930077 0.45660135
0.32282835 0.36037472 0.44450936 0.0 0.35273847 0.49641055 0.31798267 0.42392057
0.21848509 0.17100012 0.006333013 0.45736715 0.12782562 0.31444636 0.5 0.43775302
0.25986195 0.21662281 0.45067275 0.25651747 0.0 0.40559763 0.0011695832 0.5
0.4005839 0.21987277 0.5 0.060226217 0.29224533 0.4245487 0.45342982 0.45378283
0.12905644 0.5 0.22625314 0.5 0.32130128 0.028353112 0.37476376 0.42247704
0.3809658 0.3128435 0.47735763 0.46275103 0.24325074 0.115673885 0.06732936 0.21601605
0.5 0.39096448 0.35594863 0.19728842 0.0134932585 0.21574613 0.0 0.0

mlp1.bias f4 [24]
00000000: 52c8 0e3f 1bd1 e13e cd83 41be 24e2 a1bc
00000010: c2e9 94bc 031a 0c3f 60e6 c1be 68bf a1bc
00000020: 23ab d8bc 27cb a03e 22e4 6cbb fe59 373d
00000030: 6012 48bf 46e0 f13e d647 7dbe 1662 cf3e
00000040: 1cd8 12bf b1ed 1e3e f0e8 c73e 031c febd
00000050: 1b60 3abd 6d07 a9be 4281 c5be 77a6 03bf
0.55774415 0.44104847 -0.18897934 -0.019761153 -0.01817787 0.5472719 -0.37871075 -0.01974459
-0.026448792 0.31404993 -0.003614672 0.044763558 -0.7815304 0.4724142 -0.24734434 0.4050452
-0.57361007 0.1552036 0.39044905 -0.124076866 -0.04550181 -0.33013478 -0.38575178 -0.5142588

mlp2.weight f4 [24, 72]
00000000: 0000 0000 68d4 543d 6ba7 653c 0000 0000
00000010: 2866 6d3d e047 e03c 0d4e 173e 0000 0000
00000020: c11d 063d 5fc5 633d 0000 0000 0000 0000
00000030: ef73 663e 0000 0000 7c85 d53d 0000 0000
00000040: ffd6 283e 0000 0000 afcb 333d 0000 0000
00000050: 0834 6b3c fcc9 7c3d e331 4d38 6cc8 ca3d
00000060: 31db 023e a0fa 333c 0000 0000 35ad 023d
00000070: 0000 0000 4ec8 dd3c 5a17 ed3d 7c15 7b3c
00000080: 2842 cd3b 7f11 b23a 0000 0000 efe7 223d
00000090: 7f10 3f3e 13ac 8b3c 0ce4 bd3d 3138 983d
000000a0: 9574 023e 141f e03d 0000 0000 0000 0000
000000b0: 086f 1f3d fcee ba3d e437 1a3d 5647 ca3d
000000c0: 9518 be3d 0000 0000 0000 0000 00f9 fc3c
000000d0: 0000 0000 c357 113d c2ce cb3c d263 623d
000000e0: 2ffd 9d3d 1214 0b3d 42fa 6e3c 0000 0000
000000f0: 0000 0000 6f13 173d d42f 7b3b 44f6 fb3b
00000100: 0000 0000 d34a c13d 0000 0000 0000 0000
00000110: 0000 0000 0000 0000 0000 0000 4041 3e3d
00000120: 0000 0000 2b85 563b 0000 0000 0000 0000
00000130: 3af3 c83c 0000 0000 58e4 0b3e 0000 0000
00000140: 7fa0 943c 26e6 883d 0000 0000 2505 843b
00000150: 5dc6 673e 0000 0000 1599 fd3d 241b 533d
00000160: 92f0 203e 0f39 ae3d 0000 0000 0000 0000
00000170: 2325 f83b d785 bf3d e768 ad3d 58ca cd3d
00000180: def3 4c3d 7ff0 613c 0000 0000 0000 0000
00000190: b94f 1d3d 0000 0000 182d 3e3e 0000 0000
000001a0: 00ed ec3c 40c8 603d 0000 0000 0000 0000
000001b0: 9063 453e 8cc7 3c3c a10c c53d 0000 0000
000001c0: 0f44 353e 8282 a83d 7969 6b3c 91ed b23b
000001d0: 7994 c93c 940b a43d c682 a93d dea6 663d
000001e0: 0c9b 3d3b 0000 0000 0000 0000 0000 0000
000001f0: 0000 0000 0000 0000 0000 0000 e100 293d
00000200: 3d3e 9e3d 0000 0000 0000 0000 0000 0000
00000210: 0000 0000 0000 0000 7ada 393d 0000 0000
00000220: 0000 0000 f4a8 963c 0000 0000 0000 0000
00000230: 0000 0000 0000 0000 0f8a 963d 2489 303d
00000240: bfee 0f3d e8f5 8a3c 0000 0000 0000 0000
00000250: 0000 0000 ba13 a13d ae55 1e3e 069b 4e3b
00000260: 0000 0000 ceb2 cb3d 0000 0000 0000 0000
00000270: eb24 4f3e 6d79 123c 74e3 a83d 0000 0000
00000280: cf86 ef3d 4e00 2f3b 0000 0000 0000 0000
00000290: a40c ff3c 859e 963d 0000 0000 630a 073e
000002a0: d2a8 1b3d 9176 513d 260d 3a3c 0000 0000
000002b0: 0000 0000 c397 333d a1c8 313e 0000 0000
000002c0: 7f40 433d 7b43 3a3d 02b7 9b3d 0000 0000
000002d0: 04a4 313e 4be2 3a3c a2b9 993d 0000 0000
000002e0: c07a 3b3e a2d5 f43c 0000 0000 0000 0000
000002f0: 2b49 2e3b 2640 0b3e be79 513d c7b0 9a3d
00000300: 54a9 8e3d 0000 0000 0000 0000 0000 0000
00000310: 0000 0000 0000 0000 a811 ff3b 0000 0000
00000320: 5b10 8f3d 0000 0000 9e8f 873c 0000 0000
00000330: 0000 0000 0000 0000 3d29 223c 0000 0000
00000340: 0000 0000 3869 b73d 0000 0000 7b39 f83c
00000350: 0000 0000 0000 0000 04b7 643d 8230 103d
00000360: 0000 0000 0571 673c 0000 0000 0000 0000
00000370: 55d6 473d 3bcf 353d a3b4 043e dea6 543c
00000380: d497 853d e6ec b03d 0000 0000 ddca 4e3c
00000390: d92b 643e 1a19 583c cde4 b83d 466f d23a
000003a0: 3f98 073e 0000 0000 0000 0000 64aa 1d3d
000003b0: e2e1 3b3d 8927 ad3d d178 9f3d 1f88 a13d
000003c0: 8dbb d93d 525f 8b3d 0000 0000 0000 0000
000003d0: 8d77 c03c 7e96 a43c a262 0f3e 0000 0000
000003e0: 52eb 973d 3d2b 963b 3206 343d 0000 0000
000003f0: 801a 553e 986f e33b ed5b e33d 0000 0000
0.0 0.05196038 0.014016966 0.0 0.057958752 0.027378023 0.14775868 0.0
0.03274322 0.05560815 0.0 0.0 0.22505163 0.0 0.10425851 0.0
0.16488265 0.0 0.04389542 0.0 0.014355667 0.061716065 4.892227e-05 0.09901509
0.12778927 0.010985047 0.0 0.031903464 0.0 0.027073052 0.115767196 0.0153249465
0.00626399 0.0013585537 0.0 0.03977197 0.18658637 0.017049825 0.09272012 0.07432593
0.12739785 0.10943428 0.0 0.0 0.038924247 0.09127614 0.037650958 0.098768875
0.092820324 0.0 0.0 0.030880451 0.0 0.035484087 0.024878863 0.055270977
0.077143066 0.033954687 0.014586033 0.0 0.0 0.036883768 0.0038328068 0.0076892693
0.0 0.094381 0.0 0.0 0.0 0.0 0.0 0.046448946
0.0 0.0032733183 0.0 0.0 0.024530042 0.0 0.13661325 0.0
0.018142937 0.06684522 0.0 0.0040289336 0.22634263 0.0 0.12382714 0.051539555
0.1571677 0.08506977 0.0 0.0 0.0075727864 0.093517 0.08467274 0.1004836
0.050037257 0.013790249 0.0 0.0 0.038406108 0.0 0.1857189 0.0
0.028921604 0.054878473 0.0 0.0 0.19276261 0.011522185 0.096215494 0.0
0.17701744 0.082280174 0.014368408 0.005460449 0.02460693 0.08010021 0.08276896 0.05631148
0.0028931526 0.0 0.0 0.0 0.0 0.0 0.0 0.041260604
0.07726715 0.0 0.0 0.0 0.0 0.0 0.04537437 0.0
0.0 0.01839111 0.0 0.0 0.0 0.0 0.07350551 0.043099537
0.035139795 0.01696296 0.0 0.0 0.0 0.07865091 0.15462372 0.0031525507
0.0 0.09946214 0.0 0.0 0.20228927 0.008940083 0.08246508 0.0
0.116956346 0.0026703062 0.0 0.0 0.031133957 0.07354454 0.0 0.13187556
0.038002796 0.051138464 0.011355674 0.0 0.0 0.043845903 0.1736169 0.0
0.04766893 0.04547451 0.07603265 0.0 0.17347723 0.0114064915 0.0750611 0.0
0.18308544 0.029887024 0.0 0.0 0.0026593904 0.1359869 0.051141493 0.07553249
0.069658905 0.0 0.0 0.0 0.0 0.0 0.007784087 0.0
0.069855414 0.0 0.016547974 0.0 0.0 0.0 0.009897527 0.0
0.0 0.08955616 0.0 0.030300846 0.0 0.0 0.0558386 0.03520251
0.0 0.014126067 0.0 0.0 0.048788387 0.044387084 0.12959532 0.012979237
0.065230995 0.08638935 0.0 0.012621609 0.22282352 0.013189578 0.09028015 0.0016054891
0.13241671 0.0 0.0 0.038492575 0.045869716 0.08454806 0.07786716 0.07887291
0.106314756 0.0680529 0.0 0.0 0.023494506 0.020091292 0.14002469 0.0
0.07417931 0.004582791 0.04395122 0.0 0.2081089 0.0069407932 0.11101518 0.0

mlp2.bias f4 [24]
00000000: ee11 68bd d385 b23d c0d5 173d 7579 413d
00000010: e8fc 22bd ea74 fa3c 904c acbc 16bd 463b
00000020: 5812 133d bdef 6b3d 4461 f13b d9eb 853d
00000030: 81f0 a03d 15a0 813d 0bfc 123d c98b 833d
00000040: 2435 95bc 97fb e9bc 1b69 453d 00ce b1bb
00000050: 5b41 373d e5c5 263d 9470 c43c 31ff 343d
-0.056657724 0.08716931 0.037069082 0.04723497 -0.03979197 0.030573327 -0.021032602 0.0030325106
0.035906166 0.05760168 0.0073663313 0.06539125 0.078583725 0.06329361 0.0358849 0.06423146
-0.018213816 -0.02856235 0.04819594 -0.0054261684 0.044740062 0.04071607 0.023979463 0.044188682

bn2.weight f4 [72]
00000000: 072a e23e c283 ec3e 748a d33e 9539 d33e
00000010: 9ab3 e63e 5021 e73e 0000 003f a5a1 e23e
00000020: c67b f03e 2765 f23e 059e d53e 458f d13e
00000030: 0000 003f cf83 d73e 0000 003f d0c2 db3e
00000040: 0000 003f 61f8 f33e fcd3 d83e 067b db3e
00000050: 5e32 d63e 1e1d ee3e 9b67 ef3e 0000 003f
00000060: 7a1d f73e 63fc df3e e8db d13e 04ee d43e
00000070: 542d e43e bd56 e53e 0000 003f 722e e43e
00000080: 4c67 ee3e 84e2 de3e 6c40 df3e ece5 d43e
00000090: 0000 003f 9654 dd3e 0000 003f be26 de3e
000000a0: 0000 003f 8493 f43e 15ef d73e 231e df3e
000000b0: c698 d83e 4a97 f03e 1512 ee3e 0000 003f
000000c0: 7a76 ea3e 9a93 d53e 91b0 d03e 7750 cf3e
000000d0: 8c0b e13e 4948 db3e 330e ea3e e533 e23e
000000e0: 2453 eb3e b199 d93e fc3a c93e 020b cc3e
000000f0: c162 cf3e 91d1 d13e e089 eb3e f2f7 d83e
00000100: 06dd c83e 9b5c f13e cec3 d53e 8e72 d93e
00000110: 6a09 c73e 6371 d53e de1d ee3e 3926 eb3e
0.4417269 0.46194273 0.4131657 0.4125487 0.450589 0.45142603 0.5 0.4426395
0.46969432 0.47342798 0.41722122 0.40929618 0.5 0.4209275 0.5 0.42922068
0.5 0.47650436 0.4234923 0.42867297 0.41835302 0.4650659 0.46758732 0.5
0.48264676 0.43747243 0.40988088 0.41587842 0.44565833 0.4479274 0.5 0.44566685
0.46563184 0.43532193 0.43603837 0.41581666 0.5 0.43228596 0.5 0.43388933
0.5 0.47768795 0.42174593 0.4357768 0.42304057 0.46990424 0.4649817 0.5
0.45793515 0.41714174 0.4075971 0.40491077 0.43954122 0.42828587 0.45713958 0.44180217
0.4596187 0.4250007 0.39302814 0.39852148 0.4050503 0.409802 0.46003628 0.42376667
0.39231128 0.47140965 0.4175095 0.4247021 0.3887437 0.4168807 0.46507162 0.459276

bn2.bias f4 [72]
00000000: 2ae6 d33c a22b f53c d63c a53c d676 743c
00000010: 0ded ad3c cdc0 b93c ab7a 413d 32c6 bc3c
00000020: 37f4 9b3c 9f3e cf3c 20ad a33c dccc 1a3c
00000030: 55f7 313d 4bf7 bb3c efa1 fc3c 650b 753c
00000040: 070e 473d 1776 ad3c 2a19 713c 56fa a33c
00000050: 2a26 f63c 0ac1 243d 76dd be3c 114d 263d
00000060: d30e c13c 2afb 903c c6d9 353c 14db 2a3c
00000070: 485c af3c d801 953c a793 2b3d 2fbf 703c
00000080: 109a a53c 2c56 7d3c d72a 4b3c 3360 943c
00000090: 3015 1f3d 3e85 963b 67ee 133d 4c44 813c
000000a0: 5615 553d d2b8 ad3c ba1a 053c 7e60 6c3c
000000b0: 22ad c13c de03 233d 2145 c73c 149d 3f3d
000000c0: f6d6 b03c 2098 5d3b 816e 393c 9833 653c
000000d0: 0c30 a33c ea56 273c 874c f83c 1975 5d3c
000000e0: 97f2 a33c 4c29 883c ea67 333c 2155 393c
000000f0: 4c1d 743c de05 453c fdbd c43c 3f65 533c
00000100: 5a4e ecbb 51cf 8e3c e77e 14ba 3b4a 0f3c
00000110: 3698 813c e052 763c c20a ae3c 89ac f63c
0.025866587 0.029928032 0.02017061 0.014920911 0.021231199 0.022674942 0.047236126 0.023043726
0.01903735 0.025298415 0.019980013 0.009448256 0.043448765 0.022945067 0.030838935 0.01495633
0.048597362 0.021174474 0.014715472 0.02001683 0.030047495 0.04022316 0.02329896 0.04060084
0.023566639 0.01769789 0.0110992845 0.010428209 0.021406308 0.018189356 0.04188886 0.014694019
0.020215064 0.0154624395 0.0124003505 0.018112278 0.038838565 0.0045935204 0.03611603 0.015779637
0.0520223 0.021206293 0.008124048 0.014427302 0.023642126 0.03979861 0.024324955 0.04678066
0.021586876 0.0033812597 0.01131785 0.013989352 0.019920371 0.010213593 0.030309929 0.013516688
0.020013137 0.016621254 0.010950068 0.0113118 0.014899563 0.012025325 0.024016375 0.012902557
-0.0072114887 0.01743284 -0.0005664662 0.008745725 0.01581965 0.015034407 0.021245364 0.030111568

bn2.running_mean f4 [72]
00000000: 909e 103f ab35 e33e a2f8 22be 828a 873d
00000010: a55a 8f3c 03ec 0d3f 70f7 52be fa66 be3d
00000020: 2ceb cebc 574a a93e 7418 d23d 98a3 c23d
00000030: b9b1 debe c08c f93e d8ed ebbd 236c e53e
00000040: e2f6 94be 2503 453e 7254 d53e c9a3 d43c
00000050: 3a64 3bbd 1859 02be d04b 86be 31eb d3be
00000060: 3589 823e e29b 663e bb0d 24be 9e1a 52bc
00000070: f8bb 6ebc 8b11 843e cf4f 60be 492d 61bc
00000080: 26c1 dabc 3517 343e 2f94 ebbb b9e6 ce3c
00000090: b9b1 debe e569 5e3e 7300 10be f164 333e
000000a0: c282 96be 3784 a23d 2838 3f3e 38e6 74bd
000000b0: 60a0 3fbd 2676 23be b08d 86be 31eb d3be
000000c0: 8681 783e 666c 5c3e 3b23 43be 8123 cabd
000000d0: 5f4e 57bd fabc 793e ab2f cbbe e9e1 02be
000000e0: fff9 f2bc 3664 243e ae41 eabd 6e6a cbbc
000000f0: 602f 46bf fd16 4b3e d6d9 8cbe 4a2f 053e
00000100: 4e8f 11bf 1a05 253d 84e7 203e ecb7 54be
00000110: dc64 4dbd 02ee b8be bdf6 c3be 476d 03bf
0.5649195 0.44376883 -0.15915158 0.06618215 0.017499277 0.5543825 -0.20602202 0.09296985
-0.025258623 0.3306453 0.1025857 0.09503859 -0.43494967 0.48740196 -0.115199745 0.44809064
-0.29094607 0.19239481 0.4166599 0.025957005 -0.04574988 -0.12729299 -0.26229715 -0.41390374
0.25495306 0.22520402 -0.16020863 -0.012823729 -0.014571182 0.25794634 -0.21905445 -0.013743707
-0.026703428 0.17586978 -0.0071892957 0.025256502 -0.43494967 0.21720083 -0.14062671 0.17518975
-0.29396635 0.07935374 0.18673766 -0.059789866 -0.046783805 -0.15963039 -0.26279974 -0.41390374
0.2426816 0.21525726 -0.19056408 -0.09870053 -0.052564975 0.24388495 -0.39684805 -0.1278149
-0.029660223 0.16053852 -0.11438309 -0.024831023 -0.7741604 0.19832988 -0.27509946 0.1300632
-0.5685929 0.04028807 0.15713316 -0.20773286 -0.050145015 -0.36119086 -0.38274184 -0.5133862

bn2.running_var f4 [72]
00000000: 6ab6 df3e b623 ac3e 5645 a93d a4d8 8e3e
00000010: 72bb 323e 61a1 d63e e4b0 0b3e 6ae2 ae3e
00000020: eb48 9b3d 0d6d 983e d589 ae3e 0206 7c3e
00000030: 3f54 7e3c 082c dc3e 324b 383e d725 003f
00000040: b763 b93d 8c7f 983e 284a d23e 090a a03e
00000050: 105c 993d 795b 513e 9860 9c3d a3fe 563c
00000060: f1a5 eb3d 56bc e73d 73d9 a53d c0ba 253e
00000070: f654 063e afb2 e03d e62e e93d 31a6 2e3e
00000080: 52c4 973d ca7f 013e 83d6 2f3e 331f 1c3e
00000090: 2e54 7e3c 18f8 013e 3088 0d3e 7d70 163e
000000a0: 1e52 ad3d c007 1f3e 5304 0b3e 415f 2d3e
000000b0: 60a5 963d 0c63 163e a88f 9a3d a3fe 563c
000000c0: 4c02 0d3e ef63 063e 91bc dd3d e1f5 923e
000000d0: 85b7 383e dedc 0c3e 1b5f 963e 1f46 b13e
000000e0: bb3f 9e3d 624f 1c3e 070a ab3e 2980 663e
000000f0: 3ce4 2a3e 5f20 263e 39fe 953e c6eb 6e3e
00000100: 1793 a43e 465d 5b3e ef73 433e 6bd7 c63e
00000110: 91f3 9d3d 3dd8 c93e 4de4 2b3e 20f9 3d3d
0.43693858 0.33620995 0.08265178 0.2789966 0.17454317 0.41919997 0.13641697 0.34157115
0.075822674 0.297707 0.34089532 0.24611667 0.0155230155 0.43002343 0.17997435 0.5005774
0.09052222 0.2978481 0.41072202 0.31257656 0.07488263 0.2044505 0.07635611 0.013122234
0.1150626 0.11315219 0.08098116 0.1618452 0.13118348 0.10971581 0.11385898 0.17055584
0.07410492 0.12646404 0.17171673 0.15246277 0.015523 0.12692297 0.13821483 0.14691348
0.08462928 0.155303 0.13575868 0.16930868 0.073557615 0.14686221 0.075469315 0.013122234
0.13770407 0.13124059 0.10826982 0.28703216 0.18038757 0.13756129 0.29369435 0.3462381
0.07726999 0.15264657 0.33406088 0.22509827 0.16688627 0.16223286 0.2929552 0.23332128
0.3214347 0.214223 0.19087194 0.38836226 0.07712472 0.3942279 0.16786309 0.046380162

mlp3.weight f4 [24, 72]
00000000: 0000 0000 0000 0000 0000 0000 0000 0000
00000010: 0000 0000 0000 0000 0000 0000 0000 0000
00000020: 0000 0000 0000 0000 0000 0000 0000 0000
00000030: 0000 0000 0000 0000 0000 0000 0000 0000
00000040: 0000 0000 0000 0000 0000 0000 0000 0000
00000050: 0000 0000 0000 0000 0000 0000 0000 0000
00000060: 45ca 573e 3675 923e bc66 883e 4e24 953e
00000070: 4599 593e 4942 a53e 7f8a 863e 94be 593e
00000080: a703 603e 2bfd 4e3e 5b38 843e 25d5 3f3e
00000090: 548d 933e dd40 2a3e e43b 6a3e eb52 5c3e
000000a0: 6103 803e 0f96 893e acf3 5d3e ebd4 703e
000000b0: 49d3 433e 141f 843e 5a21 0c3e 732e 5b3e
000000c0: 7bc6 a53d 5dd5 4c3d 5f58 bd3d 0b0b e53c
000000d0: e859 5f3c a3ae ba3d 3983 613d b345 cb3c
000000e0: 71d9 9d3d d5ff de3c a68f 883c d727 d63c
000000f0: c53b a23c 1f07 963c 37e4 053d d6a1 b33d
00000100: 1a87 943d d3b8 d03c b174 063d fdb2 7b3d
00000110: e6c1 8c3c 6aa9 d73c 6cf1 853c e32d 8f3c
00000120: 4e52 453b 073d 973d 34e4 e93c 5caa 8c3c
00000130: 0000 0000 8b78 2c3c 3bcf 793d 0000 0000
00000140: 2d97 c93d c80f 083c 7428 ca3d 94f8 af3d
00000150: aaaf af3c 53cb b33d cbd2 e43b 9f4a d33d
00000160: 6cc9 c83c 435b a33b 4b1e dd3b 286b 533d
00000170: 9414 ad3c e69f 643d 3c7f 803d 68f7 883c
00000180: 340c e03d 0e46 433e 4393 b43d db3a ff3d
00000190: c6b8 c53c d917 443e 93dd 143e 8355 173c
000001a0: 19b0 ec3d 9d95 8f3d c79b 6a3d 7de8 e63d
000001b0: 3964 053e a67d ad3d 5981 153e ef65 9e3d
000001c0: 937d a63d 0c4a 283e efb2 493e 0c66 1f3e
000001d0: eca2 273e 5308 0f3e f5ba 8c3d 7cd8 7c3d
000001e0: ff03 743c 4d76 373d a7fa e63c 04b4 1a3c
000001f0: 42a4 5e3d 174d d83b 4deb 223b aace d03c
00000200: e87a 9d3b ccea 2a3d 98ed 563c c694 383d
00000210: 3e65 583d b7b4 ce3b 7421 253c 41e3 cb3c
00000220: 1821 e43b 97c8 273c 0311 513c 5587 523c
00000230: a0c6 7b3d 93d5 093c 01ed 1d3d 695e 7c3d
00000240: 0000 0000 0000 0000 0000 0000 0000 0000
00000250: 0000 0000 0000 0000 0000 0000 0000 0000
00000260: 0000 0000 0000 0000 0000 0000 0000 0000
00000270: 0000 0000 0000 0000 0000 0000 0000 0000
00000280: 0000 0000 0000 0000 0000 0000 0000 0000
00000290: 0000 0000 0000 0000 0000 0000 0000 0000
000002a0: c6f6 523e 860b 7e3e 7387 353e 7173 833e
000002b0: 647b 7b3e fc9b 823e 51b5 4a3e 8c76 4c3e
000002c0: 64a1 763e a4bb 263e bdb9 3a3e 6f9d 833e
000002d0: 7cc9 2d3e a707 803e 8384 7d3e 6741 633e
000002e0: fd9e 2d3e 271b 783e cbd4 3e3e 3078 3a3e
000002f0: 2f28 8d3e afd3 4c3e 3d92 803e d4ba 483e
00000300: ff35 ff3c f210 483d 50b4 dc3d 6ddf 8a3d
00000310: d324 893d 85a0 203d 586a 1a3c f4cf 473d
00000320: b8c0 723c c655 b93d dc6f fe3c 34bc b83d
00000330: 424a 9f3d fa75 a23c 8fe6 493d d538 173d
00000340: d2fe a63d c125 203d ee92 a93d d1e6 fd3c
00000350: 4fd2 a53d ef49 e53d e7dd 5a3d a535 a73d
00000360: 0000 0000 0000 0000 0000 0000 0000 0000
00000370: 0000 0000 0000 0000 0000 0000 0000 0000
00000380: 0000 0000 0000 0000 0000 0000 0000 0000
00000390: 0000 0000 0000 0000 0000 0000 0000 0000
000003a0: 0000 0000 0000 0000 0000 0000 0000 0000
000003b0: 0000 0000 0000 0000 0000 0000 0000 0000
000003c0: 49c0 203e 80e8 763e 42b4 3b3e 0932 3d3e
000003d0: 70e3 f93d f1a2 493e c5ca ea3d f954 f63d
000003e0: caf5 fa3d 185c 5f3e 1d81 573e a714 5c3e
000003f0: 24e8 773e 439a 263e 484e 503e 993f 7c3e
0.0 0.0 0.0 0.0 0.0 0.0 0.0 0.0
0.0 0.0 0.0 0.0 0.0 0.0 0.0 0.0
0.0 0.0 0.0 0.0 0.0 0.0 0.0 0.0
0.21073253 0.2860505 0.2664088 0.2912926 0.21249874 0.32277134 0.2627754 0.21264106
0.21876393 0.20213763 0.25824246 0.18733652 0.28818762 0.16626306 0.22874409 0.21516006
0.25002578 0.26872298 0.21674985 0.23518722 0.19123568 0.2580496 0.13684598 0.21404438
0.08094498 0.050008167 0.09245371 0.027959367 0.013632275 0.091153406 0.055056784 0.024813509
0.07707489 0.0272216 0.01667006 0.026142044 0.019803891 0.018313942 0.032688346 0.08771102
0.07252331 0.025478756 0.03282613 0.061449993 0.017182302 0.0263259 0.01635047 0.017477935
0.0030108872 0.07384687 0.028551199 0.017171077 0.0 0.010526787 0.060988646 0.0
0.098432876 0.008304544 0.09870997 0.085923344 0.021446068 0.087790154 0.0069831363 0.10316967
0.024510108 0.0049852445 0.006747996 0.051615864 0.021127976 0.055816554 0.06274268 0.016719535
0.109398276 0.19069692 0.088171504 0.12462398 0.024135958 0.19149722 0.14537649 0.009236696
0.115570255 0.07010958 0.057277467 0.11274812 0.13026513 0.08471231 0.14600123 0.07734286
0.0812942 0.16434497 0.19697164 0.15566272 0.16370744 0.13968019 0.06871597 0.061729893
0.014893531 0.044790555 0.028195692 0.009442333 0.054355867 0.0066009867 0.0024859488 0.02548917
0.0048059113 0.041727826 0.01311817 0.045063756 0.052830927 0.006308164 0.010078777 0.024888637
0.006961953 0.010240695 0.012760404 0.0128496485 0.06146872 0.0084127365 0.038556103 0.061613474
0.0 0.0 0.0 0.0 0.0 0.0 0.0 0.0
0.0 0.0 0.0 0.0 0.0 0.0 0.0 0.0
0.0 0.0 0.0 0.0 0.0 0.0 0.0 0.0
0.20601949 0.24809083 0.17727451 0.25674012 0.24558789 0.25509632 0.19795729 0.19967097
0.24085003 0.16282517 0.18234916 0.2570605 0.16971391 0.25005838 0.2475758 0.22192918
0.1695518 0.24229108 0.18635862 0.1820991 0.2756972 0.20002626 0.2511157 0.1960252
0.031153677 0.048844285 0.107765794 0.06780896 0.06696477 0.039215583 0.009424768 0.048782304
0.014816456 0.09049563 0.031059198 0.09020272 0.077778354 0.019831646 0.049292143 0.036919434
0.08154072 0.039098505 0.08279978 0.03099385 0.08096754 0.11195742 0.05343428 0.08164529
0.0 0.0 0.0 0.0 0.0 0.0 0.0 0.0
0.0 0.0 0.0 0.0 0.0 0.0 0.0 0.0
0.0 0.0 0.0 0.0 0.0 0.0 0.0 0.0
0.15698351 0.24112129 0.18330482 0.18476118 0.122015834 0.19691063 0.114644565 0.12027926
0.12253912 0.21812475 0.21045347 0.21492253 0.24209648 0.16269784 0.20342362 0.24633636

mlp3.bias f4 [24]
00000000: 1390 5bbe 3318 46be 45e1 90bd 3e2d 803d
00000010: b10b b1be 0962 6e3e 0b0d 553e 4d4c 1bbe
00000020: db56 e5bd 764f 6f3e 9851 0bbe fde1 4c3d
00000030: a907 513c aae7 1a3d 2621 be3d 8af1 223e
00000040: cae2 cc3d 4753 f2bd 7dcc 663c 9baa 783e
00000050: b5a9 12be e477 073e 0ee0 0d3e 2536 0bbe
-0.21441679 -0.19345169 -0.07074217 0.06258629 -0.34579232 0.23279585 0.20805757 -0.15165825
-0.11198207 0.23370156 -0.13605344 0.050020207 0.012758174 0.03781859 0.09283666 0.15912452
0.10004194 -0.1183229 0.01408684 0.24283831 -0.1432255 0.13229328 0.13855001 -0.13594873

bn3.weight f4 [72]
00000000: c6ec cc3e d824 cd3e 7773 cc3e 6a46 ca3e
00000010: 2d16 cd3e ddab cf3e c390 ca3e e929 cd3e
00000020: a89e cd3e 9696 cd3e 2f17 d03e 0c5c ca3e
00000030: b076 c93e c8d2 d13e d56f cf3e 5b6b d03e
00000040: c09b cd3e 9577 cf3e 1f88 c83e 1b9f ce3e
00000050: 7625 ca3e 2ff0 ca3e ba46 cf3e addc ce3e
00000060: 7ed1 f73e 0000 003f 0000 003f 0000 003f
00000070: 71be f63e 0000 003f 31e7 f73e 1054 fc3e
00000080: d4f6 ff3e 0000 003f 4d33 fc3e 0000 003f
00000090: 0000 003f 0000 003f 0000 003f 0000 003f
000000a0: bafd fb3e 030d fe3e 3c18 fd3e 9591 fe3e
000000b0: 0000 003f ecf3 fd3e ef50 fd3e 269e ff3e
000000c0: 8e8b ef3e 5834 f23e 4587 f53e e8ab f83e
000000d0: 7c60 ea3e 38d9 f23e 960f ea3e 7ee0 e43e
000000e0: 7275 ec3e abff ee3e 2a72 ec3e 9008 ec3e
000000f0: 5bee f03e 01cb f23e 56d8 f93e 52c4 f13e
00000100: 93ac f13e 0832 f23e d759 fa3e bf36 fe3e
00000110: 0f3d ed3e e653 f83e fcbe e93e 9e7e ec3e
0.40024394 0.40067172 0.39931843 0.39506847 0.4005598 0.4056081 0.3956357 0.40071037
0.40160108 0.4015395 0.40642688 0.3952335 0.39348364 0.40981126 0.4051501 0.40706906
0.4015789 0.4052092 0.39166352 0.40355763 0.39481705 0.3963637 0.40483648 0.40402737
0.48402017 0.5 0.5 0.5 0.4819217 0.5 0.48418573 0.49282885
0.49993002 0.5 0.4925789 0.5 0.5 0.5 0.5 0.5
0.49217016 0.49619302 0.49432552 0.49720445 0.5 0.4960016 0.4947581 0.49925345
0.4678616 0.4730556 0.47954765 0.48568654 0.45776737 0.4743135 0.45715016 0.44702524
0.46183354 0.46679434 0.4618085 0.46100283 0.4705685 0.47420505 0.48797864 0.47220093
0.47201976 0.47303796 0.48896667 0.49651143 0.46335647 0.4850151 0.45653522 0.4619035

bn3.bias f4 [72]
00000000: e6d6 76bd db2e 0dbd e6b3 f0bc 94c6 963c
00000010: 43bb e0bb 37f5 40bc ac05 4bbc ce8b 3dbc
00000020: 0424 4dbd 4766 17bc 7adb 90bd 5b2f 8f3b
00000030: a892 3f3c cb33 94bd 7dcb 153c dc90 38bd
00000040: bf2c 70bc 06b4 19bc 2cb5 49bd 3d97 58bc
00000050: 1717 fcbb 4563 db3c 47e0 b4bc d9ff 8a3b
00000060: 86e5 26bc 823a 6f3c 350b 943c 657f 573c
00000070: 5857 773b 46e7 e13c 21e0 c9bb d356 853c
00000080: 83fa 5a3b d228 d83c ce61 123c 257f d43c
00000090: 8725 423b 2254 ff3c d378 8b3b 206b e03c
000000a0: 5262 4bbc 2a7a aabc 981e d4bc 166f af3c
000000b0: 1f07 ae3c b04c ab3c 7707 b23c fdb4 eb3c
000000c0: b2d6 e03d dec7 ef3d 39bb ee3d 8318 003e
000000d0: 834a e03d 2572 e33d 5b6a ff3d 2f43 ea3d
000000e0: 6460 fb3d ac73 143e 9591 fd3d 6da1 e43d
000000f0: 8824 e23d 5fe8 113e 3c9f 0a3e 7ca2 c93d
00000100: 3d9c cd3d 1886 fd3d cefe f43d bc10 0d3e
00000110: 5751 ed3d 1504 093e f342 063e 0b38 d33d
-0.060263537 -0.034468513 -0.029382657 0.018405236 -0.006858261 -0.011777214 -0.012391489 -0.011568977
-0.050083175 -0.009240693 -0.07073112 0.004369659 0.01169268 -0.07236441 0.009142754 -0.045060024
-0.014659106 -0.0093813 -0.049245045 -0.013219652 -0.007693182 0.026780734 -0.0220796 0.004241925
-0.010186559 0.014601352 0.01807175 0.013152932 0.003774127 0.0275761 -0.0061607515 0.016276753
0.0033413477 0.026386652 0.008934451 0.025939533 0.0029624419 0.031168047 0.0042563467 0.027394831
-0.012413578 -0.020810205 -0.025893494 0.021415275 0.02124363 0.02091059 0.021732075 0.028772825
0.1097845 0.117080435 0.11656804 0.1250935 0.10951712 0.11105756 0.124714576 0.114385955
0.122742444 0.1449725 0.12381283 0.11163602 0.11042124 0.14248799 0.13537306 0.098454446
0.10039566 0.12379092 0.11962663 0.13775915 0.1158778 0.13380463 0.13111477 0.10313424

bn3.running_mean f4 [72]
00000000: 2239 853e 9e6a 9a3e 3615 8e3e 543b 923e
00000010: 4660 823e e779 923e 6c00 873e 368c 903e
00000020: 2cdc 923e 82ea 8f3e 77af 893e 294b 913e
00000030: 4c11 953e 051c 993e 9f5e 913e ed9c 933e
00000040: 96f3 8d3e f9ee 8a3e 699c 9a3e 63b8 893e
00000050: 51df 8e3e 9a90 923e dc6f 8c3e dc33 913e
00000060: d106 7ebb 9916 9e3b f853 ab3b fac8 753b
00000070: 42ab b8bb 8078 ae3b 7907 07ba c821 0dbc
00000080: 1772 bbbb 6f4e 843b 4e19 59ba 3828 8eba
00000090: 26d7 833b 3bc9 943b 33c0 2b3b 4f74 1d3c
000000a0: e89d ebba 8063 213b d62d eb3b a9d9 c03b
000000b0: 53a1 023c ba7a f5ba e2ab 2f3b 89d9 07bb
000000c0: dbcf 78be d789 0abe b308 24be 90cc 23be
000000d0: b000 69be 6899 33be 88a8 58be 4386 56be
000000e0: 528a 38be 1884 16be a937 41be ce8f 16be
000000f0: 3248 0abe 79e8 1ebe f0e2 2bbe d380 11be
00000100: 0429 5ebe 967d 60be 86f4 2fbe cadf 45be
00000110: 24db 1cbe 154b 2fbe a27d 34be 50c5 29be
0.2602015 0.30159467 0.27750558 0.2856089 0.25464076 0.2860863 0.2636751 0.28231972
0.28683603 0.28108603 0.26891682 0.28377655 0.2911476 0.2990419 0.28392503 0.28830662
0.27724904 0.27135447 0.30197456 0.26898488 0.27904752 0.28625947 0.27429092 0.28359878
-0.0038761387 0.004824471 0.0052285157 0.0037503825 -0.00563565 0.0053244233 -0.0005150955 -0.008614011
-0.0057203877 0.0040376703 -0.0008281664 -0.0010845726 0.0040234504 0.00454059 0.002620709 0.00961025
-0.0017976137 0.0024625957 0.007177095 0.005885322 0.007973033 -0.0018728592 0.002680533 -0.0020729026
-0.2429804 -0.13529144 -0.16018943 -0.15996003 -0.22754169 -0.17538989 -0.2115804 -0.20949654
-0.18021515 -0.14698827 -0.18868889 -0.14703295 -0.13504103 -0.15518369 -0.16785789 -0.14209299
-0.21695334 -0.21922907 -0.17183122 -0.1932365 -0.1531797 -0.17118485 -0.1762605 -0.16579175

bn3.running_var f4 [72]
00000000: 3377 323f c11b 493f 7146 363f 8e80 3e3f
00000010: 112e 303f 1013 3d3f a770 323f 2cf3 463f
00000020: 94a1 473f 995e 3a3f b816 363f aa70 403f
00000030: 28f1 413f 0742 463f 6443 3e3f 5c4d 3a3f
00000040: 138a 3c3f bf37 343f 5030 463f 7c9d 2f3f
00000050: 9f76 353f a7be 433f 8b3d 363f 65e4 413f
00000060: 9ff8 503e beff 4d3e 6be2 4d3e 5717 4e3e
00000070: 9669 503e d719 4f3e e453 4f3e a94e 513e
00000080: 34e8 4f3e 9991 4d3e e70d 4f3e 934a 4e3e
00000090: 4236 4d3e 8790 4f3e b77d 4e3e 25b8 4d3e
000000a0: 4a16 513e 51cf 503e c232 503e 871c 503e
000000b0: fcde 4d3e 6e0c 4f3e d8db 4e3e bfbf 4f3e
000000c0: aede 163f 8b79 ca3e bf23 e33e 799d e03e
000000d0: 1268 0c3f 71de f33e 6e17 093f 9207 003f
000000e0: 485d e73e 65b7 d43e b47c f73e 3720 ce3e
000000f0: 7977 c93e cb7c dd3e 47fd e63e 9cbb d73e
00000100: 1856 093f e90d 0f3f f747 f13e 2f08 033f
00000110: e91f e03e 49d0 e33e 81d5 ef3e a6f5 dd3e
0.69713134 0.78557974 0.71201235 0.7441491 0.6882029 0.7385721 0.69703144 0.777148
0.77980924 0.72800595 0.71128416 0.7517191 0.757586 0.774445 0.7432158 0.7277429
0.73648185 0.7039756 0.7741747 0.6859968 0.70884126 0.7646279 0.7118766 0.7573913
0.20407341 0.20117089 0.20105903 0.20126091 0.20352778 0.20224701 0.20246845 0.20440163
0.20303422 0.20075072 0.20220147 0.20145635 0.20040229 0.20269977 0.20165144 0.20089777
0.20418659 0.20391585 0.20331863 0.20323382 0.20104593 0.20219585 0.20201051 0.20287989
0.5893353 0.39545855 0.4436321 0.43870142 0.548463 0.47630647 0.53551376 0.5001155
0.45188355 0.4154617 0.48337328 0.40258953 0.39348963 0.43259272 0.4511511 0.42135322
0.53646994 0.558806 0.47125217 0.5118436 0.43774346 0.44494846 0.46842578 0.43351477

mlp4.weight f4 [1, 72]
00000000: 57ea f03d 0000 0000 4853 bd3d be5f ad3d
00000010: 92c8 893d 9066 a53d 3750 873d 0000 0000
00000020: f640 7c3d 0201 bd3d 0000 0000 1d30 903d
00000030: fcfd f73c f813 8d3d 1f6a 993d cbf8 973d
00000040: 0000 0000 0000 0000 c91f c33d c20f 9b3d
00000050: 6eb4 5d3d f59c c03d fa08 cf3d 0000 0000
00000060: 17f8 a33c 043a 9d3c 0000 0000 0000 0000
00000070: 7c80 553c 0000 0000 0000 0000 0000 0000
00000080: 0000 0000 1f64 893e e962 ca3c 0000 0000
00000090: 0000 0000 0000 0000 0000 0000 42ec 833d
000000a0: 065f d73d 0000 0000 0000 0000 0000 0000
000000b0: 903b 1c3d 0000 0000 06cb 3e3d f69f b73c
000000c0: 8716 ea3d 7217 7d3d d549 c63c 5abb f13c
000000d0: 72d8 973c 5ae1 2f3d 4275 da3c 8a6b c23c
000000e0: 21ad 393d 2bf9 003d 4858 e23d 3e56 a63d
000000f0: d338 a33c 64b4 9a3d 395d 343d 7cf7 013d
00000100: 738c b13c bbe2 e73d d0e2 003d 2785 963d
00000110: ca05 a63d dec3 413d 31b9 053d c8a4 b83c
0.11763447 0.0 0.092444 0.08465527 0.06727709 0.08076203 0.06607097 0.0
0.06158539 0.09228708 0.0 0.07040427 0.030272476 0.06888574 0.07490944 0.074205
0.0 0.0 0.09527547 0.07571365 0.05412715 0.09404937 0.10109134 0.0
0.02001576 0.019192703 0.0 0.0 0.013031121 0.0 0.0 0.0
0.0 0.268342 0.024705367 0.0 0.0 0.0 0.0 0.06441547
0.10516171 0.0 0.0 0.0 0.03814274 0.0 0.046580337 0.022415143
0.11430078 0.061789937 0.024205128 0.029508281 0.018535826 0.04293952 0.026667241 0.02373292
0.045331124 0.031487625 0.110519946 0.08121918 0.019924557 0.07553938 0.044034217 0.03173016
0.021673417 0.11322542 0.031466305 0.073496155 0.08106573 0.047305934 0.032647315 0.022539511
