utility-model-selected/dim-3/utility-72.pt (torch, 23458 bytes, 17 tensors)

bn1.running_mean f4 [3]
00000000: e282 003f df04 003f 3b6e ff3e
0.5019971 0.5000743 0.49888787

bn1.running_var f4 [3]
00000000: 1e52 673d 2814 5c3d cfad 583d
0.056474797 0.05373016 0.05290013

mlp1.weight f4 [24, 3]
00000000: 1368 f33e 00c5 283d c175 ff3d 0a30 073e
00000010: 856a 743e a675 7c3e 4180 393e 0000 0000
00000020: 0276 ea3d 26c5 ec3e 0000 0000 a59c 913e
00000030: e13f da3e 0000 0000 fa51 fd3e 5aef ff3e
00000040: 9e31 f63d d40f ba3e d1c7 fa3e 0000 0000
00000050: 1324 923d 7945 db3e 9bb0 073e 9fb2 a73e
00000060: 1c88 df3d 0000 0000 0000 003f 0000 003f
00000070: 0000 0000 ad8a 9d3d c89f 933e 0000 0000
00000080: a68d aa3e 0ee4 f33e 7e79 ee3d 63cf fe3e
00000090: 4bef e23e 0000 0000 2bb6 f03e 1b98 943e
000000a0: 0000 0000 562a a33e 7817 3b3e b17f 833e
000000b0: a2f0 da3e 0e46 773e 0000 0000 1e0a 8d3e
000000c0: a742 c33e 0000 0000 cbb2 b83e 79b5 aa3e
000000d0: 0000 0000 a970 483e 0000 003f 2c42 4c3e
000000e0: b648 f03e 83e2 2e3e 0000 0000 c5b5 ae3e
000000f0: 0000 003f c412 433d d9bf c23d 1cfd dd3e
00000100: 0000 0000 c913 1a3e 787e 2c3e 4714 843e
00000110: 2076 d53d 0000 003f 0000 0000 dda3 8b3e
0.4754034 0.0412035 0.12473632 0.13201919 0.23868759 0.24654254 0.18115331 0.0
0.114482895 0.46244162 0.0 0.28439823 0.4262686 0.0 0.49476606 0.49987298
0.120211825 0.363402 0.48980573 0.0 0.07135787 0.4282644 0.13250963 0.32753465
0.10914633 0.0 0.5 0.5 0.0 0.07692466 0.2883284 0.0
0.33311194 0.4763493 0.116442665 0.49767599 0.4432319 0.0 0.47013983 0.29022297
0.0 0.31868237 0.18270671 0.25683358 0.42761713 0.24147817 0.0 0.2754678
0.3813679 0.0 0.36073908 0.33341578 0.0 0.19574226 0.5 0.19947118
0.46930474 0.17078595 0.0 0.34123054 0.5 0.04762532 0.09509248 0.4335717
0.0 0.1504661 0.16845119 0.2579672 0.10422921 0.5 0.0 0.27273455

mlp1.bias f4 [24]
00000000: bc47 b83e 036d 02bf 3042 38bf 96ef b2be
00000010: 292d a43e bff8 db3e ecba 443e e71f 0bbf
00000020: 1935 ccbd f272 a83e b918 cd3e c636 193f
00000030: 73c9 c8be 313a 2e3d f726 ee3e f3c4 6bbe
00000040: ae30 29bc 5675 b2be a3d1 eabc 3e3e e6bc
00000050: 8957 163e bdc3 083e d2d6 40bc bf81 b23c
0.3599223 -0.5094759 -0.71975994 -0.34948415 0.32065704 0.42963216 0.1921193 -0.54345554
-0.09971065 0.32900196 0.40057924 0.598492 -0.39216194 0.042535964 0.46514103 -0.23024349
-0.010326548 -0.34855145 -0.028664416 -0.028105851 0.1468183 0.13355918 -0.011769967 0.021790383

mlp2.weight f4 [24, 72]
00000000: 0000 0000 0000 0000 c058 213e a3e5 2f3e
00000010: d25d 363e 0000 0000 b130 cd3d 0000 0000
00000020: 30a3 fe3d 4cbb 7b3d a368 533e 0000 0000
00000030: 2a6a 683e ef1c 103e 0000 0000 dcec 583e
00000040: ed7b 113e f746 453d 0000 0000 0000 0000
00000050: 7afe f53a d856 1f3e 0000 0000 2ac0 603e
00000060: 9191 483c 0000 0000 5572 183e 616e 133e
00000070: 19b4 333d 0000 0000 6324 f63d 0000 0000
00000080: e960 c13d c181 733d b633 0e3e 0000 0000
00000090: 268c 223e 6d6e 323e 0000 0000 ab61 043e
000000a0: 9a18 0c3e 6957 f23b 0000 0000 5b32 203b
000000b0: 0000 0000 1ce7 df3d 0000 0000 5f27 2e3e
000000c0: 0000 0000 0000 0000 0610 f73d f4bf 563e
000000d0: 5b5e 193d 0000 0000 c3f7 bc3d 0000 0000
000000e0: af32 1d3d 219f 523d 53a2 a63d 0000 0000
000000f0: 8b9a 663e fcc1 e23d 0000 0000 ef5a 343e
00000100: f300 443c 5a7f e43c 0000 0000 4c96 903b
00000110: 7a6d 3d3c 0e6a fe3d 0000 0000 4171 063e
00000120: b93e bd3a 0000 0000 4fab f03d ce63 143e
00000130: c6d1 e03d 0000 0000 32b9 0b3e 0000 0000
00000140: 630a 113e 3910 6c3d 9e37 303e 0000 0000
00000150: 262b 723e 3716 333e 0000 0000 2384 023e
00000160: cccf f23d 17ec 1e3c 0000 0000 0000 0000
00000170: 0000 0000 793d ff3d 0000 0000 c96d 633e
00000180: 0000 0000 0000 0000 2181 f03d 97f1 4d3e
00000190: a7bb 913d 0000 0000 61ea 523d 0000 0000
000001a0: dfec 063e abac a03d a184 b13d 341e 263d
000001b0: 5e8a 843e fbca 2a3e 0000 0000 e9b7 273e
000001c0: a7bf b73d f081 5b3d 0000 0000 f9da 373c
000001d0: 0000 0000 84a6 103e 0000 0000 a545 133e
000001e0: 0000 0000 0000 0000 2500 e43d ad73 713e
000001f0: 43d7 023d 0000 0000 f8ac ae3d 0000 0000
00000200: 87d3 ce3d c62e 653c ee96 a63d 7bdc b33c
00000210: 8b4e 423e e0fb 193e 0000 0000 7f41 1d3e
00000220: c331 fa3d abf7 093a 0000 0000 1c73 293c
00000230: 0000 0000 396c 5e3e 0000 0000 e5b9 433e
00000240: 0000 0000 0000 0000 5d1d 1e3e 459a 5c3e
00000250: e8ad 223e 0000 0000 e966 d13d 0000 0000
00000260: 7290 e93d be80 d63d faf9 253e 0000 0000
00000270: 1091 333e 4947 dc3d 0000 0000 bdf5 c03d
00000280: 814e 2e3e 5a99 903c 0000 0000 0000 0000
00000290: 0000 0000 0762 6d3e 0000 0000 18cd 443e
000002a0: 0000 0000 0000 0000 0008 283e e446 343e
000002b0: 645b 533d 0000 0000 535a 603d 0000 0000
000002c0: 5c5e 913d 0ea7 783d e429 1a3e 0000 0000
000002d0: 148d 273e 66bc 223e 0000 0000 146a d73d
000002e0: 6ad0 5c3d c676 183c 0000 0000 1856 173c
000002f0: 0000 0000 337d 343e 0000 0000 50c3 2c3e
00000300: 0000 0000 0000 0000 876d f13d 6d68 273e
00000310: 0000 0000 0000 0000 c951 133d 0000 0000
00000320: 58d1 893d 51cd 953b 5aad f53c 6968 b13c
00000330: ec8c 333e 2f87 a23d 0000 0000 c102 0d3e
00000340: 0000 0000 0000 0000 0000 0000 5aac 073c
00000350: 0000 0000 4458 253e 0000 0000 054a 2c3e
00000360: 0000 0000 0000 0000 b22d 153e a68e 193e
00000370: fa6a 613e 0000 0000 c566 1a3e 0000 0000
00000380: 1732 263e ac89 333d aa6f 123e 0000 0000
00000390: fbe0 383e a49f 483e 0000 0000 e8d0 143e
000003a0: e45e 6b3e 5e50 953d 0000 0000 0000 0000
000003b0: 0000 0000 5a18 493e 0000 0000 11cf 4b3e
000003c0: 0000 0000 0000 0000 7970 033e dc08 503e
000003d0: 88e7 2a3e 10de 383c 40cc 083e 0000 0000
000003e0: 1173 2f3e cb8b 773d 24d6 d83d 7fb7 173d
000003f0: c568 613e 2ed4 2f3e 9599 163b 523c 2a3e
0.0 0.0 0.15756512 0.17177443 0.17809227 0.0 0.10019053 0.0
0.12433469 0.061457917 0.20645384 0.0 0.22696748 0.14073537 0.0 0.21184105
0.1420743 0.04816338 0.0 0.0 0.0018767857 0.15560472 0.0 0.21948305
0.012241737 0.0 0.14887364 0.14397575 0.043872926 0.0 0.12018659 0.0
0.09442312 0.059449915 0.13886914 0.0 0.15873775 0.17424937 0.0 0.12927882
0.1368126 0.007395674 0.0 0.0024444077 0.0 0.109327525 0.0 0.17007206
0.0 0.0 0.12063603 0.20971662 0.0374435 0.0 0.09226944 0.0
0.038378414 0.05142129 0.0813643 0.0 0.22519891 0.11072156 0.0 0.17612813
0.011963117 0.027892757 0.0 0.004412448 0.011561746 0.12422572 0.0 0.1312914
0.0014438248 0.0 0.117514245 0.14491197 0.10977511 0.0 0.13644865 0.0
0.14164118 0.05763266 0.17208716 0.0 0.23649272 0.17488943 0.0 0.12745719
0.1185604 0.009699843 0.0 0.0 0.0 0.12462897 0.0 0.22209848
0.0 0.0 0.117433794 0.2011169 0.0711587 0.0 0.051493052 0.0
0.13176297 0.07845434 0.08667875 0.040556148 0.25886816 0.16678993 0.0 0.1637875
0.08972102 0.053590715 0.0 0.011221641 0.0 0.1412602 0.0 0.14382036
0.0 0.0 0.1113284 0.23579283 0.03194357 0.0 0.08529085 0.0
0.100989394 0.013988202 0.08134256 0.02195572 0.18975274 0.15037489 0.0 0.15357016
0.122165225 0.00052630407 0.0 0.010342386 0.0 0.21720971 0.0 0.19113882
0.0 0.0 0.15440889 0.21543224 0.15886652 0.0 0.10224707 0.0
0.11404504 0.104737744 0.1620864 0.0 0.17535806 0.10755784 0.0 0.09421871
0.17022134 0.017651249 0.0 0.0 0.0 0.23181926 0.0 0.19218862
0.0 0.0 0.16409302 0.17605168 0.05160083 0.0 0.05477364 0.0
0.07098076 0.06070619 0.15055043 0.0 0.16362411 0.15892181 0.0 0.1051828
0.053909697 0.009305662 0.0 0.009236835 0.0 0.17625885 0.0 0.16871381
0.0 0.0 0.11788469 0.16348429 0.0 0.0 0.03596667 0.0
0.06729382 0.0045715948 0.029989887 0.021656232 0.17534226 0.079359405 0.0 0.13770582
0.0 0.0 0.0 0.008280838 0.0 0.16146952 0.0 0.16825111
0.0 0.0 0.14568213 0.14995822 0.22013465 0.0 0.15078266 0.0
0.16230045 0.043832466 0.14300409 0.0 0.18054573 0.19592148 0.0 0.14532816
0.22985417 0.072907194 0.0 0.0 0.0 0.19638196 0.0 0.19903208
0.0 0.0 0.12835874 0.2031588 0.16689885 0.011283413 0.13359165 0.0
0.17133738 0.06043605 0.10587719 0.03704023 0.22012623 0.17170784 0.0022979726 0.16624573

mlp2.bias f4 [24]
00000000: 559e 4dbd 56c5 f5bc 16b1 04be 49b2 83bb
00000010: 774c 97bd 9bfc 08be cfe9 df3c 35f3 12bd
00000020: 5f40 20bd 4c5b 8b3c c823 523d b7b3 2dbe
00000030: e3dc 0fbe 08d4 d8bd 2190 4b3d 62e4 813c
00000040: bc66 ed3c 5c88 4b3d ba3b 01be 7edf fe3a
00000050: 43b0 b93c 1e18 523c e8f6 03be 2285 0dbe
-0.050199825 -0.030001324 -0.12958178 -0.004019056 -0.073876314 -0.13377611 0.027333168 -0.03587647
-0.03912389 0.017011307 0.051303655 -0.16963087 -0.14049105 -0.10587317 0.049698 0.015855972
0.028979652 0.04969059 -0.1262044 0.0019445268 0.022667056 0.012823133 -0.12887156 -0.13820317

bn2.weight f4 [72]
00000000: 1758 d93e 4bce c63e 043f fa3e fcdd f63e
00000010: e1b3 f43e b929 cb3e 3c91 fa3e af07 d13e
00000020: ada2 f43e 8bf5 f23e 3619 f43e 7750 c13e
00000030: ab73 f13e 01a7 f33e 64d8 be3e 4322 f63e
00000040: 1684 e93e f7cd ed3e a0c2 ce3e e2f9 dd3e
00000050: 048a da3e 455a f63e dac8 c53e e1ea f13e
00000060: 3a87 d23e 6456 c43e be95 fa3e 0000 003f
00000070: 56ab fd3e ffc5 cd3e 4896 fb3e 215d ce3e
00000080: 0000 003f 887e e73e f8e7 fc3e dcbd df3e
00000090: 0000 003f b28e fd3e cb64 d03e 0000 003f
000000a0: 6350 ee3e 61b2 e93e b391 c43e abaf e43e
000000b0: 921a d43e 0000 003f 4109 c93e e43b ff3e
000000c0: 7a08 d13e 00c3 c53e ecc9 f63e 0000 003f
000000d0: 2512 ff3e 0cd4 d43e e922 f93e 3a91 c73e
000000e0: 0000 003f 63d2 e13e 1634 fd3e 0890 dc3e
000000f0: 0000 003f b72a ff3e 1f1c d13e 0000 003f
00000100: c081 f23e df05 de3e 8612 c53e e166 e23e
00000110: dbb3 d03e 0000 003f 1870 c93e a99c fd3e
0.4245002 0.38829264 0.48876202 0.48216236 0.47793487 0.3968027 0.4893893 0.40826175
0.47780362 0.4745296 0.47675484 0.37756702 0.4715856 0.4758835 0.37274468 0.48073015
0.45608586 0.464462 0.40382862 0.43354708 0.42683423 0.48115745 0.386298 0.4724951
0.41118795 0.3834716 0.4894237 0.5 0.4954478 0.40190122 0.49138093 0.40305427
0.5 0.45213723 0.49395728 0.4369954 0.5 0.4952293 0.407019 0.5
0.46545705 0.45643905 0.3839241 0.44665274 0.41426522 0.5 0.39264873 0.4985038
0.4082678 0.38625336 0.4820093 0.5 0.4981853 0.4156803 0.48659447 0.38977987
0.5 0.44105825 0.494538 0.43078637 0.5 0.49837276 0.40841767 0.5
0.47364616 0.43363854 0.38490695 0.44219115 0.4076222 0.5 0.39343333 0.49533585

bn2.bias f4 [72]
00000000: 0a78 23bd 688a 28bd f919 3bbd 0ab0 48bd
00000010: 4d8f 45bd 1cc9 1bbd 6a15 40bd e049 28bd
00000020: 74f4 3dbd b163 43bd 1f1d 4cbd 3092 35bd
00000030: d744 45bd a374 53bd dd45 36bd 3d7b 54bd
00000040: 226f 4abd ad92 30bd e2d1 37bd 2fd6 41bd
00000050: 5af7 29bd 5b2b 41bd d140 43bd 78c5 49bd
00000060: abcf 4ebd 6287 2abd 22ae 4ebd e645 3dbd
00000070: 65db 5abd 12ac 42bd 1487 4ebd 5095 22bd
00000080: b434 3bbd 3136 43bd b864 60bd 58d8 50bd
00000090: 304b 45bd 8ea0 4ebd 2e3f 56bd 7e62 54bd
000000a0: 70ec 43bd 2d6e 30bd 8482 42bd 60e6 4abd
000000b0: 60ae 22bd a344 40bd f3c2 36bd 3f5a 40bd
000000c0: 2a7a 23bd 3ada 47bd e44e 3fbd e3a9 47bd
000000d0: 7c3d 57bd c074 39bd c199 47bd 3803 3dbd
000000e0: 5440 4fbd 4590 44bd 7083 65bd ee99 62bd
000000f0: e989 53bd da4f 4dbd 5407 57bd 2c14 52bd
00000100: 96cf 32bd 7069 28bd d8d2 3cbd 081a 4dbd
00000110: ab06 29bd d16b 43bd 3503 31bd ed41 47bd
-0.0399094 -0.04114762 -0.045679066 -0.04899601 -0.048232365 -0.03803359 -0.046895422 -0.041086078
-0.046375707 -0.047702495 -0.04983246 -0.04432887 -0.048161354 -0.051624905 -0.04450022 -0.05187534
-0.04942239 -0.04310863 -0.044877894 -0.047323402 -0.04149566 -0.047160488 -0.047669236 -0.049260587
-0.050491016 -0.041633017 -0.050459035 -0.04620924 -0.053431887 -0.04752738 -0.05042179 -0.039693177
-0.04570456 -0.047659103 -0.054783553 -0.05098757 -0.048167408 -0.050446086 -0.052306347 -0.051851742
-0.047832906 -0.04307382 -0.04748775 -0.04953611 -0.03971708 -0.046940457 -0.04461951 -0.046961065
-0.039911427 -0.0487921 -0.046706095 -0.048746 -0.05254887 -0.045277357 -0.048730616 -0.046145648
-0.050598457 -0.04798915 -0.05603355 -0.05532258 -0.051645193 -0.05012498 -0.052497223 -0.05128877
-0.043655 -0.041116178 -0.046099514 -0.050073653 -0.041266125 -0.047710244 -0.04321595 -0.048646856

bn2.running_mean f4 [72]
00000000: 3051 b93e 1539 b4be 4d66 f6be 2448 46be
00000010: 6c38 b33e a1b6 e33e bd9e 513e f039 95be
00000020: 363e 0abd 89cb a73e 946d ce3e 23b8 1c3f
00000030: b41a 38be f59b 803d d8b0 f03e 4f72 3abe
00000040: 7fec 243d 8a22 83be ed9f aa3d 1be3 2bbc
00000050: 58e7 273e 5f61 143e 9023 8ebb 9d0e 9c3d
00000060: 7371 5c3e d664 b4be 4d66 f6be a4c0 51be
00000070: c311 283e 0dc1 5e3e e91c ef3d dcc5 97be
00000080: 53c6 7abd d71f 423e 3bab 893e a236 8d3e
00000090: 9dd0 50be 9927 f63c b6fe 883e fc1c 3cbe
000000a0: 4fa2 f9bb c554 83be e52e 89bc a779 bcbc
000000b0: 3869 af3d c6b6 b63d 01e6 22bc b62d 4b3c
000000c0: 517e 5a3e 6382 02bf 1ff6 36bf 1ba7 b8be
000000d0: 63d7 0a3e 046f 4f3e a708 dc3d fe65 0cbf
000000e0: bc8b fcbd 0790 3f3e 28e4 883e 796a 863e
000000f0: 3763 d5be 2dc8 393c c164 863e 28f4 6ebe
00000100: 6825 64bd 579f b3be acd2 03be db48 20bd
00000110: 5346 8c3d e433 9f3d 7c56 8ebc 15ea 2cbd
0.36194754 -0.351998 -0.48124924 -0.19363457 0.35003984 0.44475272 0.2047071 -0.29145765
-0.033750735 0.32772473 0.40317976 0.6121847 -0.17978936 0.062797464 0.4700992 -0.18207668
0.040264603 -0.2561229 0.08331285 -0.010491158 0.16396844 0.14490269 -0.0043377355 0.07619975
0.21527652 -0.35233182 -0.48124924 -0.20483643 0.16413026 0.2175333 0.11675436 -0.29643142
-0.061224293 0.18957458 0.2688845 0.27580744 -0.2039208 0.030048179 0.2675683 -0.18370432
-0.0076182256 -0.25650612 -0.016745994 -0.023007227 0.08564991 0.0892158 -0.0099425325 0.012401035
0.21337248 -0.50980204 -0.714693 -0.3606499 0.13558726 0.20257193 0.10743838 -0.5484313
-0.1233134 0.18707286 0.2673657 0.26253107 -0.41677257 0.0113392295 0.26248744 -0.23335326
-0.055699736 -0.35082504 -0.12873334 -0.03913198 0.06849351 0.07773569 -0.017375223 -0.042215426

bn2.running_var f4 [72]
00000000: c484 763e 1419 373d 151d 3b3b 4637 093e
00000010: a181 bb3e 82e8 bb3e e2fc 6d3e e67c c43d
00000020: b530 3e3e 16be 803e 7ea8 433e 894e ea3e
00000030: f640 2f3e 4e8d 233e 64f6 8d3e 67d2 b53d
00000040: e993 533e 04b8 993d 0317 a73e ec5b 013e
00000050: 6b47 723e cf24 463e d657 cd3d 346f 773e
00000060: 7260 d93d 4857 343d 151d 3b3b d7f7 eb3d
00000070: 2480 0f3e 8666 f83d ce1f 0e3e 42f1 b03d
00000080: 7f0d 183e 3694 f33d 4dd1 a23d 9a03 df3d
00000090: f7eb 023e f5ab f33d d45b c13d a3c0 b03d
000000a0: e708 0f3e 485e 983d 626c 2a3e 7ab7 e23d
000000b0: 5f41 173e a69a 063e 9e29 bf3d b12d 1d3e
000000c0: 7fd6 df3d 75ac 0d3e 05f3 423d 7a59 8b3e
000000d0: b257 423e 731b 183e ac66 1b3e b5f4 993e
000000e0: 09b6 623e fe6c fb3d 4334 a83d 0e7d 0a3e
000000f0: 9374 ba3e 1d59 133e 6309 d53d 680d 063e
00000100: db74 513e bd25 173e eb2d ac3e d2be 043e
00000110: f06d 2f3e 68da 163e 331e d13d 07ba 6a3e
0.24074084 0.04470165 0.002855127 0.13399991 0.36622337 0.36700827 0.23240998 0.09594135
0.18573268 0.25145024 0.19107243 0.45763043 0.17114624 0.15971872 0.27727044 0.08878022
0.20661892 0.07505801 0.32634744 0.12632722 0.23660056 0.19349979 0.10026519 0.24163514
0.106140986 0.04402855 0.002855127 0.11521881 0.14013726 0.1212893 0.1387932 0.08639766
0.14848898 0.11893503 0.07950077 0.10889359 0.12785326 0.118980326 0.09441343 0.086304925
0.1396824 0.07439858 0.16642907 0.110701516 0.14771031 0.13144931 0.0933411 0.15349461
0.10929584 0.13835318 0.047595043 0.27216703 0.18978766 0.14854221 0.15175885 0.3006951
0.22139753 0.12276648 0.08213093 0.13524267 0.36417064 0.14389463 0.10402181 0.13091052
0.20454733 0.1476049 0.33628783 0.12963417 0.17131782 0.14731753 0.10210838 0.22922526

mlp3.weight f4 [24, 72]
00000000: 4c49 0e3e e79c 193e eac5 e83d 8dba 343e
00000010: 54d9 f63d a055 2f3e e58d ce3d 0cb9 d73d
00000020: eae6 d93d c933 433e dc0d dc3d 0b1d a33d
00000030: 50e4 333e 64c7 0b3e cc5d 033e 957a c53d
00000040: a386 dc3d 3b54 803d 2214 1c3e de8f 0e3e
00000050: f39c a43d 899e 1d3e c330 023e 4f4b 263e
00000060: 3f27 583b 053e 253c 9686 123e 99d0 e13c
00000070: f6d5 813d 6c48 f73d 312f fe3c 6f7f 4e3d
00000080: fdf8 da3c 5201 8a3d 1b3e 473d c2ce 483d
00000090: 86fe 873d 9bcb 803d 0c62 d43d 11b1 8d3d
000000a0: 0000 0000 f032 543d 0810 d73d ea1c f23c
000000b0: c8c8 a53d 9b22 d93c edd7 593d 0bbc a13d
000000c0: 9d4f 4c3d 4f7d b23d b11f c83d c096 433d
000000d0: 2e12 ed3c 6659 6b3d 63a9 b63c 1a33 1f3d
000000e0: 8c1d 803d 7e86 0f3d b5b3 a13d a9c7 d23c
000000f0: 118d 613d b31b 8b3c 4c17 d53c 03f5 603d
00000100: 381a 9d3d 1371 a43c 0955 923d 78ad 813d
00000110: 8177 cc3c 0c28 ba3c 1aac f93c 8889 663d
00000120: f357 c43d df9e aa3d e479 363e facd a03d
00000130: 7789 063e 2fb2 063e a107 ff3d 8e56 1d3e
00000140: 0380 243e 7408 233e 3e05 d03d 5bec 163e
00000150: 11b7 1e3e fb42 023e f2f7 ec3d 27e5 c73d
00000160: a2fd 863d 55b7 ac3d 058a e73d 9963 1e3e
00000170: eb2c ec3d 449a 1d3e 3fca be3d f291 e93d
00000180: 34b9 9a3d 738c b93c af73 a83d 95f6 ab3d
00000190: 3876 ea3d 43e5 fe3d ef8a 643d 14c1 f43c
000001a0: 23ad fc3d beda 8f3d f6f8 013d 64ad 6a3d
000001b0: e096 0c3e de76 173d fb90 643d 7729 8c3d
000001c0: e36b da3c 9ae2 5b3d f78a 573d 331c af3d
000001d0: baae 223d 5780 213d f91e 953d c2be 9d3d
000001e0: 8288 8c3b b7bb 1d3c 8eeb 643d c5f5 9d3c
000001f0: 2ffd 603d ed52 163c d920 2d3d 2705 883c
00000200: daf0 a63b a57c 043d f808 913b b494 c03b
00000210: a495 a53b 6007 fd3b fa9b 293d 6e34 b63b
00000220: 9444 7b3b 6365 1b3d b939 433d 7835 e43c
00000230: 1328 593d 53bc a63b 0e7c 363d 27b4 d13c
00000240: f429 183e b97e e53d d495 d03d 2ce5 e03d
00000250: 95f8 003e 7777 003e e3db a23d a601 da3d
00000260: f9e2 893d fec9 e33d 9b21 b63d cdf5 073e
00000270: 352b bc3d 385f 9a3d 818d 923d fc86 0e3e
00000280: 1cc9 bc3d 51e7 753d 22df ed3d 0bf6 143e
00000290: e591 f83d 0af4 8a3d 0f36 b63d c1ae 093e
000002a0: 931f bc3d 47d7 3c3d 8338 f73d 90e3 b73d
000002b0: ac5e ad3d bbe3 c63d ed01 b23d 9409 633d
000002c0: a5be d13d f7a7 373d 2820 003d 8735 d63d
000002d0: c0e2 143e b7cb 2d3d 78c0 d73d ec30 a43d
000002e0: 0cbf 7a3c e160 073d ea86 a33d 213a a73d
000002f0: 6a34 8d3d ae7b cb3d 140e 7f3d 690a cf3d
00000300: eaa4 cc3b 138c 153d 80ed 443d ffd6 f23b
00000310: 1094 003c 9199 db3c aa85 e83b 40fa dc3b
00000320: 166e 163c b2d5 e43b a442 d63b 8589 0c3c
00000330: 542a 523d b0dd 093c 314f 023c 417c 023c
00000340: 331c bb3b 137d ea3b 2533 673c 5980 063c
00000350: 503f ff3b c405 bc3c 6839 f43b a887 f93b
00000360: f897 103e 357b 923d f6ca 9b3d 79d5 a23d
00000370: d199 e63d f42e e53d 72cc 013e 2d4b 6d3d
00000380: bd9e 253e a6f0 e33d 697b 1d3e 7895 273e
00000390: 7492 203e 33b4 183e 307a 5b3d 9863 c53d
000003a0: 81e7 073e 5b31 e13d 1168 aa3d f3b5 893d
000003b0: 710e 963d 55ee d93d 93d3 153e f0d4 d13d
000003c0: 0000 0000 0000 0000 49c5 5a3d 0000 0000
000003d0: a7be 8a3b a236 d33c 0000 0000 875d 243a
000003e0: 0000 0000 0000 0000 0000 0000 0000 0000
000003f0: 0000 0000 0000 0000 5352 0e3c 0000 0000
0.13895148 0.1500126 0.11365874 0.17649288 0.12053171 0.17122507 0.10085658 0.10533342
0.106397465 0.19062723 0.10744831 0.07964524 0.17567563 0.1365028 0.1282875 0.09642521
0.107678674 0.06266066 0.15242055 0.13922068 0.08037748 0.15392508 0.12713914 0.16239665
0.0032982377 0.010085587 0.14309153 0.027565287 0.06339638 0.1207436 0.031028362 0.0504145
0.026730055 0.06738533 0.048643213 0.049025305 0.06640343 0.06288835 0.103702635 0.06918538
0.0 0.05180639 0.105011046 0.029554803 0.080949366 0.026505759 0.05318444 0.078971945
0.049880613 0.08715307 0.0977167 0.04775119 0.028939333 0.057458304 0.022297567 0.038867094
0.062556356 0.03504037 0.078956045 0.025729971 0.055066172 0.016980981 0.026012085 0.05492116
0.076710165 0.02007345 0.071451254 0.06331915 0.024959328 0.022724174 0.030477572 0.056283504
0.095870875 0.083310835 0.17819935 0.07851787 0.13138376 0.13153909 0.12452627 0.15365049
0.16064458 0.15921193 0.1015725 0.147386 0.15499522 0.12720864 0.11570729 0.09760504
0.06591345 0.08433405 0.11305622 0.15467681 0.11532005 0.15390879 0.09315919 0.1140479
0.07554856 0.02264998 0.0822519 0.08396641 0.1144833 0.12446072 0.05579656 0.029877223
0.12337711 0.07024144 0.03173157 0.057294264 0.13729429 0.036978595 0.055802327 0.06843846
0.026662773 0.0536829 0.05262276 0.085503004 0.039717413 0.039429035 0.07281298 0.077024
0.004288734 0.009627274 0.055888705 0.019282231 0.054928955 0.0091750445 0.042267654 0.01660402
0.0050946297 0.032345433 0.004426118 0.005877102 0.005053239 0.0077218264 0.041408516 0.0055604493
0.0038340436 0.037938487 0.04766247 0.027857527 0.053016733 0.005088368 0.0445519 0.025598599
0.14859754 0.11205811 0.101848274 0.10981211 0.12594827 0.12545572 0.07952096 0.10644846
0.06732745 0.11122511 0.088931285 0.1327736 0.091879286 0.07537693 0.07155896 0.1391868
0.09218046 0.060035054 0.11614825 0.14546983 0.12137202 0.06784828 0.088970296 0.1344557
0.0918571 0.046103742 0.12071326 0.08978951 0.08465323 0.09711405 0.086917736 0.055429056
0.10241441 0.044837918 0.031280667 0.10459428 0.14539623 0.042430606 0.105347574 0.080171436
0.015304338 0.033051375 0.07984717 0.08165384 0.06894763 0.099356994 0.062269285 0.101094075
0.006245245 0.03651054 0.04807806 0.0074108834 0.007847801 0.026806625 0.007096012 0.0067436993
0.00918152 0.0069834823 0.006538706 0.008577709 0.0513099 0.008414671 0.007953451 0.007964195
0.0057101487 0.0071560233 0.014111315 0.008209311 0.00778953 0.022951968 0.0074531324 0.0076150484
0.14120471 0.07152406 0.07607071 0.07950873 0.11259807 0.11190596 0.12675646 0.05793302
0.16173835 0.111298844 0.15379108 0.16365612 0.15680867 0.1491249 0.053583324 0.096381366
0.13271905 0.10995742 0.0832063 0.06724157 0.07326973 0.10641161 0.1463149 0.10245693
0.0 0.0 0.053410802 0.0 0.0042341533 0.025782887 0.0 0.000627004
0.0 0.0 0.0 0.0 0.0 0.0 0.00868662 0.0

mlp3.bias f4 [24]
00000000: 1c9c 88bb ef22 f03d c874 ec3d cbb6 233d
00000010: 8e63 0bbc 264b 0f3c b26d 363e 8a9e 4e3d
00000020: 6148 f63d 432d 043e a626 9bbc 5e14 af3d
00000030: 3fa4 9c3c b004 ed38 8fa0 8b3d 96ce 1c3e
00000040: c894 2abc 9297 d03d b789 963d 3f85 ed3c
00000050: 602e 193e f6f7 503d 033c ccbc 51fc cd3d
-0.0041690003 0.11725413 0.11545712 0.039969247 -0.008507622 0.008745944 0.17815283 0.050444163
0.12025524 0.12907891 -0.018939327 0.085488066 0.019121287 0.00011301914 0.068177335 0.15313181
-0.010411449 0.1018516 0.07350486 0.0289942 0.14959097 0.051017724 -0.02493096 0.10057891

bn3.weight f4 [72]
00000000: 0000 003f 0000 003f 0000 003f 0000 003f
00000010: 0000 003f 0000 003f 0000 003f 0000 003f
00000020: 0000 003f 0000 003f e3cb fe3e 0000 003f
00000030: 0000 003f 0000 003f 0000 003f 0000 003f
00000040: aebd fd3e e787 fa3e 0000 003f 0000 003f
00000050: 17c3 ff3e 0000 003f 0000 003f 0000 003f
00000060: b132 e23e 0787 e53e 0000 003f 7622 ed3e
00000070: 671b ff3e 0000 003f f3c5 e23e 89a8 eb3e
00000080: b8ba f53e b3ce e53e 9edc e63e efe9 fb3e
00000090: 0a48 f53e 3406 e63e b190 ec3e 7019 fa3e
000000a0: 95b4 db3e 15ec db3e 1719 fd3e 0e63 f13e
000000b0: ed1c f33e 9587 ed3e f82e f33e 0000 003f
000000c0: 9dd8 da3e 7829 de3e 0aa1 df3e 845b de3e
000000d0: 5cbf e33e 09fa e53e fe79 de3e e056 df3e
000000e0: 8a02 e03e 774e e13e c7ca de3e 6758 df3e
000000f0: 8fa3 de3e 8615 dd3e 7703 e43e 7db4 e23e
00000100: 7d29 e23e d9a8 df3e 3fbd e23e a336 df3e
00000110: 1612 e13e d1dc df3e 48b0 df3e 3ffe e03e
0.5 0.5 0.5 0.5 0.5 0.5 0.5 0.5
0.5 0.5 0.49764928 0.5 0.5 0.5 0.5 0.5
0.49558777 0.4893181 0.5 0.5 0.4995353 0.5 0.5 0.5
0.441793 0.4482958 0.5 0.46315354 0.49825594 0.5 0.44291648 0.4602702
0.47994018 0.4488426 0.45090193 0.49201915 0.47906524 0.44926608 0.4620414 0.48847532
0.4291121 0.42953554 0.49433205 0.47145885 0.47483006 0.46392503 0.47496772 0.5
0.42743388 0.43391013 0.4367755 0.43429196 0.44481933 0.44917324 0.43452448 0.43620968
0.43751937 0.44005176 0.43514082 0.43622133 0.4348416 0.43180484 0.44533893 0.44278327
0.44172278 0.43683508 0.44285008 0.43596372 0.4395911 0.43723157 0.4368918 0.43943974

bn3.bias f4 [72]
00000000: 018d a13d fbb5 9e3d 4b53 a53d a937 a33d
00000010: 26e7 9e3d b6f1 a63d a2da 9a3d 63d9 a43d
00000020: 19dd a03d e881 a03d 803b a83d 5ad1 a23d
00000030: 0780 a33d cee1 9b3d 464a a53d a381 9b3d
00000040: 1398 9c3d 2a13 a53d 306f 9c3d 0a9b 9f3d
00000050: ad9b a73d 7965 9c3d d7cf 9b3d fbfb a13d
00000060: 68bf 803d 5a41 863d a81e 903d 6a1c 713d
00000070: fa0f 893d bb7e 963d 21a2 4d3d 73c8 843d
00000080: ade4 8f3d f6b4 603d 5ad7 363d 71ca 923d
00000090: 564f 8e3d cc00 843d 206e 613d bc4d 843d
000000a0: 901e 363d 8ddd 2f3d 1f81 993d aeae 933d
000000b0: 59cd 373d 2e48 733d b370 713d 132c 963d
000000c0: c5a2 373d df34 733d b916 5f3d a7da 533d
000000d0: 7a84 553d e319 543d 620e 533d 3e90 573d
000000e0: 7a26 5e3d 0c29 583d 79e0 4b3d 3238 483d
000000f0: 0ec1 573d 9c50 263d 7f8f 5d3d 7eed 2e3d
00000100: 91ca 3a3d d698 693d d610 333d 5f4f 4f3d
00000110: 92a1 403d fb70 683d c218 493d 5309 513d
0.078882225 0.07749554 0.080725275 0.07969601 0.07758932 0.081515715 0.07561232 0.08049276
0.07854671 0.07837278 0.08214474 0.07950087 0.07983404 0.07611428 0.08070807 0.075930856
0.07646193 0.08060296 0.07638395 0.07793243 0.0818399 0.07636542 0.07608002 0.079093896
0.06286508 0.065554336 0.07037097 0.05886499 0.066925004 0.07348391 0.050203446 0.06483545
0.07026038 0.054860078 0.04463897 0.07167519 0.06948726 0.064454645 0.055036664 0.06460139
0.04446274 0.042935897 0.07495331 0.07211052 0.04487357 0.059395008 0.05894537 0.07332625
0.044832963 0.059376594 0.05446503 0.051722195 0.052128293 0.0517825 0.05152739 0.052627794
0.054235913 0.05277352 0.04977462 0.048881717 0.052674346 0.04060422 0.054091927 0.04270696
0.04560334 0.05703052 0.043717228 0.050612804 0.047029085 0.05674837 0.049095877 0.051034283

bn3.running_mean f4 [72]
00000000: fe22 153f 5d73 1f3f 136a eb3e c84c 423f
00000010: 2145 fc3e 1205 e63e 63a5 443f b136 253f
00000020: aa31 3b3f 5faa 1c3f a2a6 403f b4ee fa3e
00000030: 4c9e 053f 6ba5 e43e 0fa5 3b3f f7a0 3b3f
00000040: e72d 333f af4d 313f 43a8 fb3e cd99 3d3f
00000050: 991f 3b3f ac7e 3d3f 307a f33e 91d8 ef3e
00000060: 5b05 73bd fbec 61bd c95d 94bd 330d 3cbd
00000070: b71d 8bbd c1d4 a7bd 7283 38bd 40e4 64bd
00000080: 80b8 3fbd 186f 52bd 3c9e 33bd cd86 94bd
00000090: b8bd 88bd cf0c 95bd 556a 2cbd f7a4 2fbd
000000a0: 4647 3dbd b8cf 2abd 7b0b 95bd ee8d 3fbd
000000b0: f9df 30bd 18d9 32bd 9c93 92bd 2c66 91bd
000000c0: 11ec 71bf 3708 78bf f198 63bf 5569 8ebf
000000d0: fb91 5cbf ced9 63bf 0c93 8abf dda9 80bf
000000e0: 5603 8fbf 825d 66bf 2a60 84bf 4ca5 78bf
000000f0: 18c4 77bf 9e03 58bf 5a82 81bf 6053 86bf
00000100: 2d3d 7fbf 97fc 74bf 032a 6dbf fa54 8abf
00000110: dc1b 85bf c335 88bf 25fb 68bf 09c2 67bf
0.5825652 0.62285405 0.45979366 0.7589841 0.4927149 0.44925743 0.7681486 0.6453658
0.73122656 0.61197466 0.7525426 0.4901024 0.52194667 0.44657454 0.73298734 0.7329249
0.69991916 0.6925916 0.4915181 0.74062806 0.7309509 0.7402141 0.4755416 0.46844915
-0.05933128 -0.055157643 -0.072444506 -0.045911025 -0.06792777 -0.081948765 -0.04504723 -0.05588174
-0.046806812 -0.05137548 -0.043852076 -0.07252274 -0.06676811 -0.07277834 -0.042093594 -0.042881932
-0.04621055 -0.041702002 -0.0727758 -0.046766214 -0.043182347 -0.043664068 -0.071570605 -0.07099566
-0.94500834 -0.96887535 -0.88905245 -1.1125895 -0.8616025 -0.8900422 -1.0826125 -1.0051838
-1.1172893 -0.8998643 -1.0341847 -0.97127223 -0.9678359 -0.8438052 -1.0117905 -1.0494194
-0.9970272 -0.9569792 -0.9264223 -1.0807183 -1.0399127 -1.0641407 -0.91008216 -0.9053045

bn3.running_var f4 [72]
00000000: db12 0c40 cf80 1240 f5ff e23f e4be 3540
00000010: 8d53 f13f f898 e93f 6c62 3740 3a51 1b40
00000020: 8af1 2d40 77d0 0f40 3645 3240 9f10 f13f
00000030: 8ba7 f73f 6349 db3f 8766 2b40 38b5 2a40
00000040: 8f91 2540 d894 1d40 c791 f53f daee 3040
00000050: f11a 2a40 8c9b 2e40 cc47 ec3f 9703 e33f
00000060: 6d3e 683e 2ca5 693e 6b0c 643e 6279 6c3e
00000070: e54c 653e 041e 623e 5f9b 6c3e 8910 6a3e
00000080: adff 6b3e 4a3f 693e a34a 6c3e 7466 653e
00000090: 5248 673e 3240 633e 3677 6b3e aa7c 6b3e
000000a0: 2746 6b3e a24e 6b3e 78f1 643e 77fa 6b3e
000000b0: 7db5 6b3e 01fb 6b3e c067 643e ab0e 653e
000000c0: 85c9 1640 b09a 1f40 f5b9 0140 8821 4d40
000000d0: a7a1 fa3f 2b29 f73f b911 4540 feaf 2640
000000e0: 1d8e 4f40 7960 1040 5a9f 3840 65eb 1340
000000f0: 970a 1640 c043 ef3f 84f4 3340 fc3b 3f40
00000100: 319a 2d40 c087 2640 f194 0840 4326 4340
00000110: 3a3e 3a40 b476 4140 ec62 0740 8914 0540
2.1886508 2.2891119 1.7734362 2.839776 1.8853623 1.8249807 2.8653822 2.4268327
2.7178674 2.2470987 2.7854743 1.8833197 1.9348005 1.7131771 2.6781328 2.6673107
2.5870092 2.4622097 1.9185113 2.7645783 2.6578944 2.7282438 1.8459411 1.773547
0.22680064 0.22816914 0.22270362 0.23093179 0.22392614 0.22081763 0.23106144 0.2285787
0.23046751 0.22778049 0.23075347 0.22402364 0.22586182 0.22192457 0.22994694 0.22996774
0.2297598 0.22979215 0.22357738 0.23044764 0.23018451 0.23044969 0.22305202 0.22368877
2.3560498 2.4938164 2.026975 3.2051716 1.9580582 1.9309438 3.0792067 2.6044917
3.243049 2.2558882 2.884726 2.3112423 2.3443964 1.8692551 2.811799 2.9880362
2.712536 2.6020355 2.1340907 3.0492103 2.910048 3.02287 2.1154127 2.0793784

mlp4.weight f4 [1, 72]
00000000: 2f20 f03d 10d8 d63d d60b b13d bf02 0f3e
00000010: ae2b 2e3e 4fce bc3d 1db3 dd3d 071c b03d
00000020: 6f29 063e 0407 393e 6825 bb3d 1f3a 073e
00000030: ef84 9a3d 1b85 023e a4c9 353e 6d29 193e
00000040: 5a18 d53d e30f af3d 5914 9a3d 3721 0f3e
00000050: 5278 9d3d cb37 1c3e 9185 193e 4722 0a3e
00000060: aadf 3a3d 2e3d ac3d d0ba b13d 1a8e 403c
00000070: e5be 593c 601e 3a3d 23a9 af3d a215 253e
00000080: e169 a73c b93a 973d dc95 b23d 4436 643d
00000090: 08ee de3d a601 4e3d e3f1 613d 0000 0000
000000a0: efbc a23d 5ea3 4a3c 35b1 313e 320a 7d3d
000000b0: 23ea 5a3d 52ac dc3d 3da7 cc3d dd12 043e
000000c0: 0000 0000 0000 0000 0000 0000 0000 0000
000000d0: 0000 0000 0000 0000 0000 0000 0000 0000
000000e0: 0000 0000 0000 0000 0000 0000 0000 0000
000000f0: 0000 0000 0000 0000 0000 0000 0000 0000
00000100: 0000 0000 0000 0000 0000 0000 0000 0000
00000110: 0000 0000 0000 0000 0000 0000 0000 0000
0.117248885 0.104904294 0.08644836 0.13965891 0.1700885 0.09219038 0.10825179 0.08599096
0.13101743 0.18069082 0.09137994 0.13205765 0.07544886 0.12746088 0.17752701 0.14957209
0.10405035 0.08547952 0.07523412 0.13977514 0.07688965 0.15255658 0.14992358 0.13489638
0.04562346 0.084101066 0.0867821 0.01175263 0.013290142 0.045439124 0.08577182 0.16121534
0.02043623 0.07384247 0.0871999 0.055715814 0.108852446 0.05029454 0.05516232 0.0
0.079461925 0.012368051 0.17352755 0.0617773 0.053445946 0.10775055 0.09992836 0.12897821
0.0 0.0 0.0 0.0 0.0 0.0 0.0 0.0
0.0 0.0 0.0 0.0 0.0 0.0 0.0 0.0
0.0 0.0 0.0 0.0 0.0 0.0 0.0 0.0
