utility-model-selected/dim-3/utility-40.pt (torch, 23458 bytes, 17 tensors)

bn1.running_mean f4 [3]
000000 e2 82 00 3f df 04 00 3f 3b 6e ff 3e
       0.5019971 0.5000743 0.49888787

bn1.running_var f4 [3]
000000 1e 52 67 3d 28 14 5c 3d cf ad 58 3d
       0.056474797 0.05373016 0.05290013

mlp1.weight f4 [24, 3]
000000 26 1a 9d 3d 76 25 f6 3e c4 0d 80 3e b5 37 9d 3e
       0.07671003 0.48075455 0.25010502 0.30706564
000010 0c cf b3 3c 21 38 2b 3e 2a 36 eb 3e 29 86 f1 3e
       0.021949314 0.1672063 0.4593976 0.4717267
000020 c2 da 8b 3d 00 00 00 3f 30 3a b3 3e bb 71 f6 3d
       0.06828834 0.5 0.3500533 0.12033411
000030 be 50 68 3e 5c 5c ac 3e b6 8e e6 3e d4 3b e3 3e
       0.2268705 0.33664215 0.45030755 0.44381583
000040 96 aa c7 3e 7f c4 dd 3e 00 00 00 00 22 f3 fb 3e
       0.38997334 0.43313977 0.0 0.49208933
000050 23 5d ab 3d f4 36 ec 3e a9 78 94 3e d1 28 60 3e
       0.08367374 0.46135676 0.28998306 0.2189057
000060 35 be ae 3e 7d 40 b2 3d 00 00 00 3f 66 87 df 3e
       0.3412949 0.087037064 0.5 0.43657988
000070 e0 91 ad 3d 09 05 7b 3e 86 37 1b 3e 40 c8 a6 3d
       0.08475089 0.2451364 0.151579 0.081436634
000080 47 fa a1 3e 00 00 00 3f 94 6c 9a 3b 08 d8 74 3e
       0.3163626 0.5 0.0047126506 0.23910534
000090 0d 20 4b 3c 00 c4 f8 3e 2b ab 0b 3d 43 2a ff 3e
       0.012397778 0.48587036 0.034098785 0.4983693
0000a0 5a c6 4f 3e 59 e2 84 3c 00 00 00 3f 3d 68 54 3e
       0.20290509 0.016221212 0.5 0.20742889
0000b0 d2 17 da 3e f7 3b fe 3e 74 00 e0 3e 00 00 00 3f
       0.42596298 0.49655125 0.43750346 0.5
0000c0 6c 42 fe 3e 58 33 5b 3e 04 85 f9 3e a9 b1 fc 3d
       0.4966005 0.21406305 0.48734295 0.123385735
0000d0 0e 4b 99 3e 00 00 00 3f db 16 0a 3d 05 fe ff 3e
       0.29940075 0.5 0.033713203 0.4999849
0000e0 3c eb 5c 3e d2 d3 7b 3e f0 6a 94 3e cd 13 40 3d
       0.2157411 0.24592522 0.28987837 0.046893883
0000f0 3f 8b 6f 3e ec 40 0d 3d d6 b1 90 3e 00 00 00 3f
       0.23392962 0.034485742 0.28260678 0.5
000100 ae ee 15 3e c0 02 f9 3d 00 00 00 3f 20 b7 98 3e
       0.1464183 0.12158728 0.5 0.29827213
000110 be f8 f3 3e 00 1a 81 3e c8 f6 71 3e cf 5f cd 3e
       0.47650713 0.2521515 0.23629296 0.4011216

mlp1.bias f4 [24]
000000 49 35 3c bd d9 53 41 bd 4d 6b ea be 05 61 49 3e
       -0.045949254 -0.047199104 -0.4578499 0.19665916
000010 18 cd 03 3f a0 6e db be 23 97 fe 3e 4f 69 f8 3e
       0.51484823 -0.42857838 0.49724683 0.48517844
000020 96 9c d4 3e 1e 77 8a be f2 b2 b0 3e 54 9c 1e be
       0.41525716 -0.27044004 0.34511524 -0.15489322
000030 ce 76 a3 3d 4a 12 f5 be 25 15 f1 be 7a b1 f7 bd
       0.079816446 -0.47865516 -0.47086444 -0.12094398
000040 ea 72 12 3e f8 ce b0 bb 57 ab f4 3e 4a 3a 9d 3e
       0.14301649 -0.0053957663 0.47786972 0.30708534
000050 6e b2 5c 3e db 8f 7a be d6 df 8f 3e b8 7b b3 3e
       0.2155244 -0.24468939 0.2810046 0.35055327

mlp2.weight f4 [24, 72]
000000 40 e0 47 3c af 4c af 3d 9e 64 4f 3d 52 e2 d6 3c
       0.012199461 0.08559548 0.050633065 0.026230965
000010 00 00 00 00 4a 7c 52 3d 00 00 00 00 00 00 00 00
       0.0 0.051388063 0.0 0.0
000020 1d 4d 95 3c 00 00 00 00 75 9e 28 3d 00 00 00 00
       0.018225247 0.0 0.04116674 0.0
000030 00 00 00 00 5f aa 02 3e 00 00 00 00 00 00 00 00
       0.0 0.12760304 0.0 0.0
000040 87 3f 30 3d b2 e6 71 3c 00 00 00 00 00 00 00 00
       0.043029334 0.014764475 0.0 0.0
000050 bf 0f 4f 3d 00 00 00 00 00 00 00 00 00 00 00 00
       0.050552126 0.0 0.0 0.0
000060 00 00 00 00 bb 3a 46 3c 6a 6c 5d 3d 00 00 00 00
       0.0 0.012098963 0.05405847 0.0
000070 9a 27 b1 3d 65 b1 99 3b 8c 2f ed 3c a8 a8 63 3d
       0.086501315 0.0046903365 0.028953336 0.055580765
000080 7d 6a f3 3d d0 28 75 3c c2 48 93 3d 3f a7 ee 3d
       0.118855454 0.014963344 0.07191612 0.116529934
000090 85 46 8e 3d c6 f6 98 3d 00 00 00 00 e4 ba c4 3d
       0.06947044 0.07468943 0.0 0.09605959
0000a0 0e 95 a8 3d 1f fe 86 3c 6c b1 cf 3d 00 00 00 00
       0.08231555 0.016478596 0.101412624 0.0
0000b0 c4 3b 6d 3d f3 68 83 3d 8b 13 ce 3b e1 69 9f 3d
       0.057918325 0.06416502 0.006288951 0.07783867
0000c0 00 00 00 00 68 d2 8a 3d 00 00 00 00 5f 53 15 3c
       0.0 0.06778413 0.0 0.0091141155
0000d0 5a 3a a9 3d 00 00 00 00 87 ff 20 3d 28 20 67 3d
       0.08263083 0.0 0.03930619 0.05642715
0000e0 b4 22 e8 3d a3 5b a7 3d 08 a3 f1 3d 2a d5 f1 3d
       0.11334744 0.08171775 0.11798674 0.11808236
0000f0 ac d8 5b 3d 72 d3 56 3d 00 00 00 00 c3 2c 9d 3d
       0.05367343 0.052447744 0.0 0.07674553
000100 56 23 19 3e 3b fc c8 3d 65 48 f8 3d 00 00 00 00
       0.14954886 0.09813734 0.12123183 0.0
000110 42 bf da 3d 59 de d8 3c 5c 50 40 3d 83 90 69 3d
       0.10681011 0.026473211 0.046951637 0.057022583
000120 00 00 00 00 f6 d3 d3 3d 4b ad 9d 3d 00 00 00 00
       0.0 0.10343163 0.07699069 0.0
000130 00 00 00 00 72 93 9d 3c 00 00 00 00 00 00 00 00
       0.0 0.019235346 0.0 0.0
000140 9e bb 5d 3d 6f 91 0e 3d 07 e0 3c 3d 1c b1 ae 3c
       0.054134004 0.034806665 0.046112087 0.021324687
000150 00 00 00 00 63 00 08 3e 40 3d 43 3c 0e ba 09 3d
       0.0 0.13281398 0.011916459 0.0336247
000160 00 00 00 00 d1 1d 72 3b 00 00 00 00 00 00 00 00
       0.0 0.0036944041 0.0 0.0
000170 bc b9 4d 3d 3b 09 bb 3c 00 00 00 00 d3 bf 45 3d
       0.05022596 0.02283155 0.0 0.04827864
000180 33 64 59 3d 25 d0 48 3d 78 fd f2 3d 00 00 00 00
       0.053074073 0.049026627 0.118647516 0.0
000190 8b 42 d9 3d bd 60 00 3d f7 25 cc 3d 00 00 00 00
       0.10608395 0.031342257 0.09968179 0.0
0001a0 ed 9c 4e 3d d9 5e 7b 3d ad f0 77 3d 58 41 9b 3d
       0.050442625 0.06136975 0.06053226 0.07580823
0001b0 28 54 49 3c f2 51 fe 3d 9b 13 a1 3c 72 60 9c 3d
       0.012288131 0.124179736 0.019662669 0.07635583
0001c0 6d 0f f0 3d e4 57 da 3d 87 b6 91 3d 00 00 00 00
       0.11721692 0.10661295 0.071148925 0.0
0001d0 df e8 2f 3d 59 fc 30 3c 4b 46 32 3d a3 7d 17 3d
       0.042946693 0.010802352 0.043524068 0.03698505
0001e0 00 00 00 00 b4 70 e0 3d 00 00 00 00 00 00 00 00
       0.0 0.109589964 0.0 0.0
0001f0 7e 85 c7 3c 98 f7 01 3d 58 ae d9 3d 00 00 00 00
       0.024355646 0.031730264 0.106289566 0.0
000200 08 26 e3 3d 31 44 a3 3d d8 84 23 3d bb fe 81 3d
       0.11091238 0.07971991 0.03992161 0.06347414
000210 2a f1 22 3d ff 37 11 3d da c1 50 3d 00 00 00 00
       0.039780773 0.035453793 0.05096612 0.0
000220 94 9f 0a 3e 00 00 00 00 6f 59 1b 3d 00 00 00 00
       0.13537437 0.0 0.037927087 0.0
000230 a5 21 19 3e 8b 41 cd 3c 75 12 2e 3d 01 69 a7 3d
       0.1495424 0.025055667 0.04249807 0.08174325
000240 72 2d dc 39 e6 29 43 3d 7b 43 c1 3d b6 1f 9e 3d
       0.0004199553 0.04764738 0.09436699 0.07720892
000250 00 00 00 00 23 5d c7 3d 95 0f cf 37 1c c3 67 3c
       0.0 0.09734561 2.4683579e-05 0.014145639
000260 71 52 e8 3b 31 43 1a 3d 2f a1 1c 3d c8 d7 44 3d
       0.007089906 0.037661735 0.038239654 0.048057348
000270 71 87 03 3d 9e 8d bf 3d dd bc d9 3d b2 ea a3 3c
       0.03211159 0.09353183 0.10631726 0.020009372
000280 25 b0 28 3d 47 b8 bd 3d ed b6 c2 38 2b ad 8d 36
       0.04118361 0.09263664 9.2847135e-05 4.222287e-06
000290 fa 71 ed 3b b8 b2 47 3d 3d 9f 04 3c 00 00 00 00
       0.007246253 0.048754424 0.008094606 0.0
0002a0 f9 ac 4b 3d 48 53 be 3d 2a 95 61 3d f6 5f 7f 3d
       0.049725506 0.092932284 0.055073895 0.062347375
0002b0 9e d4 03 3a df ce 89 3d b2 2b a4 3d 1e 14 36 3d
       0.0005028936 0.06728911 0.08016147 0.04445278
0002c0 37 57 fc 3d 8a 25 09 3d 1c 6c 97 3c e5 d0 88 3d
       0.123213224 0.033483066 0.018484168 0.066804685
0002d0 32 71 5e 3d a0 b0 af 3d af 5e bc 3d be b2 1e 3e
       0.05430717 0.085786104 0.09197747 0.15497872
0002e0 42 f5 f8 3d 09 88 76 3a 4e 72 e0 3c a1 17 4c 3d
       0.12156154 0.0009404426 0.027398255 0.04982722
0002f0 a4 45 03 3e b3 fc aa 3d 87 fd b4 3d a5 6f 98 3d
       0.12819535 0.0834898 0.08837419 0.074431695
000300 00 00 00 00 ad 4e cd 3d 47 aa 72 3d 35 43 7d 3d
       0.0 0.10024772 0.05924442 0.06183167
000310 00 00 00 00 1c ea dd 3c 7b d3 27 3d 2c 6a 24 3d
       0.0 0.027089171 0.040973168 0.040140316
000320 2d f9 fe 3d de 28 87 3d 46 be 28 3d 21 d7 9c 3d
       0.1244987 0.06599592 0.041197084 0.0765822
000330 a2 62 91 3b a2 55 98 3d 46 07 df 3d 03 00 ae 3c
       0.004436807 0.07438208 0.10890059 0.02124024
000340 1a 6f 87 3d c8 c3 41 3c 0d 7c 3e 3d d7 b2 7a 3d
       0.06612988 0.011826463 0.046505023 0.06120571
000350 5f d7 72 3d 4d 91 70 3d 7e ed d5 3c a0 9a 37 3d
       0.059287425 0.05873232 0.026114222 0.044825196
000360 aa b7 80 3c 52 aa da 3b f3 40 c1 3d 00 00 00 00
       0.015712578 0.006673136 0.09436216 0.0
000370 1e ad 11 3d 05 61 14 3d 00 00 00 00 13 33 7c 3b
       0.035565488 0.036225338 0.0 0.003848259
000380 4e dc 83 3d 54 5a cf 3c 00 00 00 00 d5 0e 44 3d
       0.06438504 0.025311626 0.0 0.047865707
000390 00 00 00 00 a9 91 f3 3d 06 fb b6 3b 00 00 00 00
       0.0 0.11893017 0.0055841235 0.0
0003a0 00 00 00 00 0f a8 6b 3b 00 00 00 00 0d b3 df 3c
       0.0 0.0035958325 0.0 0.027307058
0003b0 81 71 fd 3c 00 00 00 00 00 00 00 00 00 00 00 00
       0.030937912 0.0 0.0 0.0
0003c0 bd 2d 54 3d f9 8c 99 3c cc fe c8 3d 00 00 00 00
       0.051801432 0.018743979 0.09814224 0.0
0003d0 2e fa 60 3d 00 00 00 00 75 a6 d7 3d 91 14 d7 3c
       0.05492609 0.0 0.10529796 0.026254924
0003e0 eb 95 c5 3d 30 b7 13 3d 94 ea 07 3e 12 7e 68 3d
       0.09647735 0.036063373 0.13273078 0.056760855
0003f0 14 7b 15 3d c2 9a bb 3d 8e 09 42 3d 34 ef d8 3c
       0.03649433 0.09160377 0.047372393 0.026481248

mlp2.bias f4 [24]
000000 28 a6 57 bd fd 97 a4 3d 71 8d a7 bc fc 5e b2 bc
       -0.052648693 0.08036802 -0.020453187 -0.021773808
000010 32 76 55 bd 68 83 27 bd 71 11 1b bd d6 63 2d 3d
       -0.052114673 -0.040896803 -0.03785843 0.04233154
000020 fe 23 80 3d ba d9 2c bd 94 be a0 3d 84 4b 42 3d
       0.06256865 -0.042199828 0.0784885 0.0474353
000030 5f f4 c4 3b bd b9 34 bd 2b f6 84 bd ca 61 42 3c
       0.0060105766 -0.044122446 -0.06492265 0.011864135
000040 08 6d 32 bc 9f 01 bc bc 96 8f 40 3a a8 ac 95 3d
       -0.010890253 -0.022949992 0.0007345615 0.07308322
000050 37 74 1d 3d 8c bf 36 3d d1 a4 a3 bd 05 4b 7f bc
       0.03844091 0.044616267 -0.079904206 -0.015581851

bn2.weight f4 [72]
000000 bc b1 e1 3e 55 d8 f7 3e 00 00 00 3f b9 b7 df 3e
       0.44080913 0.48407236 0.5 0.43694857
000010 18 12 e2 3e cb ba f1 3e 6a e5 dc 3e ad 7c de 3e
       0.4415443 0.47212824 0.4314378 0.43454495
000020 a1 4d f6 3e d4 07 e8 3e a5 ea ea 3e be 79 f9 3e
       0.481061 0.45318472 0.45882145 0.48725694
000030 40 d3 da 3e 01 be ff 3e 83 22 eb 3e ef e9 d9 3e
       0.42739296 0.4994965 0.45924768 0.4256129
000040 c6 23 ec 3e 41 f6 ed 3e 6b 6f d9 3e 7d d4 dd 3e
       0.46121043 0.4647694 0.42467818 0.43326178
000050 42 86 ef 3e 9d c7 eb 3e 7a fe df 3e 03 12 dd 3e
       0.46782118 0.4605073 0.43748838 0.43177804
000060 eb ab e4 3e d0 22 fd 3e 00 00 00 3f cf 68 e9 3e
       0.44662413 0.49440622 0.5 0.45587775
000070 1c 7f fa 3e 75 4a f1 3e 4e b4 fd 3e 22 42 e4 3e
       0.48925102 0.4712712 0.49551624 0.44581705
000080 6d 3e fb 3e 9d 9e f0 3e 1d 86 f7 3e 0f de f9 3e
       0.49071065 0.46996012 0.48344508 0.4880223
000090 ee e2 e3 3e ab ce ff 3e 70 b1 f2 3e 7a af e1 3e
       0.4450907 0.49962363 0.47401 0.4407919
0000a0 62 b5 ee 3e db 11 f9 3e 6d d9 fa 3e 28 72 de 3e
       0.4662276 0.48646435 0.48994008 0.4344647
0000b0 c8 40 fb 3e d0 b9 f5 3e 2f 78 e2 3e cf 62 f2 3e
       0.49072862 0.47993326 0.44232318 0.4734101
0000c0 78 a5 dd 3e 60 e0 fb 3e f3 a1 e1 3e a4 2f e6 3e
       0.43290305 0.49194622 0.4406887 0.44958222
0000d0 00 00 00 3f 3a e2 dc 3e 11 85 fe 3e 58 9a e4 3e
       0.5 0.43141347 0.49710897 0.44649005
0000e0 6d d1 f9 3e 11 f8 f9 3e fc 72 fc 3e 93 01 fe 3e
       0.48792592 0.48822072 0.49306476 0.49610576
0000f0 af 97 e5 3e e5 ce e5 3e f5 a8 f1 3e 49 58 e1 3e
       0.44842288 0.4488441 0.47199216 0.4401267
000100 fe 9f f4 3e 46 df ed 3e f4 ee fd 3e 6e 56 de 3e
       0.47778314 0.46459407 0.4959637 0.43425316
000110 8e 2c fd 3e c9 de f3 3e 26 48 e9 3e 2e c4 ee 3e
       0.49448055 0.4763091 0.45562857 0.46634048

bn2.bias f4 [72]
000000 ea 58 c4 ba 27 34 21 3c a1 9a a3 3c c1 1d 86 ba
       -0.0014980112 0.009839094 0.019971194 -0.0010232256
000010 84 55 00 3c 90 08 a5 3b 37 d2 e2 3b 2f 5e 16 3c
       0.0078328885 0.005036421 0.006922032 0.009177729
000020 6a ab 7c 3c d0 36 5f 3b 01 7d d0 3b aa 6b 4f 3c
       0.015421728 0.003405977 0.006362558 0.012659946
000030 64 ab ec 3b f7 34 69 3c 28 e2 34 3b 2e f5 95 3c
       0.00722258 0.014233819 0.002760062 0.018305387
000040 ca 53 8b 3b c8 4c 9d 3b b2 db fa 3b 84 d6 be 3b
       0.004251932 0.004800413 0.0076555843 0.005823912
000050 c4 e1 d0 3b 21 19 70 3b 01 56 07 3c 08 0e fb 3b
       0.0063745696 0.0036636072 0.008260251 0.0076615848
000060 14 cb 8f 3b 3a c5 ef 3b c3 bc 49 3c fb 37 f1 bb
       0.0043882225 0.0073172124 0.012313071 -0.0073614097
000070 d9 b6 77 3b 76 78 c2 3c 06 f0 55 3c 51 d2 ae 3a
       0.0037798195 0.02373908 0.013057714 0.0013337826
000080 06 5d 3a ba d8 08 06 3c 8c 80 b2 3b 8a 17 26 3c
       -0.00071091985 0.008180819 0.005447453 0.010137448
000090 e6 fb c7 3c 1a 24 74 3b c8 f2 e3 3b 66 d3 89 3b
       0.024412107 0.0037252964 0.006956432 0.004206109
0000a0 c7 55 b6 39 21 d1 1d 3c 24 6c c4 3c 52 4a f1 bb
       0.00034777654 0.00963238 0.023977347 -0.007363596
0000b0 97 cb c1 3b f6 ae a8 3b df 67 b2 bb 43 42 cb 3a
       0.0059141624 0.00514781 -0.0054445113 0.0015507418
0000c0 6a 2b 39 3c ec 85 de 3b 9a b5 c1 bb 27 7a c1 b9
       0.011301855 0.006790867 -0.005911541 -0.0003690284
0000d0 bf b2 65 3c 18 85 7c 3b 36 83 9e 3c b7 3d 2f 3c
       0.014019667 0.0038531478 0.019349676 0.010695866
0000e0 3c 5f 33 3b a4 3c 06 3c dd b9 19 3c 7e c7 c3 39
       0.0027369997 0.008193169 0.009382692 0.00037341932
0000f0 b3 34 29 3c 44 28 9e 3b e2 11 be 3b a5 4e c8 3a
       0.010327506 0.0048265774 0.0058004716 0.0015282227
000100 3b 24 1b 3c fd 3d 07 3c 1b 10 a0 3c f6 e3 15 bc
       0.009469087 0.008254525 0.01953893 -0.009148588
000110 bc 87 c4 3b 79 38 8d 3b 1b 22 c5 3a b6 07 03 ba
       0.005997626 0.0043097106 0.0015040071 -0.00049984024

bn2.running_mean f4 [72]
000000 09 a9 99 3c 64 8d 0f bd 7a aa 4d be 85 14 72 3e
       0.01875736 -0.03504695 -0.20084563 0.2364064
000010 59 9b 06 3f a7 60 23 be 98 e4 f9 3e 20 76 fc 3e
       0.5258079 -0.15954839 0.48807216 0.49308872
000020 f5 92 da 3e 0a 7d 1f be 16 07 b1 3e 73 07 7e bd
       0.42690244 -0.15575042 0.3457572 -0.062018823
000030 02 ad d8 3d 64 91 84 be 70 e4 48 be 01 1e 75 3d
       0.105798736 -0.25892174 -0.19618392 0.059843067
000040 05 21 61 3e 1f 05 83 3d 36 ba ee 3e c3 d8 9d 3e
       0.21985252 0.06397461 0.46626443 0.3082944
000050 21 c1 60 3e 3a 77 f9 bd d5 ba ae 3e 13 f9 b7 3e
       0.21948673 -0.12180944 0.34126917 0.35932216
000060 6c a9 c6 bc 85 d5 2b bd c9 91 5f be 3c 7c ca 3d
       -0.024250709 -0.041951675 -0.21832956 0.09886977
000070 ef e6 88 3e 62 92 47 be 7b 85 8f 3e d4 a4 81 3e
       0.26738688 -0.19489434 0.28031525 0.25321066
000080 ec 4b 5e 3e c5 a0 2b be f7 44 86 3e b9 f3 bb bd
       0.2170865 -0.16760547 0.2622449 -0.09177346
000090 da 7a 54 3d 4c b9 85 be ae 6f 62 be 37 be 64 bd
       0.051874973 -0.26117933 -0.22112915 -0.055845466
0000a0 b8 27 87 3d c7 47 62 bb 23 21 81 3e 16 7c 67 3e
       0.065993726 -0.0034527646 0.25220594 0.22605929
0000b0 25 ba 2e 3e 27 b2 0b be 54 20 02 3e 32 26 56 3e
       0.17063196 -0.13642178 0.12707645 0.20913008
0000c0 1c b7 b7 bd 95 c5 62 bd 41 b3 f2 be 66 60 7a 3d
       -0.08970472 -0.05536421 -0.47402385 0.06112709
0000d0 5f e3 83 3e 94 1b ec be 0b 5a 8f 3e ae 9b 7b 3e
       0.25759408 -0.4611479 0.27998385 0.24571106
0000e0 cf 9a 4f 3e 91 7d 8f be 9b 0e 86 3e d6 53 3f be
       0.20273899 -0.28025487 0.26183018 -0.18684325
0000f0 f6 57 f4 3c 17 78 f8 be 08 d4 f8 be 15 df 74 be
       0.0298271 -0.4852912 -0.48599267 -0.23913224
000100 9a df 3b bc 5c 05 9b bd d4 69 7e 3e 5d c0 66 3e
       -0.011466885 -0.075693816 0.24845058 0.22534318
000110 3c af 2c 3e 77 d3 82 be 83 21 8e 3d d7 c4 4b 3e
       0.16863722 -0.2555196 0.069399856 0.19899307

bn2.running_var f4 [72]
000000 7c 35 5c 3e 8a 46 de 3d 61 c6 25 3e 95 5f a8 3e
       0.21504778 0.10853298 0.16188957 0.32885423
000010 97 a2 b4 3e b6 27 57 3e 26 4e 7e 3e c5 7c ab 3e
       0.35280296 0.21011242 0.24834499 0.3349363
000020 fe 97 b1 3e 93 34 0f 3e c0 6f 04 3e 1c 5d 41 3e
       0.34686273 0.13984899 0.12933254 0.18883175
000030 b5 f1 55 3e 0b b7 c8 3d cd 33 34 3e 3c 48 c3 3e
       0.20892985 0.09800538 0.17597885 0.38141048
000040 4f c5 c6 3e 73 8e 80 3e 0a a4 96 3e 33 e5 18 3e
       0.3882241 0.2510868 0.29422027 0.14931183
000050 f6 10 08 3e 98 a2 23 3e dd 42 e7 3e cb 0e 88 3e
       0.1328772 0.15979993 0.451682 0.26573786
000060 9f 90 1e 3e 19 67 cc 3d fc 57 05 3e 3c 46 1e 3e
       0.15484856 0.09980602 0.13021845 0.1545648
000070 36 86 d2 3d a5 76 11 3e ac ad a6 3d b6 95 d1 3d
       0.10279505 0.14205416 0.08138594 0.10233633
000080 5b c6 f6 3d a9 ce f6 3d cd 8c 87 3d c2 45 13 3e
       0.12049552 0.12051136 0.066186525 0.14382079
000090 b1 2a 16 3e 7f 92 c0 3d e9 2e 03 3e b9 9c 35 3e
       0.14664723 0.09402942 0.12810864 0.17735566
0000a0 4a 81 26 3e c3 6f 1e 3e c9 41 ce 3d a1 b5 a5 3d
       0.16260257 0.15472321 0.10071141 0.080912836
0000b0 17 d1 b1 3d 69 6f 0c 3e 41 74 20 3e 50 cf e4 3d
       0.08682459 0.13714375 0.15669347 0.11172354
0000c0 da b6 77 3e 3b f4 ea 3d 9d a3 d1 3e 31 4a 5b 3e
       0.24190846 0.114723645 0.4094514 0.2141502
0000d0 d5 49 f9 3d 91 b2 ed 3e 72 de a7 3d 52 a5 ee 3d
       0.121722855 0.46425298 0.08196725 0.11652626
0000e0 d9 e9 15 3e 9e d6 72 3e 97 15 89 3d f6 d8 83 3e
       0.14639987 0.23714682 0.06693571 0.25751466
0000f0 ae 68 33 3e 8c fb 94 3e a0 91 d8 3e 40 48 ed 3e
       0.17520401 0.29098165 0.42298603 0.46344185
000100 a3 12 95 3e 67 03 84 3e 73 a5 db 3d 56 47 a8 3d
       0.2911578 0.25783846 0.10724916 0.08216731
000110 e4 19 b8 3d 28 e1 87 3e c0 3e 85 3e 1c e4 04 3e
       0.08989313 0.26538968 0.26024437 0.12977642

mlp3.weight f4 [24, 72]
000000 21 11 8c 3a 15 f4 31 3b 78 2e e7 3a ab 3e dc 3a
       0.0010686257 0.002715354 0.001763775 0.0016803344
000010 28 7c 96 3a 92 ab db 3a 3c 34 eb 3a be ab db 3a
       0.0011481093 0.0016759506 0.0017944644 0.0016759557
000020 9e 2a 12 3b e5 b1 f7 3a 50 af f8 3a 61 e9 4c 3b
       0.0022303234 0.0018897621 0.0018973146 0.0031267034
000030 d6 43 2f 3b e2 b0 89 3a 05 8b 2d 3b f9 e0 0b 3b
       0.0026743314 0.0010504986 0.0026480567 0.002134381
000040 2a 6b fa 3a 58 07 35 3b 83 3b d7 3a 5d 80 e3 3a
       0.0019105424 0.0027622785 0.0016420934 0.0017356981
000050 17 b1 26 3b 58 f5 c4 3a 1e a3 67 3a 83 75 ee 3a
       0.0025435144 0.0015026731 0.0008836257 0.001819298
000060 4e e0 c9 3d a1 ea ef 3d 32 58 51 3d b9 79 8c 3d
       0.09857236 0.11714674 0.0511095 0.06859154
000070 bc 03 3e 3d a5 26 21 3e d6 66 1b 3e e2 e4 f8 3c
       0.04639028 0.15737398 0.15175948 0.030382577
000080 77 d8 a8 3d 51 70 06 3e 16 b1 c9 3d be d5 21 3e
       0.082444124 0.13128783 0.098482296 0.15804192
000090 f8 50 1a 3e 4b 1f 07 3e 7e 33 86 3d af 0b f9 3d
       0.1506995 0.13195531 0.0655279 0.121604316
0000a0 da a2 8f 3d 49 ed 25 3d 4b a2 dd 3d ec 69 6d 3d
       0.07013483 0.040509496 0.108219706 0.057962343
0000b0 a5 a3 02 3c 11 e5 fa 3d 0f 53 db 3d ce 02 01 3e
       0.007973586 0.12250722 0.107092015 0.12598726
0000c0 14 79 c7 3d 6e 47 90 3d d7 8b 19 3c 5e 41 0c 3d
       0.09739891 0.07044874 0.009371719 0.034242027
0000d0 11 2b 7f 3c fb 20 c1 3d 9b 8d 49 3d 93 06 be 3c
       0.015574233 0.09430119 0.04920731 0.023196494
0000e0 31 15 97 3d 4f 7d 7f 3c b4 5d 7f 3c d3 6b f3 3b
       0.07377089 0.015593841 0.015586305 0.007428625
0000f0 6b 4e 52 3d 4a 53 88 3c a8 5c 09 3c f4 64 9a 3c
       0.051344316 0.016641278 0.008383907 0.018846966
000100 44 e0 8b 3c b7 1a 07 3c df 65 88 3d 01 06 a2 3d
       0.017074712 0.008246115 0.06660055 0.079113014
000110 6f 70 24 3c d9 63 8b 3c de 93 b8 3c 63 15 8f 3d
       0.010036572 0.017015385 0.022531446 0.06986501
000120 80 83 2d 3b 4c f5 b5 3b d0 a0 ec 3a 45 81 4b 3b
       0.0026476085 0.0055529233 0.0018053297 0.0031052392
000130 1b d5 49 3b fd b9 7d 3b f8 c6 86 3b 1c 61 82 3b
       0.0030797187 0.0038715594 0.0041130744 0.0039788615
000140 f7 fd 96 3b 34 0c 92 3b 4c 7d 96 3b 9e 78 05 3c
       0.0046079117 0.004457021 0.0045925733 0.008146433
000150 8a 4b 3a 3b 95 8f 4d 3b 66 19 0c 3b f9 fa a4 3b
       0.0028426372 0.00313661 0.0021377443 0.005034801
000160 05 4d 80 3b 02 5d 0b 3b a5 67 82 3b 82 40 4a 3b
       0.0039154314 0.0021265154 0.0039796405 0.0030861204
000170 9c 3e 0a 3b 52 d0 62 3b eb e5 76 3b a9 e2 80 3b
       0.0021094447 0.0034609032 0.0037673663 0.00393327
000180 9f b2 c8 3d 5c 96 c0 3d fe 5f 84 3d 55 9d ce 3d
       0.09799694 0.09403679 0.064636216 0.100886025
000190 71 b9 3e 3d 6b 35 04 3e f2 e0 14 3e aa ce a2 3d
       0.04656357 0.12911002 0.14538935 0.07949574
0001a0 35 6f 56 3d 30 fb e2 3d eb 5a c1 3d 85 75 e1 3d
       0.05235215 0.110830665 0.09441169 0.11008743
0001b0 c2 d1 be 3d 66 57 9f 3d 79 0f 65 3c f4 53 07 3e
       0.09317352 0.07780342 0.01398074 0.1321562
0001c0 cf 69 b5 3d 5a 35 d2 3d 8e 40 dc 3d a2 4f b9 3d
       0.08858072 0.10264082 0.107545 0.09048392
0001d0 1d 73 65 3d df 7c 0f 3e fb ae 69 3d b9 a5 1c 3e
       0.056017984 0.14012478 0.05705164 0.15297593
0001e0 63 6b c2 3d cd fa 41 3d 60 63 22 3b fd b6 33 3d
       0.09493139 0.047358323 0.002477847 0.043875683
0001f0 4d 95 4f 3c 3e 1b 7e 3d 40 54 52 3d 99 e6 a7 3c
       0.012669873 0.0620377 0.05134988 0.0204957
000200 f6 ce a6 3d a2 33 1b 3d 94 3b 34 3c f9 29 b5 3c
       0.081449434 0.037891038 0.011000533 0.02211474
000210 00 00 00 00 8f ea 2f 3d 93 3b 4c 3a 9c cd 7c 3c
       0.0 0.042948302 0.00077908597 0.0154298805
000220 78 e0 02 3d eb ba 86 3c 6a 2c 16 3d 51 1f 30 3c
       0.03195235 0.016446551 0.03666345 0.010749654
000230 64 4f 8e 3d 9f 84 00 3d 5f 86 80 3d 83 b6 a2 3d
       0.06948736 0.031376477 0.06275629 0.079449676
000240 fd 1b a4 3d fc 71 1d 3e e5 5e 19 3e c6 4c b0 3d
       0.08013151 0.15375513 0.14977606 0.08608393
000250 7e f0 bd 3d 97 64 1c 3e 65 66 f6 3d bb db e1 3d
       0.09274386 0.15272747 0.12031249 0.110282384
000260 d3 9e ad 3d c2 0f d5 3d 30 2b bb 3d 6f 35 8c 3d
       0.08477559 0.10403396 0.09139097 0.06846129
000270 c9 c7 d0 3d 86 7e d6 3d 6f dc 88 3d b6 e7 11 3e
       0.10194356 0.10473351 0.06682669 0.14248547
000280 4a ad 13 3e c5 d1 76 3d f1 bb d5 3d 2f ae 19 3e
       0.14421573 0.060258646 0.104362376 0.15007852
000290 49 16 17 3e 1c d5 9e 3d 77 c8 a5 3d 7e 96 d2 3d
       0.14754595 0.07755491 0.08094876 0.1028261
0002a0 e1 aa 10 3e ca 19 0d 3e ad 37 ea 3c 43 f0 93 3d
       0.14127685 0.13779369 0.028591001 0.07223561
0002b0 10 98 50 3d e6 62 1f 3e 12 d1 15 3e 69 ab 10 3e
       0.050926268 0.1556507 0.14630535 0.14127888
0002c0 49 df e5 3d d7 9e 37 3e d6 7e 73 3d 1f 9d 0e 3e
       0.11224229 0.17931686 0.059447132 0.13927124
0002d0 2e 79 b7 3d c6 9d fa 3d 82 a2 16 3e 3b 69 37 3e
       0.0895866 0.12237124 0.1471043 0.17911236
0002e0 b2 0f 0c 3e ec 13 ca 3d d1 97 90 3d 6d 2c 9e 3d
       0.13677862 0.09867081 0.07060207 0.07723317
0002f0 28 34 96 3d 5e 6f 83 3d 36 b0 ec 3d 55 74 bc 3d
       0.07334167 0.06417726 0.11557047 0.09201876
000300 83 8b 7f 3d 48 b6 b1 3c 9b 06 0a 3c 0f 7d ad 3c
       0.062388908 0.021693364 0.008424426 0.021177797
000310 22 2e b7 3d 1a 16 20 3d 7e e7 5f 3d 0a 8f 04 3d
       0.08944346 0.039083578 0.054664128 0.032362975
000320 2c 4a 96 3c 88 ff 69 3d 1c 39 24 3d bb 96 b8 3b
       0.018345915 0.05712846 0.040093526 0.005633203
000330 99 da 28 3b 3e 21 ac 3c 0d 90 d8 3b 6e 66 8e 3d
       0.002576506 0.021011945 0.006608969 0.06953131
000340 28 32 b7 3d 1b 83 25 3d b8 91 33 3d 65 29 7a 3d
       0.089451134 0.040408235 0.04384014 0.061074633
000350 60 5a 05 3c ca c2 3a 3d a7 3e 73 3d ea f7 d0 3d
       0.008139223 0.04559592 0.05938592 0.10203536
000360 0c c4 bc 3c c5 aa b5 3d bf c5 f7 3c 50 bf e0 3c
       0.023042701 0.08870462 0.03024566 0.027434975
000370 df 88 24 3d 15 08 58 3d 25 8b 90 3d 5e 67 05 3d
       0.040169593 0.052742083 0.0705779 0.03256928
000380 c6 a9 c5 3d ce e7 89 3d a6 00 85 3d 1f cb 14 3d
       0.09651522 0.06733666 0.06494264 0.036326524
000390 15 ac 1d 3d 29 8e 60 3d 90 44 0f 3d ad 5e 2c 3d
       0.03849419 0.054823074 0.034977496 0.042082477
0003a0 4f d7 00 3d 01 6e 00 3d 5e 4c e0 3d 51 57 9f 3d
       0.031455334 0.031354908 0.10952066 0.07780326
0003b0 06 e8 08 3d e0 2a 04 3d 15 c7 b6 3c f9 9b 07 3d
       0.0334244 0.03226745 0.022311727 0.03310773
0003c0 67 f3 25 3d 00 1b c8 3d 0d 17 c2 3c 7f cd 04 3d
       0.04051533 0.09770775 0.023692632 0.03242254
0003d0 c7 44 bb 3d 08 8d 0a 3e bc 22 12 3e 3e 97 df 3c
       0.091439776 0.13530362 0.14271063 0.027293798
0003e0 3f 48 eb 3d 1b 5e c1 3d eb 15 d3 3d e0 77 8c 3d
       0.11488389 0.09441777 0.10306915 0.06858802
0003f0 28 e1 32 3d 4f b5 b2 3d cf 11 02 3e e3 be b1 3d
       0.043671757 0.08725988 0.12702106 0.08678987

mlp3.bias f4 [24]
000000 56 1e 88 be 1e bf 80 be d3 7b ba bd 61 3d 05 be
       -0.26585644 -0.2514581 -0.09105649 -0.13011695
000010 a4 17 2f be f2 00 2d 3d 12 38 7b 3e f8 44 ab bd
       -0.17098862 0.04223723 0.24533108 -0.08362764
000020 38 d2 60 be 6d 42 ff bd 6a 36 64 be fd d1 c3 bd
       -0.21955192 -0.124638416 -0.22286382 -0.095615365
000030 55 b9 25 be d9 0c c6 bc c9 4e 00 be 48 12 6b be
       -0.1618398 -0.024176048 -0.12530054 -0.22956192
000040 9f d5 34 3d 59 67 26 3d 61 fb 69 be 33 c3 17 be
       0.044149037 0.040625904 -0.228498 -0.14820556
000050 0c 55 55 be ca 3c e5 bd 5a 8e 9a bd c9 cf 0a be
       -0.20833224 -0.11193235 -0.07546683 -0.13555826

bn3.weight f4 [72]
000000 0c 21 dd 3e 37 0d e1 3e 20 f3 de 3e 0c 25 e3 3e
       0.43189275 0.43955395 0.43544865 0.44364202
000010 7a 26 df 3e be 06 de 3e af e1 e4 3e fe b5 dd 3e
       0.43584043 0.4336452 0.44703433 0.43302912
000020 9b db f3 3e 4c ef e3 3e 43 54 ea 3e ce b0 da 3e
       0.47628483 0.44518507 0.45767412 0.42713016
000030 ed 15 e5 3e 96 0e df 3e b2 07 e0 3e 05 9e e5 3e
       0.4474329 0.43565816 0.4375587 0.44847122
000040 88 a4 de 3e 2c 7a dd 3e 0a a9 e4 3e 6b 59 ea 3e
       0.43484902 0.43257272 0.44660217 0.45771345
000050 a1 9b e2 3e 29 2a e0 3e c6 60 e1 3e 8b a1 eb 3e
       0.4425936 0.43782166 0.44019145 0.46021685
000060 d7 73 f7 3e 00 00 00 3f 3a d4 e6 3e bf c4 f6 3e
       0.48330566 0.5 0.4508379 0.4819698
000070 6b 69 f0 3e 81 fd fb 3e 37 68 fd 3e 56 b3 f7 3e
       0.46955428 0.49216846 0.49493572 0.4837901
000080 d1 0d fe 3e 06 4a fe 3e ce aa f8 3e 26 51 f4 3e
       0.49619916 0.4966585 0.48567814 0.4771816
000090 43 6e f7 3e 5e 70 f6 3e 07 8e f9 3e ef 77 fe 3e
       0.4832631 0.48132604 0.4874117 0.49700877
0000a0 5d d2 fc 3e 7a fb eb 3e 3d 71 f9 3e ce cd f5 3e
       0.49379244 0.460903 0.48719206 0.4800858
0000b0 27 25 e5 3e 99 8c f9 3e 11 0f f7 3e b5 d4 fc 3e
       0.44754907 0.4874008 0.48253682 0.49381033
0000c0 99 c0 f6 3e e0 75 f0 3e c8 89 ed 3e c1 9e f1 3e
       0.48193815 0.4696493 0.4639418 0.47191432
0000d0 f5 8b f2 3e a5 f7 f2 3e 4b 1b f3 3e ef ca ee 3e
       0.47372404 0.47454563 0.4748176 0.466392
0000e0 02 e0 ee 3e 0a 17 f3 3e a8 48 f2 3e c4 79 ea 3e
       0.4665528 0.47478515 0.47321057 0.45796025
0000f0 c3 8c eb 3e 0f 2f f5 3e 5f 78 ec 3e c5 71 f4 3e
       0.4600583 0.47887465 0.46185586 0.4774305
000100 61 7b f3 3e 38 22 eb 3e 3c 99 f3 3e af 4c f1 3e
       0.47555068 0.45924544 0.47577846 0.47128817
000110 0f 3b eb 3e be cb f2 3e 70 9f f3 3e f7 79 f5 3e
       0.45943496 0.47421068 0.4758258 0.47944614

bn3.bias f4 [72]
000000 e5 db e6 bd 6b 32 01 be f6 60 f5 bd ea cb 00 be
       -0.1127241 -0.12616889 -0.119813845 -0.12577787
000010 03 9e f9 bd 5a 00 df bd 0b 0b f4 bd dd be f9 bd
       -0.121883415 -0.10888739 -0.11916169 -0.121946074
000020 08 25 00 be 8d c8 02 be 2e 2a fe bd ca ef f5 bd
       -0.12514126 -0.12771817 -0.12410389 -0.12008627
000030 b8 f8 ed bd 9b 5b f5 bd 42 94 e0 bd 2f 01 f7 bd
       -0.11619705 -0.11980363 -0.10965778 -0.12060773
000040 1f b4 02 be c3 b3 c9 bd ae 9d 00 be c0 5b ee bd
       -0.12764023 -0.0984874 -0.1256015 -0.11638594
000050 63 53 f0 bd 9d f9 f8 bd 98 ea f9 bd 20 9a f6 bd
       -0.11734655 -0.12156985 -0.12202948 -0.12041116
000060 d5 ee 0c be 1a f0 15 be 9f ea 18 be 9f 54 12 be
       -0.13762982 -0.14642373 -0.14933251 -0.14290093
000070 8e 54 0d be ab cb 1a be d5 23 16 be 7c f5 19 be
       -0.13801786 -0.15116756 -0.14662106 -0.15035051
000080 ff 25 12 be 1d 39 14 be 0d 09 19 be dd 77 1d be
       -0.14272307 -0.14474912 -0.14944859 -0.15377755
000090 66 ec 14 be 34 a2 14 be 6c fa 12 be 21 ef 18 be
       -0.14543304 -0.14515 -0.14353341 -0.1493497
0000a0 21 5c 16 be 87 e4 15 be f8 93 15 be 20 8e 19 be
       -0.14683582 -0.14637958 -0.14607227 -0.14995623
0000b0 b1 c4 0e be 4d 3c 18 be 2b 6e 14 be 6e df 17 be
       -0.1394222 -0.14866753 -0.1449515 -0.14831325
0000c0 9b 6a 15 be d1 12 19 be 2c a7 f2 bd 3e 09 0e be
       -0.14591448 -0.14948584 -0.11848292 -0.13870713
0000d0 cc ba 02 be ad 50 14 be 8c 5d 0b be 2f f9 10 be
       -0.1276657 -0.144839 -0.13609904 -0.14157556
0000e0 c1 d1 18 be 68 dc 06 be 1c 7f da bd 53 77 05 be
       -0.14923765 -0.13170016 -0.106687754 -0.130338
0000f0 a4 48 fc bd 88 50 07 be 6b 61 04 be 6b 41 10 be
       -0.123185426 -0.13214314 -0.12927787 -0.14087455
000100 34 c6 06 be 04 ca fb bd be 79 07 be a2 10 07 be
       -0.13161546 -0.12294391 -0.13230035 -0.13189939
000110 9b d2 09 be c8 19 11 be 05 47 0e be bb 02 07 be
       -0.13459246 -0.14169991 -0.1389428 -0.13184635

bn3.running_mean f4 [72]
000000 82 78 a7 3e 65 02 cf 3e 0a 4a dc 3e 50 a4 a3 3e
       0.32709128 0.40431514 0.43025237 0.31961298
000010 a3 a6 a0 3e d9 6f 8c 3e a1 98 9a 3e 07 da c4 3e
       0.31377134 0.27429083 0.30194572 0.38447592
000020 e0 57 ce 3e ad e6 97 3e e4 3c d9 3e e5 f4 d8 3e
       0.40301418 0.2966818 0.42429268 0.4237434
000030 c4 0f e2 3e 81 83 9f 3e db 4e c9 3e ad 33 aa 3e
       0.44152653 0.31155017 0.39317974 0.3324255
000040 69 d4 a9 3e f3 e8 dc 3e 30 9f ad 3e 50 5c d0 3e
       0.3316987 0.43146476 0.33910513 0.4069543
000050 f1 24 fc 3e 00 43 c7 3e 38 c6 8f 3e b4 29 ac 3e
       0.49246934 0.38918304 0.28080916 0.33625567
000060 4f f3 b6 3c d9 d8 f1 3c da 30 ef bb 05 5b a1 3c
       0.022332815 0.029522346 -0.0072995247 0.019696722
000070 ad 87 6d 3c 95 9c 65 3c 7c 35 6a 3c a1 b7 ca 3c
       0.01449768 0.014014383 0.014294978 0.024745764
000080 50 7e c5 3c f8 fb 4c 3c 25 a4 dd 3c f9 3f 88 bc
       0.024108082 0.012511246 0.02705581 -0.016632067
000090 88 86 55 bc d1 0f 64 3c f4 53 8e bc 1d 51 88 3c
       -0.013032563 0.013919787 -0.017374016 0.01664024
0000a0 1f 9a 60 3c a0 bd 63 bc 31 77 a1 3c 86 9e ba 3c
       0.01370862 -0.013900191 0.019710155 0.022780668
0000b0 db fc d3 bb 55 d5 c2 3c 21 fc 3e 3c ae 49 98 3c
       -0.0064693517 0.023783365 0.011656792 0.01858982
0000c0 be 5e ad be 8c 64 8c be 03 f0 e0 be 89 17 9c be
       -0.33861345 -0.2742046 -0.43933114 -0.30486706
0000d0 5f 01 ab be 29 80 91 be f9 1b 9d be 69 f7 98 be
       -0.33399484 -0.2841809 -0.30685404 -0.2987626
0000e0 4e 1b 97 be 90 6a 9d be 27 32 9a be 96 52 be be
       -0.2951302 -0.30745363 -0.30116388 -0.37172383
0000f0 90 1f db be f9 6f a5 be dc 79 e6 be 2e bc 91 be
       -0.42797518 -0.3231199 -0.45014846 -0.28463882
000100 30 e3 9e be fe f7 e4 be 9e 38 9a be 39 5f 95 be
       -0.31032705 -0.44720453 -0.3012132 -0.29174212
000110 2b a9 e0 be a0 1f 9a be c8 73 aa be dd 0b a1 be
       -0.43879065 -0.30102253 -0.3329146 -0.31454363

bn3.running_var f4 [72]
000000 62 46 37 3f b5 04 63 3f f7 00 8f 3f 3b fb 37 3f
       0.7159177 0.8867906 1.117217 0.7186772
000010 4c 94 36 3f 32 d0 21 3f 95 8f 31 3f dd 0f 5a 3f
       0.71320033 0.63208306 0.69359714 0.85180455
000020 85 6f 69 3f a1 d7 30 3f 12 b2 74 3f 1c 27 96 3f
       0.9118579 0.69079024 0.95584214 1.1730685
000030 75 9e 9a 3f bc 35 38 3f 70 4b 89 3f 1e 0d 44 3f
       1.2079607 0.7195699 1.0726147 0.76582515
000040 3e 92 44 3f c6 7b 95 3f a6 e7 42 3f 36 50 6a 3f
       0.7678565 1.1678398 0.7613472 0.9152864
000050 8a bb a9 3f fe f4 5f 3f 67 2a 26 3f 3c 4f 43 3f
       1.3260357 0.87483203 0.6490845 0.7629278
000060 0f 29 58 3e 33 0b 58 3e 7f 15 62 3e ab ef 55 3e
       0.21109413 0.21098022 0.22078513 0.20892207
000070 c0 e3 56 3e e2 cd 52 3e 33 03 56 3e 1d 54 58 3e
       0.20985317 0.2058635 0.20899658 0.21125837
000080 b5 8b 57 3e 20 dc 54 3e e5 ba 58 3e 59 30 5f 3e
       0.21049388 0.20787096 0.21165045 0.21795787
000090 75 81 60 3e 3e 02 56 3e 07 aa 5f 3e e3 67 54 3e
       0.21924384 0.20899293 0.21842204 0.20742755
0000a0 82 e5 55 3e d1 cc 61 3e 87 97 56 3e 97 d1 58 3e
       0.20888332 0.22050788 0.2095624 0.21173702
0000b0 98 27 62 3e 12 97 57 3e 79 84 56 3e a9 b9 56 3e
       0.22085416 0.21053723 0.20948972 0.20969261
0000c0 c6 72 80 3f 1c d3 53 3f 74 f0 8c 3f 09 14 62 3f
       1.0035026 0.82744 1.101088 0.8831182
0000d0 57 55 73 3f 3d d0 4d 3f a7 7d 5c 3f fe c7 60 3f
       0.95052093 0.8039587 0.8612923 0.87805164
0000e0 15 60 5e 3f cc e3 5b 3f 82 04 65 3f 7e 72 5d 3f
       0.8686536 0.85894465 0.89460003 0.86502826
0000f0 68 99 85 3f 2a ee 6a 3f d7 f0 8b 3f 38 07 50 3f
       1.0437441 0.9176966 1.0932873 0.81261015
000100 b1 71 60 3f d4 de 8a 3f 73 42 5f 3f b1 f5 5a 3f
       0.8767348 1.0849252 0.8721077 0.85531145
000110 c8 91 8e 3f 0a ce 63 3f e5 97 6e 3f 2c 60 67 3f
       1.1138239 0.88986266 0.9320052 0.9038112

mlp4.weight f4 [1, 72]
000000 00 00 00 00 00 00 00 00 00 00 00 00 00 00 00 00
       0.0 0.0 0.0 0.0
000010 00 00 00 00 00 00 00 00 00 00 00 00 00 00 00 00
       0.0 0.0 0.0 0.0
000020 00 00 00 00 00 00 00 00 00 00 00 00 00 00 00 00
       0.0 0.0 0.0 0.0
000030 00 00 00 00 00 00 00 00 00 00 00 00 00 00 00 00
       0.0 0.0 0.0 0.0
000040 00 00 00 00 00 00 00 00 00 00 00 00 00 00 00 00
       0.0 0.0 0.0 0.0
000050 00 00 00 00 00 00 00 00 00 00 00 00 00 00 00 00
       0.0 0.0 0.0 0.0
000060 dc 69 05 3e 04 d9 07 3e 78 5d cc 3d 71 aa e8 3c
       0.13028663 0.13266379 0.09978765 0.028401585
000070 6a 77 05 3e 67 49 0b 3d 00 00 00 00 11 cc 33 3e
       0.13033834 0.03400555 0.0 0.17558314
000080 ae ec 82 3d 0d 1c c6 3d bd ac 31 3e e5 ec 02 3e
       0.06392799 0.09673319 0.1735105 0.1278568
000090 5d 38 43 3e 3e 7a 0b 3e 3e fb 89 3d bc e0 8c 3d
       0.1906447 0.1362085 0.06737374 0.06878802
0000a0 83 5a 19 3d 62 f3 2e 3d 75 89 24 3e 56 b8 bc 3c
       0.037439834 0.042712577 0.1606806 0.023037117
0000b0 57 44 6b 3e f0 d4 a5 3d 96 a4 c3 3d e5 95 1e 3e
       0.22975288 0.08097255 0.09552877 0.15486868
0000c0 23 33 49 3e 34 d5 2a 3e 0b 4d 05 3e 51 17 16 3e
       0.19648413 0.16682893 0.13017671 0.14657332
0000d0 ae 13 48 3e f0 56 22 3e 1b 85 7d 3d 42 87 df 3d
       0.19538757 0.15853477 0.061894517 0.1091447
0000e0 f5 41 24 3e 00 e6 04 3e 9f 68 40 3e 11 4d 3f 3e
       0.16040786 0.12978363 0.1878991 0.18681742
0000f0 90 8c 5c 3e 89 64 25 3e 59 12 7a 3d ed 85 42 3e
       0.21537995 0.16151632 0.061052654 0.18996401
000100 67 c6 a5 3d 57 99 d2 3d fe 6d 34 3e 2b 24 ee 3d
       0.08094483 0.102831535 0.17620084 0.11627992
000110 d2 37 34 3e 0a e1 c9 3d 57 43 c6 3d a9 a6 ff 3d
       0.17599419 0.09857376 0.09680813 0.1248296
