utility-model-selected/dim-3/utility-59.pt (torch, 23458 bytes, 17 tensors)

bn1.running_mean f4 [3]
0.5019971 0.5000743 0.49888787
00000000: e282 003f df04 003f 3b6e ff3e

bn1.running_var f4 [3]
0.056474797 0.05373016 0.05290013
00000000: 1e52 673d 2814 5c3d cfad 583d

mlp1.weight f4 [24, 3]
0.13337865 0.43096524 0.31893077 0.46740547 0.38037348 0.23025031 0.38687226 0.28019395
0.059302047 0.5 0.29936522 0.2749285 0.15943049 0.33430615 0.14258532 0.4522541
0.49899977 0.035438083 0.18736272 0.40118685 0.38961348 0.4989778 0.38843304 0.40869677
0.20595767 0.24797443 0.30243066 0.25368083 0.16451313 0.14999108 0.10516346 0.12413853
0.3281635 0.006190561 0.4051899 0.095006675 0.08843667 0.03930391 0.36673284 0.2824712
0.1287462 0.3003425 0.39263254 0.36223775 0.22922176 0.5 0.41140306 0.3812103
0.21970223 0.0 0.070583984 0.41100293 0.38726497 0.109490894 0.12433227 0.30492774
0.15535133 0.14712597 0.5 0.18000095 0.5 0.09098635 0.0463868 0.45765674
0.09228677 0.0 0.49863702 0.45872942 0.41419792 3.182024e-05 0.5 0.001499983
00000000: 6a94 083e 7aa7 dc3e e54a a33e c54f ef3e
00000010: 50c0 c23e bdc6 6b3e 1f14 c63e 9575 8f3e
00000020: b4e6 723d 0000 003f 6646 993e 6ec3 8c3e
00000030: bf41 233e 2d2a ab3e e301 123e d98d e73e
00000040: e67c ff3e 8627 113d 03dc 3f3e 5d68 cd3e
00000050: 6b7b c73e 057a ff3e b2e0 c63e b440 d13e
00000060: 91e6 523e 02ed 7d3e 31d8 9a3e 74e2 813e
00000070: 2176 283e 4397 193e f15f d73d 573c fe3d
00000080: 0c05 a83e 31da ca3b 0d75 cf3e dc92 c23d
00000090: 491e b53d 23fd 203d 68c4 bb3e 11a0 903e
000000a0: 0bd6 033e 7ec6 993e 2207 c93e 3a77 b93e
000000b0: 1cb9 6a3e 0000 003f 6ca3 d23e ff2d c33e
000000c0: 9ff9 603e 0000 0000 568e 903d fa6e d23e
000000d0: 9847 c63e c33c e03d eba1 fe3d 7d1f 9c3e
000000e0: 6b14 1f3e 31a8 163e 0000 003f 2b52 383e
000000f0: 0000 003f 0d57 ba3d 1600 3e3d fc51 ea3e
00000100: d900 bd3d 0000 0000 5a4d ff3e 95de ea3e
00000110: c011 d43e b976 0538 0000 003f 149b c43a

mlp1.bias f4 [24]
-0.2955085 -0.250451 -0.115717135 0.36120152 -0.48145652 0.20738348 0.021858122 -0.03571735
-0.16525555 0.4615703 -0.37098292 0.5081465 0.13126066 -0.25883824 -0.003979899 0.26517203
0.46563035 -0.4000519 0.14679465 0.40027827 0.45490262 -0.23470287 0.17579438 0.31051713
00000000: e44c 97be 1d3b 80be 1bfd ecbd 68ef b83e
00000010: 7881 f6be 565c 543e ce0f b33c 5b4c 12bd
00000020: c038 29be f152 ec3e 79f1 bdbe e415 023f
00000030: 3269 063e 7286 84be d069 82bb a1c4 873e
00000040: 1a67 ee3e 9ad3 ccbe 5651 163e 46f1 cc3e
00000050: ffe8 e83e f355 70be 7103 343e 1afc 9e3e

mlp2.weight f4 [24, 72]
0.029974485 0.14054915 0.17382492 0.13613757 0.070422456 0.0862486 0.12349419 0.12513128
0.114626445 0.09812399 0.041600432 0.1390689 0.047066864 0.033627067 0.16570766 0.15395607
0.0886471 0.1416841 0.11975052 0.064814 0.13725461 0.03423699 0.1661607 0.02974486
0.12090365 0.19651532 0.18670027 0.10223497 0.021255938 0.1431267 0.09512755 0.15408704
0.08226066 0.047855403 0.08362955 0.0930388 0.0 0.01934268 0.24126741 0.11890053
0.13541555 0.05986641 0.09280583 0.13025604 0.15156677 0.1134113 0.16910578 0.08788683
0.10025353 0.2224198 0.14913116 0.15850176 0.11825559 0.21880327 0.11835872 0.1327501
0.108419314 0.08940054 0.020288944 0.08954351 0.022997893 0.04408629 0.1638107 0.119513005
0.091639 0.15565652 0.1347977 0.11492802 0.20312159 0.0644573 0.12866618 0.13745612
0.057729427 0.16959663 0.107796445 0.1732919 0.08124566 0.15028831 0.058508612 0.0889524
0.106446534 0.090092346 0.04913375 0.13014044 0.021261001 0.05039665 0.1666991 0.11720999
0.05145816 0.067058966 0.07118707 0.16006178 0.12674364 0.034560025 0.19426227 0.030631127
0.0741251 0.175052 0.20870653 0.17075965 0.028639583 0.17097554 0.08136445 0.22365148
0.08994546 0.053750213 0.09893016 0.07542965 0.0 0.035216827 0.3653957 0.19198257
0.08193817 0.079413496 0.0966938 0.14873551 0.14535855 0.08303177 0.13701978 0.13813214
0.1234253 0.24001966 0.17806014 0.087412976 0.067832775 0.13030095 0.08135984 0.11924242
0.052852333 0.1000679 0.03153383 0.10640885 0.0072834436 0.12741308 0.2394154 0.09334053
0.16374509 0.12919511 0.15057199 0.0758179 0.14156926 0.10193943 0.07728672 0.14070997
0.10042437 0.12224455 0.114613995 0.18822014 0.10903269 0.1380247 0.13794209 0.17402357
0.1180238 0.11760109 0.046762004 0.052829143 0.0 0.05162002 0.15810154 0.19884594
0.057827182 0.13383426 0.12925103 0.13796774 0.15957011 0.00078682305 0.1333917 0.095563576
0.063902736 0.15440938 0.15551682 0.14046513 0.051966656 0.16148937 0.09435482 0.22909261
0.11188911 0.06123205 0.04760085 0.14747581 0.0 0.026253786 0.24546015 0.0927964
0.11224062 0.06654842 0.14006771 0.13834509 0.11554489 0.08802373 0.16275276 0.08745999
0.0707531 0.18070471 0.14600874 0.13427429 0.099862136 0.2000414 0.06275291 0.12624316
0.053767405 0.121244565 0.019785753 0.09202623 0.07284382 0.07307434 0.22604847 0.08258909
0.10639863 0.17643237 0.06709558 0.11894134 0.18765858 0.11566534 0.108215354 0.089154445
0.0481529 0.11253094 0.09371267 0.11041776 0.06002038 0.10691564 0.12110788 0.084345914
0.0921118 0.096850224 0.0935022 0.10191666 0.0016552419 0.04154048 0.13864401 0.11171875
0.06457688 0.06510112 0.057185438 0.13950895 0.09494175 0.078688376 0.10249886 0.06327271
0.11659276 0.21240288 0.14753428 0.1716291 0.036255244 0.223439 0.13316388 0.17550719
0.118381105 0.110133015 0.06935615 0.084281504 0.0101431785 0.062715285 0.3396212 0.21081315
00000000: 0d8d f53c 1eec 0f3e 29ff 313e a667 0b3e
00000010: a639 903d 1ba3 b03d 86ea fc3d 6a22 003e
00000020: 45c1 ea3d 3bf5 c83d 3765 2a3d 1468 0e3e
00000030: 2fc9 403d 89bc 093d 45af 293e a9a6 1d3e
00000040: 9c8c b53d a315 113e c33f f53d 34bd 843d
00000050: 798c 0c3e 163c 0c3d 0826 2a3e 7eab f33c
00000060: 559c f73d 503b 493e 5b2e 3f3e 9160 d13d
00000070: ef20 ae3c ce8f 123e 3cd2 c23d fec8 1d3e
00000080: 4778 a83d 0704 443d f845 ab3d 208b be3d
00000090: 0000 0000 8a74 9e3c ce0e 773e 1f82 f33d
000000a0: 60aa 0a3e 7b36 753d fc10 be3d d761 053e
000000b0: 5234 1b3e 2f44 e83d 112a 2d3e 03fe b33d
000000c0: b951 cd3d 04c2 633e d7b5 183e 494e 223e
000000d0: fd2f f23d f70d 603e 0e66 f23d a4ef 073e
000000e0: f20a de3d a117 b73d 0035 a63c 9662 b73d
000000f0: 1466 bc3c d393 343d febd 273e 3cc3 f43d
00000100: 3aad bb3d 6c64 1f3e 6908 0a3e 625f eb3d
00000110: 1bff 4f3e 3002 843d 11c1 033e 4cc1 0c3e
00000120: b175 6c3d bdaa 2d3e 62c4 dc3d 6f73 313e
00000130: 2064 a63d 2ee5 193e baa6 6f3d ad2c b63d
00000140: a400 da3d 5682 b83d 7940 493d 8943 053e
00000150: 8d2b ae3c b86c 4e3d 2bb3 2a3e cb0b f03d
00000160: cbc5 523d 3656 893d 87ca 913d 3ce7 233e
00000170: 16c9 013e d08e 0d3d b0ec 463e 21ee fa3c
00000180: e7ce 973d d540 333e 2ab7 553e 9edb 2e3e
00000190: 8f9d ea3c 3614 2f3e 68a2 a63d e504 653e
000001a0: 5335 b83d 2f29 5c3d e59b ca3d dc7a 9a3d
000001b0: 0000 0000 853f 103d 2515 bb3e 1497 443e
000001c0: 33cf a73d 8ba3 a23d 6607 c63d 1f4e 183e
000001d0: dfd8 143e 900c aa3d ea4e 0c3e 8372 0d3e
000001e0: 67c6 fc3d b7c7 753e 6655 363e 9305 b33d
000001f0: e9eb 8a3d 9d6d 053e fd9f a63d 5f35 f43d
00000200: b07b 583d 66f0 cc3d 9e29 013d e2ec d93d
00000210: f4a9 ee3b 9378 023e 5029 753e 5229 bf3d
00000220: cbac 273e b94b 043e 8b2f 1a3e 6a46 9b3d
00000230: 88f7 103e 9fc5 d03d 8048 9e3d 4616 103e
00000240: 4bab cd3d 5a5b fa3d beba ea3d c8bc 403e
00000250: 884c df3d 5956 0d3e b140 0d3e 3c33 323e
00000260: 76b6 f13d d7d8 f03d 8489 3f3d 5f63 583d
00000270: 0000 0000 846f 533d 5fe5 213e 459e 4b3e
00000280: 32dc 6c3d d90b 093e 625a 043e 6a47 0d3e
00000290: 5966 233e cd42 4e3a d597 083e d6b6 c33d
000002a0: 70df 823d 7e1d 1e3e cd3f 1f3e 17d6 0f3e
000002b0: fdda 543d 785d 253e 1a3d c13d 4197 6a3e
000002c0: 1e26 e53d 75ce 7a3d 1cf9 423d e603 173e
000002d0: 0000 0000 2e12 d73c e859 7b3e 0a0c be3d
000002e0: 69de e53d 8a4a 883d e96d 0f3e 56aa 0d3e
000002f0: cda2 ec3d c945 b43d a9a8 263e 391e b33d
00000300: 00e7 903d a80a 393e 5183 153e 337f 093e
00000310: 8584 cc3d a7d7 4c3e 9984 803d e345 013e
00000320: 363b 5c3d 124f f83d bb15 a23c 4078 bc3d
00000330: 242f 953d 00a8 953d 4079 673e 7824 a93d
00000340: 86e7 d93d b0aa 343e 6869 893d 8497 f33d
00000350: 9229 403e f3e1 ec3d 03a0 dd3d 9b96 b63d
00000360: fa3b 453d 9f76 e63d 6eec bf3d b522 e23d
00000370: eed7 753d 96f6 da3d 6807 f83d 8dbd ac3d
00000380: 1da5 bc3d 6959 c63d 157e bf3d afb9 d03d
00000390: b4f4 d83a 5a26 2a3d b2f8 0d3e cdcc e43d
000003a0: e240 843d bc53 853d 473b 6a3d 6fdb 0e3e
000003b0: d270 c23d 5f27 a13d ecea d13d 1f95 813d
000003c0: 2fc8 ee3d 2480 593e 3a13 173e 8abf 2f3e
000003d0: 6180 143d 31cd 643e 1d5c 083e 28b8 333e
000003e0: cb71 f23d 6b8d e13d 990a 8e3d c89b ac3d
000003f0: 932f 263c df70 803d d4e2 ad3e 67df 573e

mlp2.bias f4 [24]
-0.0034452148 0.016631253 0.020129904 -0.06433744 -0.028893637 0.0055214143 0.059358466 0.041350342
-0.08504288 0.08003231 0.026791248 0.033023007 0.05591917 -0.0022007704 -0.062725775 0.06117867
-0.056541905 -0.026833732 -0.05239241 0.022967342 0.000823492 -0.041902184 0.016824052 0.0035867253
00000000: 1dc9 61bb 443e 883c 78e7 a43c 59c3 83bd
00000010: 59b2 ecbc fbec b43b dd21 733d fa5e 293d
00000020: f62a aebd fbe7 a33d 5279 db3c 2243 073d
00000030: 800b 653d cd3a 10bb 5f76 80bd 7c96 7a3d
00000040: 7c98 67bd 6ad2 dbbc 6c99 56bd 0226 bc3c
00000050: 9ddf 573a a0a1 2bbd 98d2 893c 440f 6b3b

bn2.weight f4 [72]
0.49973723 0.5 0.5 0.5 0.49047083 0.5 0.49881664 0.5
0.4994205 0.5 0.47990933 0.4992979 0.42900345 0.47470367 0.5 0.5
0.49820134 0.5 0.4992242 0.499276 0.5 0.47996476 0.5 0.4996671
0.49891186 0.5 0.5 0.5 0.48948297 0.5 0.49788308 0.5
0.49938488 0.4999461 0.48748845 0.49966705 0.42462325 0.4826875 0.5 0.49897727
0.5 0.5 0.49901175 0.49990234 0.5 0.48758432 0.49949917 0.5
0.498872 0.5 0.5 0.5 0.49970803 0.5 0.4975814 0.49875754
0.49852774 0.5 0.45205244 0.49968964 0.44874802 0.49882716 0.4999196 0.49788123
0.5 0.5 0.4988393 0.4998884 0.5 0.5 0.49826935 0.5
00000000: 8fdd ff3e 0000 003f 0000 003f 0000 003f
00000010: fe1e fb3e 0000 003f e564 ff3e 0000 003f
00000020: 0bb4 ff3e 0000 003f adb6 f53e f9a3 ff3e
00000030: 57a6 db3e 5c0c f33e 0000 003f 0000 003f
00000040: 3f14 ff3e 0000 003f 509a ff3e 1ba1 ff3e
00000050: 0000 003f f1bd f53e 0000 003f 5ed4 ff3e
00000060: 6071 ff3e 0000 003f 0000 003f 0000 003f
00000070: 839d fa3e 0000 003f 88ea fe3e 0000 003f
00000080: 60af ff3e eff8 ff3e 1698 f93e 5cd4 ff3e
00000090: 3868 d93e d122 f73e 0000 003f f379 ff3e
000000a0: 0000 003f 0000 003f 787e ff3e 33f3 ff3e
000000b0: 0000 003f a7a4 f93e 5bbe ff3e 0000 003f
000000c0: 276c ff3e 0000 003f 0000 003f 0000 003f
000000d0: bbd9 ff3e 0000 003f fdc2 fe3e 265d ff3e
000000e0: 073f ff3e 0000 003f 6b73 e73e 52d7 ff3e
000000f0: 4dc2 e53e 4666 ff3e 76f5 ff3e 4aea fe3e
00000100: 0000 003f 0000 003f dd67 ff3e 5ff1 ff3e
00000110: 0000 003f 0000 003f 291d ff3e 0000 003f

bn2.bias f4 [72]
-0.012564416 -0.013316415 -0.013081427 -0.018409254 -0.007984487 -0.011770776 -0.01770901 -0.009494274
-0.010492025 -0.018029867 -0.012133166 -0.0074020918 -0.0047808816 -0.0061074025 -0.01599985 -0.011289325
-0.012312175 -0.009695015 -0.017256666 -0.016080203 -0.021771105 -0.007614046 -0.016734073 -0.01104481
-0.010019597 -0.00868981 -0.010282411 -0.026713863 -0.005813782 -0.019539395 -0.019630864 -0.020308815
-0.01654185 -0.02208236 -0.009705095 -0.022771899 -0.0061351587 -0.005239759 -0.0115254605 -0.013541529
-0.021629859 -0.0022283145 -0.014382418 -0.024835814 -0.018354738 -0.016170062 -0.015424815 -0.020870691
-0.013634072 -0.020911923 -0.017772404 -0.026151752 -0.017798234 -0.01734519 -0.024107749 -0.02114864
-0.0049631954 -0.023837248 -0.016407194 -0.013247059 -0.013061169 -0.016540062 -0.024616344 -0.023698676
-0.017266398 -0.009153126 -0.01526729 -0.019751864 -0.01736004 -0.013878909 -0.02305588 -0.0114147775
00000000: fbda 4dbc 182d 5abc 7b53 56bc 01cf 96bc
00000010: 5ed1 02bc 36da 40bc 7c12 91bc df8d 1bbc
00000020: bee6 2bbc 5fb3 93bc 30ca 46bc 3f8d f2bb
00000030: f1a8 9cbb 9b20 c8bb 1e12 83bc dcf6 38bc
00000040: 01b9 49bc d7d7 1ebc da5d 8dbc a1ba 83bc
00000050: 5159 b2bc 3f7f f9bb e515 89bc 4af5 34bc
00000060: 3c29 24bc b45f 0ebc 8f77 28bc 08d7 dabc
00000070: 8a81 bebb 1511 a0bc e8d0 a0bc ac5e a6bc
00000080: c682 87bc 11e6 b4bc 1e02 1fbc 228c babc
00000090: 7109 c9bb 49b2 abbb 49d5 3cbc 4add 5dbc
000000a0: 1a31 b1bc ea08 12bb 3ca4 6bbc 7a74 cbbc
000000b0: ad5c 96bc 1477 84bc 5db8 7cbc 03f9 aabc
000000c0: 7161 5fbc 7b4f abbc 6f97 91bc 333c d6bc
000000d0: 9acd 91bc 8017 8ebc 9d7d c5bc ea3f adbc
000000e0: 4da2 a2bb 5546 c3bc 6168 86bc 310a 59bc
000000f0: 83fe 55bc 067f 87bc 37a8 c9bc ba23 c2bc
00000100: 4372 8dbc fef6 15bc a823 7abc a9ce a1bc
00000110: a536 8ebc 5d64 63bc afdf bcbc 0c05 3bbc

bn2.running_mean f4 [72]
-0.15393852 -0.089406595 -0.055231124 0.38257036 -0.32318693 0.26074725 0.08837186 0.09202088
-0.105777346 0.4620194 -0.27569702 0.50163436 0.13370661 -0.17805533 0.060769156 0.32397118
0.4620257 -0.20549025 0.15025209 0.4047843 0.45101392 -0.14440781 0.263956 0.3062412
-0.16921617 -0.12752238 -0.075409 0.17655952 -0.32367563 0.099996 0.015067749 -0.020346051
-0.11738981 0.3392675 -0.27611193 0.32291532 0.10004055 -0.18423022 -0.0055248695 0.11466403
0.382539 -0.21590938 0.11847438 0.21755482 0.25396904 -0.14837112 0.07118151 0.17984638
-0.30981517 -0.28783828 -0.13519312 0.15402502 -0.4829079 0.04872402 -0.047462277 -0.14752342
-0.17631857 0.33901235 -0.37321463 0.3228196 0.09717617 -0.26409692 -0.06954861 0.055537544
0.382539 -0.40947658 0.11494921 0.2102845 0.25330937 -0.24406874 -0.016255105 0.17723948
00000000: 0fa2 1dbe ce1a b7bd 083a 62bd 43e0 c33e
00000010: c278 a5be aa80 853e 4efc b43d 7175 bc3d
00000020: cba1 d8bd cf8d ec3e 2928 8dbe 1c6b 003f
00000030: 63ea 083e 2354 36be 14e9 783d 8ddf a53e
00000040: a28e ec3e 096c 52be afdb 193e e33f cf3e
00000050: 4ceb e63e a4df 13be 3e25 873e a6cb 9c3e
00000060: 0147 2dbe 3a95 02be 0970 9abd 05cc 343e
00000070: d0b8 a5be b4ca cc3d b8de 763c c3ac a6bc
00000080: 126a f0bd 78b4 ad3e 8b5e 8dbe 2855 a53e
00000090: 0fe2 cc3d d9a6 3cbe f709 b5bb fad4 ea3d
000000a0: 27dc c33e 5917 5dbe b2a2 f23d b1c6 5e3e
000000b0: 3b08 823e 99ee 17be 9dc7 913d a629 383e
000000c0: 18a0 9ebe 8a5f 93be 1170 0abe bcb8 1d3e
000000d0: b43f f7be d792 473d ce67 42bd 6110 17be
000000e0: db8c 34be 0793 ad3e fd15 bfbe 9c48 a53e
000000f0: 4d04 c73d b637 87be 806f 8ebd 567b 633d
00000100: 27dc c33e eaa6 d1be 7e6a eb3d d254 573e
00000110: c4b1 813e 28ed 79be 6d29 85bc 447e 353e

bn2.running_var f4 [72]
0.15391383 0.21734312 0.16516751 0.37670794 0.05632538 0.3682865 0.25659522 0.3571252
0.1338078 0.11600134 0.06620791 0.1730832 0.14106628 0.11102647 0.24907117 0.4510059
0.0529545 0.1390292 0.13082138 0.2972127 0.26200044 0.12871638 0.46256632 0.24274483
0.12806626 0.15294439 0.1363043 0.13622512 0.055363372 0.15738744 0.15315239 0.1739022
0.1158054 0.042576637 0.065448955 0.055019826 0.10704263 0.1009027 0.1544429 0.1607978
0.020835888 0.12048292 0.09895858 0.114005305 0.093101114 0.122961156 0.17255867 0.12050635
0.28333452 0.3516241 0.20633432 0.1765628 0.16181847 0.240587 0.24580558 0.37096092
0.18160133 0.043070883 0.13641976 0.05518703 0.11095242 0.17869224 0.24492936 0.26635715
0.020835888 0.31792876 0.104080625 0.12649192 0.094275996 0.21765468 0.32578352 0.12437229
00000000: 969b 1d3e 328f 5e3e ac21 293e dddf c03e
00000010: 71b5 663d 0c90 bc3e 7360 833e 1dd9 b63e
00000020: e904 093e 1c92 ed3d 0398 873d b93c 313e
00000030: ae73 103e d961 e33d 830c 7f3e 3fea e63e
00000040: d1e6 583d ac5d 0e3e 0af6 053e 432c 983e
00000050: ec24 863e 3ace 033e 7ed5 ec3e 1a92 783e
00000060: cd23 033e 749d 1c3e 5b93 0b3e 997e 0b3e
00000070: b4c4 623d 2c2a 213e fbd3 1c3e 6b13 323e
00000080: 622b ed3d d764 2e3d 1a0a 863d 785c 613d
00000090: 2b39 db3d 13a6 ce3d 4826 1e3e 2ea8 243e
000000a0: 06b0 aa3c c0bf f63d ccaa ca3d 9d7b e93d
000000b0: ccab be3d 0fd3 fb3d 38b3 303e 09cc f63d
000000c0: 3911 913e 1308 b43e 4e49 533e e1cc 343e
000000d0: beb3 253e 705c 763e 75b4 7b3e 97ee bd3e
000000e0: b3f5 393e 186b 303d 9fb1 0b3e cc0b 623d
000000f0: 063b e33d 19fb 363e c3ce 7a3e f75f 883e
00000100: 06b0 aa3c 8fc7 a23e 3928 d53d 1987 013e
00000110: c613 c13d dee0 5e3e 19cd a63e e6b6 fe3d

mlp3.weight f4 [24, 72]
0.0 0.0 0.0 0.0 0.0 0.0 0.0 0.0
0.0 0.0 0.0 0.0 0.0 0.0 0.0 0.0
0.0 0.0 0.0 0.0 0.0 0.0 0.0 0.0
0.17814326 0.19998738 0.09052412 0.16485941 0.079009265 0.18295313 0.11715501 0.14620572
0.17582762 0.07380992 0.09396031 0.12213639 0.11001084 0.106958486 0.1367804 0.14266387
0.2101949 0.11706413 0.08005316 0.17747216 0.10898338 0.09197699 0.16082673 0.14471222
0.12173394 0.11711311 0.21285719 0.16353299 0.19565935 0.14220338 0.14192094 0.16625422
0.14346988 0.13445227 0.08860101 0.093746156 0.1620875 0.18397146 0.14541192 0.20917486
0.22505657 0.10729139 0.11936313 0.12601191 0.1393579 0.20677383 0.19350612 0.15667932
0.0 0.0 0.0 0.0 0.0 0.0 0.0 0.0
0.0 0.0 0.0 0.0 0.0 0.0 0.0 0.0
0.0 0.0 0.0 0.0 0.0 0.0 0.0 0.0
0.16936721 0.14167379 0.10842228 0.10681062 0.1983996 0.15114945 0.09885401 0.119266406
0.14966467 0.16742018 0.14070483 0.12102748 0.18975306 0.22388145 0.13261276 0.12251168
0.12516503 0.1742678 0.16393092 0.18336143 0.1240249 0.17724504 0.17600472 0.15590069
0.0 0.0 0.0 0.0 0.0 0.0 0.0 0.0
0.0 0.0 0.0 0.0 0.0 0.0 0.0 0.0
0.0 0.0 0.0 0.0 0.0 0.0 0.0 0.0
0.058344796 0.039015986 0.110801704 0.06595837 0.027928626 0.038114328 0.023956705 0.073374346
0.13041691 0.115635924 0.07627098 0.082801044 0.091133825 0.02449275 0.041400135 0.07581351
0.07056088 0.056575805 0.022948662 0.098485015 0.03240185 0.059588443 0.072080605 0.07420204
0.20552278 0.16637427 0.19537368 0.18588795 0.17717145 0.15265942 0.1079276 0.11553692
0.19226666 0.18377212 0.11604 0.15619004 0.17422518 0.14750288 0.23254716 0.17976713
0.1400158 0.17104432 0.17695796 0.18730816 0.20037007 0.19560024 0.22119132 0.1961066
0.0 0.0 0.0 0.0 0.0 0.0 0.0 0.0
0.0 0.0 0.0 0.0 0.0 0.0 0.0 0.0
0.0 0.0 0.0 0.0 0.0 0.0 0.0 0.0
0.0007252066 0.00062228384 0.0006085911 0.00081998965 0.0006092763 0.0009918835 0.0006369103 0.00073809765
0.0008731136 0.00070915313 0.000559927 0.0007388015 0.000852889 0.00063853455 0.0008962537 0.0005527036
0.00096236134 0.00078256166 0.0008598479 0.00072133564 0.00065823697 0.0009483426 0.00046756666 0.0007108534
0.16735373 0.119400546 0.13054238 0.1864187 0.18443537 0.108659185 0.13087136 0.113964014
0.10002238 0.16439718 0.1478276 0.14944309 0.10265113 0.2209366 0.13378307 0.1986021
00000000: 0000 0000 0000 0000 0000 0000 0000 0000
00000010: 0000 0000 0000 0000 0000 0000 0000 0000
00000020: 0000 0000 0000 0000 0000 0000 0000 0000
00000030: 0000 0000 0000 0000 0000 0000 0000 0000
00000040: 0000 0000 0000 0000 0000 0000 0000 0000
00000050: 0000 0000 0000 0000 0000 0000 0000 0000
00000060: 306b 363e 7ec9 4c3e b664 b93d e8d0 283e
00000070: 9ccf a13d 1158 3b3e f7ee ef3d f4b6 153e
00000080: 280c 343e a829 973d 436e c03d a522 fa3d
00000090: 5d4d e13d 0d0d db3d 2910 0c3e 7a16 123e
000000a0: 553d 573e 52bf ef3d e9f2 a33d 43bb 353e
000000b0: ae32 df3d 6f5e bc3d c3af 243e 712f 143e
000000c0: a54f f93d 00d9 ef3d 3cf7 593e 3175 273e
000000d0: ed5a 483e c39d 113e b953 113e 8c3e 2a3e
000000e0: c5e9 123e dbad 093e 7274 b53d fcfd bf3d
000000f0: 44fa 253e 0463 3c3e dde6 143e ef31 563e
00000100: 3b75 663e 97bb db3d a874 f43d 4409 013e
00000110: d6b3 0e3e 85bc 533e 7826 463e 8b70 203e
00000120: 0000 0000 0000 0000 0000 0000 0000 0000
00000130: 0000 0000 0000 0000 0000 0000 0000 0000
00000140: 0000 0000 0000 0000 0000 0000 0000 0000
00000150: 0000 0000 0000 0000 0000 0000 0000 0000
00000160: 0000 0000 0000 0000 0000 0000 0000 0000
00000170: 0000 0000 0000 0000 0000 0000 0000 0000
00000180: 996e 2d3e ef12 113e 800c de3d 87bf da3d
00000190: 4429 4b3e ecc6 1a3e f973 ca3d f241 f43d
000001a0: b241 193e 3270 2b3e ed14 103e 41dd f73d
000001b0: a04e 423e 2e41 653e a4cb 073e 67e7 fa3d
000001c0: 432b 003e 4273 323e 82dd 273e 19c3 3b3e
000001d0: c400 fe3d b97f 353e 953a 343e 6ea4 1f3e
000001e0: 0000 0000 0000 0000 0000 0000 0000 0000
000001f0: 0000 0000 0000 0000 0000 0000 0000 0000
00000200: 0000 0000 0000 0000 0000 0000 0000 0000
00000210: 0000 0000 0000 0000 0000 0000 0000 0000
00000220: 0000 0000 0000 0000 0000 0000 0000 0000
00000230: 0000 0000 0000 0000 0000 0000 0000 0000
00000240: f4fa 6e3d 3acf 1f3d 01ec e23d 2f15 873d
00000250: 93ca e43c c51d 1c3d da40 c43c 4a45 963d
00000260: 038c 053e 87d2 ec3d f633 9c3d 9893 a93d
00000270: 5fa4 ba3d 05a5 c83c 3093 293d 1d44 9b3d
00000280: 3982 903d 08bc 673d d5fe bb3c 83b2 c93d
00000290: cdb7 043d 0313 743d ff9e 933d 3df7 973d
000002a0: 9074 523e 045e 2a3e 0a10 483e 6959 3e3e
000002b0: 6f6c 353e c052 1c3e 2509 dd3d 9f9e ec3d
000002c0: 8de1 443e c22e 3c3e 61a6 ed3d 48f0 1f3e
000002d0: 1668 323e ff0a 173e d820 6e3e e014 383e
000002e0: 4d60 0f3e 3e26 2f3e 7834 353e b6cd 3f3e
000002f0: d02d 4d3e 6e4b 483e fa7f 623e 2bd0 483e
00000300: 0000 0000 0000 0000 0000 0000 0000 0000
00000310: 0000 0000 0000 0000 0000 0000 0000 0000
00000320: 0000 0000 0000 0000 0000 0000 0000 0000
00000330: 0000 0000 0000 0000 0000 0000 0000 0000
00000340: 0000 0000 0000 0000 0000 0000 0000 0000
00000350: 0000 0000 0000 0000 0000 0000 0000 0000
00000360: cb1b 3e3a c320 233a db89 1f3a 93f4 563a
00000370: d7b7 1f3a 1602 823a 54f6 263a e57c 413a
00000380: a9e1 643a 76e6 393a 11c8 123a 21ac 413a
00000390: 6994 5f3a 5463 273a 91f2 6a3a 50e3 103a
000003a0: fa46 7c3a d324 4d3a 6a67 613a 0418 3d3a
000003b0: 898d 2c3a 329a 783a bc23 f539 9058 3a3a
000003c0: c75e 2b3e 4688 f43d e7ac 053e 8be4 3e3e
000003d0: a0dc 3c3e b588 de3d 2403 063e f765 e93d
000003e0: 89d8 cc3d bc57 283e 1e60 173e 9c07 193e
000003f0: c13a d23d 343d 623e 6efe 083e 595e 4b3e

mlp3.bias f4 [24]
0.17758535 0.04566164 -0.15665293 0.1939072 0.08051187 -0.03942927 -0.27235425 -0.18840078
-0.056820866 -0.082525425 0.13179542 -0.26388767 -0.16848311 -0.07054019 -0.24580394 -0.19070716
0.13181213 0.049692474 0.11714822 -0.026403677 0.16829576 -0.118545 -0.12865874 0.045812543
00000000: efd8 353e b307 3b3d a069 20be 9c8f 463e
00000010: 68e3 a43d 9680 21bd 0472 8bbe 22ec 40be
00000020: ffbc 68bd 1703 a9bd 61f5 063e 491c 87be
00000030: d686 2cbe 6077 90bd 07b4 7bbe bd48 43be
00000040: c2f9 063e 568a 4b3d 68eb ef3d 864c d8bc
00000050: b955 2c3e b9c7 f2bd 1ebf 03be efa5 3b3d

bn3.weight f4 [72]
0.40097854 0.39412674 0.39482814 0.40243492 0.39626056 0.39876246 0.39444312 0.39164096
0.39182398 0.397274 0.3987801 0.39720514 0.39790368 0.39606836 0.39608717 0.39853832
0.40248823 0.40233317 0.39456755 0.40709284 0.3984807 0.3955039 0.39364684 0.3945487
0.4995841 0.49975666 0.4996947 0.49975014 0.4996228 0.49971223 0.49966723 0.49987754
0.49935105 0.49995378 0.49988207 0.49966487 0.49985883 0.49957287 0.49948308 0.49957576
0.49941784 0.5 0.49988458 0.49973208 0.49966267 0.49978682 0.49993372 0.4997247
0.39320806 0.39947483 0.40577713 0.39791593 0.40361992 0.38678348 0.39175954 0.3828888
0.3926846 0.39438957 0.3878099 0.40730318 0.40457657 0.39607024 0.39246425 0.38853985
0.39571258 0.3841198 0.38767916 0.39471278 0.38642722 0.38768837 0.3857628 0.40171796
00000000: 0f4d cd3e fbca c93e ea26 ca3e f30b ce3e
00000010: aae2 ca3e 982a cc3e 73f4 c93e 2a85 c83e
00000020: 279d c83e 7f67 cb3e e82c cc3e 795e cb3e
00000030: 08ba cb3e 79c9 ca3e f0cb ca3e 370d cc3e
00000040: f012 ce3e 9dfe cd3e c204 ca3e 796e d03e
00000050: aa05 cc3e 7d7f ca3e 148c c93e 4a02 ca3e
00000060: 7dc9 ff3e 1be0 ff3e fcd7 ff3e 40df ff3e
00000070: 8fce ff3e 48da ff3e 62d4 ff3e f3ef ff3e
00000080: f1aa ff3e f1f9 ff3e 8bf0 ff3e 13d4 ff3e
00000090: 7fed ff3e 04c8 ff3e 3fbc ff3e 65c8 ff3e
000000a0: b2b3 ff3e 0000 003f dff0 ff3e e2dc ff3e
000000b0: c9d3 ff3e 0fe4 ff3e 50f7 ff3e eadb ff3e
000000c0: 9152 c93e f787 cc3e 05c2 cf3e a3bb cb3e
000000d0: 45a7 ce3e 7c08 c63e b594 c83e 000a c43e
000000e0: f50d c93e 6eed c93e 058f c63e 0b8a d03e
000000f0: a924 cf3e b8c9 ca3e 13f1 c83e b2ee c63e
00000100: d79a ca3e 5aab c43e e27d c63e cb17 ca3e
00000110: cad9 c53e 177f c63e b482 c53e faad cd3e

bn3.bias f4 [72]
-0.0064520277 0.003157762 -0.008185742 0.004201402 -0.0002883647 -0.02864024 -0.0125565855 -0.016533358
-0.012087014 -0.012623031 0.00802967 -0.010930434 -0.017976176 0.004142411 -0.01599922 -0.007932052
-0.016722921 -0.011083517 -0.019350814 -0.011476161 -0.0060129156 -0.02626817 0.014222301 -0.0027055347
-0.039679676 -0.04142679 -0.062145073 -0.03553441 -0.04334757 -0.03260521 -0.043829307 -0.037870843
-0.0376016 -0.050455853 -0.050990783 -0.047230013 -0.05351122 -0.044459313 -0.046087254 -0.040955227
-0.030284647 -0.035883002 -0.04472912 -0.053778023 -0.049386125 -0.042734165 -0.049977265 -0.0382944
0.00028910395 -0.011735427 0.051283 0.0136759505 0.042078763 -0.03189724 -0.0069204057 -0.049648017
-0.008885244 -0.048699334 -0.0064599956 0.012028345 0.026411459 0.006037366 -0.015835838 -0.010404419
-0.004027653 -0.031886127 0.008659519 0.024282828 -0.025592972 -0.023385078 -0.034409083 -0.010942145
00000000: 886b d3bb 75f2 4e3b 7e1d 06bc eaab 893b
00000010: a82f 97b9 f09e eabc 23ba 4dbc f770 87bc
00000020: 9c08 46bc d4d0 4ebc e18e 033c 9015 33bc
00000030: c642 93bc 10bd 873b cc10 83bc 70f5 01bc
00000040: 82fe 88bc a497 35bc 9985 9ebc 8206 3cbc
00000050: fe07 c5bb 5830 d7bc a704 693c 574f 31bb
00000060: 2887 22bd 23af 29bd d58b 7ebd 888c 11bd
00000070: 398d 31bd 0a8d 05bd 5c86 33bd 751e 1bbd
00000080: 2304 1abd ccaa 4ebd b6db 50bd 4274 41bd
00000090: 952e 5bbd f81a 36bd fdc5 3cbd abc0 27bd
000000a0: 8217 f8bc 0efa 12bd e235 37bd 5846 5cbd
000000b0: 1b49 4abd 050a 2fbd f6b4 4cbd 97da 1cbd
000000c0: e092 9739 f345 40bc 1f0e 523d 1811 603c
000000d0: c85a 2c3d aea6 02bd 92c4 e2bb b85b 4bbd
000000e0: 6a93 11bc f478 47bd 5fae d3bb 8912 453c
000000f0: d85c d83c 19d5 c53b 29ba 81bc 4c77 2abc
00000100: 67fa 83bb 079b 02bd a8e0 0d3c c8ec c63c
00000110: 5aa8 d1bc 1092 bfbc 8af0 0cbd af46 33bc

bn3.running_mean f4 [72]
1.1882943 1.2199118 1.2182219 1.1560408 1.1852322 1.213966 1.2184926 1.2071072
1.138482 1.2524807 1.190406 1.223014 1.2176969 1.2084519 1.1616352 1.2147734
1.1823833 1.1802152 1.1545882 1.2166985 1.1955689 1.1703202 1.2110573 1.2021143
-0.007617222 -0.006458406 -0.007190148 -0.0070593953 -0.008124031 -0.0067498498 -0.0074237008 -0.0076220147
-0.007810632 -0.00691036 -0.0073596532 -0.0070552244 -0.007351854 -0.0065256795 -0.00714581 -0.007043422
-0.0068331016 -0.0071802465 -0.007838706 -0.006979654 -0.0071373037 -0.007437996 -0.0072753965 -0.0072551025
-1.3204901 -1.3323218 -1.3291942 -1.3489847 -1.3438241 -1.3372779 -1.2857825 -1.2912469
-1.348959 -1.3005402 -1.2880453 -1.3172892 -1.2917575 -1.3404857 -1.3540794 -1.2770089
-1.3665427 -1.3350239 -1.3318942 -1.3202643 -1.3211849 -1.3380007 -1.3225601 -1.3252777
00000000: 071a 983f 1226 9c3f b2ee 9b3f 25f9 933f
00000010: b0b5 973f 3d63 9b3f 91f7 9b3f 7d82 9a3f
00000020: c7b9 913f 4a51 a03f 395f 983f b98b 9c3f
00000030: 7edd 9b3f 8dae 9a3f 76b0 943f b27d 9b3f
00000040: 5658 973f 4b11 973f 8cc9 933f c7bc 9b3f
00000050: 6708 993f 0dcd 953f ed03 9b3f e2de 993f
00000060: e499 f9bb 09a1 d3bb 559b ebbb 8052 e7bb
00000070: a81a 05bc d82d ddbb 8442 f3bb 18c2 f9bb
00000080: 55f0 ffbb 4d70 e2bb 3f29 f1bb 832f e7bb
00000090: d2e7 f0bb 5ed5 d5bb 6627 eabb 82cc e6bb
000000a0: 36e8 dfbb 4648 ebbb ea6d 00bc 95b5 e4bb
000000b0: 0be0 e9bb 6fba f3bb 7366 eebb 36bc edbb
000000c0: d205 a9bf 8589 aabf 0923 aabf 88ab acbf
000000d0: 6e02 acbf ec2b abbf 8594 a4bf 9447 a5bf
000000e0: b0aa acbf 1a78 a6bf abde a4bf ef9c a8bf
000000f0: 4f58 a5bf 0995 abbf 7952 adbf 0775 a3bf
00000100: dfea aebf 10e2 aabf 827b aabf 6cfe a8bf
00000110: 961c a9bf 9b43 abbf a649 a9bf b3a2 a9bf

bn3.running_var f4 [72]
4.210647 4.3424172 4.3859973 3.9614332 4.2066956 4.3406415 4.393075 4.3166246
3.9031408 4.5768476 4.2137036 4.41554 4.3828883 4.3012667 4.02182 4.3530183
4.1135473 4.1082253 3.987535 4.380343 4.2456536 4.0845084 4.320913 4.2711735
0.23666354 0.23687921 0.2368411 0.23684165 0.23672853 0.23680133 0.23664927 0.23671566
0.23675735 0.23685126 0.23662248 0.23683734 0.23672971 0.23695303 0.23682779 0.23665456
0.2370638 0.23674992 0.23667651 0.23669879 0.23673233 0.23678227 0.23674963 0.23678182
4.8749876 4.917986 4.911581 5.033484 5.0073752 4.999323 4.6191397 4.650676
5.029894 4.6936235 4.661327 4.831212 4.671139 4.97899 5.0871906 4.577802
5.136771 4.941581 4.9323797 4.86336 4.869015 4.97299 4.872969 4.8739533
00000000: 9fbd 8640 15f5 8a40 175a 8c40 1f88 7d40
00000010: 409d 8640 89e6 8a40 1294 8c40 ca21 8a40
00000020: 0fcd 7940 8975 9240 a9d6 8640 1b4c 8d40
00000030: 9f40 8c40 faa3 8940 c0b2 8040 ed4b 8b40
00000040: 2ea2 8340 9576 8340 c633 7f40 c52b 8c40
00000050: 65dc 8740 4bb4 8240 eb44 8a40 74ad 8840
00000060: ed57 723e 7790 723e 7986 723e 9e86 723e
00000070: f768 723e 0c7c 723e 3054 723e 9765 723e
00000080: 8570 723e 2389 723e 2a4d 723e 7d85 723e
00000090: 4669 723e d1a3 723e fc82 723e 9355 723e
000000a0: dac0 723e 926e 723e 545b 723e 2b61 723e
000000b0: f669 723e 0d77 723e 7f6e 723e ef76 723e
000000c0: e6ff 9b40 2460 9d40 ac2b 9d40 4d12 a140
000000d0: 6b3c a040 74fa 9f40 fecf 9340 56d2 9440
000000e0: e4f4 a040 2a32 9640 9729 9540 4a99 9a40
000000f0: f879 9540 e353 9f40 44ca a240 5b7d 9240
00000100: 6e60 a440 6e21 9e40 0ed6 9d40 a5a0 9b40
00000110: f9ce 9b40 bc22 9f40 5def 9b40 6df7 9b40

mlp4.weight f4 [1, 72]
0.0 0.0 0.0 0.0 0.0 0.0 0.0 0.0
0.0 0.0 0.0 0.0 0.0 0.0 0.0 0.0
0.0 0.0 0.0 0.0 0.0 0.0 0.0 0.0
0.23911385 0.068204135 0.20770223 0.22173414 0.13722341 0.0940565 0.20016435 0.19803101
0.2513648 0.25298744 0.2404327 0.1649037 0.11063404 0.27269244 0.09229206 0.16066518
0.0729651 0.09094939 0.079116896 0.17388266 0.15394059 0.13672313 0.19190997 0.1688004
0.0 0.06047401 0.040986717 0.0 0.0 0.10394142 0.13083553 0.1285278
0.13955633 0.123773776 0.0 0.11476506 0.078021094 0.18222226 0.045956787 0.07374864
0.0 0.0724564 0.0 0.10594599 0.0 0.1186784 0.12033572 0.098087564
00000000: 0000 0000 0000 0000 0000 0000 0000 0000
00000010: 0000 0000 0000 0000 0000 0000 0000 0000
00000020: 0000 0000 0000 0000 0000 0000 0000 0000
00000030: 0000 0000 0000 0000 0000 0000 0000 0000
00000040: 0000 0000 0000 0000 0000 0000 0000 0000
00000050: 0000 0000 0000 0000 0000 0000 0000 0000
00000060: 43da 743e 9cae 8b3d e5af 543e 460e 633e
00000070: 4b84 0c3e b2a0 c03d e2f7 4c3e a4c8 4a3e
00000080: e3b2 803e 9287 813e fd33 763e 84dc 283e
00000090: 1994 e23d 589e 8b3e 9f03 bd3d 6a85 243e
000000a0: ba6e 953d ac43 ba3d 0a08 a23d 4c0e 323e
000000b0: 9aa2 1d3e 2601 0c3e 0c84 443e 03da 2c3e
000000c0: 0000 0000 98b3 773d b0e1 273d 0000 0000
000000d0: 0000 0000 3ddf d43d c0f9 053e cb9c 033e
000000e0: dbe7 0e3e 1b7d fd3d 0000 0000 f209 eb3d
000000f0: 86c9 9f3d 7998 3a3e 2f3d 3c3d 8709 973d
00000100: 0000 0000 0564 943d 0000 0000 36fa d83d
00000110: 0000 0000 a90d f33d 9372 f63d 22e2 c83d
