utility-model-selected/dim-3/utility-47.pt (torch, 23458 bytes, 17 tensors)

bn1.running_mean f4 [3]
0.5019971 0.5000743 0.49888787
00000000: e282 003f df04 003f 3b6e ff3e

bn1.running_var f4 [3]
0.056474797 0.05373016 0.05290013
00000000: 1e52 673d 2814 5c3d cfad 583d

mlp1.weight f4 [24, 3]
0.0 0.22953448 0.053986195 0.43723023 0.29319483 0.28439295 0.15778913 0.1075195
0.16119492 0.0 0.3602899 0.41915214 0.0 0.13354246 0.30282286 0.0
0.15344158 0.3628191 0.010516493 0.13429931 0.35020292 0.0 0.043218594 0.40518597
0.0 0.15224876 0.47563154 0.0 0.3183561 0.46709996 0.3718196 0.050879218
0.060672883 0.0 0.16603795 0.3995883 0.27999663 0.35689384 0.11400985 0.0
0.2778698 0.22601615 0.23741488 0.032416012 0.41675872 0.25110433 0.4826017 0.21389608
0.30978018 0.36384594 0.107730575 0.0 0.48849145 0.14809133 0.14268549 0.49333173
0.13967554 0.19673471 0.19138701 0.2887608 0.038635436 0.44667727 0.4163959 0.0
0.22329667 0.34447196 0.41707927 0.4648681 0.31572735 0.32306713 0.4659077 0.133426
00000000: 0000 0000 160b 6b3e a120 5d3d a4dc df3e
00000010: a21d 963e f49b 913e 7993 213e 2f33 dc3d
00000020: 4810 253e 0000 0000 eb77 b83e 1c9b d63e
00000030: 0000 0000 5bbf 083e 990b 9b3e 0000 0000
00000040: ca1f 1d3e 6dc3 b93e 5e4d 2c3c c285 093e
00000050: cc4d b33e 0000 0000 fb05 313d 8974 cf3e
00000060: 0000 0000 19e7 1b3e fa85 f33e 0000 0000
00000070: 92ff a23e ba27 ef3e 235f be3e ba66 503d
00000080: 2184 783d 0000 0000 da05 2a3e d696 cc3e
00000090: b85b 8f3e caba b63e ff7d e93d 0000 0000
000000a0: f344 8e3e c770 673e e31c 733e a7c6 043d
000000b0: 6661 d53e bf90 803e 9217 f73e 9307 5b3e
000000c0: 829b 9e3e 044a ba3e d9a1 dc3d 0000 0000
000000d0: 8d1b fa3e 41a5 173e 251c 123e fa95 fc3e
000000e0: 1b07 0f3e d374 493e f5fa 433e 75d8 933e
000000f0: 3140 1e3d e2b2 e43e d831 d53e 0000 0000
00000100: e2a7 643e a15e b03e 6a8b d53e 3103 ee3e
00000110: 04a7 a13e 0e69 a53e 748b ee3e d3a0 083e

mlp1.bias f4 [24]
-0.16329338 0.3724427 0.011742001 -0.14310342 -0.21594381 -0.047991883 0.07433613 -0.24699993
-0.5771135 0.020940015 0.33820966 -0.52225024 0.39886796 -0.15195243 0.6364572 0.10988951
0.564982 0.5068426 0.59044915 -0.32143927 0.23157178 0.41600767 -0.2891465 0.3469935
00000000: 6136 27be cfb0 be3e 8661 403c b489 12be
00000010: 6020 5dbe 2393 44bd 8a3d 983d 8ded 7cbe
00000020: b6bd 13bf 658a ab3c d129 ad3e 31b2 05bf
00000030: 6c38 cc3e 6b99 1bbe dcee 223f c00d e13d
00000040: a9a2 103f 70c0 013f ad27 173f b093 a4be
00000050: 2721 6d3e f5fe d43e 030b 94be 22a9 b13e

mlp2.weight f4 [24, 72]
0.06148982 0.0 0.0 0.12918776 0.09317353 0.050547604 0.010726805 0.05901952
0.014901598 0.058858547 0.0 0.005967499 0.03168847 0.14584187 0.06174645 0.038037594
0.0 0.09924058 0.03831161 0.0 0.11914351 0.09956916 0.0 0.0
0.059265252 0.039334077 0.0 0.1592666 0.081349865 0.093350925 0.019833928 0.10096741
0.05519353 0.08323758 0.018032268 0.05787886 0.01857893 0.17917763 0.1404502 0.0
0.07014519 0.12858802 0.020363197 0.0 0.067230195 0.13691916 0.0 0.08166942
0.06490593 0.035608836 0.0 0.16517465 0.015810642 0.081704035 0.067822 0.046513762
0.04119097 0.15881991 0.01817328 0.065213814 0.06434748 0.13290796 0.08981646 0.03798153
0.011526235 0.08073213 0.003927757 0.0 0.060634382 0.1361166 0.0 0.08532537
0.07294791 0.0 0.0 0.07317647 0.02808422 0.100301646 0.080520675 0.05482034
0.024775345 0.13714571 0.0 0.00887679 0.0 0.1628924 0.056954432 0.033735376
0.0 0.040859025 0.00606107 0.0 0.10690261 0.07975606 0.0 0.0
0.028468978 0.034340363 0.0 0.103939876 0.058167383 0.1274602 0.011063627 0.085456595
0.013829285 0.08322149 0.013526711 0.017081056 0.04369438 0.10638598 0.12798053 0.05834832
0.014365284 0.15522608 0.08712328 0.0 0.19875248 0.1469184 0.0 0.12837589
0.056153283 0.033964943 0.0 0.116983 0.06755313 0.11326905 0.0430413 0.0778234
0.105842575 0.090461835 0.013215216 0.022126673 0.011497175 0.099070266 0.099561214 0.039951522
0.012211594 0.04851344 0.097812556 0.0 0.1586037 0.14060771 0.0 0.05337024
0.026712578 0.0 0.0 0.12808454 0.027620427 0.039068375 0.0920007 0.011451731
0.011089399 0.15495966 0.0 0.007933317 0.0 0.144364 0.037812345 0.0
0.0422437 0.021585276 0.0026300927 0.0 0.067570075 0.110136166 0.0 0.0
0.055494953 0.06662398 0.0 0.120147206 0.11671224 0.062469214 0.014252786 0.07884612
0.005085263 0.10046441 0.021305384 0.007937088 0.10425087 0.17701025 0.06629989 0.0043721157
0.0155179575 0.0679557 0.12856932 0.0 0.1557934 0.18965521 0.0 0.018306963
0.020149756 0.036058396 0.0 0.119937666 0.056744985 0.05084675 0.083956376 0.10804161
0.037987396 0.18049192 0.021514626 0.07170508 0.06310873 0.1257387 0.0968999 0.026204893
0.048187252 0.11104532 0.11558633 0.0 0.06830834 0.1520594 0.008334482 0.0076107862
0.038361207 0.0 0.0 0.124257766 0.07735345 0.06403111 0.07036483 0.01247207
0.0033250113 0.10330726 0.0 0.0057345107 0.0 0.15088318 0.0003750496 0.046465546
0.0 0.10765994 0.015873875 0.0 0.058433663 0.0799289 0.0 0.0
0.086212836 0.09585047 0.0 0.11428161 0.064465575 0.1521423 0.07396004 0.0133148255
0.037698627 0.15050168 0.023820516 0.005718304 0.035406455 0.1209896 0.089930706 0.0
00000000: c0dc 7b3d 0000 0000 0000 0000 cc49 043e
00000010: c4d1 be3d 010b 4f3d 7bbf 2f3c 74be 713d
00000020: d525 743c a915 713d 0000 0000 038b c33b
00000030: c5cb 013d 9257 153e d8e9 7c3d 4fcd 1b3d
00000040: 0000 0000 a53e cb3d a3ec 1c3d 0000 0000
00000050: 8301 f43d eaea cb3d 0000 0000 0000 0000
00000060: 1fc0 723d c51c 213d 0000 0000 c916 233e
00000070: c29a a63d c52e bf3d c37a a23c 00c8 ce3d
00000080: 9c12 623d 7778 aa3d 68b8 933c 6212 6d3d
00000090: d732 983c 577a 373e 2dd2 0f3e 0000 0000
000000a0: 48a8 8f3d 94ac 033e b8d0 a63c 0000 0000
000000b0: fcaf 893d 8934 0c3e 0000 0000 4c42 a73d
000000c0: 66ed 843d 92da 113d 0000 0000 8b23 293e
000000d0: 5285 813c 7254 a73d 43e6 8a3d 3785 3e3d
000000e0: ddb7 283d b0a1 223e 21e0 943c d28e 853d
000000f0: 9dc8 833d 0619 083e b1f1 b73d 8592 1b3d
00000100: 89d8 3c3c e356 a53d 6ab4 803b 0000 0000
00000110: c25b 783d 2662 0b3e 0000 0000 11bf ae3d
00000120: b765 953d 0000 0000 0000 0000 8cdd 953d
00000130: e110 e63c f36a cd3d 06e8 a43d 4b8b 603d
00000140: aaf5 ca3c ed6f 0c3e 0000 0000 f56f 113c
00000150: 0000 0000 44cd 263e 0d49 693d 1b2e 0a3d
00000160: 0000 0000 cb5b 273d f19b c63b 0000 0000
00000170: c1ef da3d 2557 a33d 0000 0000 0000 0000
00000180: c637 e93c 7ba8 0c3d 0000 0000 6ede d43d
00000190: ec40 6e3d ed84 023e 3744 353c de03 af3d
000001a0: 3a94 623c 0770 aa3d 239f 5d3c 92ed 8b3c
000001b0: e1f8 323d e5e0 d93d 540d 033e a6fe 6e3d
000001c0: 5e5c 6b3c 96f3 1e3e b16d b23d 0000 0000
000001d0: c585 4b3e c771 163e 0000 0000 f874 033e
000001e0: fc00 663d d31e 0b3d 0000 0000 c894 ef3d
000001f0: 4c59 8a3d 9bf9 e73d 134c 303d e061 9f3d
00000200: fec3 d83d 0e44 b93d a284 583c ff42 b53c
00000210: a65e 3c3c 5ae5 ca3d c0e6 cb3d 35a4 233d
00000220: 2313 483c 07b6 463d f351 c83d 0000 0000
00000230: 0269 223e 78fb 0f3e 0000 0000 c19a 5a3d
00000240: 56d4 da3c 0000 0000 0000 0000 9828 033e
00000250: 3c44 e23c 2906 203d dd6a bc3d 0ba0 3b3c
00000260: 50b0 353c bfad 1e3e 0000 0000 befa 013c
00000270: 0000 0000 28d4 133e 1ee1 1a3d 0000 0000
00000280: bb07 2d3d 9bd3 b03c a25d 2c3b 0000 0000
00000290: 2e62 8a3d 128f e13d 0000 0000 0000 0000
000002a0: ad4e 633d 2772 883d 0000 0000 bd0f f63d
000002b0: d406 ef3d b8df 7f3d 8484 693c 137a a13d
000002c0: 47a2 a63b 49c0 cd3d a188 ae3c 8f0a 023c
000002d0: 7b81 d53d 2d42 353e 3dc8 873d f743 8f3b
000002e0: 083f 7e3c 5c2c 8b3d ada7 033e 0000 0000
000002f0: 4e88 1f3e fa34 423e 0000 0000 7cf8 953c
00000300: 1a11 a53c f8b1 133d 0000 0000 e1a1 f53d
00000310: 6e6d 683d af44 503d 52f1 ab3d eb44 dd3d
00000320: ac98 1b3d e0d2 383e 713f b03c 1dda 923d
00000330: 263f 813d a5c1 003e 7473 c63d a5ab d63c
00000340: ff5f 453d bb6b e33d 87b8 ec3d 0000 0000
00000350: 3ee5 8b3d 76b5 1b3e 5a8d 083c e763 f93b
00000360: a420 1d3d 0000 0000 0000 0000 db7a fe3d
00000370: 7c6b 9e3d be22 833d 701b 903d a757 4c3c
00000380: 6fe8 593b c292 d33d 0000 0000 90e8 bb3b
00000390: 0000 0000 1f81 1a3e 4ea2 c439 a852 3e3d
000003a0: 0000 0000 d17c dc3d ee09 823c 0000 0000
000003b0: 2358 6f3d c3b1 a33d 0000 0000 0000 0000
000003c0: 5b90 b03d 404d c43d 0000 0000 7a0c ea3d
000003d0: 8706 843d 31cb 1b3e 5d78 973d 6d26 5a3c
000003e0: e069 1a3d 1d1d 1a3e 3e23 c33c 9c60 bb3b
000003f0: 5c06 113d 65c9 f73d 972d b83d 0000 0000

mlp2.bias f4 [24]
0.05536907 -0.0022970275 -0.00797255 0.036003586 0.071406595 -0.026927795 0.02117775 0.020751014
0.05273335 0.0889386 0.06605401 0.07042684 0.034897882 0.05898768 0.06277768 0.009033233
0.029893814 0.088808894 0.035915233 0.04535228 0.027976932 -0.00521565 0.0324167 0.06709646
00000000: aeca 623d ba89 16bb 4c9f 02bc 7f78 133d
00000010: 9f3d 923d ae97 dcbc f67c ad3c 08fe a93c
00000020: edfe 573d 7125 b63d 5347 873d f23b 903d
00000030: 15f1 0e3d 119d 713d 9691 803d 2000 143c
00000040: dfe3 f43c 70e1 b53d da1b 133d 50c3 393d
00000050: e12f e53c 0be8 aabb 60c7 043d de69 893d

bn2.weight f4 [72]
0.49298 0.3902431 0.37464973 0.4994415 0.48431462 0.49961296 0.46202996 0.4659628
0.44685075 0.499565 0.38448054 0.43284383 0.4230836 0.49990073 0.45722985 0.42841995
0.41961798 0.49353355 0.46331343 0.36020908 0.4961541 0.48027134 0.40031153 0.4470774
0.4921753 0.46511385 0.375397 0.49949145 0.4922032 0.49959382 0.4778556 0.47434884
0.4569693 0.49949145 0.41006222 0.43967062 0.46130645 0.49992165 0.48965815 0.45833716
0.4580642 0.49254826 0.4928489 0.36320752 0.49822456 0.49373278 0.40916988 0.49689516
0.48692098 0.44574007 0.37678748 0.4987904 0.48170626 0.49936593 0.47194013 0.49861804
0.49939156 0.4992979 0.40975258 0.48675156 0.4564318 0.49976695 0.4896025 0.44820347
0.45317215 0.49275908 0.4884124 0.36032012 0.4948258 0.49365652 0.4093131 0.47711563
00000000: e067 fc3e f2cd c73e 17d2 bf3e ccb6 ff3e
00000010: 16f8 f73e 45cd ff3e 318f ec3e ad92 ee3e
00000020: 9fc9 e43e fcc6 ff3e a2da c43e b59d dd3e
00000030: 6a9e d83e fdf2 ff3e 081a ea3e dc59 db3e
00000040: 2bd8 d63e 6eb0 fc3e 6b37 ed3e 536d b83e
00000050: e907 fe3e 20e6 f53e a2f5 cc3e 54e7 e43e
00000060: 67fe fb3e 6723 ee3e 0934 c03e 58bd ff3e
00000070: 0f02 fc3e c3ca ff3e 7da9 f43e dadd f23e
00000080: e1f7 e93e 58bd ff3e adf3 d13e 821c e13e
00000090: 5c30 ec3e bbf5 ff3e 79b4 fa3e 2bab ea3e
000000a0: 6487 ea3e 492f fc3e b156 fc3e 56f6 b93e
000000b0: 4a17 ff3e 8bca fc3e b77e d13e 0b69 fe3e
000000c0: b54d f93e 0b38 e43e 4aea c03e 7561 ff3e
000000d0: 34a2 f63e e4ac ff3e 23a2 f13e dd4a ff3e
000000e0: 40b0 ff3e f9a3 ff3e 17cb d13e 8037 f93e
000000f0: 6eb1 e93e 74e1 ff3e 2ead fa3e ed7a e53e
00000100: 2e06 e83e eb4a fc3e 3111 fa3e e17b b83e
00000110: cf59 fd3e 8cc0 fc3e 7d91 d13e 8048 f43e

bn2.bias f4 [72]
0.042956866 0.0598449 0.09627671 0.05605001 0.03918919 0.037276927 0.06312588 0.053557448
0.058036298 0.056229595 0.06549242 0.06314095 0.033063985 0.047960423 0.0332065 0.061352175
0.053690616 0.030815704 0.025532411 0.10015441 0.050171595 0.055623177 0.06782945 0.043862898
0.047280632 0.04690849 0.096921876 0.053439207 0.058928292 0.058654558 0.04512921 0.05834425
0.06256832 0.056503467 0.05463014 0.068134665 0.056241762 0.051651616 0.04281665 0.05161862
0.024559101 0.053406842 0.03975791 0.083790176 0.038996197 0.05450263 0.0814766 0.03771401
0.045393687 0.06351203 0.09331939 0.051119283 0.055560518 0.053196143 0.060965013 0.057990957
0.053689297 0.05215084 0.07711339 0.05509934 0.044755597 0.03143434 0.040814474 0.050687395
0.050424006 0.048549507 0.051278103 0.090495855 0.029501874 0.050503783 0.04933731 0.050738916
00000000: 8af3 2f3d ed1f 753d b92c c53d b294 653d
00000010: d884 203d b1af 183d 2448 813d 0e5f 5b3d
00000020: 78b7 6d3d 0151 663d e420 863d 0b50 813d
00000030: 1a6e 073d 2672 443d 8a03 083d 6b4c 7b3d
00000040: b1ea 5b3d 3771 fc3c 5929 d13c c11d cd3d
00000050: bb80 4d3d 21d5 633d 2bea 8a3d 95a9 333d
00000060: 56a9 413d 1e23 403d fa7e c63d 12e3 5a3d
00000070: cb5e 713d c33f 703d 68d9 383d 61fa 6e3d
00000080: d223 803d 2e70 673d dbc3 5f3d 308a 8b3d
00000090: c35d 663d a590 533d 8360 2f3d 0c6e 533d
000000a0: 2b30 c93c 22c1 5a3d 31d9 223d 2f9a ab3d
000000b0: 7aba 1f3d 263e 5f3d 34dd a63d 017a 1a3d
000000c0: bbee 393d 9812 823d 3d1e bf3d 7462 513d
000000d0: 6d93 633d 33e4 593d 73b6 793d ed87 6d3d
000000e0: 4fe9 5b3d 1f9c 553d a0ed 9d3d d8af 613d
000000f0: a551 373d 4bc1 003d 142d 273d 969d 4f3d
00000100: 6789 4e3d d9db 463d fd08 523d e455 b93d
00000110: eaad f13c 0edd 4e3d eb15 4a3d 9cd3 4f3d

bn2.running_mean f4 [72]
-0.15914603 0.37597924 0.013169686 -0.051305227 -0.17707281 -0.024593234 0.082020275 -0.1755024
-0.32511246 0.07872212 0.32456887 -0.32978407 0.39986393 -0.11917278 0.63346314 0.15087214
0.5572694 0.50580055 0.5890734 -0.23297049 0.2670162 0.41724268 -0.09287176 0.36091605
-0.15914603 0.19163387 0.011176052 -0.082279585 -0.17737043 -0.03559457 0.060091674 -0.17591946
-0.32543188 0.014824025 0.23966062 -0.32999423 0.25002015 -0.12196185 0.3607177 0.05618019
0.32365084 0.28430367 0.31542096 -0.23510504 0.12685484 0.28503212 -0.13817745 0.18492681
-0.164207 0.17529127 0.009841405 -0.17561312 -0.21410777 -0.05835503 0.053685267 -0.2460196
-0.57890385 -0.042877816 0.23947272 -0.52514356 0.24749847 -0.1550863 0.3603469 0.011004468
0.32262278 0.28363574 0.31450835 -0.32363912 0.09176012 0.28456417 -0.33468378 0.16980995
00000000: 2df7 22be 5a80 c03e abc5 573c 6e25 52bd
00000010: 9352 35be c077 c9bc 3ffa a73d e7b6 33be
00000020: 2475 a6be 1039 a13d e42d a63e 75d9 a8be
00000030: f7ba cc3e dc10 f4bd a42a 223f 3a7e 1a3e
00000040: 35a9 0e3f 257c 013f 84cd 163f d18f 6ebe
00000050: 59b6 883e d5a0 d53e 8d33 bebd fdc9 b83e
00000060: 2df7 22be ab3b 443e c21b 373c 3382 a8bd
00000070: 98a0 35be 9dcb 11bd b022 763d 3b24 34be
00000080: 029f a6be 78e0 723c 9869 753e 01f5 a8be
00000090: a402 803e 22c7 f9bd feaf b83e 331d 663d
000000a0: 90b5 a53e 4090 913e db7e a13e 60bf 70be
000000b0: 3ce6 013e bbef 913e 647e 0dbe 745d 3d3e
000000c0: e125 28be 8e7f 333e d83d 213c edd3 33be
000000d0: 113f 5bbe af05 6fbd 15e5 5b3d 90ec 7bbe
000000e0: 0b33 14bf a6a0 2fbd 5638 753e cf6f 06bf
000000f0: 3d70 7d3e f1ce 1ebe 647f b83e 164c 343c
00000100: d02e a53e b438 913e 3d07 a13e 07b4 a5be
00000110: bbec bb3d 65b2 913e ac5b abbe a9e2 2d3e

bn2.running_var f4 [72]
0.052470006 0.3276815 0.062387392 0.18868582 0.07943303 0.13095988 0.13437042 0.10402492
0.06544044 0.23664437 0.139687 0.05694109 0.22029307 0.097445354 0.23495004 0.27668726
0.24450105 0.26224363 0.28737208 0.086618654 0.31541747 0.17106776 0.23616658 0.3180422
0.052470006 0.124355376 0.060076635 0.14188418 0.07897096 0.117149495 0.11062061 0.10339588
0.06482703 0.15026246 0.07511364 0.05654898 0.08948206 0.09349756 0.05098369 0.15376855
0.06752128 0.082410514 0.07277205 0.082810625 0.14523745 0.07168404 0.15614277 0.12705198
0.056372833 0.1536746 0.061701488 0.25919515 0.110415146 0.14328322 0.11892883 0.16581549
0.25156197 0.2318047 0.07542757 0.18942808 0.09403609 0.12669426 0.051743448 0.22168793
0.06963142 0.08362184 0.07463275 0.15864868 0.20317885 0.072531015 0.40827173 0.15270182
00000000: caea 563d dfc5 a73e ec89 7f3d db36 413e
00000010: c9ad a23d 591a 063e 6698 093e 040b d53d
00000020: a305 863d e752 723e 1c0a 0f3e 0f3b 693d
00000030: 8294 613e 6e91 c73d be96 703e f4a9 8d3e
00000040: 7c5e 7a3e cc44 863e 6f22 933e 1f65 b13d
00000050: 667e a13e 632c 2f3e a7d5 713e 6dd6 a23e
00000060: caea 563d 08ae fe3d eb12 763d 164a 113e
00000070: 87bb a13d 13ec ef3d 0f8d e23d 38c1 d33d
00000080: 09c4 843d 67de 193e 2ed5 993d e79f 673d
00000090: 5f42 b73d a67b bf3d 46d4 503d 8175 1d3e
000000a0: 9948 8a3d d8c6 a83d 8309 953d 9e98 a93d
000000b0: 20b9 143e 15cf 923d e4e3 1f3e ea19 023e
000000c0: 33e7 663d e05c 1d3e b3ba 7c3d 3ab5 843e
000000d0: 5621 e23d d6b8 123e f590 f33d 89cb 293e
000000e0: bbcc 803e 365e 6d3e c579 9a3d 6ff9 413e
000000f0: fe95 c03d 24bc 013e f0f0 533d 2902 633e
00000100: eb9a 8e3d ed41 ab3d 0ed9 983d cd74 223e
00000110: 1e0e 503e 248b 943d fe08 d13e de5d 1c3e

mlp3.weight f4 [24, 72]
0.0023970054 0.0008606614 0.0012952749 0.003091551 0.0016333782 0.001752944 0.0012179168 0.016014205
0.0071636667 0.0012497011 0.0022108888 0.00086941995 0.0013965357 0.001417069 0.0013208067 0.009196904
0.0016443197 0.0014943094 0.0019523702 0.0012032354 0.0011743914 0.0019126893 0.016910264 0.0017101617
0.105468675 0.121414095 0.07278698 0.11647059 0.11933002 0.1518798 0.13314117 0.097941875
0.1742709 0.19767313 0.15703583 0.1809702 0.09991264 0.17894085 0.09724279 0.101904295
0.12856303 0.14540754 0.12753183 0.13067411 0.0905843 0.12405821 0.09659084 0.10593737
0.0 0.0 0.0 0.0 0.0 0.0 0.0 0.0
0.0 0.0 0.0 0.0 0.0 0.0 0.0 0.0
0.0 0.0 0.0 0.0 0.0 0.0 0.0 0.0
0.06966877 0.19052362 0.10067213 0.15866993 0.16358595 0.12950976 0.1547377 0.16952413
0.10079189 0.07757287 0.11934529 0.1400587 0.1451345 0.18739273 0.16635957 0.09316624
0.10583476 0.17824773 0.10588954 0.103594355 0.09406147 0.17435448 0.13223651 0.14460576
0.2102825 0.2052243 0.1973342 0.27201322 0.275715 0.12295095 0.27119866 0.25373164
0.2005496 0.29456794 0.30209816 0.23762801 0.2609071 0.19386318 0.18953978 0.24438968
0.22641976 0.30335286 0.18706359 0.18249194 0.14473647 0.29110223 0.26061627 0.21563067
0.0 0.0 0.0 0.0 0.0 0.0 0.0 0.0
0.0 0.0 0.0 0.0 0.0 0.0 0.0 0.0
0.0 0.0 0.0 0.0 0.0 0.0 0.0 0.0
0.007143169 0.033316042 0.006449609 0.007859585 0.0065462757 0.007278433 0.0059542716 0.028779894
0.018532487 0.005863215 0.030008543 0.0057515963 0.006002747 0.029802794 0.0062214658 0.0070879
0.0062770364 0.007062623 0.0065429546 0.0062412317 0.0053832633 0.0073552607 0.0057152184 0.029955462
0.098339535 0.17159267 0.1210654 0.107149206 0.059692968 0.12332165 0.13607684 0.09851936
0.14888164 0.08813462 0.15246452 0.08601539 0.14355619 0.15229249 0.17877646 0.09877168
0.19198576 0.085183784 0.14329892 0.15969495 0.1424846 0.19780211 0.10244728 0.16858016
0.0 0.0 0.0 0.0 0.0 0.0 0.0 0.0
0.0 0.0 0.0 0.0 0.0 0.0 0.0 0.0
0.0 0.0 0.0 0.0 0.0 0.0 0.0 0.0
0.016532186 0.0062203985 0.034252755 0.04898501 0.0073150424 0.006970742 0.0056707463 0.008524104
0.011224571 0.0051448136 0.008541392 0.0044726823 0.033653114 0.011998862 0.04207132 0.012754036
0.0062917643 0.006473445 0.008134579 0.032444984 0.00573724 0.009293272 0.0054429774 0.05142317
0.114468485 0.11887516 0.109415255 0.15200831 0.16528171 0.12813674 0.124849685 0.1671382
0.21480909 0.23759863 0.15549059 0.11327719 0.19955094 0.19213364 0.16952212 0.2270358
00000000: 1417 1d3b 029e 613a 37c6 a93a 9e9b 4a3b
00000010: 1417 d63a 0ac3 e53a 82a2 9f3a 3930 833c
00000020: 31bd ea3b 03cd a33a 8fe4 103b c9e9 633a
00000030: f60b b73a f2bc b93a eb1e ad3a 9cae 163c
00000040: 3786 d73a b4dc c33a ace6 ff3a e1b5 9d3a
00000050: 09ee 993a 34b3 fa3a 6587 8a3c 8127 e03a
00000060: f6ff d73d f4a7 f83d 5711 953d 2288 ee3d
00000070: 4c63 f43d 6186 1b3e 2956 083e c095 c83d
00000080: 1274 323e d36a 4a3e 00ce 203e 4150 393e
00000090: 009f cc3d 453c 373e 3a27 c73d 33b3 d03d
000000a0: 07a6 033e b7e5 143e b497 023e 6fcf 053e
000000b0: 4384 b93d 3b12 fe3d 6bd1 c53d b1f5 d83d
000000c0: 0000 0000 0000 0000 0000 0000 0000 0000
000000d0: 0000 0000 0000 0000 0000 0000 0000 0000
000000e0: 0000 0000 0000 0000 0000 0000 0000 0000
000000f0: 0000 0000 0000 0000 0000 0000 0000 0000
00000100: 0000 0000 0000 0000 0000 0000 0000 0000
00000110: 0000 0000 0000 0000 0000 0000 0000 0000
00000120: 80ae 8e3d a018 433e 312d ce3d 5f7a 223e
00000130: 1383 273e 359e 043e 8f73 1e3e bc97 2d3e
00000140: fa6b ce3d 86de 9e3d 4e6b f43d 8c6b 0f3e
00000150: 239e 143e e1e3 3f3e 2a5a 2a3e f1cd be3d
00000160: e5bf d83d 9386 363e 9ddc d83d 4729 d43d
00000170: 4da3 c03d fb89 323e 0269 073e 8813 143e
00000180: 4c54 573e 5226 523e fa11 4a3e 5145 8b3e
00000190: 842a 8d3e b5cd fb3d 8dda 8a3e 1de9 813e
000001a0: e05c 4d3e 9cd1 963e 9cac 9a3e c254 733e
000001b0: 9e95 853e 1284 463e b716 423e 4a41 7a3e
000001c0: 95da 673e 1151 9b3e 998d 3f3e 2bdf 3a3e
000001d0: cc35 143e 5a0b 953e 7f6f 853e 49ce 5c3e
000001e0: 0000 0000 0000 0000 0000 0000 0000 0000
000001f0: 0000 0000 0000 0000 0000 0000 0000 0000
00000200: 0000 0000 0000 0000 0000 0000 0000 0000
00000210: 0000 0000 0000 0000 0000 0000 0000 0000
00000220: 0000 0000 0000 0000 0000 0000 0000 0000
00000230: 0000 0000 0000 0000 0000 0000 0000 0000
00000240: 3f11 ea3b 6776 083d 3e57 d33b 7dc5 003c
00000250: 2482 d63b ec7f ee3b 0d1c c33b d0c3 eb3c
00000260: 71d1 973c 3620 c03b 7ad4 f53c e377 bc3b
00000270: b1b2 c43b fd24 f43c 70dd cb3b 9d41 e83b
00000280: 99af cd3b 936d e73b 4866 d63b 3f83 cc3b
00000290: 1666 b03b 6604 f13b ba46 bb3b 2865 f53c
000002a0: 3d66 c93d fdb5 2f3e 23f1 f73d 0b71 db3d
000002b0: 9d80 743d 1090 fc3d ba57 0b3e 85c4 c93d
000002c0: 6e74 183e ec7f b43d a91f 1c3e d628 b03d
000002d0: 6500 133e 90f2 1b3e 2d11 373e ce48 ca3d
000002e0: ea97 443e d674 ae3d f4bc 123e 1387 233e
000002f0: 7ce7 113e a38c 4a3e e1cf d13d 47a0 2c3e
00000300: 0000 0000 0000 0000 0000 0000 0000 0000
00000310: 0000 0000 0000 0000 0000 0000 0000 0000
00000320: 0000 0000 0000 0000 0000 0000 0000 0000
00000330: 0000 0000 0000 0000 0000 0000 0000 0000
00000340: 0000 0000 0000 0000 0000 0000 0000 0000
00000350: 0000 0000 0000 0000 0000 0000 0000 0000
00000360: 826e 873c 7cd4 cb3b 9e4c 0c3d 81a4 483d
00000370: 06b3 ef3b d26a e43b abd1 b93b afa8 0b3c
00000380: 43e7 373c d395 a83b 32f1 0b3c 948f 923b
00000390: d9d7 093d e096 443c fa52 2c3d 4ef6 503c
000003a0: 252b ce3b 311f d43b e646 053c 08e5 043d
000003b0: 75ff bb3b cf42 183c 015b b23b 1aa1 523d
000003c0: 746e ea3d d274 f33d 1b15 e03d 11a8 1b3e
000003d0: 9c3f 293e 4736 033e 31b1 ff3d 4726 2b3e
000003e0: eaf6 5b3e 0e4d 733e ed38 1f3e dffd e73d
000003f0: 1557 4c3e aebe 443e 3597 2d3e 137c 683e

mlp3.bias f4 [24]
-0.044704 -0.018757602 -0.0375849 -0.1303325 -0.07210765 0.007490184 0.005547234 -0.100163065
-0.06098027 -0.13075362 -0.075058915 0.06304259 -0.09345854 0.08448466 -0.11641704 -0.116305836
-0.025818683 -0.19410875 -0.09229539 0.16551778 0.15124527 0.0023958154 -0.034479294 -0.2279583
00000000: 8b1b 37bd 8ba9 99bc a0f2 19bd e275 05be
00000010: 2dad 93bd 3870 f53b 92c5 b53b 4b22 cdbd
00000020: 73c6 79bd 47e4 05be 7db8 99bd 791c 813d
00000030: 3167 bfbd 4b06 ad3d 0f6c eebd c131 eebd
00000040: b481 d3bc 72c4 46be 5e05 bdbd 7e7d 293e
00000050: 0ae0 1a3e 1d03 1d3b 293a 0dbd e76d 69be

bn3.weight f4 [72]
0.42407256 0.43526718 0.42291287 0.44731295 0.41463324 0.4242158 0.4311444 0.41985875
0.42797437 0.40588096 0.42462668 0.40863988 0.41575193 0.4379879 0.41856763 0.42061284
0.4134679 0.42238998 0.41525918 0.42161053 0.40993863 0.43824753 0.4141666 0.4121319
0.4998201 0.49899232 0.49929002 0.49988917 0.49950758 0.49967963 0.49964246 0.49977335
0.49985334 0.49947262 0.49960056 0.49939167 0.49983114 0.4996902 0.499536 0.49982938
0.4997519 0.4995646 0.49969956 0.49927083 0.49975744 0.499643 0.49983057 0.49964517
0.38240275 0.39597136 0.37799713 0.38645846 0.39277586 0.3874353 0.38081107 0.38223305
0.38305682 0.38909233 0.38444057 0.3902983 0.384038 0.38007244 0.38031533 0.3873945
0.39552608 0.38562754 0.4011189 0.3788526 0.37823358 0.39826748 0.379822 0.3922857
00000000: 0a20 d93e 57db de3e 0988 d83e 3406 e53e
00000010: cf4a d43e d032 d93e f5be dc3e baf7 d63e
00000020: 751f db3e a1cf cf3e ab68 d93e 3f39 d13e
00000030: 70dd d43e f33f e03e 7f4e d63e 915a d73e
00000040: 11b2 d33e 8043 d83e da9c d43e 56dd d73e
00000050: 7ae3 d13e fb61 e03e a50d d43e f402 d33e
00000060: 6ce8 ff3e ec7b ff3e f1a2 ff3e 79f1 ff3e
00000070: 75bf ff3e 02d6 ff3e 23d1 ff3e 4be2 ff3e
00000080: c7ec ff3e e0ba ff3e a5cb ff3e 44b0 ff3e
00000090: dee9 ff3e 65d7 ff3e 2fc3 ff3e a3e9 ff3e
000000a0: 7bdf ff3e eec6 ff3e 9fd8 ff3e 6da0 ff3e
000000b0: 35e0 ff3e 35d1 ff3e cbe9 ff3e 7ed1 ff3e
000000c0: 4bca c33e c2bc ca3e d788 c13e e2dd c53e
000000d0: eb19 c93e eb5d c63e abf9 c23e 0db4 c33e
000000e0: 0620 c43e 1c37 c73e 65d5 c43e 2ed5 c73e
000000f0: a1a0 c43e db98 c23e b1b8 c23e 9258 c63e
00000100: 6582 ca3e f970 c53e 755f cd3e f8f8 c13e
00000110: d5a7 c13e b7e9 cb3e 0778 c23e acd9 c83e

bn3.bias f4 [72]
-0.009391982 -0.013948012 -0.0063572493 -0.009238416 -0.013303791 -0.011301252 -0.014619923 -0.011544688
-0.009838082 -0.009555518 -0.01241749 -0.012956691 -0.0088864835 -0.01377208 -0.014911945 -0.0076666675
-0.0059652654 -0.010963695 -0.006052645 -0.012758749 -0.009060622 -0.012266557 -0.011152368 -0.014983273
-0.056174565 -0.056967698 -0.053718038 -0.053735718 -0.055273447 -0.05565482 -0.052977182 -0.054211114
-0.056452926 -0.053518075 -0.04989329 -0.051609542 -0.06574821 -0.061326385 -0.060309313 -0.061104745
-0.057430997 -0.05660258 -0.06283402 -0.067841224 -0.053382352 -0.049495157 -0.0518926 -0.052956454
-0.061019287 -0.10188166 -0.0819663 -0.08040805 -0.09126613 -0.09185766 -0.08733415 -0.10254718
-0.09639968 -0.069870785 -0.107323416 -0.06463049 -0.07338317 -0.07516329 -0.08801223 -0.07757169
-0.097677164 -0.077578 -0.090663716 -0.08932382 -0.04363571 -0.09568785 -0.05828185 -0.09768354
00000000: d4e0 19bc 3486 64bc 7950 d0bb ba5c 17bc
00000010: 25f8 59bc e328 39bc 6788 6fbc ee25 3dbc
00000020: e82f 21bc bf8e 1cbc ba72 4bbc 4d48 54bc
00000030: 9d98 11bc 4aa4 61bc 3b51 74bc ab38 fbbb
00000040: 4678 c3bb 12a1 33bc 4455 c6bb 120a 51bc
00000050: 0173 14bc abf9 48bc 6cb8 36bc 677c 75bc
00000060: 4d17 66bd f656 69bd 7207 5cbd fc19 5cbd
00000070: 6966 62bd 4ff6 63bd 9afe 58bd 790c 5ebd
00000080: 2f3b 67bd c535 5bbd e85c 4cbd 8764 53bd
00000090: ffa6 86bd 6031 7bbd e606 77bd f848 7abd
000000a0: c43c 6bbd 1bd8 67bd 1faf 80bd 57f0 8abd
000000b0: 74a7 5abd 6fbb 4abd 568d 54bd dee8 58bd
000000c0: 5cef 79bd 55a7 d0bd f3dd a7bd faac a4bd
000000d0: bde9 babd de1f bcbd 3fdc b2bd 4204 d2bd
000000e0: 326d c5bd 6a18 8fbd 61cc dbbd fe5c 84bd
000000f0: ea49 96bd 36ef 99bd c23f b4bd e8dd 9ebd
00000100: f70a c8bd 37e1 9ebd e6ad b9bd 68ef b6bd
00000110: 5cbb 32bd fef7 c3bd f3b8 6ebd 4f0e c8bd

bn3.running_mean f4 [72]
0.6865208 0.66759795 0.6512849 0.6383878 0.69424474 0.6128536 0.6670367 0.64100295
0.65106803 0.7263754 0.69829553 0.69552994 0.6832198 0.6830379 0.6950345 0.6355414
0.64163303 0.72593737 0.6764718 0.6680221 0.6416088 0.65930665 0.64873385 0.7108781
0.06032771 0.060757123 0.060228378 0.058794443 0.061933875 0.05630381 0.06145373 0.05902309
0.05985198 0.06225769 0.06254957 0.06444186 0.06237371 0.06228068 0.060981024 0.05979894
0.05863508 0.063276954 0.06331133 0.058178928 0.059237864 0.06269806 0.06041348 0.06260751
-0.36409757 -0.40176964 -0.390197 -0.35031095 -0.35954016 -0.3881838 -0.3742682 -0.36187902
-0.34259653 -0.36560893 -0.3694485 -0.35522565 -0.3752813 -0.35723808 -0.36414942 -0.3705903
-0.35845572 -0.36578748 -0.36908406 -0.36342478 -0.3541987 -0.39458326 -0.3553939 -0.36911073
00000000: d4bf 2f3f b3e7 2a3f 9bba 263f 626d 233f
00000010: 06ba 313f f9e3 1c3f ebc2 2a3f c518 243f
00000020: 65ac 263f bdf3 393f 7fc3 323f 400e 323f
00000030: 7ee7 2e3f 92db 2e3f c8ed 313f d7b2 223f
00000040: 1042 243f 08d7 393f 422d 2d3f 7f03 2b3f
00000050: 7940 243f 52c8 283f 6c13 263f 1bfc 353f
00000060: 301a 773d 76dc 783d 08b2 763d 71d2 703d
00000070: 60ae 7d3d d39e 663d e8b6 7b3d 32c2 713d
00000080: 5a27 753d eb01 7f3d fd19 803d 18fa 833d
00000090: 937b 7f3d 071a 7f3d 3dc7 793d bcef 743d
000000a0: 562b 703d 5997 813d 5fa9 813d 074d 6e3d
000000b0: 67a3 723d d767 803d 2074 773d 5e38 803d
000000c0: ff6a babe c0b4 cdbe e7c7 c7be f55b b3be
000000d0: a615 b8be 07c0 c6be 15a0 bfbe 3548 b9be
000000e0: d068 afbe 1831 bbbe 5b28 bdbe 23e0 b5be
000000f0: df24 c0be e9e7 b6be cb71 babe 03be bdbe
00000100: 8287 b7be 7f48 bbbe 96f8 bcbe d012 babe
00000110: 8859 b5be d106 cabe 30f6 b5be 15fc bcbe

bn3.running_var f4 [72]
1.4992108 1.4140877 1.36838 1.346729 1.4979229 1.2802104 1.4129002 1.3553976
1.3764222 1.6186422 1.5062958 1.4758601 1.4598769 1.4567013 1.5166955 1.3321065
1.3605219 1.5967501 1.4263215 1.4548773 1.355442 1.3734527 1.3635159 1.5526118
0.21514204 0.21612065 0.21571602 0.214497 0.21531646 0.21490611 0.21522133 0.21459845
0.21460755 0.21573281 0.21562669 0.21528035 0.21521881 0.2152938 0.21535003 0.21463583
0.21464433 0.21561101 0.21527328 0.21504304 0.21468385 0.21525532 0.21459739 0.21551213
1.2670411 1.4106609 1.3676962 1.1999413 1.2501824 1.3465877 1.3126498 1.2483159
1.1733807 1.2720692 1.2921144 1.2453898 1.3234311 1.2384266 1.2657675 1.2905426
1.2329794 1.2833642 1.3002355 1.2484411 1.2222235 1.4122548 1.2269036 1.2923349
00000000: 24e6 bf3f d300 b53f 1327 af3f 9e61 ac3f
00000010: f0bb bf3f efdd a33f ead9 b43f ab7d ad3f
00000020: 9a2e b03f ab2f cf3f 4dce c03f fce8 bc3f
00000030: 3fdd ba3f 3075 ba3f 1423 c23f 7782 aa3f
00000040: 9525 ae3f 4f62 cc3f b491 b63f 6b39 ba3f
00000050: 207f ad3f 4ccd af3f b087 ae3f fcbb c63f
00000060: 324e 5c3e bb4e 5d3e a9e4 5c3e 1aa5 5b3e
00000070: eb7b 5c3e 5910 5c3e fb62 5c3e b2bf 5b3e
00000080: 15c2 5b3e 10e9 5c3e 3ecd 5c3e 7472 5c3e
00000090: 5262 5c3e fa75 5c3e b884 5c3e 7fc9 5b3e
000000a0: b9cb 5b3e 22c9 5c3e 9970 5c3e 3e34 5c3e
000000b0: 15d6 5b3e e46b 5c3e 6bbf 5b3e 36af 5c3e
000000c0: 672e a23f 8990 b43f ab10 af3f ad97 993f
000000d0: fa05 a03f fc5c ac3f e904 a83f d1c8 9f3f
000000e0: 5731 963f 2ad3 a23f 0164 a53f ef68 9f3f
000000f0: 3166 a93f c384 9e3f ab04 a23f 8030 a53f
00000100: 45d2 9d3f 4745 a43f 1e6e a63f ebcc 9f3f
00000110: d271 9c3f c4c4 b43f 2d0b 9d3f 3b6b a53f

mlp4.weight f4 [1, 72]
0.0 0.0 0.0 0.0 0.0 0.0 0.0 0.0
0.0 0.0 0.0 0.0 0.0 0.0 0.0 0.0
0.0 0.0 0.0 0.0 0.0 0.0 0.0 0.0
0.02475669 0.13985088 0.0624507 0.027118893 0.06643825 0.11962042 0.17680025 0.11821503
0.113600284 0.09991741 0.12569022 0.044703502 0.124892965 0.043873593 0.08774813 0.16487911
0.07539214 0.099044785 0.111268565 0.077196166 0.011798312 0.07760573 0.15374383 0.046948448
0.18014729 0.24711898 0.111632004 0.18814425 0.1859924 0.06707145 0.17724814 0.07705371
0.06960089 0.14043656 0.03235285 0.18205367 0.18186094 0.0 0.15644391 0.25470242
0.08034404 0.2521986 0.21037398 0.0 0.0 0.11546688 0.14979047 0.14482525
00000000: 0000 0000 0000 0000 0000 0000 0000 0000
00000010: 0000 0000 0000 0000 0000 0000 0000 0000
00000020: 0000 0000 0000 0000 0000 0000 0000 0000
00000030: 0000 0000 0000 0000 0000 0000 0000 0000
00000040: 0000 0000 0000 0000 0000 0000 0000 0000
00000050: 0000 0000 0000 0000 0000 0000 0000 0000
00000060: 8bce ca3c 1235 0f3e 4ecc 7f3d 7128 de3c
00000070: c710 883d 8dfb f43d 200b 353e b91a f23d
00000080: 44a7 e83d 80a1 cc3d f0b4 003e 051b 373d
00000090: e2c7 ff3d ccb4 333d 4bb5 b33d 12d6 283e
000000a0: 3267 9a3d fed7 ca3d c6e0 e33d 0619 9e3d
000000b0: b54d 413c c1ef 9e3d 066f 1d3e 044d 403d
000000c0: 8878 383e c20c 7d3e 529f e43d e3a8 403e
000000d0: cb74 3e3e c25c 893d 8980 353e 56ce 9d3d
000000e0: e98a 8e3d 9ace 0f3e 6c84 043d 476c 3a3e
000000f0: c139 3a3e 0000 0000 d532 203e 5b68 823e
00000100: 6b8b a43d 2d20 813e 476c 573e 0000 0000
00000110: 0000 0000 e679 ec3d ac62 193e 124d 143e
