utility-model-selected/dim-3/utility-11.pt (torch, 23458 bytes, 17 tensors)

bn1.running_mean f4 [3]
00000000: e282 003f df04 003f 3b6e ff3e
0.5019971 0.5000743 0.49888787

bn1.running_var f4 [3]
00000000: 1e52 673d 2814 5c3d cfad 583d
0.056474797 0.05373016 0.05290013

mlp1.weight f4 [24, 3]
00000000: c1da 923e 11ae 5b3e e9cf cc3e 0000 0000
00000010: 0cd6 eb3d 8bff c63e 1d00 f33e f880 143e
00000020: 6a23 703d 0000 0000 a4da 713e 3ab5 ff3e
00000030: 0000 0000 a5b2 b23e 7a30 e83e cb54 fe3e
00000040: 1eca e33d d426 463e 0000 0000 c8e5 a53e
00000050: 0000 003f f338 023e 2f53 f43e 701e a73a
00000060: da2a e33e 9620 023e e0ce d23d bca9 383d
00000070: 0000 003f 1747 943d 4aba 3b3d 4d71 643e
00000080: 5f6a ff3e 3397 9c3e 7ede e73d 5bd7 223e
00000090: f817 4a3d 4816 c23e 0000 003f 8dc3 ac3e
000000a0: 81ff ff3e bbd9 8d3e 0bfa 813c a779 a83e
000000b0: 0000 003f 2bff fb3e a702 773e bda3 b03c
000000c0: 0000 0000 c393 ae3e 0000 003f 0000 0000
000000d0: 2378 693e 804f cf3e 34de ff3e 0000 003f
000000e0: e915 ee3e 0000 003f 7a91 c33d 8201 6a3d
000000f0: c264 ba3d ee4e 0c3e 667a c43e b30d ef3e
00000100: 4b07 dc3e c838 fa3e c94c 883d 5cf5 cb3e
00000110: 0000 003f a7ef d33e c63c 843c 0000 003f
0.2868252 0.2145312 0.40002373 0.0 0.115154356 0.3886684 0.47461024 0.14502323
0.058627523 0.0 0.23618561 0.49942952 0.0 0.3490192 0.45349485 0.49674067
0.11122535 0.19350749 0.0 0.32401872 0.5 0.12717037 0.47719714 0.001275016
0.4436863 0.12707743 0.102933645 0.045083746 0.5 0.07240122 0.045831956 0.22308846
0.49885842 0.30584106 0.11321734 0.15902464 0.049339265 0.37907624 0.5 0.33742943
0.49999622 0.27705178 0.0158663 0.32905313 0.5 0.49218115 0.24122106 0.021562451
0.0 0.34097108 0.5 0.0 0.22799735 0.4049034 0.49974215 0.5
0.4650109 0.5 0.09549232 0.057130344 0.09101249 0.13701984 0.38374633 0.4669014
0.42974314 0.48871446 0.066552706 0.39835632 0.5 0.41393778 0.01614226 0.5

mlp1.bias f4 [24]
00000000: 67c0 a9bd f2d8 a4bd 718b 7e3e cbc3 97be
00000010: 9e87 fc3d a97f afbe 96b1 91be ec91 753e
00000020: 3f03 323f f613 e3be a643 41be 2744 4e3e
00000030: 36e0 5abe 8a90 bfbe ff20 c7be f84d c03e
00000040: 6ac1 b5be a9ce df3e 8975 acbe 0454 123e
00000050: 36da bcbe f388 f0bd 3b0b dcbe 1dfe aebd
-0.08288651 -0.080491915 0.2485788 -0.29641566 0.123305544 -0.34277084 -0.284558 0.23981446
0.69536203 -0.44351166 -0.18873462 0.20143186 -0.21374592 -0.37414962 -0.38892362 0.37559485
-0.35499126 0.43712357 -0.33683422 0.14289862 -0.36885232 -0.11744871 -0.42977318 -0.08544562

mlp2.weight f4 [24, 72]
00000000: 0000 0000 0419 213d 0000 0000 3a42 923d
00000010: 1e9b 1a3d 0000 0000 498d 9d3d 0000 0000
00000020: 0000 0000 5e31 8c3d 55c8 493c 0000 0000
00000030: 6a2f 2a3d 0000 0000 ad24 ea3c 0000 0000
00000040: 841f c73d 7479 e53c 0000 0000 0000 0000
00000050: 0000 0000 0000 0000 8447 973d 0000 0000
00000060: 0000 0000 acda 653d 3bd7 173c fb72 853e
00000070: 14f7 3a3c 0000 0000 38cc 733e 0000 0000
00000080: 8cd9 233e feb8 903d c494 b03d 0000 0000
00000090: 25f4 c53d 0000 0000 5e9d 2b3e 522c be3d
000000a0: 3687 193e 3efd f03b 2f4f 713d 0000 0000
000000b0: 4772 923d 0000 0000 069c 2d3e 0000 0000
000000c0: 0000 0000 5800 343d 066d f13c 08bc 073d
000000d0: 599f 413c 0000 0000 21e5 cd3c 0000 0000
000000e0: 4407 203e 0000 0000 755f 983c 0000 0000
000000f0: 1007 533b 0000 0000 5e8a ea3b 0268 d93d
00000100: 8cab 613c dc94 083c 0000 0000 9608 263b
00000110: e30c 693a 0000 0000 623c 1639 0000 0000
00000120: c0b0 8e3c 0ef0 763d cb64 373c 47e8 213d
00000130: 6ba3 5d3d 0ca0 bf3b 761e 873c 0000 0000
00000140: 582c 4c3c 0000 0000 ff4f 603d 6253 573c
00000150: a663 5c3c 377e cd3a c71e c63d 9ea4 e73b
00000160: cbf3 383c ae63 e73c 580b 4e3d 378f fe3b
00000170: f959 543d 3921 623c 0a37 cc3c 8b0b ef3c
00000180: 64aa e23d 383f 813e 98b3 f83d 4b81 833e
00000190: 1c15 b83d ce09 003c 3a0e 673e 0000 0000
000001a0: d685 1b3e 0000 0000 5663 953e 820f 4a3d
000001b0: 9476 853e ba44 493d 76b1 353e 7f56 193e
000001c0: f6f9 523e f2a0 f23c 028b 9b3e c2c2 3f3d
000001d0: 3689 4c3e abf0 733e bd2a 353e 5fd6 993d
000001e0: 1863 5d3d 0fd8 f23d 53b2 d23d 04cd 153e
000001f0: d1ac 3f3d 4b7f 073d 53de ae3d 0000 0000
00000200: 3428 083e 0000 0000 ea94 223e 36a6 473d
00000210: 4ea5 723d 040e 583d 9285 783d ff89 113e
00000220: 6b7a b93d 6b49 f53c f790 ab3d 55d3 af3d
00000230: b660 8f3d 0fd4 7c3d f51c 913d 7f03 953d
00000240: 0000 0000 51ea a73c 0000 0000 627f 8a3c
00000250: c61e b83c 0000 0000 9283 853c 0000 0000
00000260: 0000 0000 9d0d 443d 2bc8 683a 0000 0000
00000270: 9674 8239 5675 133b 4553 fd39 0000 0000
00000280: ee7a 153b 9b30 953c 0000 0000 0000 0000
00000290: f3b7 c939 0000 0000 0000 0000 0000 0000
000002a0: 0000 0000 cbf6 c03d ee33 933c 731c 483e
000002b0: 7474 953c 0000 0000 d2c2 7f3e 0000 0000
000002c0: df72 f23d 785f 933d ce34 373e 0000 0000
000002d0: 1872 223e 555d 9e3b e2d1 803d 531e 803d
000002e0: 5629 7b3e fb02 193c c9dc ba3d 8223 513b
000002f0: 8374 3f3a a03b 0d3d 4008 5f3e 0000 0000
00000300: 0000 0000 9b10 333d e5b7 c83c 585d 213d
00000310: fa94 963c 0000 0000 1111 503d 0000 0000
00000320: e6f4 ee3d 0000 0000 1ad4 0e3c 0000 0000
00000330: 6335 f83b 0000 0000 baba d43b 592c 713d
00000340: 4073 a03c f6cd 293c 0000 0000 4304 6b3c
00000350: c956 823a 0000 0000 bf1a 1b3a 0000 0000
00000360: 0000 0000 874a f03c 0000 0000 c80a e13d
00000370: df55 1d3d 0000 0000 5a25 b13d 0000 0000
00000380: 0000 0000 cbac b13d 6b2c 003b 0000 0000
00000390: 474f 6c3a 0000 0000 9bb2 1c3b 0000 0000
000003a0: f39a c03d 05c9 de3c 0000 0000 0000 0000
000003b0: 0000 0000 0000 0000 0000 0000 0000 0000
000003c0: 0000 0000 15b5 ed3d b13b 5e3c 8bff 893e
000003d0: ba4c 973c 0000 0000 1500 283e 0000 0000
000003e0: e3e6 223e c127 d03d ee82 cf3d 0000 0000
000003f0: b7cb 0c3e 0000 0000 837d 7c3e ffc9 c33d
0.0 0.039330497 0.0 0.07141538 0.037745588 0.0 0.07692964 0.0
0.0 0.068453535 0.012315829 0.0 0.041549124 0.0 0.028581942 0.0
0.09722808 0.028012015 0.0 0.0 0.0 0.0 0.073866874 0.0
0.0 0.056116745 0.009267624 0.26064286 0.011411447 0.0 0.23808372 0.0
0.16000956 0.070665345 0.08622125 0.0 0.096657075 0.0 0.1675925 0.09285797
0.14992985 0.0073544076 0.058913406 0.0 0.07150703 0.0 0.1695405 0.0
0.0 0.04394564 0.029470932 0.033138305 0.011817777 0.0 0.025133671 0.0
0.15627772 0.0 0.018600205 0.0 0.0032200254 0.0 0.007157608 0.10615541
0.01377381 0.008336272 0.0 0.0025334707 0.0008890165 0.0 0.00014327609 0.0
0.017418265 0.060287528 0.0111934645 0.039528158 0.054110926 0.0058479365 0.016494017 0.0
0.012461744 0.0 0.05476379 0.013142439 0.013451492 0.0015677874 0.09673839 0.0070691844
0.0112885935 0.028245773 0.050303787 0.0077685374 0.051843617 0.013801866 0.024928588 0.029180309
0.11067656 0.25243545 0.1214363 0.2568458 0.08988401 0.007814838 0.22564021 0.0
0.15187773 0.0 0.2917735 0.049331196 0.2606703 0.04913781 0.17743477 0.14974402
0.20603165 0.02961776 0.30379492 0.046816595 0.19974217 0.23822276 0.17692085 0.07511591
0.05404958 0.11857616 0.10287919 0.14628989 0.04679567 0.03308038 0.08538499 0.0
0.13296586 0.0 0.15877119 0.048742495 0.059239678 0.05274774 0.060674258 0.14212798
0.090565525 0.029942235 0.08377259 0.0858523 0.07000868 0.061725672 0.07085601 0.072760575
0.0 0.020497473 0.0 0.016906444 0.022475611 0.0 0.01629809 0.0
0.0 0.047864545 0.0008879925 0.0 0.00024882396 0.0022500358 0.0004831796 0.0
0.0022808868 0.018211653 0.0 0.0 0.0003847476 0.0 0.0 0.0
0.0 0.09422072 0.017969098 0.19542103 0.018244006 0.0 0.24976662 0.0
0.11838316 0.071959436 0.17891237 0.0 0.15863836 0.0048329034 0.06290032 0.06255784
0.24527487 0.0093390895 0.09124143 0.0031912033 0.00073034334 0.03448069 0.21780491 0.0
0.0 0.043717008 0.02450175 0.03939566 0.018381584 0.0 0.050797526 0.0
0.116678044 0.0 0.008717561 0.0 0.0075747236 0.0 0.006491986 0.058880184
0.019586205 0.010364046 0.0 0.014344278 0.0009944077 0.0 0.0005916766 0.0
0.0 0.029332412 0.0 0.109883845 0.03841197 0.0 0.08649702 0.0
0.0 0.08675536 0.0019557725 0.0 0.0009014499 0.0 0.0023910168 0.0
0.09404554 0.027195463 0.0 0.0 0.0 0.0 0.0 0.0
0.0 0.11606804 0.013564036 0.26952776 0.018469203 0.0 0.16406281 0.0
0.15908389 0.101638325 0.10132395 0.0 0.13749586 0.0 0.24657254 0.09560012

mlp2.bias f4 [24]
00000000: 2f80 05be e4a6 25bd 84c4 f9bd 32ee 63be
00000010: 4e74 01be 6fa6 69be 6c62 05be 69e4 21be
00000020: 0cf9 51be 2300 1abe b824 0abe 5b54 24bd
00000030: 666d 0dbc 66a5 4b3d a37e 67be 2720 19be
00000040: 1dff 5bbe b154 98bc 3262 45be b0ef 16bd
00000050: 04c2 5ebe 1981 0fbd 5e81 e7bc 6b36 38be
-0.1303718 -0.040442362 -0.121956855 -0.22258833 -0.12642023 -0.22817396 -0.13025826 -0.15809788
-0.2050516 -0.15039115 -0.1349057 -0.04011951 -0.00863204 0.049718283 -0.22606902 -0.14953671
-0.21484037 -0.018595072 -0.1927574 -0.036849678 -0.21753699 -0.035035226 -0.02825993 -0.17989509

bn2.weight f4 [72]
00000000: ac2c c03e 3f16 b43e b8b2 c13e 1757 de3e
00000010: 7344 c23e 307d bf3e ce2f de3e 384f c03e
00000020: 1c04 c83e ebe1 d43e 9230 ae3e 2e6a c53e
00000030: 4ff9 c03e 22bc bc3e 5a06 d03e 4176 c53e
00000040: 36fc d23e 0089 ba3e 3e15 ba3e 4cf5 c63e
00000050: 84c5 ad3e f40c af3e 7fe6 cf3e 145e b63e
00000060: 7678 f33e 0000 003f 4eac e63e 0000 003f
00000070: d72b e13e c7af c03e 0000 003f 1d4c c43e
00000080: 0000 003f 219b e03e 0000 003f 217b d33e
00000090: 0609 ff3e fe87 bf3e 6849 ff3e 0000 003f
000000a0: 0000 003f 9f69 ca3e b9ab ee3e 10c2 d23e
000000b0: 1eca c63e 0000 003f 4fa6 f93e f668 cf3e
000000c0: 7251 cc3e aaf5 e63e d88e fd3e d91c dc3e
000000d0: 1227 c73e 2c03 c93e dfa1 d53e 0db2 c53e
000000e0: 0000 003f f667 bc3e 2b9c e03e 72c1 d83e
000000f0: f0d7 c93e 801c c93e 91df be3e 0000 003f
00000100: b9ca d83e f37b c93e 5461 d43e baf5 e33e
00000110: a4b5 c23e b7c6 d73e 23d6 c93e a578 e93e
0.37534082 0.35173222 0.37831664 0.4342582 0.37942848 0.37400198 0.43395847 0.3756044
0.39065635 0.41578612 0.3402143 0.3855757 0.37690207 0.36862284 0.40629846 0.38566783
0.41208047 0.36432648 0.36344332 0.38859022 0.33939755 0.3418957 0.40605542 0.3561865
0.47552842 0.5 0.45053333 0.5 0.4397876 0.37634107 0.5 0.3833932
0.5 0.43868354 0.5 0.41304877 0.49811572 0.3740844 0.49860692 0.5
0.5 0.39533707 0.4661539 0.41163683 0.38826078 0.5 0.48759696 0.40509766
0.39905888 0.45109302 0.49523044 0.4299076 0.38896996 0.39260232 0.4172506 0.38612404
0.5 0.36798066 0.43869147 0.42335087 0.3942256 0.39279556 0.37279943 0.5
0.42342165 0.39352378 0.41480505 0.44523412 0.38029206 0.42143795 0.39421186 0.45599857

bn2.bias f4 [72]
00000000: e361 d7bd 42a6 f6bd 5df7 dcbd 4c15 f9bd
00000010: 3afc f7bd af69 d6bd 53e5 00be 2151 debd
00000020: 4dc0 cfbd e258 e9bd acbe e9bd a03c d3bd
00000030: 173a f2bd 1776 ddbd 0141 fbbd 3a01 d4bd
00000040: f8fb f9bd 411e eebd f4a2 e4bd ef6e d4bd
00000050: 9bb6 e6bd d461 e0bd fd21 f8bd 5300 e0bd
00000060: d804 aebd a658 d5bd c5dd cabd 7ed5 ecbd
00000070: 27cb dbbd 0c13 dbbd 5379 ebbd b10d e0bd
00000080: f5cf c6bd 9410 01be 399a ddbd 60a1 bcbd
00000090: b421 e1bd 0e1c d4bd 0dad f0bd db9e bbbd
000000a0: f4d6 edbd 8160 e1bd 1d7a dfbd 939e cabd
000000b0: da67 e5bd 3d2c c8bd debc ecbd 0686 d4bd
000000c0: 8e47 d4bd d646 e4bd 9b30 9ebd 8969 f2bd
000000d0: 4913 e9bd fff9 c5bd 787e e2bd c7d7 dfbd
000000e0: 5832 aebd 4277 e6bd bc9d ccbd 543d acbd
000000f0: 1847 ddbd ea74 d1bd aad2 eebd 3fff 9cbd
00000100: c039 d1bd 6fce e3bd 51f9 c8bd a120 b1bd
00000110: 6912 ecbd c7d7 c7bd 5ae1 dfbd bf4a a5bd
-0.10516717 -0.1204343 -0.10789368 -0.12162265 -0.12108655 -0.10469376 -0.1258748 -0.10855318
-0.101441 -0.11393906 -0.11413321 -0.10314298 -0.11827486 -0.108135395 -0.12268258 -0.103517964
-0.12206262 -0.11626864 -0.11163893 -0.103727214 -0.11265298 -0.10956159 -0.12115858 -0.10937562
-0.084970176 -0.10417299 -0.099055804 -0.11564158 -0.107321076 -0.10696992 -0.1149775 -0.109401114
-0.097076334 -0.1260398 -0.10820431 -0.09210467 -0.109927565 -0.103569135 -0.11751757 -0.09161159
-0.11613265 -0.11004735 -0.10911963 -0.09893527 -0.11201449 -0.09774063 -0.11559461 -0.103771254
-0.103652105 -0.111463234 -0.077241145 -0.118365355 -0.113806315 -0.096668236 -0.11059278 -0.10929828
-0.08505696 -0.112532154 -0.09991023 -0.08410135 -0.10804576 -0.10227378 -0.11661275 -0.07665872
-0.10216093 -0.111233585 -0.09813178 -0.086488016 -0.11526949 -0.09757953 -0.10931654 -0.08070897

bn2.running_mean f4 [72]
00000000: 3b19 64bc 850e 4abd 9d86 823e c163 1dbe
00000010: 92bc 293e c797 3bbe cbbd 04be c54d 7e3e
00000020: e7fa 323f 5972 7abe a0e2 aabd d287 433e
00000030: 42b3 94bd 974f 1fbe b482 43be 632a c53e
00000040: 03a3 2cbe 0f08 e03e a653 86bd c829 203e
00000050: 9c3c 81be a435 453d 476a 49be 3dcd a33c
00000060: 3710 57bd 1901 6fbd 5dee 153e 1220 2bbe
00000070: cac3 963d e8b5 45be f6b0 1bbe 5c16 173e
00000080: 4234 c53e 769d 7bbe 8dc3 dbbd 1edb 1b3e
00000090: 612e e3bd 9953 39be 4515 52be b606 533e
000000a0: 0cd0 3ebe 9939 8c3e 25d7 0ebe 3312 a43d
000000b0: eab4 81be 6635 6abd 80c8 5bbe 2db4 41bd
000000c0: cc0d fabd 2b55 b4bd 29a4 0e3e 8c9f 9ebe
000000d0: 7dc3 033d 28b3 b4be 8615 9dbe a42c 0f3e
000000e0: dc17 c53e f7c4 dcbe 62f4 58be 7614 1a3e
000000f0: a9b3 81be 952b ccbe 3d69 cebe 2463 4c3e
00000100: 8bc2 bebe 3084 8b3e 0c97 d4be 68a5 7d3d
00000110: aa2a bdbe 3dd1 68be 8588 e5be a34e 1bbe
-0.013922031 -0.049330253 0.25493327 -0.15370084 0.1657584 -0.18319617 -0.12963025 0.24834354
0.69914097 -0.24457683 -0.083440065 0.1909478 -0.07260753 -0.15557705 -0.19092828 0.385089
-0.16859059 0.43756148 -0.065589234 0.15640938 -0.25241554 0.04814686 -0.19669448 0.019995326
-0.052505698 -0.058350656 0.1464171 -0.16711453 0.073615626 -0.19307673 -0.15204224 0.14754623
0.38516432 -0.24571785 -0.10730658 0.15220305 -0.110928304 -0.18098296 -0.20515926 0.20608029
-0.18634051 0.27387694 -0.13949259 0.08011284 -0.2533334 -0.05717983 -0.21463203 -0.04729097
-0.12209663 -0.08805307 0.1392981 -0.309811 0.032168854 -0.35292935 -0.30680484 0.13981873
0.38494766 -0.43119022 -0.21186975 0.15046868 -0.25332382 -0.39877 -0.40314665 0.19959694
-0.372578 0.2724929 -0.4152149 0.06192532 -0.36946613 -0.22736068 -0.4483072 -0.15166716

bn2.running_var f4 [72]
00000000: 358d 4a3e 8cef 083e fbe6 783e d5bf 1a3e
00000010: 325a 873e 7045 0c3e 9fde 323e 3787 6f3e
00000020: 9c35 643e ba95 c83d ee83 363e bfa5 013e
00000030: 8853 593e 10d9 403e 53b7 173e 45f6 963e
00000040: 9fd7 233e 92e3 5d3e fc4c 9d3e deef 723e
00000050: ea42 a93d c6d3 b63e 7dcc 213e 658e 863e
00000060: c01c 0f3e 4838 fa3d bee3 053e 4bd7 043e
00000070: 7309 173e b59b f63d 6038 0d3e 97ba 043e
00000080: 440e 103d e495 c43d 4d81 113e 59c3 b73d
00000090: 8286 193e 87a4 113e 7b21 fd3d 9baa f03d
000000a0: baeb 043e 7990 aa3d 4671 2a3e 26d9 193e
000000b0: 6ee3 a53d db53 323e 10a7 003e b8af 203e
000000c0: 7a28 6c3e c3ac 1e3e ffd9 103e b3b6 913e
000000d0: 057c 573e 92d5 8f3e dc3b a33e d36c 103e
000000e0: 4fd3 113d 98af 843e d90c 883e f94a bd3d
000000f0: 7936 aa3e 5e49 cb3e fb88 ac3e 2247 033e
00000100: da1f ad3e 8c8b af3d 2f05 0e3f a23c 333e
00000110: 856c 333e 09a9 de3e 88a4 c43e 8778 9a3e
0.19780429 0.1337263 0.24306862 0.1511224 0.26436 0.13698363 0.17467736 0.23391424
0.22286075 0.09794183 0.17823765 0.12660883 0.21223271 0.18832803 0.14816026 0.29484764
0.16000222 0.21668842 0.30722797 0.23724315 0.08264716 0.35708445 0.15800662 0.26280513
0.13975811 0.12217766 0.13075158 0.12972753 0.14749698 0.120414175 0.13791037 0.12961803
0.035169855 0.09598902 0.1420948 0.089728065 0.14992717 0.14222918 0.123599015 0.117512904
0.12980548 0.08328337 0.16644773 0.15024242 0.081000194 0.17414801 0.1256373 0.15692031
0.23062316 0.15495591 0.14145659 0.284597 0.21043403 0.2809263 0.31881607 0.14104013
0.03560191 0.25915217 0.26572302 0.092428155 0.33244684 0.39704412 0.33698258 0.12820104
0.33813363 0.08571538 0.5547666 0.17503598 0.17521866 0.4348834 0.38406777 0.3017008

mlp3.weight f4 [24, 72]
00000000: 0000 0000 0000 0000 0000 0000 0000 0000
00000010: 0000 0000 0000 0000 0000 0000 0000 0000
00000020: 0000 0000 0000 0000 0000 0000 0000 0000
00000030: 0000 0000 0000 0000 0000 0000 0000 0000
00000040: 0000 0000 0000 0000 0000 0000 0000 0000
00000050: 0000 0000 0000 0000 0000 0000 0000 0000
00000060: 9964 863e 6b0c 913e 1bb5 273e da89 7a3e
00000070: a54a 653e e9cd 9b3e 8716 843e c508 853e
00000080: a210 7d3e 94e4 8f3e bbe0 8c3e fea2 aa3e
00000090: b681 b63e 3103 b03e 9b4c a73e 9310 7f3e
000000a0: 5545 8f3e 173d b43e 0768 9c3e 7132 903e
000000b0: 506a a53e af48 c03e e163 9c3e 076c 863e
000000c0: 79db 2c3e 02c7 133e 9066 c63d 4efa 743e
000000d0: d38d 473e 5cf4 883e 067b 043e 67f9 3c3e
000000e0: 5c08 133e 88d5 2a3e 8d14 f93d 9070 363e
000000f0: 1515 173e 8cf5 fd3d f72f 3d3e ee1b 453e
00000100: 0e12 333e 8adf 423e 04f0 623e 3d15 2d3e
00000110: e1ee 6f3e b517 563e 907c 273e 4c8c 2d3e
00000120: 0000 0000 0000 0000 0000 0000 0000 0000
00000130: 0000 0000 0000 0000 0000 0000 0000 0000
00000140: 0000 0000 0000 0000 0000 0000 0000 0000
00000150: 0000 0000 0000 0000 0000 0000 0000 0000
00000160: 0000 0000 0000 0000 0000 0000 0000 0000
00000170: 0000 0000 0000 0000 0000 0000 0000 0000
00000180: f41b 383e 2d3b 133e bb0d b23d 2347 563e
00000190: 7ecc 2d3e 574f 303e 3111 083e 4320 013e
000001a0: 5d2b 573e c507 553e cf16 d63d 5ac0 3c3e
000001b0: 3bf3 373e 72be 323e 79bf 543e 6a3c 4d3e
000001c0: c0f6 573e 7782 f33d 7e5c 823e 56be 3e3e
000001d0: ba7a 633e 845a 033e e599 343e 2ef0 673e
000001e0: 0000 0000 c982 b63a 0000 0000 7df7 0e3b
000001f0: 0000 0000 0000 0000 0000 0000 0000 0000
00000200: 0000 0000 0000 0000 0000 0000 0bca 883a
00000210: 2338 a23a f4d4 3c3b 0a75 233c 0000 0000
00000220: 0ce3 313a 2e02 953a 362e 353a 5da2 c73a
00000230: 5927 cd3a 427a e03a 0175 8a3a 0000 0000
00000240: 0000 0000 0000 0000 0000 0000 0000 0000
00000250: 0000 0000 0000 0000 0000 0000 0000 0000
00000260: 0000 0000 0000 0000 0000 0000 0000 0000
00000270: 0000 0000 0000 0000 0000 0000 0000 0000
00000280: 0000 0000 0000 0000 0000 0000 0000 0000
00000290: 0000 0000 0000 0000 0000 0000 0000 0000
000002a0: 6deb 123e f582 213e 268f 103e 772f 973e
000002b0: 4cbb 013e 7eac 303e 527a 3f3e ad19 5e3e
000002c0: e054 163e 8bcb 0d3e 98fb 363e f881 393e
000002d0: 1869 f63d 9870 6d3e 0e5b 3d3e 993f 003e
000002e0: a68f 6b3e 5f27 613e d6c0 593e d62c 553e
000002f0: 67af 5c3e c7a6 643e 60b8 503e f38d 823e
00000300: 0000 0000 00ab 993a 0000 0000 1926 6739
00000310: 0000 0000 0000 0000 0000 0000 0000 0000
00000320: 0000 0000 d45c 4736 0000 0000 4561 843a
00000330: f7b8 7e3a acd7 cb3a 92d9 4439 0000 0000
00000340: 6736 3638 09fe 993a 0000 0000 0d0a af3a
00000350: 0000 0000 0ee4 9e3a c7e5 a33a 0000 0000
00000360: 0000 0000 0000 0000 0000 0000 0000 0000
00000370: 0000 0000 0000 0000 0000 0000 0000 0000
00000380: 0000 0000 0000 0000 0000 0000 0000 0000
00000390: 0000 0000 0000 0000 0000 0000 0000 0000
000003a0: 0000 0000 0000 0000 0000 0000 0000 0000
000003b0: 0000 0000 0000 0000 0000 0000 0000 0000
000003c0: 338b 653e 214e 4e3e d8c9 c53d f157 523e
000003d0: 23b3 583e aa00 6b3e f43f 653e d8c8 7e3e
000003e0: f1f0 683e 0700 f43d 6114 423e 78d3 6d3e
000003f0: c543 433e 64be 6c3e b120 4e3e 709e 613e
0.0 0.0 0.0 0.0 0.0 0.0 0.0 0.0
0.0 0.0 0.0 0.0 0.0 0.0 0.0 0.0
0.0 0.0 0.0 0.0 0.0 0.0 0.0 0.0
0.26248625 0.28329787 0.1637768 0.24466649 0.22391756 0.30430534 0.25798437 0.25983253
0.24713376 0.2810408 0.27515206 0.33327478 0.35645837 0.34377435 0.32675633 0.24908666
0.27982584 0.35202858 0.30548117 0.28163484 0.32307673 0.37555453 0.30544952 0.26254293
0.16880597 0.14431384 0.09687531 0.23923609 0.19487695 0.2674893 0.12937555 0.18454514
0.14358658 0.16683018 0.12162123 0.17816377 0.14754136 0.1240035 0.18475328 0.19248936
0.17487356 0.19030586 0.22161871 0.16902633 0.23430969 0.20907481 0.1635611 0.1694805
0.0 0.0 0.0 0.0 0.0 0.0 0.0 0.0
0.0 0.0 0.0 0.0 0.0 0.0 0.0 0.0
0.0 0.0 0.0 0.0 0.0 0.0 0.0 0.0
0.17979413 0.14378043 0.08694025 0.20925574 0.16972539 0.17217766 0.13287808 0.12609963
0.21012636 0.20803745 0.10453569 0.18432751 0.17963879 0.17455462 0.20776166 0.20042577
0.21090221 0.118901186 0.2546119 0.18627295 0.22214785 0.12827498 0.17636831 0.22650215
0.0 0.0013924475 0.0 0.0021814995 0.0 0.0 0.0 0.0
0.0 0.0 0.0 0.001043619 0.0012376349 0.0028813453 0.009976635 0.0
0.0006785847 0.0011368447 0.0006911488 0.0015230883 0.0015651985 0.0017126279 0.0010563434 0.0
0.0 0.0 0.0 0.0 0.0 0.0 0.0 0.0
0.0 0.0 0.0 0.0 0.0 0.0 0.0 0.0
0.0 0.0 0.0 0.0 0.0 0.0 0.0 0.0
0.1434762 0.15772612 0.14117107 0.295284 0.12669104 0.172533 0.18699005 0.21689482
0.14680815 0.13847177 0.17869413 0.18115985 0.12031764 0.23187482 0.18491766 0.1252426
0.23004016 0.21987675 0.21264967 0.20817885 0.21551286 0.22329246 0.20382833 0.25498924
0.0 0.0011723936 0.0 0.00022044069 0.0 0.0 0.0 0.0
0.0 2.9707344e-06 0.0 0.0010099789 0.0009716893 0.0015551946 0.00018773068 0.0
4.3442848e-05 0.0011748682 0.0 0.0013354436 0.0 0.0012122409 0.0012504392 0.0
0.0 0.0 0.0 0.0 0.0 0.0 0.0 0.0
0.0 0.0 0.0 0.0 0.0 0.0 0.0 0.0
0.0 0.0 0.0 0.0 0.0 0.0 0.0 0.0
0.22416382 0.20146991 0.09657639 0.2054136 0.21162085 0.22949472 0.22387677 0.24881303
0.22748162 0.11914068 0.18953086 0.232252 0.19068821 0.23119503 0.20129658 0.22033095

mlp3.bias f4 [24]
00000000: f404 c3bd ef02 763d 2b54 bf3d 48f7 db3d
00000010: eb9a a03d 5a1e 81be 2113 cb3d 79c5 4ebc
00000020: f64f db3c 610f 90be 778b 82be 7b8b 5a3c
00000030: 5af2 093e 2d26 5b3c e235 973d 5024 663d
00000040: e64b 833d 44b9 413e 2b98 9cbe 726b 9bbd
00000050: 5774 f33d f687 003d 3575 b4bd 15f4 22bd
-0.09522429 0.06006139 0.09342226 0.107405245 0.07842048 -0.2521847 0.09915758 -0.012620323
0.026771527 -0.28136733 -0.25497028 0.013338919 0.13471356 0.013375801 0.07383324 0.056186974
0.06410961 0.1891833 -0.30584845 -0.07588853 0.118874244 0.031379662 -0.08811418 -0.039783556

bn3.weight f4 [72]
00000000: 203f c13e 1365 bf3e 6357 c33e c564 c13e
00000010: e70e c03e f596 c13e 2ecf bf3e 15b7 be3e
00000020: fe05 c23e d36a be3e adbf bc3e 46d9 bd3e
00000030: 6636 c13e 246a bf3e f945 c73e f949 c23e
00000040: 9ade c13e 6c3d ba3e e83c c23e 9176 be3e
00000050: d11b c13e cfb6 c03e 6965 c13e 3abf be3e
00000060: 839b fe3e 0000 003f 7318 e53e 03d8 ff3e
00000070: c456 fd3e e944 ff3e b97e fd3e a107 fe3e
00000080: a261 ff3e 1d9f fd3e 187d fc3e 0000 003f
00000090: 0000 003f 0000 003f 3fd5 ff3e 735d fe3e
000000a0: 9879 ff3e 0000 003f 5673 ff3e 0000 003f
000000b0: d243 ff3e 0000 003f 0000 003f 3b41 ff3e
000000c0: 9755 d13e b90f d23e d301 cc3e 7b07 dc3e
000000d0: 21a7 cc3e fef1 d43e 4259 cf3e 2440 d33e
000000e0: c5df cf3e c116 ca3e 774d ce3e 8965 cd3e
000000f0: e6b4 ce3e 7b10 cb3e a364 db3e a485 cf3e
00000100: 44fd d33e 87fc cc3e f745 d93e 2bf6 cc3e
00000110: b02d ea3e 7f32 d03e 9e50 cb3e 715e cc3e
0.37743473 0.373818 0.38152608 0.37772194 0.3751137 0.37810484 0.37462753 0.37249056
0.37895197 0.37190875 0.36864987 0.3707983 0.37736815 0.37385666 0.38920572 0.37947062
0.37865144 0.36374986 0.37937093 0.37199834 0.37716535 0.37639472 0.37772682 0.3725527
0.4972802 0.5 0.44745216 0.4996949 0.4948026 0.49857262 0.49510744 0.49615195
0.49879175 0.49535456 0.4931419 0.5 0.5 0.5 0.4996738 0.4968067
0.49897456 0.5 0.49892682 0.5 0.4985643 0.5 0.5 0.49854454
0.40885612 0.4102762 0.39845142 0.42974457 0.3997126 0.41590875 0.40497786 0.41259873
0.4060041 0.39470485 0.40293476 0.40116528 0.4037239 0.3966101 0.42850217 0.40531647
0.41404164 0.40036413 0.4243619 0.4003156 0.45737982 0.40663525 0.39709944 0.39915803

bn3.bias f4 [72]
00000000: c329 03bc 6c64 893c 121a 143d 907f a53b
00000010: e2b2 e43c 3f6c 583d 4477 c23c 5ab2 113d
00000020: 560a 90bb b397 fe3c 0c5e acbc 0a4b 9b3c
00000030: 9fbf bd3c 2f56 233d 914e 003d 7d4c 393c
00000040: a7d8 b43c 9e19 2dbd ad30 033d 05bd 073d
00000050: 45c6 343c 9d0a 1abd 8ca0 da3c 2217 813d
00000060: d123 d5bb 38d5 4bbd 1d30 65bc 5421 adbc
00000070: feee c9bc 9d4d 1cbd 00a2 a8bc b029 b9bc
00000080: f038 14bd a544 b6bc 9b42 a8bc 62a6 e4bc
00000090: 27c8 1dbd 4f2c 123c c0b9 27bd 10c1 83ba
000000a0: e74d 7bbc 47f0 17bd 697a acbc 900d 36bd
000000b0: 8460 84bd 76aa 09bd 2f6f 9abc e944 87bc
000000c0: 007e 13bd 5400 b2bd b5e6 8fbd e68b a1bd
000000d0: 852d 3fbd 97f3 a9bd 5ddd 7fbd f0ce c1bd
000000e0: c1d9 cbbd 2063 14be f5b5 cdbd 60fa c9bd
000000f0: 4037 68bd cafe b1bd d85d 8ebd 9b10 86bd
00000100: 277b cabd 7481 cbbd 8d32 a7bd 2fca a8bd
00000110: cc69 6abd fbb3 99bd 56ba 32be 946e d7bd
-0.008005562 0.016771518 0.036157675 0.005050607 0.02791733 0.052837607 0.02373851 0.03557048
-0.0043957634 0.031078195 -0.021040939 0.01895668 0.023162661 0.039877113 0.031324927 0.01130974
0.022075964 -0.04226076 0.032028843 0.033139247 0.011033599 -0.037607778 0.026687883 0.0630324
-0.006504514 -0.049763888 -0.013988522 -0.021134056 -0.024650093 -0.038159955 -0.02058506 -0.022602886
-0.036187112 -0.02224953 -0.020539572 -0.027911369 -0.03852096 0.008921697 -0.04094863 -0.0010052044
-0.015338398 -0.03709438 -0.021054463 -0.044446528 -0.064637214 -0.03360983 -0.018851845 -0.016512351
-0.036008835 -0.08691469 -0.07026426 -0.07888012 -0.04667427 -0.08298414 -0.062466968 -0.09463298
-0.09953643 -0.14490938 -0.10044471 -0.09862208 -0.056693316 -0.08691175 -0.06951493 -0.06546136
-0.09886771 -0.099368006 -0.08163939 -0.082416885 -0.057229802 -0.07505032 -0.17453894 -0.10519138

bn3.running_mean f4 [72]
00000000: 7f97 a5bc 9d54 bf3e 321a fabc 78b9 a3bc
00000010: 3962 c4bc f17b e3bc cdeb d6bc 7c79 ccbc
00000020: ad0b cbbc 7614 d5bc e120 c8bc db5b bd3e
00000030: 1477 973e f1cf f13e 28eb a3bc 4b0c ebbc
00000040: afc7 c3bc 892b a23e 0a61 bebc 5e0b b03e
00000050: 771b d9bc f730 ca3e 8133 db3e bfd0 c2bc
00000060: 84d1 29be c61b f5bd 44e2 1ebe 40ca 33be
00000070: d780 24be f05f 30be c4fe 25be c65b 27be
00000080: 5670 2ebe f6bf 27be 4220 27be 2689 f7bd
00000090: a406 f3bd 2275 d0bd 41bd 32be 210c 26be
000000a0: a9f4 30be 8421 f4bd 9791 2ebe e10c ebbd
000000b0: 6bf0 2fbe ca87 e8bd 353b eabd d9bc 2abe
000000c0: 6d19 13bf 33ab 92bf 7d96 01bf 660e 36bf
000000d0: 1007 0bbf 19e5 2ebf ffee 0bbf f64a 17bf
000000e0: dcb7 2abf 37f6 13bf 800a 10bf 2900 92bf
000000f0: 93a9 6ebf ee9a 96bf addb 34bf 5978 10bf
00000100: 8413 30bf 6942 80bf 8121 26bf 055f 89bf
00000110: 1ae5 2bbf 5e80 94bf 8ff6 9dbf 325a 21bf
-0.02021384 0.37369242 -0.030530069 -0.0199859 -0.023972617 -0.02776906 -0.026235485 -0.024960272
-0.02478584 -0.026010733 -0.02442974 0.36984143 0.29583037 0.4722896 -0.020009592 -0.028692385
-0.023898927 0.3167384 -0.023239631 0.34383672 -0.026502354 0.39490482 0.42812732 -0.023781179
-0.1658383 -0.11968188 -0.15516001 -0.17557621 -0.16064773 -0.17224097 -0.16210467 -0.16343603
-0.1703504 -0.16381821 -0.16320899 -0.12086706 -0.11866501 -0.10178591 -0.17455007 -0.16215564
-0.1728083 -0.11920455 -0.17047726 -0.11477066 -0.17181556 -0.11354025 -0.11437074 -0.16673602
-0.5746067 -1.1458496 -0.5062025 -0.7111572 -0.5430765 -0.68318325 -0.54661554 -0.59098756
-0.666868 -0.5779757 -0.5626602 -1.1406299 -0.932275 -1.1766031 -0.706477 -0.56433636
-0.6877978 -1.0020267 -0.6489487 -1.0732123 -0.67146456 -1.1601675 -1.2340869 -0.6302825

bn3.running_var f4 [72]
00000000: ddbb f73e b90b ce3f 41f7 d73e d276 033f
00000010: cc7f e93e b8f6 f43e 8660 e83e d463 ec3e
00000020: 7b78 f73e 708b eb3e 3207 ed3e 13ef cd3f
00000030: ee5a a53f c630 ef3f 3234 023f 6df7 e43e
00000040: 6b86 fc3e a4a1 b03f 742e f93e 14a3 b83f
00000050: 8056 f63e a668 d13f 6b42 e53f e873 f33e
00000060: 5fb8 3d3e da8b 5d3e aca3 3e3e 7c7e 3d3e
00000070: 4780 3e3e e1f8 3d3e 7609 3e3e c922 3e3e
00000080: 86e9 3d3e ee14 3e3e af04 3e3e 401a 5d3e
00000090: 2304 5b3e 0191 613e 4332 3e3e 0b17 3e3e
000000a0: 68b0 3d3e 7ab9 5b3e 8328 3e3e 6b3d 5d3e
000000b0: 71f7 3d3e 3eff 5e3e 5da3 5f3e b958 3e3e
000000c0: c8cc 2c3f ff6d 1840 e889 173f febb 603f
000000d0: 09cd 233f 33a2 553f e66d 243f 734e 353f
000000e0: 521e 513f fefd 2e3f 6e1c 293f 9ff6 1640
000000f0: dfe9 db3f 5628 3040 af3e 5e3f 1457 2b3f
00000100: 88d1 573f 4617 f63f 1294 483f 6ba9 0f40
00000110: 8a56 503f 6a62 2240 1a7c 3440 d2e6 423f
0.48385516 1.6097327 0.42180827 0.5135318 0.45605314 0.4784448 0.45386142 0.46169913
0.48334107 0.4600482 0.46294552 1.6088585 1.2918375 1.868676 0.50860894 0.4472002
0.49321303 1.3799329 0.48668253 1.4424767 0.4811287 1.6360061 1.7910894 0.47549367
0.18527363 0.2163538 0.18617123 0.18505281 0.18603621 0.18551971 0.18558297 0.18567957
0.18546113 0.18562672 0.18556474 0.21592045 0.21388297 0.22027971 0.18573861 0.18563478
0.18524325 0.21457472 0.18570141 0.2160546 0.18551423 0.21777055 0.21839662 0.18588533
0.6749997 2.3817136 0.59194803 0.87786853 0.63984734 0.8345062 0.6423019 0.7082283
0.8168689 0.6835631 0.66059005 2.3588026 1.7180747 2.752462 0.868144 0.66929746
0.84304094 1.9225852 0.7835094 2.2447155 0.8138205 2.5372567 2.8200746 0.76133454

mlp4.weight f4 [1, 72]
00000000: edd5 843e 393e 323e 96e6 283e 254e 073e
00000010: 7b45 753e 6b9d 0c3e 4f8f bc3d e82b 0f3e
00000020: 2c5f 733e 2dd2 2c3e 0000 0000 0000 0000
00000030: 0755 233e c713 0f3e 3be1 f83d 0000 0000
00000040: 030a 333e 2dbe 413e 0000 0000 689f 823e
00000050: e964 7c3e 804a 3a3e a716 4b3e a18f 233c
00000060: 27f9 403e 5e2d 603d e842 b93d 4d03 b93d
00000070: 9e2f b03d 0d56 a03d 1379 fb3d 4275 553e
00000080: be40 063e ab16 813d ed77 823d 3669 af3d
00000090: 3cbc 0a3e a70e 223e 22f1 973d 735c 783d
000000a0: 0b8b e33d 9d73 363e 62d2 103e a489 eb3d
000000b0: feea e13d 31a8 ea3d 0982 5f3e 5156 c63d
000000c0: 0000 0000 0000 0000 0000 0000 0000 0000
000000d0: 0000 0000 0000 0000 0000 0000 0000 0000
000000e0: 0000 0000 0000 0000 0000 0000 0000 0000
000000f0: 0000 0000 0000 0000 0000 0000 0000 0000
00000100: 0000 0000 0000 0000 0000 0000 0000 0000
00000110: 0000 0000 0000 0000 0000 0000 0000 0000
0.25944462 0.17406549 0.16494212 0.13213404 0.23952286 0.13731925 0.092070214 0.13981593
0.23766774 0.1687705 0.0 0.0 0.15950404 0.13972388 0.12152334 0.0
0.17484288 0.18920203 0.0 0.25512242 0.24647869 0.18192482 0.1983286 0.009982974
0.18845044 0.054730766 0.090459645 0.09033833 0.08602832 0.07828913 0.122789524 0.20845512
0.13110635 0.06303152 0.0637053 0.08564989 0.13548368 0.15825902 0.07419039 0.06063504
0.11110505 0.1781754 0.14142755 0.11500862 0.11031149 0.11457861 0.21826948 0.09684432
0.0 0.0 0.0 0.0 0.0 0.0 0.0 0.0
0.0 0.0 0.0 0.0 0.0 0.0 0.0 0.0
0.0 0.0 0.0 0.0 0.0 0.0 0.0 0.0
