utility-model-selected/dim-3/utility-43.pt (torch, 23458 bytes, 17 tensors)

bn1.running_mean f4 [3]
00000000: e282 003f df04 003f 3b6e ff3e
0.5019971 0.5000743 0.49888787

bn1.running_var f4 [3]
00000000: 1e52 673d 2814 5c3d cfad 583d
0.056474797 0.05373016 0.05290013

mlp1.weight f4 [24, 3]
00000000: b9d8 8c3e 330f 533e fa7b 623d 0000 003f
00000010: 0fee c33c b164 903e 70d3 e33e 0047 d03e
00000020: 1b01 c63e f026 ff3e 0000 0000 5034 903e
00000030: 65a8 9f3e 61ee f13e 4c04 863d 93c1 863e
00000040: 0000 003f d072 8d3e a940 943e 8197 4e3e
00000050: 5666 cb3e 0000 0000 2d1d a93e b539 863d
00000060: 80c7 a43e 592c b13e 5517 1b3e 0000 0000
00000070: 0000 003f b4bb e63e 0000 0000 0c4d de3e
00000080: 1e34 943e 3a4c 653e 0a1b bc3e fd47 303e
00000090: 0000 0000 0000 003f 35ac 113e 0000 0000
000000a0: 5d50 9e3e e01d d23e 9cfe 743e 619e b33e
000000b0: b912 613d ccd4 a33e 0000 003f d70e d23c
000000c0: da87 063e 0000 003f 18e5 883c 577e df3e
000000d0: 7cb5 bc3d 6bd6 b43e 9144 c13e 0000 0000
000000e0: 63fe a23c c860 143d fa09 de3e 21d0 5e3d
000000f0: 006f b63e 0000 003f 9c90 da3d 4557 ff3e
00000100: 0000 0000 261e 913e 9f68 fa3e 0000 0000
00000110: d532 793e 00b2 103e d73d 8c3e 60a6 a13d
0.27509096 0.20611267 0.055294015 0.5 0.023917226 0.2820182 0.44497252 0.4067917
0.38672718 0.49834394 0.0 0.2816491 0.31183162 0.4725218 0.06543788 0.2631956
0.5 0.27626657 0.28955582 0.20174982 0.39726514 0.0 0.33030072 0.065539755
0.32183456 0.34604147 0.15145619 0.0 0.5 0.4506508 0.0 0.43418157
0.28946012 0.2239236 0.3673938 0.17214961 0.0 0.5 0.14225848 0.0
0.30920687 0.41038418 0.23925251 0.3508177 0.054949496 0.3199829 0.5 0.025641842
0.13137761 0.5 0.016710803 0.43651077 0.09214303 0.35319838 0.37747625 0.0
0.019896692 0.03622511 0.43366987 0.054397706 0.3563156 0.5 0.10672113 0.4987127
0.0 0.28343314 0.48907945 0.0 0.24335797 0.14130402 0.2739093 0.07893062

mlp1.bias f4 [24]
00000000: a3a8 753e 9e43 1bbf 5673 f4bc 9017 13bf
00000010: 4e98 243f 86b5 9e3e 5133 81be 7794 b9be
00000020: 02b2 ed3b 0fcc 75be 21cb c3be 7945 d7bc
00000030: 4626 21bf 2248 0fbf 7822 1b3f 5c82 d13e
00000040: a921 503e 93c2 81be 12cd 20bf 1709 263e
00000050: 27bc 1c3f 8f57 12bf 2a89 12bf 21cc e73e
0.23990111 -0.6065005 -0.029840153 -0.5745783 0.642949 0.30997866 -0.25234464 -0.36246082
0.007253886 -0.24003623 -0.38240913 -0.026278244 -0.62949026 -0.5596944 0.6059947 0.4091977
0.2032534 -0.2534376 -0.6281291 0.16214405 0.612246 -0.57164854 -0.57240546 0.45272925

mlp2.weight f4 [24, 72]
00000000: 0000 0000 f438 c63d 0000 0000 2322 fe3d
00000010: 0000 0000 0000 0000 0000 0000 0c95 0e3d
00000020: 0000 0000 607b 973d 3e0d e93d 0000 0000
00000030: 1b71 223e 9ee4 393d 0000 0000 38aa 443c
00000040: 905f 773d 0000 0000 3944 673e b7f8 8f3d
00000050: 0000 0000 1740 053e fc34 563e 0000 0000
00000060: 0000 0000 0f32 243e 0000 0000 554c 643e
00000070: 6892 843d d363 263c 0000 0000 0965 b43d
00000080: 0000 0000 8838 173e 105a b53d 0000 0000
00000090: 0009 323e d3ab cc3d 0000 0000 ea89 ca3d
000000a0: 0000 0000 0000 0000 2ca5 723e 4546 883d
000000b0: 4164 0f3e d04f 143e 9278 593e 0000 0000
000000c0: 0000 0000 0000 0000 0000 0000 0000 0000
000000d0: b061 103d 2c3f 163d 0000 0000 411b 0b3d
000000e0: 0000 0000 6b17 683d 3c9e 213d 0000 0000
000000f0: d3f5 633d 86aa 363b 5c78 603d b0c5 753c
00000100: cbc2 913c 0000 0000 0000 0000 03c4 9f3c
00000110: e407 a43d 0000 0000 0000 0000 aa40 093d
00000120: 0000 0000 17da dc3d 0000 0000 c085 f03d
00000130: 0000 0000 0000 0000 0000 0000 4cd1 2c3d
00000140: 0000 0000 ea7b de3d 40c3 9d3d 0000 0000
00000150: 0d24 1b3e 1cab df3d 0000 0000 654c 573d
00000160: bd4f a63d 968e 363c c25b 523e 2c08 023d
00000170: 0000 0000 97d3 cf3d b90d 863e 0000 0000
00000180: 0000 0000 aa12 583e 0000 0000 809f 0c3e
00000190: efd0 a23d 0000 0000 7282 883c edea 8f3d
000001a0: 0000 0000 ec35 a73d 0a42 e73d 0000 0000
000001b0: 02e9 6e3e a3af b83d 5ac6 a83d 78b7 903d
000001c0: 0000 0000 0000 0000 cd4b 683e ac51 f93c
000001d0: 67f4 dc3d 3f72 5a3e edee 293e 2e92 5a3d
000001e0: 0000 0000 0000 0000 0000 0000 0000 0000
000001f0: 3a73 a13d 0000 0000 0000 0000 b318 013d
00000200: 0000 0000 b889 343d 202e 523d 0000 0000
00000210: c721 b83d 0000 0000 fdce ba3c 6ddd 923c
00000220: 99e0 c03b 0000 0000 0000 0000 d44d 8b3c
00000230: ca99 c23d 0000 0000 0000 0000 0000 0000
00000240: 0000 0000 77e5 3b3e 0000 0000 c218 083e
00000250: 0000 0000 0000 0000 0000 0000 205a 1d3d
00000260: 0000 0000 71f0 883d 2007 9e3d 0000 0000
00000270: d322 4c3e f1a2 0d3e 0000 0000 5659 b83c
00000280: 9304 1e3d 0000 0000 27c7 643e d536 893d
00000290: 0000 0000 51bc c53d b23f 813e 0000 0000
000002a0: 0000 0000 0736 083e 0000 0000 e8ac 6f3e
000002b0: 3d31 c63d 0000 0000 0000 0000 e652 ab3d
000002c0: 0000 0000 37d9 f53d c0b0 ab3d 0000 0000
000002d0: 6a3d 723e 61eb 683d 40f3 1a3d c676 823d
000002e0: 67e4 8838 0000 0000 20d5 5e3e ca5a ce3d
000002f0: 18c9 113d f14e 4c3e 0fac 3f3e 4e60 7a3c
00000300: 0000 0000 0000 0000 0000 0000 0000 0000
00000310: bb49 cc3c 0000 0000 0000 0000 ebf0 bb3c
00000320: 0000 0000 0000 0000 5ec1 053d 0000 0000
00000330: bf54 bd3d 87fa ac3c d4ab b53b 0000 0000
00000340: 2459 393d 0000 0000 0000 0000 d84b 283d
00000350: cbef a63b 0000 0000 0000 0000 0000 0000
00000360: 0000 0000 1dab d93d 0000 0000 4ca3 093e
00000370: 0000 0000 0000 0000 0000 0000 bbf5 403d
00000380: 0000 0000 f35b 033e 386b 7f3d 0000 0000
00000390: 1357 543e 31a7 433d 0000 0000 4fd4 7b3c
000003a0: dad1 243d 0000 0000 ee6a 4e3e e7be 923d
000003b0: 0000 0000 7735 223e 0440 5f3e 0000 0000
000003c0: 0000 0000 3cc3 103e 0000 0000 4bee 0e3e
000003d0: d4e8 a73d f854 083d 0000 0000 88c6 133d
000003e0: 0000 0000 1dcc 103e e904 8a3d 0000 0000
000003f0: a8cb 733e e527 af3d e3f6 3d3c 5236 973d
0.0 0.09678832 0.0 0.12408855 0.0 0.0 0.0 0.03481011
0.0 0.07396579 0.11379479 0.0 0.15863459 0.045384042 0.0 0.012003474
0.06039387 0.0 0.22584619 0.070298605 0.0 0.1301273 0.2091865 0.0
0.0 0.16034721 0.0 0.22294743 0.06473237 0.010155636 0.0 0.088083334
0.0 0.14767659 0.08855069 0.0 0.17386246 0.0999371 0.0 0.09889586
0.0 0.0 0.2369582 0.06654028 0.14003088 0.14483571 0.212374 0.0
0.0 0.0 0.0 0.0 0.035249412 0.03668134 0.0 0.03396154
0.0 0.056662958 0.039457545 0.0 0.055654358 0.0027872636 0.054802284 0.015000746
0.01779308 0.0 0.0 0.019502645 0.080093175 0.0 0.0 0.033508934
0.0 0.10783785 0.0 0.11744261 0.0 0.0 0.0 0.04219179
0.0 0.108634785 0.077032566 0.0 0.15150471 0.109213084 0.0 0.05256309
0.081206776 0.011142394 0.20542815 0.031746075 0.0 0.101477794 0.26182345 0.0
0.0 0.2110087 0.0 0.1373272 0.07950007 0.0 0.016663764 0.070272304
0.0 0.08164582 0.11291893 0.0 0.23331073 0.09017875 0.082409576 0.07066244
0.0 0.0 0.22685166 0.030434452 0.107888035 0.21332644 0.16595049 0.053362064
0.0 0.0 0.0 0.0 0.07883306 0.0 0.0 0.031517696
0.0 0.04407665 0.05131352 0.0 0.089908175 0.0 0.022803778 0.01792785
0.005886149 0.0 0.0 0.017004885 0.09501989 0.0 0.0 0.0
0.0 0.18349253 0.0 0.13290694 0.0 0.0 0.0 0.038416028
0.0 0.066864856 0.07716203 0.0 0.1993516 0.13831688 0.0 0.022503536
0.03857858 0.0 0.22341596 0.066999115 0.0 0.09655059 0.25243908 0.0
0.0 0.1330186 0.0 0.23405802 0.0967736 0.0 0.0 0.08365421
0.0 0.12004321 0.08383322 0.0 0.2365624 0.0568651 0.037829638 0.063703105
6.5275286e-05 0.0 0.21760988 0.100759104 0.03559217 0.19951989 0.18717979 0.01528175
0.0 0.0 0.0 0.0 0.024937501 0.0 0.0 0.022942027
0.0 0.0 0.032655112 0.0 0.0924468 0.021115554 0.005544165 0.0
0.045251027 0.0 0.0 0.041087955 0.0050945035 0.0 0.0 0.0
0.0 0.106283404 0.0 0.13441199 0.0 0.0 0.0 0.047109347
0.0 0.12828045 0.06235811 0.0 0.20736341 0.047766868 0.0 0.0153704425
0.040239193 0.0 0.20157978 0.07165318 0.0 0.15840708 0.21801764 0.0
0.0 0.14136976 0.0 0.13958089 0.08198705 0.033284158 0.0 0.036078006
0.0 0.14140363 0.06739218 0.0 0.23808157 0.08552531 0.011594507 0.07383408

mlp2.bias f4 [24]
00000000: 9406 2dbd ac46 f0bc 019c 413d 8096 c9bc
00000010: 0c2d 483d 0667 073c fd74 e4bc 4f6e a73b
00000020: ad06 673d 1e02 bcb7 11fe 073d ec54 633d
00000030: 04a5 683c 8fad dfbb db21 353d 40b2 bb3c
00000040: d33e d0bc 3222 063d f44a 12bd bc1a 87bc
00000050: e799 efbc 65ad ed3b f5d8 913c 0368 6d3c
-0.0422426 -0.029330574 0.047267918 -0.024607897 0.048871085 0.008264309 -0.027887816 0.0051095854
0.05640285 -2.2412332e-05 0.03320128 0.05550091 0.014199499 -0.0068261097 0.04422174 0.022912145
-0.025420582 0.032747455 -0.035716012 -0.01649224 -0.029248191 0.0072533363 0.017803648 0.01449013

bn2.weight f4 [72]
00000000: f42d c93e 0000 003f 0346 d03e 0000 003f
00000010: fcb1 d23e 62fc c73e 22b9 cf3e 3d24 fd3e
00000020: 9cc4 cf3e 7d6b f93e 980c fd3e ab09 cb3e
00000030: 0000 003f f1f5 f63e ffd0 bd3e fb3a dc3e
00000040: c5a0 e63e 3110 d23e 7ef1 ff3e b386 f43e
00000050: 786f cb3e 0000 003f 0000 003f e481 c73e
00000060: 7dd2 cd3e 0000 003f 5a99 cd3e 0000 003f
00000070: c75b f53e 02c4 d73e 6870 d83e 09a9 fc3e
00000080: 6db4 cd3e f1ee f93e ee28 fd3e 5762 d03e
00000090: 0000 003f 33f0 f63e 8dc8 e73e e470 ee3e
000000a0: f7f8 ea3e 390d de3e 9ef0 ff3e efca f23e
000000b0: 3651 fc3e 0000 003f 0000 003f e4d7 dc3e
000000c0: 009c c93e fd53 ca3e 8495 c33e 89d1 ce3e
000000d0: c455 f43e 464c d33e 697a cb3e 0cf1 e93e
000000e0: b427 bd3e f613 df3e 795d e33e e54b b63e
000000f0: 9dfa f83e da88 da3e 5a4c e13e 4f29 ee3e
00000100: 43cf e73e 229b cc3e a344 c93e 951f ef3e
00000110: 98f4 ee3e 8b75 cd3e 457c d13e c693 da3e
0.39292872 0.5 0.40678415 0.5 0.41151416 0.3905974 0.40570933 0.4944171
0.4057969 0.4871482 0.4942367 0.39655814 0.5 0.48234513 0.37073514 0.4301375
0.45044532 0.41027978 0.4998893 0.47759017 0.3973348 0.5 0.5 0.38966286
0.40199652 0.5 0.4015606 0.5 0.47921583 0.4214173 0.4227326 0.49347714
0.40176716 0.4881511 0.4944529 0.40700027 0.5 0.48230132 0.45270196 0.46570504
0.4589307 0.43369463 0.49988264 0.4742045 0.4928071 0.5 0.5 0.4313346
0.3937683 0.39517203 0.3820001 0.40394238 0.47721684 0.4126913 0.3974183 0.45691717
0.36944354 0.43569916 0.4440725 0.35604778 0.48628703 0.42682534 0.44003564 0.4651589
0.45275316 0.39962107 0.39310178 0.46703783 0.46670985 0.4012874 0.40915123 0.42690867

bn2.bias f4 [72]
00000000: ec14 13bb f4e7 7b3c a701 323b 96c4 743c
00000010: bf9a 963b e0a7 1d3c 4237 d43b 169f 1d3c
00000020: 1136 923b 6e4b 8c3c 11e4 773c 3036 af3b
00000030: 7dfd aa3c 7380 273c 4b65 583b 24e8 2a3c
00000040: 9d54 bb3c 6c34 853c f9e7 973c a608 873c
00000050: 6391 d73b 6c64 bd3c 6428 893c dd76 0e3c
00000060: a7ed 303a a1fc 2a3c f7ca 253c f3ba 8e3c
00000070: 6f9c 023c bedd 993b c05b 2f3c 122e 633c
00000080: ce1a 3f39 e6e0 453c 9095 8b3c 282a 213c
00000090: a99c b13c fa68 cb3c c0b9 bc3b 2e23 313c
000000a0: 2dbe 083c 826d cd3b 82c4 743c b883 bf3b
000000b0: ab63 6f3c 9c8d 873c 82ad 003d 042a cf3b
000000c0: a978 333c bce1 9f3c 8d53 133c 809d 293c
000000d0: 2ff2 3e3c 82b6 993b ef52 813b 4556 d33b
000000e0: 17ab 4a3b 79bd a63c da1f 1e3c a15f f33b
000000f0: d3bd 163c b0da d63a dfc9 9a3c a6d3 003c
00000100: c2aa 2f3b e5c0 133c 0971 f73b e43e a83a
00000110: b0a3 ad3c 8bee 203c e361 d03b 532b 733b
-0.002244289 0.015375126 0.002716163 0.014939448 0.004596084 0.009622544 0.006476314 0.009620449
0.0044620116 0.017125811 0.015130059 0.005347036 0.020872826 0.010223496 0.003301936 0.010431323
0.022867495 0.016260348 0.01854323 0.016483616 0.0065786107 0.023119174 0.016742893 0.008695331
0.000674928 0.010436208 0.010119191 0.017423129 0.007971867 0.004695623 0.010703027 0.0138659645
0.00018225165 0.012077546 0.01703909 0.009836711 0.021681147 0.02483033 0.005759448 0.01081161
0.008346123 0.006269158 0.014939429 0.0058445595 0.014611165 0.016547017 0.03141547 0.0063221473
0.010954061 0.019516818 0.008992088 0.010352492 0.011654421 0.004690946 0.003946654 0.006449493
0.0030924731 0.02035402 0.009651149 0.0074271713 0.009200531 0.0016392078 0.018895088 0.007862961
0.002680466 0.009018158 0.0075513166 0.0012836126 0.021196216 0.009822498 0.0063593253 0.003710468

bn2.running_mean f4 [72]
00000000: 4b71 763e 26fc 9dbe 6d0d ab3d 259f 97be
00000010: 2cf9 223f cc42 ab3e b033 0dbe ea1f 8fbe
00000020: a4af 3d3d 99cc 97bd b112 63be de27 2a3c
00000030: 5e46 acbe db09 a0be f353 193f a8c9 d43e
00000040: aeed 5e3e fc36 fabd e6c5 c5be dde2 213e
00000050: 9af9 1c3f 5ae8 96be 73a3 9abe 64ac e63e
00000060: 1655 433e 888a 9fbe 9128 98bc fd70 99be
00000070: 2158 a63e 5eec 1e3e 890c 20be b020 8fbe
00000080: 55a9 343b a03f f1bd ee23 69be b6e5 92bc
00000090: 2271 acbe 03c4 a0be 4166 bb3e e5e0 563e
000000a0: 1654 f83d 1cf9 15be e6c5 c5be 887b d13d
000000b0: 96c6 963e cdce 98be b3af 9bbe 43fa ad3e
000000c0: d9a5 423e 1703 1bbf ee36 07be e156 13bf
000000d0: 528a a53e a481 023e 5fa8 8abe fbb0 b9be
000000e0: 2840 15bd 7046 93be 0060 cabe 02ce 5fbd
000000f0: 8b08 21bf c5d0 0dbf a240 bb3e ebd0 493e
00000100: d179 dc3d d9f3 8bbe 1c71 1dbf 0ae8 c33d
00000110: 4c32 943e e4e0 12bf a31a 11bf deeb ad3e
0.24066655 -0.30856436 0.0835217 -0.29613605 0.63661456 0.334494 -0.13789248 -0.27954036
0.046310082 -0.07412071 -0.22175099 0.010385482 -0.33647436 -0.3125752 0.5989372 0.41560102
0.21770355 -0.12217519 -0.38627547 0.15809198 0.6131836 -0.29474145 -0.30202827 0.450534
0.19075426 -0.31160378 -0.018574031 -0.29969016 0.32489112 0.15519854 -0.15629782 -0.27954626
0.002756675 -0.11779714 -0.22767612 -0.0179318 -0.33680063 -0.31399545 0.3660145 0.20984228
0.12125413 -0.14645809 -0.38627547 0.1022864 0.29448384 -0.29845276 -0.30407485 0.33979997
0.19008578 -0.6055159 -0.13204548 -0.5755444 0.32332093 0.12744766 -0.27081582 -0.36267838
-0.036438137 -0.28764677 -0.39526367 -0.054639824 -0.6290366 -0.5539668 0.36572748 0.19708602
0.10765422 -0.27334478 -0.61500716 0.09565742 0.28944623 -0.57374406 -0.5668127 0.33969015

bn2.running_var f4 [72]
00000000: c62e fd3d bdbd af3d f63e aa3e 23b7 bb3d
00000010: f7de a83e 7b7b b43e 8904 203e 64e3 693d
00000020: 7f2a 4b3e a500 683e 28b3 ea3d 72c7 303e
00000030: 3d74 763d f4c6 9c3d 6777 413e bcb0 ad3e
00000040: 1fdd 7a3e 8578 323e 1b38 ef3c 608d 3f3e
00000050: 8fb9 c73e 84a8 bd3d fa1c ab3d 27ef d23d
00000060: ba8f a53d eb16 a43d c9fa 2d3e ea66 ae3d
00000070: 231c 9c3d 20d1 0f3e f55c 003e bcd9 693d
00000080: 55ea 0f3e b65a 1d3e 36fa d53d 41f4 093e
00000090: 3ee6 733d 604c 973d b466 383d efc8 fc3d
000000a0: 24b5 0e3e 95db 083e 1b38 ef3c 90f0 033e
000000b0: 103b c33d 5dc1 af3d 0280 a33d 7a6a 243d
000000c0: 78d3 a73d 335e a53e 83a0 af3e fea8 a33e
000000d0: 159e a23d 40ef 403e 0cdb 813e 1beb e63d
000000e0: c1dc 453e 1673 c03e 0aea 873e 0632 3a3e
000000f0: 6960 8c3e a4e6 873e d4c6 3a3d 94a2 143e
00000100: bbf6 223e 062b 8f3e 91dd 183e c01d 0d3e
00000110: 0b48 d73d cd40 a43e aecf 963e e638 253d
0.12362437 0.085811116 0.3325116 0.0916579 0.3298261 0.35250458 0.1562673 0.057101622
0.1984043 0.22656496 0.114599526 0.17263582 0.060169447 0.07655135 0.18893205 0.339239
0.24498414 0.17428787 0.029201558 0.18706274 0.39008757 0.092606574 0.08355136 0.10299521
0.08084054 0.08012184 0.16990198 0.08515723 0.07622554 0.14044619 0.1253546 0.057092413
0.14054234 0.15366635 0.104481146 0.13472082 0.059545748 0.07387614 0.04501982 0.123430125
0.13936287 0.13365014 0.029201558 0.12884736 0.0953275 0.08581803 0.079834 0.040140606
0.08194631 0.3229843 0.34302148 0.31964868 0.07940308 0.18841267 0.25362432 0.112753116
0.19322492 0.37587804 0.26545745 0.18183145 0.27417305 0.26543152 0.045599774 0.14515144
0.15914433 0.27962512 0.14928271 0.1378088 0.10511788 0.3208069 0.29455322 0.040337466

mlp3.weight f4 [24, 72]
00000000: 0000 0000 0000 0000 0000 0000 0000 0000
00000010: 0000 0000 0000 0000 0000 0000 0000 0000
00000020: 0000 0000 0000 0000 0000 0000 0000 0000
00000030: 0000 0000 0000 0000 0000 0000 0000 0000
00000040: 0000 0000 0000 0000 0000 0000 0000 0000
00000050: 0000 0000 0000 0000 0000 0000 0000 0000
00000060: 398a ec3d ce2a 6e3d 5173 ab3d 9e3a 103e
00000070: 1a47 383e f9d4 113e 5410 bd3d 1f59 a33d
00000080: 2556 613e bdb5 293d 3d78 4c3e ed35 153e
00000090: 8d3f 1b3e a8e4 fb3d ae2e fc3d 2aea 393e
000000a0: 8bef 843d 5acd 243e 2b79 213e 7bc3 a23d
000000b0: 5f16 f83d bb53 b43d 5da7 383e b923 0f3e
000000c0: 0000 0000 0000 0000 0000 0000 0000 0000
000000d0: 0000 0000 0000 0000 0000 0000 0000 0000
000000e0: 0000 0000 0000 0000 0000 0000 0000 0000
000000f0: 0000 0000 0000 0000 0000 0000 0000 0000
00000100: 0000 0000 0000 0000 0000 0000 0000 0000
00000110: 0000 0000 0000 0000 0000 0000 0000 0000
00000120: 0000 0000 0000 0000 0000 0000 0000 0000
00000130: 0000 0000 0000 0000 0000 0000 0000 0000
00000140: 0000 0000 0000 0000 0000 0000 0000 0000
00000150: 0000 0000 0000 0000 0000 0000 0000 0000
00000160: 0000 0000 0000 0000 0000 0000 0000 0000
00000170: 0000 0000 0000 0000 0000 0000 0000 0000
00000180: 329d 883d c1bd f03d bb61 e63d d424 d73d
00000190: 8c17 0b3e 495e ad3c 5395 bd3c 927b 603d
000001a0: a694 963d 0cbf a53d 3ece 1a3e b0e5 293d
000001b0: 0cf4 b93d 13e7 813d 0911 0a3e 78d1 393d
000001c0: 3f96 c73d 39c8 e13d f0dd ed3d 9af7 383d
000001d0: e435 a83d 7b23 903d 8679 063e 6aed 813d
000001e0: 2c5a d13b c1be 133b 7156 433d cdfd 9e3b
000001f0: f8d0 b43c 7b93 933d 12ab 023c ddb8 023d
00000200: bc2e 053d 0000 0000 6318 903d 02e9 823d
00000210: cdc8 b13d 5d78 d43b 62ed 663d d88b c13b
00000220: 2cb4 af3b 135e 943d c4cc 023c 0000 0000
00000230: 9b88 683c 0000 0000 5c23 4f3d dfd0 673c
00000240: 9db1 a93e 38c2 9e3e db8f 913e 82bd 8a3e
00000250: 30c0 aa3e ba2d 6e3e d666 813e 6142 9e3e
00000260: 70b8 c03e 130d a73e 5685 d03e 1b11 be3e
00000270: 41b1 a93e 4bc7 b63e ccdd aa3e f16c 873e
00000280: 94de 9b3e 0bc4 a43e b147 c53e 06b8 a93e
00000290: f02a c13e 354b aa3e e03e 9a3e a212 8c3e
000002a0: aa81 983d d00e a53c 8295 f93d 189f cb3d
000002b0: e55f 783d 47f5 a73d a890 a43d af71 b63d
000002c0: cfac 363e a3f6 e13d 0eb9 313e bd8b 773d
000002d0: bc86 a43d fa35 113e 6da4 343e 6c9d f13d
000002e0: fe7e 043e 019e e33d 8f0d 283e 0000 0000
000002f0: b980 9f3d b0db 473d 6304 893d dc1e 183e
00000300: 0000 0000 0000 0000 0000 0000 0000 0000
00000310: 0000 0000 0000 0000 0000 0000 0000 0000
00000320: 0000 0000 0000 0000 0000 0000 0000 0000
00000330: 0000 0000 0000 0000 0000 0000 0000 0000
00000340: 0000 0000 0000 0000 0000 0000 0000 0000
00000350: 0000 0000 0000 0000 0000 0000 0000 0000
00000360: 0000 0000 0000 0000 0000 0000 0000 0000
00000370: 0000 0000 0000 0000 0000 0000 0000 0000
00000380: 0000 0000 0000 0000 0000 0000 0000 0000
00000390: 0000 0000 0000 0000 0000 0000 0000 0000
000003a0: 0000 0000 0000 0000 0000 0000 0000 0000
000003b0: 0000 0000 0000 0000 0000 0000 0000 0000
000003c0: 9bf4 0d3e 7138 2f3e 48bb 4d3e a351 093e
000003d0: 8d9a 1d3e 2ac1 ca3d 8b3d 283e 9696 4c3e
000003e0: b0ad 623e 157f 253e c539 533e 02cd 603e
000003f0: 599c 3b3e f741 2d3e 8091 613e a4f9 483e
0.0 0.0 0.0 0.0 0.0 0.0 0.0 0.0
0.0 0.0 0.0 0.0 0.0 0.0 0.0 0.0
0.0 0.0 0.0 0.0 0.0 0.0 0.0 0.0
0.115498014 0.05814629 0.08371604 0.1408486 0.17995873 0.14241399 0.0923163 0.07975983
0.22005518 0.041433085 0.19967742 0.14571352 0.15160961 0.12299472 0.12313591 0.18155733
0.06491002 0.1609396 0.15768878 0.07947441 0.12113642 0.08805033 0.18032594 0.13978471
0.0 0.0 0.0 0.0 0.0 0.0 0.0 0.0
0.0 0.0 0.0 0.0 0.0 0.0 0.0 0.0
0.0 0.0 0.0 0.0 0.0 0.0 0.0 0.0
0.0 0.0 0.0 0.0 0.0 0.0 0.0 0.0
0.0 0.0 0.0 0.0 0.0 0.0 0.0 0.0
0.0 0.0 0.0 0.0 0.0 0.0 0.0 0.0
0.066706076 0.11754943 0.11249109 0.10505071 0.13583201 0.021163123 0.023142492 0.054805346
0.07352571 0.0809308 0.15117738 0.041478813 0.09079751 0.06342902 0.13483061 0.04536578
0.09745454 0.110245176 0.11614597 0.045158006 0.08213404 0.07038017 0.13132295 0.06344111
0.006388923 0.0022544118 0.04768986 0.0048520328 0.0220723 0.07205864 0.007975357 0.03191458
0.032515272 0.0 0.070359014 0.06392099 0.08680878 0.006484075 0.05637873 0.0059065633
0.0053620543 0.07244506 0.00798339 0.0 0.0141927255 0.0 0.05057083 0.01414892
0.3314332 0.31007552 0.28430066 0.27097708 0.33349752 0.23259631 0.2527377 0.30910018
0.37640715 0.32627162 0.40726727 0.37122425 0.33143046 0.35698923 0.33372343 0.26450303
0.3044325 0.3218082 0.3853126 0.3314821 0.3772807 0.33260503 0.30126095 0.27357966
0.074466065 0.020148665 0.121867195 0.09942454 0.060638327 0.0820108 0.080354035 0.08908402
0.17839359 0.1103337 0.17355749 0.060436 0.08033511 0.14180747 0.17640848 0.11797604
0.12939069 0.11114121 0.16411422 0.0 0.07788224 0.048793495 0.0669029 0.14855522
0.0 0.0 0.0 0.0 0.0 0.0 0.0 0.0
0.0 0.0 0.0 0.0 0.0 0.0 0.0 0.0
0.0 0.0 0.0 0.0 0.0 0.0 0.0 0.0
0.0 0.0 0.0 0.0 0.0 0.0 0.0 0.0
0.0 0.0 0.0 0.0 0.0 0.0 0.0 0.0
0.0 0.0 0.0 0.0 0.0 0.0 0.0 0.0
0.13862841 0.17111374 0.20090973 0.13410048 0.15390988 0.09900124 0.16429727 0.19979319
0.22136569 0.16161759 0.20627506 0.21953204 0.1832136 0.16919695 0.2202816 0.1962648

mlp3.bias f4 [24]
00000000: b590 eb3d 1193 203e 19a7 1cbe 1bb3 25be
00000010: fe35 0b3e 8966 963e 6f29 7ebc c5da ae3b
00000020: bc16 44be 0433 bb3d 3203 463e d1be 62bd
00000030: 8059 a8bc 161b 71be 0fb8 033e 2e2e 8dbe
00000040: 87c3 023e 0d88 1d3c a225 a6be 17fa 8ebe
00000050: a868 44be 8661 5d3e fce9 773e 72f1 debd
0.1150221 0.15681101 -0.15298118 -0.16181605 0.13594815 0.29375103 -0.015512808 0.005336138
-0.19149297 0.0914059 0.19337156 -0.055357758 -0.02055049 -0.23545489 0.12863182 -0.27574295
0.127699 0.009614957 -0.32450587 -0.27925178 -0.19180548 0.21619233 0.24210352 -0.10885896

bn3.weight f4 [72]
00000000: 4934 ea3e 9f24 ea3e 0000 003f bb0e ed3e
00000010: 84ab ee3e 5dc4 e83e 7869 ed3e cc3e e73e
00000020: 85b0 ff3e 63e0 de3e 04c7 f13e 0000 003f
00000030: e277 f73e 0c84 ea3e 0000 003f 164b fa3e
00000040: a4c6 ec3e 5bc1 fa3e 0000 003f 6e09 ee3e
00000050: a8f7 fc3e 23da e13e 0000 003f 76ff fa3e
00000060: 7898 d13e 759b dd3e cc4c f13e aaf2 db3e
00000070: 3e3d ef3e 47c7 d73e dbcc cd3e 3352 dc3e
00000080: a9b7 fe3e a4c3 d53e 3cbe fd3e 3482 f23e
00000090: 5032 ea3e ac95 de3e 701f fa3e d1f2 f43e
000000a0: 2042 e03e 2e6a f53e 39f3 fb3e 862e cb3e
000000b0: d8bb f53e f782 ce3e 1fb2 fb3e fb0c f03e
000000c0: 4098 d73e 3d9d cc3e a8fa dd3e 5aa0 d23e
000000d0: 01fe dc3e ad4f d23e a3c3 ce3e 8078 cd3e
000000e0: cb83 e03e c8f1 ca3e fb6f d23e 7ad0 cf3e
000000f0: 06b0 dc3e d8f3 db3e d1f3 e83e 1eb6 db3e
00000100: a3be d23e 560e d83e c937 d33e 7c2f c83e
00000110: df12 d83e 3c80 d03e e041 d93e ee27 d13e
0.45743015 0.45731065 0.5 0.463003 0.4661523 0.45462313 0.4636953 0.45165098
0.4993936 0.43530568 0.4722215 0.5 0.4833365 0.4580387 0.5 0.4888541
0.462453 0.48975644 0.5 0.4649157 0.49407697 0.44111738 0.5 0.49023026
0.40936637 0.43282667 0.47128904 0.42958575 0.46726412 0.42144224 0.40195355 0.43031463
0.49749497 0.41750824 0.495592 0.47364962 0.4574151 0.43473566 0.4885211 0.47841504
0.4380045 0.4793257 0.49209002 0.39683932 0.47994876 0.40334293 0.49159333 0.46884903
0.42108345 0.39963713 0.43355298 0.41137964 0.4316254 0.41076413 0.40383634 0.40130997
0.4385055 0.3963759 0.4110106 0.40588742 0.43103045 0.42959476 0.45498517 0.42912382
0.4116107 0.42198437 0.41253498 0.39098728 0.42201898 0.40722835 0.4243307 0.40850776

bn3.bias f4 [72]
00000000: 13ef 14be 49b9 f6bd b030 12be 5f92 e9bd
00000010: 0670 14be 71f0 d4bd 7847 f4bd 75e8 d5bd
00000020: 2f48 07be 7b6a d6bd 74fb efbd 4f61 23be
00000030: c6ab f5bd 212d 00be b5a0 13be 8e71 09be
00000040: 85fd 02be fd6d e7bd ffcd 12be 35e5 10be
00000050: 9262 19be f374 fdbd d610 f3bd 5c4c d8bd
00000060: 0c81 f0bc bc4e 8bbc 442e 91bd 6762 bdbd
00000070: 003c 67bd e788 32bd f254 8fbd 8e9e 83bd
00000080: 0c16 6bbd d856 75bd 1a93 7abd b512 8dbd
00000090: 5ca3 f6bc ba61 72bd 6e65 a7bd 92c1 31bd
000000a0: 4dbc b5bd a4e2 24bd dc4e 94bd b675 81bd
000000b0: b518 90bd f073 87bd 75ab 47bd 09fe 7bbd
000000c0: 33cd 1e3e 6d40 af3d cfc1 0c3e e030 0d3e
000000d0: 3f1b 123e 99d1 1e3e 3a09 d23d 5280 8f3d
000000e0: 461e ff3d 3981 cd3d 2ffa cf3d 363f c73d
000000f0: 795e 163e 11fe 0d3e b1eb 013e 625b 843d
00000100: caa3 e93d a162 bd3d c7c6 b13d e664 ed3d
00000110: 7fdb d13d c7d9 be3d 8aad c73d 2375 de3d
-0.14544325 -0.12047059 -0.14276385 -0.11404871 -0.14495859 -0.10397423 -0.11927694 -0.10444728
-0.1321113 -0.10469528 -0.11717883 -0.15955089 -0.11995654 -0.12517215 -0.14416774 -0.13422224
-0.12792023 -0.113002755 -0.14336394 -0.14149936 -0.14979008 -0.12375822 -0.118684456 -0.105614394
-0.02935841 -0.017005317 -0.070889026 -0.092472844 -0.056453705 -0.04358759 -0.06998624 -0.06426726
-0.057394072 -0.059897274 -0.061175443 -0.06888334 -0.030107193 -0.05917523 -0.08173643 -0.043397494
-0.08873806 -0.040255204 -0.07241604 -0.0632128 -0.070359625 -0.0661391 -0.0487475 -0.061521564
0.15507965 0.0855721 0.13745807 0.13788176 0.14268206 0.15509643 0.10255666 0.07006897
0.12456946 0.10034413 0.101551406 0.097288534 0.14684476 0.1386645 0.12687565 0.064627424
0.114081934 0.092473276 0.08680492 0.115915105 0.10246944 0.093188815 0.09749897 0.10862186

bn3.running_mean f4 [72]
00000000: e789 a73e ee12 b23e 7535 b83e d1a6 a83e
00000010: 6d16 b33e bb4d ae3e 8327 a43e 4d52 ab3e
00000020: 9d98 b93e 1b68 a93e 6c2b b63e a62f b93e
00000030: e3b9 ae3e 9358 b13e 57eb ba3e 78b3 b43e
00000040: dda0 ac3e fa9a b13e fa61 ae3e b356 b03e
00000050: df0d ad3e 951c aa3e 7f8d b23e 5c09 b13e
00000060: a8ef d9bc ec00 c6bc 57ee bfbc 3e99 d0bc
00000070: ab48 a8bc b37b c7bc 676a d9bc e9de c3bc
00000080: 2616 b7bc 3333 d7bc 9104 b1bc 4063 babc
00000090: 1b15 c0bc 66c5 c3bc 4191 ccbc 079c c1bc
000000a0: 3861 c9bc b717 bfbc 2393 cebc 7610 d4bc
000000b0: 8627 d8bc a550 bdbc 0d25 c7bc 2d7d c9bc
000000c0: f596 afbe e5d8 b1be b07b 91be 5101 a7be
000000d0: 0746 8bbe 04c3 9bbe b009 a6be f8dc 9bbe
000000e0: 4216 8fbe 1d29 9dbe 2275 95be e58a 8dbe
000000f0: dcad 99be 4ae7 a6be 3af3 95be ef47 9bbe
00000100: 77ca abbe 2b0e 93be 5e02 b2be 4e13 abbe
00000110: c922 aebe c3c5 97be 2e4d 9bbe 0d9f 9bbe
0.327224 0.34780067 0.35978284 0.3293977 0.34978047 0.3404368 0.32061395 0.33461228
0.36249247 0.3308724 0.35580003 0.36169165 0.34126195 0.3463789 0.36507675 0.35293174
0.3371648 0.3468855 0.34059125 0.34441146 0.33799645 0.3322493 0.34873578 0.34577453
-0.026603535 -0.024170361 -0.023429079 -0.025463697 -0.020542463 -0.024350977 -0.026539994 -0.023910003
-0.022349428 -0.02626953 -0.021608623 -0.022752404 -0.023447564 -0.023897838 -0.024971606 -0.02363397
-0.02458249 -0.023326738 -0.025216645 -0.025886755 -0.026386034 -0.023109743 -0.02430966 -0.024595821
-0.3429486 -0.3473579 -0.2841468 -0.32618192 -0.27201864 -0.30422223 -0.32429266 -0.30442023
-0.2794667 -0.3069543 -0.29190928 -0.2764503 -0.30015457 -0.32598335 -0.2928713 -0.30328318
-0.33552906 -0.28721747 -0.3476743 -0.33413166 -0.34010914 -0.29643068 -0.3033232 -0.30394784

bn3.running_var f4 [72]
00000000: e9d2 8a3f a1fd 913f f917 983f 92e7 8a3f
00000010: 7e0e 913f 9c13 8f3f a782 873f 6bd0 8b3f
00000020: c37f 983f d270 8c3f e086 943f ee5e 983f
00000030: c7cc 8e3f 8912 923f 9de9 9b3f b65d 953f
00000040: db10 8e3f 9fa7 913f 420d 903f d887 923f
00000050: 805e 8f3f 153a 8a3f 66f4 923f bb33 923f
00000060: dbab 533e 09d6 543e ea84 543e f3d3 533e
00000070: 4219 543e 638a 533e 5067 533e ae94 533e
00000080: cf02 553e 1a60 533e 5ed0 543e 6778 543e
00000090: 230b 543e 0632 543e 2315 553e af07 543e
000000a0: 0eaa 533e 6e56 543e 17db 543e f302 543e
000000b0: 0b7a 543e d95c 533e 077f 543e b02e 543e
000000c0: a8b1 3c3f d7c8 423f 0778 1b3f d42d 333f
000000d0: bbd1 173f 7827 273f 60ca 303f f22f 273f
000000e0: ea46 193f 6158 263f cfb3 213f cf2f 173f
000000f0: dbf9 243f bbd8 343f 2a6d 1e3f bfca 263f
00000100: 3a05 3b3f b415 1d3f 8207 413f 0bac 373f
00000110: 9fde 3a3f 2e71 233f 66a6 253f 5751 263f
1.0845615 1.1405526 1.1882316 1.085192 1.1332548 1.1177859 1.0586747 1.0922979
1.191399 1.097193 1.160366 1.190397 1.1156243 1.1411906 1.2180668 1.1669223
1.1098894 1.1379279 1.1254046 1.1447706 1.1200714 1.0798975 1.1480834 1.1422037
0.20671026 0.20784773 0.20753828 0.20686321 0.2071276 0.20658259 0.2064488 0.20662186
0.20801853 0.20642129 0.20782611 0.20749055 0.20707373 0.20722207 0.20808844 0.20706056
0.2067034 0.20736095 0.20786701 0.2070425 0.2074968 0.20640887 0.20751582 0.20720935
0.7370858 0.7608771 0.6073002 0.69991803 0.593044 0.652946 0.690588 0.65307534
0.5987383 0.64978606 0.6316499 0.59057325 0.6444375 0.70643204 0.6188532 0.65153116
0.7305485 0.6136124 0.7540208 0.7174689 0.7299594 0.63844573 0.6470703 0.64967865

mlp4.weight f4 [1, 72]
00000000: 5e36 c83b 0000 0000 0000 0000 72d5 263d
00000010: 4029 513d 5c6d 1f3d 0000 0000 0000 0000
00000020: 0000 0000 e685 b43c 3bb8 0f3d a6e8 3d3d
00000030: 0000 0000 0000 0000 7235 6e3d 0000 0000
00000040: 0000 0000 20ca cc3c 0000 0000 0000 0000
00000050: 0000 0000 f80e 043d 6379 2d3d 0000 0000
00000060: 0000 0000 0000 0000 1305 613e 0000 0000
00000070: 0000 0000 5100 8a3e 378d c73d c9c2 1c3e
00000080: eaa4 a43e 0e09 a53c 5606 823e 0000 0000
00000090: 0000 0000 028e 6d3d 0000 0000 0000 0000
000000a0: 0000 0000 0000 0000 fd7a 943e ecef 6b3d
000000b0: db6d 9c3e 0000 0000 0000 0000 00fb 123e
000000c0: 3a1e e93c 0000 0000 c553 a43d f0f2 d23d
000000d0: d8ce 9a3d 0000 0000 0000 0000 0000 0000
000000e0: 0000 0000 6446 a73c 0000 0000 2d9f 2b3d
000000f0: e02f 7d3d e5b1 3d3c 15fe 6e3c 0000 0000
00000100: 4016 a73c a3cd 083e 1cdd 263e eb75 bd3d
00000110: 023e f23d e7dd 343d d660 3d3d 1eb7 003c
0.0061099967 0.0 0.0 0.0407309 0.05106473 0.038922653 0.0 0.0
0.0 0.022036504 0.035087805 0.04636445 0.0 0.0 0.05815644 0.0
0.0 0.024998724 0.0 0.0 0.0 0.032240838 0.04235209 0.0
0.0 0.0 0.21974592 0.0 0.0 0.26953366 0.097437315 0.1530868
0.3215707 0.02014592 0.2539546 0.0 0.0 0.057996757 0.0 0.0
0.0 0.0 0.29000083 0.057601854 0.30552563 0.0 0.0 0.14353561
0.028456796 0.0 0.0802379 0.10300243 0.075589836 0.0 0.0 0.0
0.0 0.020419307 0.0 0.04189985 0.061813235 0.011578058 0.014586945 0.0
0.020396352 0.13359694 0.16295284 0.09251007 0.11828233 0.044156935 0.046234928 0.007856159
