utility-model-selected/dim-3/utility-22.pt (torch, 23458 bytes, 17 tensors)

bn1.running_mean f4 [3]
000000 e2 82 00 3f df 04 00 3f 3b 6e ff 3e
       0.5019971 0.5000743 0.49888787

bn1.running_var f4 [3]
000000 1e 52 67 3d 28 14 5c 3d cf ad 58 3d
       0.056474797 0.05373016 0.05290013

mlp1.weight f4 [24, 3]
000000 00 00 00 00 5d 3a ea 3e e7 5b d9 3e 55 34 be 3e
       0.0 0.45747653 0.42452928 0.371493
000010 67 b7 c4 3e d6 ce be 3e 00 00 00 00 bb 12 e8 3e
       0.38421175 0.37267178 0.0 0.4532679
000020 00 00 00 3f e9 49 8d 3e 9e b0 b2 3d fc 05 c3 3e
       0.5 0.2759545 0.08725093 0.38090503
000030 9d fd c9 3e 36 c2 f6 3e 00 00 00 00 00 00 00 3f
       0.39451304 0.48195046 0.0 0.5
000040 57 25 68 3e fd 32 74 3e 00 00 00 00 67 3f cc 3e
       0.22670494 0.23847575 0.0 0.39892122
000050 00 00 00 3f f0 74 a5 3e 2c 50 b3 3d f4 8c a5 3e
       0.5 0.3231578 0.08755526 0.323341
000060 dd ab 0d 3e 0e 78 c0 3e 00 00 00 00 00 00 00 00
       0.13835092 0.37591594 0.0 0.0
000070 00 00 00 00 3f b5 60 3e 6a b8 54 3e 00 00 00 3f
       0.0 0.2194414 0.20773473 0.5
000080 f6 27 ce 3e a1 6e 49 3e 00 00 00 3f 06 2d 99 3d
       0.40264863 0.19671108 0.5 0.07479291
000090 00 00 00 3f ef a7 fe 3e 00 00 00 00 95 df 89 3e
       0.5 0.49737498 0.0 0.26928392
0000a0 70 9f 3d 3d 7d 95 d8 3e b8 3c e9 3d c9 31 aa 3e
       0.04629463 0.4230155 0.11388534 0.33241108
0000b0 1c 7b 86 3d 4c 88 83 3d a8 9c 9e 3e 00 00 00 3f
       0.0656645 0.06422481 0.30978894 0.5
0000c0 31 e8 e7 38 95 31 1c 3e 38 33 22 3e 84 29 a2 3e
       0.000110581874 0.15253289 0.15839851 0.316723
0000d0 7c 38 96 3e 83 62 fd 3e 0b c9 b9 3e 00 00 00 3f
       0.2933997 0.4948922 0.36286196 0.5
0000e0 4a a0 2a 3e f2 06 56 3e 45 d0 e3 3e e8 93 f6 3e
       0.16662708 0.20901087 0.44494835 0.4815972
0000f0 c6 da 18 3e 00 00 00 00 91 88 7e 3e a4 24 f5 3e
       0.14927205 0.0 0.24856783 0.47879517
000100 84 9e fe 3e 26 04 f7 3e 73 73 f7 3e 00 00 00 3f
       0.49730313 0.48245353 0.48330268 0.5
000110 40 0e 5a 3e 92 41 7a 3e 33 af 2d 3e 98 58 f8 3e
       0.21294498 0.24439076 0.16961364 0.48505092

mlp1.bias f4 [24]
000000 30 df 5d 3e 31 ed f3 be ac 51 07 3f 5e 29 c5 be
       0.2166717 -0.476419 0.52858996 -0.38508123
000010 47 37 67 3d e0 b0 8e 3e ac 20 0e 3f 3f 52 a1 bd
       0.0564492 0.2786932 0.55518603 -0.07877015
000020 b7 ad 5e be c1 24 25 bf ab ab c8 be 92 87 cb bd
       -0.21745954 -0.64509207 -0.39193472 -0.09937967
000030 91 71 77 3e 48 a8 2d be b0 ac 7d 3e c8 ba 4b 3f
       0.24164416 -0.16958725 0.24772906 0.7958188
000040 15 0b 3d 3d 5f 32 00 3e 91 61 b5 bd 68 d0 e0 bc
       0.046153147 0.12519215 -0.088565 -0.027443126
000050 dc 15 a0 be cf a0 ec be 46 03 08 3e 4d ae cf be
       -0.31266677 -0.46216437 0.13282499 -0.40562668

mlp2.weight f4 [24, 72]
000000 3d f8 c2 3d 87 ed 80 3e 78 4c 9c 3d fa 01 02 3c
       0.09520004 0.2518122 0.07631773 0.007935042
000010 1c 9a 43 3d 63 32 8d 3d a1 b9 bd 3d ed 21 72 3e
       0.047754392 0.06894376 0.092639215 0.23645754
000020 e7 5c 9e 3d 4a ea 3b 3e 61 1f a0 3e ab c6 3a 3e
       0.077325635 0.18351093 0.3127394 0.18239848
000030 87 65 c8 3c b4 af 37 3e c7 fa 03 3d 73 a7 c6 3d
       0.024462475 0.17938119 0.03222158 0.09699907
000040 9c 9e ae 3d 87 c8 98 3e a2 af 8a 3e 33 4d 8d 3e
       0.08526346 0.2984049 0.27087122 0.2759796
000050 c5 cd 59 3d cc 1d 7d 3e cc 1a fa 3d 8d b1 4a 3e
       0.053174753 0.24718398 0.12212142 0.19794293
000060 33 fc 8d 3d ba f9 ad 3e 00 00 00 00 98 55 07 3c
       0.06932869 0.3397959 0.0 0.008260153
000070 75 b8 d1 3c 5f 9c 97 3c 00 00 00 00 f0 82 4b 3e
       0.025600651 0.01850718 0.0 0.19874167
000080 40 5d 7b 3c 70 82 68 3e ea 1b a6 3e 74 44 66 3e
       0.015342057 0.22706008 0.32443172 0.2248705
000090 cf d4 15 3c 3c b4 0c 3e 43 57 45 3d bf 45 49 3c
       0.009144976 0.13740629 0.048178922 0.012284695
0000a0 20 f3 91 3d fd 92 85 3e 0e b6 8d 3e 8c c4 35 3e
       0.071264505 0.26088706 0.2767796 0.17750758
0000b0 d4 1d f1 3d 75 4d be 3e b3 60 5b 3c 96 08 80 3e
       0.117732674 0.3716847 0.013389754 0.2500655
0000c0 6d e7 1b 3d 97 81 94 3d 00 00 00 00 fa ed 16 3e
       0.0380625 0.0725128 0.0 0.14739218
0000d0 e1 0b 6c 3c 54 be 20 3c 00 00 00 00 cb 07 b9 3d
       0.014407129 0.009811003 0.0 0.090346895
0000e0 00 00 00 00 54 0a f1 3d f3 64 9d 3d 53 84 f3 3b
       0.0 0.11769548 0.0768527 0.0074315458
0000f0 3f f5 dd 3b 13 a9 e0 3d f9 30 af 3d 78 c4 67 3c
       0.0067736204 0.10969748 0.08554263 0.014145963
000100 dd 55 b6 3d aa 7f dd 3d c8 4e 1f 3d ef 77 9e 3d
       0.08903096 0.108153656 0.03889349 0.07737719
000110 57 99 d1 3d d2 14 14 3e 2e a2 37 3c 67 bb 27 3e
       0.102343254 0.14461067 0.0112081 0.16380082
000120 6f 74 d1 3b 6f 20 d6 3b 00 00 00 00 00 00 00 00
       0.006392054 0.006534628 0.0 0.0
000130 6f 95 cd 3c 00 00 00 00 00 00 00 00 00 00 00 00
       0.02509567 0.0 0.0 0.0
000140 e4 37 09 3e 3d 25 52 3e 00 00 00 00 96 ff 93 3d
       0.13400227 0.20522018 0.0 0.072264835
000150 db aa cc 3c 11 82 01 3d 00 00 00 00 00 00 00 00
       0.024983814 0.03161818 0.0 0.0
000160 00 00 00 00 00 00 00 00 df c9 6b 3b 17 c8 8f 3a
       0.0 0.0 0.003597848 0.0010969666
000170 ea 4a 0d 3d 73 bb b7 3d 00 00 00 00 3a 47 e3 3c
       0.03449527 0.089713 0.0 0.027743924
000180 83 b1 98 3d ac 7b de 3d c0 26 07 3e 00 00 00 00
       0.07455733 0.10863432 0.13198376 0.0
000190 da 38 14 3e 00 00 00 00 4c cf 9c 3d 00 00 00 00
       0.14474812 0.0 0.07656726 0.0
0001a0 2e fe 92 3d 80 e2 8c 3e 00 00 00 00 1d 2f 16 3e
       0.07177387 0.27516556 0.0 0.1466641
0001b0 e6 ea f3 3d 4b d7 f0 3d 6d d3 a9 3b eb e6 0b 3e
       0.11910038 0.11759814 0.0051826746 0.13662307
0001c0 00 00 00 00 00 00 00 00 73 fc a9 3c db 6e b4 3c
       0.0 0.0 0.02075026 0.022025516
0001d0 28 30 10 3d c1 68 54 3e 00 00 00 00 00 00 00 00
       0.035202175 0.20743085 0.0 0.0
0001e0 00 00 00 00 00 00 00 00 24 e5 98 3d 00 00 00 00
       0.0 0.0 0.0746558 0.0
0001f0 41 89 ae 3b 00 00 00 00 7d c1 87 3d 00 00 00 00
       0.0053264205 0.0 0.06628702 0.0
000200 46 10 03 3a 00 00 00 00 00 00 00 00 00 00 00 00
       0.00049996783 0.0 0.0 0.0
000210 54 5b b8 3b 00 00 00 00 e7 d9 b2 3b 04 a0 22 3e
       0.0056261215 0.0 0.005458105 0.15881354
000220 00 00 00 00 00 00 00 00 00 00 00 00 00 00 00 00
       0.0 0.0 0.0 0.0
000230 00 00 00 00 00 00 00 00 00 00 00 00 00 00 00 00
       0.0 0.0 0.0 0.0
000240 00 00 00 00 d2 25 20 3c 00 00 00 00 00 00 00 00
       0.0 0.009774642 0.0 0.0
000250 70 61 24 3d 00 00 00 00 00 00 00 00 00 00 00 00
       0.040131986 0.0 0.0 0.0
000260 8a 4d 17 3e fc f2 53 3e 00 00 00 00 0d a5 dc 3d
       0.14775673 0.2069816 0.0 0.107736684
000270 dc 69 f2 3c f6 90 a3 3d 00 00 00 00 00 00 00 00
       0.029591493 0.079866335 0.0 0.0
000280 00 00 00 00 00 00 00 00 4c 49 b4 3b 00 00 00 00
       0.0 0.0 0.0055019017 0.0
000290 a6 4e 89 3d 3f f3 8f 3d 00 00 00 00 4d 61 bf 3b
       0.06704454 0.070288174 0.0 0.0058404566
0002a0 44 d5 e1 3d 32 fa d2 3c 88 f9 1a 3e 00 00 00 00
       0.11027005 0.025754068 0.15134251 0.0
0002b0 52 11 fe 3d 00 00 00 00 4e 4d 06 3e 21 15 4b 3c
       0.12405647 0.0 0.13115427 0.012395174
0002c0 ef 2c c6 3d c9 83 50 3e 00 00 00 00 43 97 aa 3d
       0.09676539 0.20362772 0.0 0.08329632
0002d0 40 c1 01 3e 23 b2 af 3d b5 06 e3 3c 33 ec f1 3d
       0.12671375 0.08578899 0.02771316 0.118126296
0002e0 00 00 00 00 00 00 00 00 8e f9 75 3d 00 00 00 00
       0.0 0.0 0.060052447 0.0
0002f0 cf 58 2b 3d c6 bc 23 3e 2f 03 0c 3d 9b 26 0e 3c
       0.04183274 0.1598998 0.034182724 0.008676196
000300 a2 cb b7 3c 00 00 00 00 c2 15 a0 3d 00 00 00 00
       0.022435967 0.0 0.0781665 0.0
000310 00 00 00 00 00 00 00 00 a1 60 93 3d 00 00 00 00
       0.0 0.0 0.07196165 0.0
000320 00 00 00 00 00 00 00 00 00 00 00 00 00 00 00 00
       0.0 0.0 0.0 0.0
000330 00 00 00 00 00 00 00 00 00 00 00 00 80 51 25 3e
       0.0 0.0 0.0 0.16144371
000340 00 00 00 00 00 00 00 00 00 00 00 00 00 00 00 00
       0.0 0.0 0.0 0.0
000350 00 00 00 00 00 00 00 00 00 00 00 00 00 00 00 00
       0.0 0.0 0.0 0.0
000360 00 00 00 00 9b 22 25 3d 00 00 00 00 00 00 00 00
       0.0 0.040316205 0.0 0.0
000370 74 a6 5d 3d 00 00 00 00 00 00 00 00 00 00 00 00
       0.05411382 0.0 0.0 0.0
000380 8e 45 09 3e 9a ad 4e 3e 00 00 00 00 46 f3 89 3d
       0.1340544 0.20183411 0.0 0.06735854
000390 02 ad ad 3d aa ff 01 3d 00 00 00 00 00 00 00 00
       0.08480264 0.03173796 0.0 0.0
0003a0 00 00 00 00 00 00 00 00 04 e7 0c 3b 00 00 00 00
       0.0 0.0 0.00215 0.0
0003b0 a1 5d 1f 3d bd 91 cd 3c 00 00 00 00 a7 79 02 3d
       0.03890765 0.025093907 0.0 0.031854298
0003c0 47 6e a7 3d 40 c0 44 3d 03 ac 19 3e 00 00 00 00
       0.081753306 0.048034906 0.15007024 0.0
0003d0 c3 2e 04 3e dd 72 5c 3c 29 c3 f0 3d 00 00 00 00
       0.12908463 0.01345512 0.11755974 0.0
0003e0 39 64 be 3d c4 cc 91 3e 00 00 00 00 3e c2 01 3e
       0.0929646 0.28476536 0.0 0.12671754
0003f0 cd 1e aa 3d c8 00 fb 3d b5 f8 10 39 6d c9 e2 3d
       0.08306656 0.122560084 0.00013825561 0.11073575

mlp2.bias f4 [24]
000000 8f 24 81 be 16 37 98 3d fe 10 3f 3d 2f b8 38 3d
       -0.25223204 0.07432382 0.046647064 0.045097526
000010 4b 0d 10 3d ea 23 41 3d 49 52 39 bc e5 6e e5 3b
       0.035168927 0.04715339 -0.011311122 0.007001745
000020 5e 25 2a 3c 79 3a 21 3d 3f 9b 7e 3c be 8b 54 3d
       0.010384886 0.039362404 0.015539943 0.05189108
000030 95 f6 91 bc 9f 3e 8d 3d 27 ef 5f 3d 79 59 9c 3d
       -0.017817775 0.0689671 0.054671433 0.07634253
000040 9e 67 18 3d 96 87 e7 bc fc 63 49 3d 44 7d cb 3c
       0.037208192 -0.028262895 0.04916762 0.024840005
000050 71 05 58 3c b1 70 6c 3d bf 2f 53 3d f7 e5 5e bc
       0.013184891 0.05772466 0.051559206 -0.013604633

bn2.weight f4 [72]
000000 0b b2 d5 3e f9 f6 e1 3e dc 45 d6 3e e5 42 bf 3e
       0.41737399 0.44133738 0.41850173 0.37355724
000010 07 43 ec 3e d8 e0 c6 3e 87 38 d2 3e a2 f1 cb 3e
       0.46144888 0.38843417 0.41058752 0.3983279
000020 00 00 00 3f 45 ed ff 3e 92 31 dc 3e 00 00 00 3f
       0.5 0.4998571 0.4300657 0.5
000030 7d cc e9 3e 49 0c f3 3e 6e f7 ca 3e d0 b4 cb 3e
       0.45663825 0.4747031 0.396419 0.39786386
000040 5f d5 d1 3e f9 9a cd 3e 84 f6 d9 3e 71 0f d6 3e
       0.40983102 0.40157297 0.4257089 0.41808656
000050 f6 ad ea 3e 5a dd ed 3e d1 51 c7 3e ed f6 d2 3e
       0.45835847 0.4645794 0.38929608 0.41204014
000060 86 e7 e2 3e 5b 8e f8 3e 07 6c fb 3e b1 78 bb 3e
       0.44317263 0.4854611 0.49105856 0.36615518
000070 00 00 00 3f e1 c0 d1 3e a3 3f fc 3e c9 92 d4 3e
       0.5 0.40967467 0.492673 0.41518238
000080 00 00 00 3f 96 ec ff 3e a8 2f e8 3e 00 00 00 3f
       0.5 0.49985188 0.4534886 0.5
000090 00 00 00 3f f3 27 ff 3e f5 23 d3 3e 00 00 00 3f
       0.5 0.49835166 0.4123837 0.5
0000a0 8c 94 d1 3e 99 2c cd 3e b4 49 f0 3e 7a 04 d3 3e
       0.40933645 0.40073088 0.4693123 0.41214353
0000b0 9c 0a f4 3e 00 00 00 3f 60 3c da 3e be ef e3 3e
       0.47664344 0.5 0.42624187 0.44518846
0000c0 87 65 d9 3e 3c 26 cb 3e 03 da fa 3e 8b aa bf 3e
       0.42460272 0.39677608 0.48994455 0.374348
0000d0 66 b8 d1 3e e5 e5 c7 3e c3 aa fc 3e 94 90 c1 3e
       0.40960997 0.39042583 0.4934903 0.37805617
0000e0 66 90 ca 3e 24 fb cc 3e 5d 7e c2 3e e8 2f c5 3e
       0.39563292 0.40035355 0.37987033 0.38513112
0000f0 65 9a d5 3e 3c 81 bf 3e 02 4b d2 3e 00 00 00 3f
       0.41719356 0.37403286 0.4107285 0.5
000100 6e 85 d5 3e 77 bc c5 3e 3f 6e c7 3e 6a fe c7 3e
       0.4170336 0.3862035 0.389513 0.3906129
000110 94 f4 c2 3e 01 62 c7 3e a9 b8 ca 3e d6 1d cb 3e
       0.38077223 0.3894196 0.3959401 0.396712

bn2.bias f4 [72]
000000 7c ff 38 3b 2d 88 e7 bc 65 9c b4 bb 41 9c 30 3a
       0.0028228452 -0.028263176 -0.0055118077 0.0006737151
000010 94 67 04 bd 6b fe 09 3b f0 b3 da bb f2 82 ce bc
       -0.032325342 0.0021056186 -0.0066742823 -0.025208924
000020 68 aa 28 bd e5 97 d5 bc 80 7f 86 bc 82 67 bb bc
       -0.041178137 -0.026073406 -0.016418219 -0.022876505
000030 7d f5 bf bc d9 c7 d4 bc de 7d f0 b9 a5 b7 dc 3b
       -0.023432488 -0.025974201 -0.00045870146 0.0067357593
000040 a9 ff 2a bc f7 d3 c8 bc 78 08 eb bc d5 46 d9 bb
       -0.010436931 -0.024515135 -0.028690562 -0.0066307583
000050 4d 42 3b bc 5e e9 81 bc 38 b1 6d bb 7f 0e aa bc
       -0.011429382 -0.015858348 -0.003626896 -0.020758865
000060 f0 ac 8b bc 6a 87 ac bc f3 9c b0 bc 4d 3b 50 bc
       -0.017050236 -0.021060664 -0.021559214 -0.012709451
000070 57 85 e7 bc e5 5c 9e bb 70 a8 5e bc d8 c4 92 bb
       -0.028261824 -0.0048328512 -0.013589963 -0.004479032
000080 0d 02 30 bd 70 bd de bc 61 7e 90 bc b2 f0 eb bc
       -0.042970706 -0.02718994 -0.017638387 -0.028801296
000090 51 fc be bc 8b d2 23 bc 7a 5c 71 ba 6b fa 31 bc
       -0.023313673 -0.009998928 -0.00092072005 -0.010862927
0000a0 20 14 1b bc 17 b2 31 bc 45 0a f8 bc 1d e6 42 bc
       -0.009465247 -0.010845683 -0.030278334 -0.011895684
0000b0 4a 93 97 bb 72 e9 9c bc f0 42 8c bc a9 ee 8b bc
       -0.0046257125 -0.019154284 -0.017121762 -0.017081575
0000c0 f4 2b ca bc 0f cc 2f 3c fa 3f fe bc 1c 8d 31 bc
       -0.024679162 0.010729804 -0.031036366 -0.010836866
0000d0 06 cf 00 3c 36 13 75 bc 7f 3c 9f bc 8e a1 e6 bb
       0.007861858 -0.0149581935 -0.019438026 -0.007038302
0000e0 a3 cf 76 bc 4e b1 14 3c 35 ad bb bb be d4 76 bc
       -0.015064153 0.009075476 -0.005727435 -0.01506537
0000f0 ec 8c d9 bc cf 37 51 ba 53 be db bc 66 fe f3 bc
       -0.026556455 -0.00079810334 -0.026824152 -0.029784393
000100 7d 4e ff bb cc f2 e9 bb d2 14 26 3c c4 f2 f9 3b
       -0.007791339 -0.0071395393 0.0101368 0.007627817
000110 5b 65 1f 3c 7c d6 d6 bc 64 73 fe bb 14 a1 cd bc
       0.009728755 -0.026225321 -0.0077652205 -0.025101222

bn2.running_mean f4 [72]
000000 2a fe 7d 3e c6 ff 60 be f6 e8 0b 3f 40 12 79 be
       0.24803987 -0.2197257 0.54652345 -0.24323368
000010 0b e1 f6 3d 14 3b 9a 3e 5a 95 0f 3f c8 4f d5 bc
       0.12054642 0.30123198 0.5608727 -0.02603902
000020 3e 4d 1f be 7a 16 ee be ca a7 22 be f2 d2 c8 bc
       -0.1555681 -0.46501523 -0.15884319 -0.024514649
000030 1c 31 97 3e 93 5b be bd a6 62 7d 3e 09 06 48 3f
       0.29529655 -0.0929481 0.24744663 0.7813421
000040 f6 fb 44 3d 78 9e 40 3e 4d 27 7e 3c a6 cb a1 3d
       0.04809185 0.18810451 0.0155123 0.07900171
000050 0a eb 88 be 21 2a 0a be 4c 3a 60 3e 54 f5 5a be
       -0.2674182 -0.13492633 0.21897238 -0.21382648
000060 fd 3f e7 3d d7 56 72 be ba 38 80 3e f7 a6 7d be
       0.11291502 -0.2366594 0.2504328 -0.24770723
000070 ea 97 e7 3c f6 4e 15 3e be e0 88 3e fb ff 4f bd
       0.02827068 0.14580902 0.26733965 -0.05078123
000080 91 3e 21 be 7a 16 ee be 34 ec 3d be d7 a0 6c bd
       -0.15746523 -0.46501523 -0.18547136 -0.057770576
000090 4a cd e4 3d 8a e6 e7 bd ad 18 47 3e d4 e3 bc 3e
       0.11171968 -0.11323269 0.19443007 0.3689257
0000a0 2d 4e 42 3d 3a 1b 85 3d 36 3b 45 bd fa 13 53 bc
       0.047437835 0.06499334 -0.04815217 -0.012883181
0000b0 58 f0 88 be 90 37 40 be 5f cf 74 3d bd 6e 66 be
       -0.26745868 -0.18771195 0.059768077 -0.22503181
0000c0 3b 4e 93 3d cf 13 fe be b0 35 6f 3e e8 1e c8 be
       0.07192656 -0.49624488 0.23360324 -0.3908608
0000d0 53 da 20 bd 65 80 fe 3d 40 13 83 3e 5a cf c4 bd
       -0.03927071 0.12426833 0.25600624 -0.09609862
0000e0 13 ee 5e be e8 e1 25 bf 65 f8 d3 be 38 66 0c be
       -0.21770506 -0.6479783 -0.41400447 -0.13710868
0000f0 f7 91 6c 3d 41 45 47 be 2c a2 46 3e 81 29 bc 3e
       0.05775639 -0.19460012 0.19397801 0.36750415
000100 cd c0 41 3d c8 d0 6f 3b 9e bf 20 be ce 1c f2 bd
       0.04730301 0.003659295 -0.15698096 -0.118219
000110 39 d8 a0 be f5 50 05 bf 7e f1 8d bc 8a 68 d4 be
       -0.31414965 -0.52076656 -0.017327067 -0.41486007

bn2.running_var f4 [72]
000000 ee ca a2 3e e4 e7 1c 3e bc 15 db 3e fe 7d d1 3d
       0.31795448 0.15322834 0.4279002 0.10229109
000010 df 7f 92 3e e7 53 a5 3e 70 f8 cb 3e fa e7 24 3e
       0.28613183 0.32290575 0.3983798 0.16104117
000020 c9 60 d6 3d b6 4e 92 3b 98 72 40 3e e2 d1 4a 3e
       0.10467679 0.0044649495 0.18793714 0.19806626
000030 13 d6 cd 3e 29 9c 24 3e 1d c0 03 3e 84 4f b9 3e
       0.40202388 0.16075195 0.12866254 0.36193478
000040 4d 98 49 3d 74 44 a8 3e 90 b9 84 3e 90 06 9e 3e
       0.04921751 0.32864726 0.25922823 0.30864382
000050 c2 6d 59 3d 0c 32 84 3e 3c ac ca 3e 7b 01 0a 3e
       0.05308319 0.25819433 0.3958453 0.13477127
000060 77 04 19 3e 10 23 f6 3d 05 cf f3 3d c5 5f c1 3d
       0.1494311 0.120184064 0.1190472 0.09442095
000070 ec 7f 22 3e 4b 1a 10 3e 50 aa e0 3d db b0 00 3e
       0.15869111 0.1407253 0.109699845 0.12567465
000080 45 a9 d0 3d b6 4e 92 3b 66 89 0e 3e 40 8e 1a 3e
       0.101885356 0.0044649495 0.13919601 0.15093327
000090 d1 23 23 3e b0 ae 04 3e e2 44 ac 3d 88 3f 73 3d
       0.15931632 0.12957263 0.08411576 0.05938676
0000a0 62 e1 46 3d d7 bd 1f 3e 98 29 26 3e e3 5a 2a 3e
       0.048554786 0.15599762 0.16226804 0.16636233
0000b0 95 2a 59 3d a5 c9 1c 3e ec 92 2b 3e 0f e5 ea 3d
       0.053019125 0.15311296 0.16755265 0.11469471
0000c0 08 6a 5d 3e 10 77 ca 3e a7 09 1a 3e 96 7e 63 3e
       0.21622479 0.39543962 0.15042745 0.22216257
0000d0 ec 17 84 3e b7 18 35 3e f4 fd 05 3e 19 91 39 3e
       0.257995 0.17685209 0.13085157 0.18121757
0000e0 df 53 22 3e 5f f0 3f 3d f7 60 d1 3e 4e 01 7f 3e
       0.15852307 0.046860095 0.4089429 0.24902841
0000f0 c8 37 7f 3e a8 00 64 3e b2 d3 ad 3d 79 93 7f 3d
       0.24923623 0.22265875 0.08487643 0.0623965
000100 29 8d 47 3d 9a a9 82 3e 0b 64 9f 3e 01 49 a7 3e
       0.048718605 0.2552002 0.31131014 0.32672885
000110 b7 da ac 3d 9e 46 17 3f 90 0f 96 3e 0b da 9c 3e
       0.08440154 0.5909213 0.29308748 0.30635104

mlp3.weight f4 [24, 72]
000000 00 00 00 00 00 00 00 00 00 00 00 00 00 00 00 00
       0.0 0.0 0.0 0.0
000010 00 00 00 00 00 00 00 00 00 00 00 00 00 00 00 00
       0.0 0.0 0.0 0.0
000020 00 00 00 00 00 00 00 00 00 00 00 00 00 00 00 00
       0.0 0.0 0.0 0.0
000030 00 00 00 00 00 00 00 00 00 00 00 00 00 00 00 00
       0.0 0.0 0.0 0.0
000040 00 00 00 00 00 00 00 00 00 00 00 00 00 00 00 00
       0.0 0.0 0.0 0.0
000050 00 00 00 00 00 00 00 00 00 00 00 00 00 00 00 00
       0.0 0.0 0.0 0.0
000060 5d 5a b5 3a 78 23 3a 3e 6c 8a 51 3e 54 4e 5f 3e
       0.0013836134 0.18177593 0.2046296 0.21807224
000070 38 3e 42 3e 53 3c 19 3e d7 3d e0 3d 9f b2 6d 3e
       0.18969047 0.14964418 0.10949295 0.2321267
000080 f7 51 83 3d c0 87 89 3e 87 2e d5 3d 83 20 b8 3d
       0.06412118 0.26861382 0.10409265 0.08990576
000090 66 9e 3c 3e a8 53 4d 3e ef 13 d6 3d 90 50 2b 3e
       0.18419799 0.20051444 0.10453021 0.16729951
0000a0 2a a7 57 3e c6 86 33 3e c0 2f 54 3e 00 f5 58 3e
       0.21059862 0.1753188 0.2072134 0.2118721
0000b0 03 ec 81 3e 24 a7 65 3e 69 9f cf 3d 8f f0 30 3e
       0.25375375 0.2242704 0.10137827 0.17279266
0000c0 00 00 00 00 00 00 00 00 00 00 00 00 00 00 00 00
       0.0 0.0 0.0 0.0
0000d0 00 00 00 00 00 00 00 00 00 00 00 00 00 00 00 00
       0.0 0.0 0.0 0.0
0000e0 00 00 00 00 00 00 00 00 00 00 00 00 00 00 00 00
       0.0 0.0 0.0 0.0
0000f0 00 00 00 00 00 00 00 00 00 00 00 00 00 00 00 00
       0.0 0.0 0.0 0.0
000100 00 00 00 00 00 00 00 00 00 00 00 00 00 00 00 00
       0.0 0.0 0.0 0.0
000110 00 00 00 00 00 00 00 00 00 00 00 00 00 00 00 00
       0.0 0.0 0.0 0.0
000120 7b 19 72 3e 3b 41 96 3e a7 ec 6b 3e 65 e8 5b 3e
       0.23642533 0.29346642 0.23039494 0.2147537
000130 c9 ec 6d 3e 14 1b 57 3e 4b d3 2d 3e c7 15 74 3e
       0.23234858 0.21006423 0.16975133 0.23836432
000140 90 fc 3e 3e aa 16 84 3e 6f be 42 3e 6b be 86 3e
       0.18651032 0.2579854 0.19017957 0.26317152
000150 3b 5e 90 3e eb 96 42 3e e9 0f 46 3e 31 71 85 3e
       0.28196892 0.19002883 0.19342007 0.2606292
000160 a2 6b 6e 3e 25 38 3c 3e 0a 60 9a 3e cb 4e 56 3e
       0.23283246 0.18380792 0.30151397 0.20928495
000170 96 66 97 3e 50 63 81 3e 49 d1 93 3e b3 1b 88 3e
       0.29570454 0.25271082 0.2887061 0.26583633
000180 6a 28 d4 3e 1c 23 c0 3e 7d a6 7c 3e 1b d0 8b 3e
       0.41437083 0.37526786 0.24672885 0.2730721
000190 ad 1c 8e 3e e7 b8 31 3e 18 28 5b 3e c8 8d aa 3e
       0.27756253 0.17355691 0.21402013 0.33311296
0001a0 ab 6e 0e 3e b4 7d 80 3e 6b b4 81 3e 31 8d 12 3e
       0.13909404 0.25095904 0.2533296 0.14311673
0001b0 71 a6 3e 3e ae 38 89 3e a3 bd 62 3e 09 a9 86 3e
       0.1861818 0.26801056 0.22142653 0.2630084
0001c0 84 29 74 3e f2 aa 20 3e 99 4e 90 3e 55 64 71 3e
       0.23843962 0.1569021 0.28184965 0.2357343
0001d0 f1 f3 7e 3e a9 b6 b5 3e a9 1c 5a 3e 4e 6e 6f 3e
       0.24897744 0.3549092 0.21299995 0.23381922
0001e0 00 00 00 00 00 00 00 00 00 00 00 00 00 00 00 00
       0.0 0.0 0.0 0.0
0001f0 00 00 00 00 00 00 00 00 00 00 00 00 00 00 00 00
       0.0 0.0 0.0 0.0
000200 00 00 00 00 00 00 00 00 00 00 00 00 00 00 00 00
       0.0 0.0 0.0 0.0
000210 00 00 00 00 00 00 00 00 00 00 00 00 00 00 00 00
       0.0 0.0 0.0 0.0
000220 00 00 00 00 00 00 00 00 00 00 00 00 00 00 00 00
       0.0 0.0 0.0 0.0
000230 00 00 00 00 00 00 00 00 00 00 00 00 00 00 00 00
       0.0 0.0 0.0 0.0
000240 41 66 66 3e 7d e1 51 3e 42 48 81 3e fd df 5b 3e
       0.22499944 0.20496173 0.2525044 0.21472163
000250 53 a3 35 3e bb 7d 3e 3e 99 0d 22 3e f5 10 90 3e
       0.17738084 0.1860265 0.158255 0.28137937
000260 c9 3b 38 3e 6f 56 7a 3e 68 05 49 3e b7 71 86 3e
       0.17991556 0.24447034 0.19630969 0.26258633
000270 21 1f 5b 3e 63 cb 78 3e fd 82 5e 3e d5 2b 20 3e
       0.21398593 0.24296336 0.21729656 0.1564172
000280 af c6 51 3e cf f5 62 3e 7d 2f 8a 3e ba e5 7b 3e
       0.20485948 0.22164081 0.26989356 0.24599352
000290 21 e0 93 3e 7c 5e 8d 3e 47 d4 8f 3e da 06 30 3e
       0.28881934 0.27611148 0.28091642 0.17190114
0002a0 b6 34 c0 3e cc da 94 3e 49 3a 4d 3e 7c 0a 89 3e
       0.37540215 0.2907318 0.20041765 0.2676581
0002b0 df d4 57 3e 31 3c 1c 3e 24 6b 0d 3e db 9a 6c 3e
       0.21077298 0.15257336 0.13810402 0.23105948
0002c0 28 48 bb 3d e0 a2 8b 3e 6f 42 2b 3e 73 a2 3b 3e
       0.09144622 0.272727 0.16724561 0.18323688
0002d0 11 b9 87 3e 31 12 6f 3e f3 48 12 3e 89 43 6f 3e
       0.26508382 0.23346783 0.1428564 0.23365606
0002e0 df 1e 55 3e 92 48 43 3e 26 1b 8b 3e a7 1e 3c 3e
       0.20812558 0.19070652 0.2716915 0.18371068
0002f0 86 5d 82 3e b9 22 a1 3e 76 87 7d 3e f2 7e 60 3e
       0.25461978 0.31471804 0.24758705 0.21923426
000300 00 00 00 00 00 00 00 00 00 00 00 00 00 00 00 00
       0.0 0.0 0.0 0.0
000310 00 00 00 00 00 00 00 00 00 00 00 00 00 00 00 00
       0.0 0.0 0.0 0.0
000320 00 00 00 00 00 00 00 00 00 00 00 00 00 00 00 00
       0.0 0.0 0.0 0.0
000330 00 00 00 00 00 00 00 00 00 00 00 00 00 00 00 00
       0.0 0.0 0.0 0.0
000340 00 00 00 00 00 00 00 00 00 00 00 00 00 00 00 00
       0.0 0.0 0.0 0.0
000350 00 00 00 00 00 00 00 00 00 00 00 00 00 00 00 00
       0.0 0.0 0.0 0.0
000360 b0 d7 ef 39 38 04 24 39 00 00 00 00 00 00 00 00
       0.00045746332 0.0001564183 0.0 0.0
000370 f9 24 5e 38 00 00 00 00 00 00 00 00 f8 63 ee 39
       5.2963358e-05 0.0 0.0 0.0004546938
000380 00 00 00 00 23 c2 aa 3a 00 00 00 00 00 00 00 00
       0.0 0.0013027828 0.0 0.0
000390 7d bd 9a 3a 00 00 00 00 00 00 00 00 00 00 00 00
       0.001180574 0.0 0.0 0.0
0003a0 00 00 00 00 8c de ed 38 92 0a b4 39 00 00 00 00
       0.0 0.00011342493 0.0003434015 0.0
0003b0 2f c6 a6 3a 68 aa 17 3a 00 00 00 00 15 10 b8 38
       0.0012723858 0.00057855854 0.0 8.776799e-05
0003c0 d8 63 16 3e 80 ee 00 3e 94 a3 21 3e c2 39 40 3e
       0.14686525 0.1259098 0.15785056 0.18772033
0003d0 26 cc 19 3e 54 b6 04 3e 1a a2 26 3e f0 4a e6 3d
       0.15019283 0.12960178 0.16272774 0.11244762
0003e0 32 54 ed 3d fc 96 4b 3e 58 45 8b 3d 2a 12 b4 3d
       0.115883246 0.19881815 0.06800336 0.08792527
0003f0 45 1b c7 3d 9f 65 0c 3e 68 ea cc 3d e2 30 1c 3e
       0.09721998 0.1371064 0.10005647 0.15253022

mlp3.bias f4 [24]
000000 33 82 f9 3d 5e 04 3c be 4d ce af bd 44 18 ab bd
       0.12183037 -0.18361041 -0.085842706 -0.08354238
000010 44 69 17 be fa a1 ee 3d dd ed 3c bd 49 60 4b 3d
       -0.1478625 0.11651988 -0.04612528 0.04965237
000020 7c f7 37 bb 45 4a b7 3d 2c 37 40 be ca 95 4f bd
       -0.0028071096 0.08949713 -0.18771046 -0.05067996
000030 6d 0f 10 be dc 48 d5 bd 6a bb 31 be 48 3f 12 3e
       -0.14068384 -0.104142874 -0.17356649 0.14281952
000040 bb 24 63 bd d2 a2 2f be 61 16 28 be a2 93 93 3e
       -0.05545495 -0.17151955 -0.16414787 0.28823572
000050 9b 3a 48 3e c9 48 1d 3e 1b 3d b5 bd ca 2d 52 be
       0.19553606 0.15359797 -0.088495456 -0.2052528

bn3.weight f4 [72]
000000 40 33 f4 3e 56 09 f5 3e 89 c7 ea 3e c7 9c ee 3e
       0.4769535 0.47858685 0.45855358 0.46603987
000010 00 00 00 3f 4a e2 df 3e a0 a0 d7 3e 40 bf f2 3e
       0.5 0.43727332 0.42114735 0.47411537
000020 1c 2b d3 3e b6 bf f1 3e 56 1c e4 3e a8 1c db 3e
       0.41243827 0.47216576 0.4455287 0.427953
000030 39 32 ec 3e 4d 44 e8 3e ed 62 e9 3e 9e 94 f1 3e
       0.46132067 0.4536461 0.45583287 0.47183698
000040 0a 2e fd 3e 18 53 e2 3e f6 ea ff 3e 46 16 e9 3e
       0.49449188 0.4420402 0.49983948 0.45524806
000050 44 98 f5 3e 00 00 00 3f 65 97 ff 3e 2b e9 d9 3e
       0.47967732 0.5 0.49920192 0.42560706
000060 00 00 00 3f 64 f0 ff 3e 92 f7 ff 3e ee ee fe 3e
       0.5 0.4998809 0.4999357 0.49791664
000070 00 00 00 3f df 75 ff 3e 00 00 00 3f 00 00 00 3f
       0.5 0.49894616 0.5 0.5
000080 77 fa e5 3e 00 00 00 3f 4e 1b fb 3e 68 a4 fd 3e
       0.44917652 0.5 0.4904427 0.49539495
000090 00 00 00 3f 4e a8 ff 3e 39 64 fc 3e 6d cd ff 3e
       0.5 0.49933094 0.49295214 0.49961415
0000a0 00 00 00 3f 00 00 00 3f b8 d2 ff 3e bb 4d ff 3e
       0.5 0.5 0.49965453 0.4986399
0000b0 00 00 00 3f 4b e8 ff 3e 14 80 ff 3e 00 00 00 3f
       0.5 0.49981913 0.49902403 0.5
0000c0 74 d4 ba 3e f3 74 bb 3e 2c 77 be 3e 28 74 c5 3e
       0.36490214 0.36612663 0.37200296 0.38565183
0000d0 11 4a b8 3e c0 2e bc 3e 2c 92 ba 3e 8f e8 b5 3e
       0.35994008 0.36754417 0.36439645 0.3552899
0000e0 43 68 bc 3e a0 14 c1 3e c7 7f ba 3e 1b 30 bd 3e
       0.36798295 0.37711048 0.3642561 0.36950764
0000f0 aa 84 c1 3e fa 78 c0 3e be 0f c0 3e f1 78 bb 3e
       0.37796527 0.37592298 0.3751201 0.36615708
000100 49 e1 b9 3e 21 ca be 3e 8a da b6 3e 3f 1a bd 3e
       0.3630469 0.37263587 0.35713607 0.36934087
000110 2e 87 b9 3e 38 59 bc 3e 86 9c bc 3e cb 5b b8 3e
       0.36235946 0.36786819 0.36838168 0.36007532

bn3.bias f4 [72]
000000 ca f3 ea bd 1e bc ec bd 0c 26 e9 bd c2 18 e9 bd
       -0.1147228 -0.11559318 -0.1138421 -0.11381675
000010 01 c5 e9 bd b6 dc e5 bd 7a eb ec bd 35 7d ee bd
       -0.11414529 -0.11223738 -0.11568351 -0.11644975
000020 18 95 e7 bd bd 31 f0 bd e2 18 d7 bd 4a a1 ee bd
       -0.11307734 -0.11728237 -0.10502793 -0.11651857
000030 42 e8 e2 bd 01 ab e8 bd 07 49 e4 bd 37 ab ec bd
       -0.11079456 -0.113607414 -0.11146741 -0.11556094
000040 48 7b e9 bd ea 4e e8 bd 6b 86 e8 bd 42 d7 f0 bd
       -0.11400467 -0.11343177 -0.11353763 -0.11759807
000050 73 9c ec bd 6e 4f e9 bd 6d c6 f1 bd d6 60 e4 bd
       -0.11553278 -0.11392103 -0.11805425 -0.111512825
000060 f7 b5 e2 bd 2f 1e e5 bd fe 6b e1 bd 15 dd e4 bd
       -0.11069863 -0.11187398 -0.11006926 -0.111749806
000070 37 e2 df bd 31 79 de bd 4c df e9 bd fc 6b d1 bd
       -0.10931819 -0.10862959 -0.114195436 -0.102256745
000080 81 09 fe bd 23 3f d5 bd 10 b5 dc bd 15 2d dc bd
       -0.124041565 -0.10412433 -0.107767224 -0.10750786
000090 a6 3d d6 bd f6 57 e0 bd f7 d9 d9 bd 8d 58 d9 bd
       -0.10460977 -0.10954277 -0.106372766 -0.10612593
0000a0 49 29 e0 bd f4 9b e6 bd 1b dc cd bd 6f 2f e5 bd
       -0.109453745 -0.112602144 -0.100517474 -0.11190688
0000b0 5d c3 d5 bd 30 b7 dc bd a9 b6 da bd a7 8f e5 bd
       -0.10437653 -0.10777128 -0.10679371 -0.1120904
0000c0 90 d9 e2 bd a4 29 de bd b7 8f c8 bd aa d1 9f bd
       -0.11076653 -0.10847786 -0.097930364 -0.07803662
0000d0 0d cb e9 bd 53 17 cd bd 2f 0d da bd 55 cf ef bd
       -0.11415682 -0.10014214 -0.10647046 -0.11709467
0000e0 a3 38 db bd 4a 48 b8 bd b4 ca e2 bd e3 09 da bd
       -0.10704162 -0.08998163 -0.11073819 -0.10646417
0000f0 b4 8e a3 bd 7c 4b cf bd 19 e7 e3 bd 78 be d1 bd
       -0.07986203 -0.101218194 -0.11128063 -0.10241407
000100 25 72 e6 bd 38 b7 bc bd 8d 08 e3 bd 74 fb cb bd
       -0.1125224 -0.09214634 -0.11085615 -0.0996007
000110 52 a4 d3 bd f4 84 dc bd e3 f9 dd bd d6 23 df bd
       -0.10334076 -0.10767546 -0.10838678 -0.10895507

bn3.running_mean f4 [72]
000000 04 53 59 3f 8f f4 57 3e 25 d0 52 3e b1 88 48 3e
       0.84892297 0.21089385 0.20587213 0.19583394
000010 2d d9 44 3e f0 51 53 3e 82 c0 1d 3e 33 a2 2a 3e
       0.19223471 0.20636725 0.15405467 0.16663437
000020 56 8a 1d 3e 61 f5 52 3e 97 8d 25 3e 20 c4 4d 3e
       0.15384802 0.20601417 0.16167293 0.20094347
000030 b8 37 2f 3e e6 82 72 3e 78 c5 40 3e fe ea 71 3e
       0.17111099 0.23682746 0.18825328 0.23624799
000040 c2 08 4a 3e 26 ec 29 3e d6 2a 51 3e b1 69 3b 3e
       0.19729903 0.1659399 0.20426497 0.18302037
000050 92 a8 31 3e 3e 1c 58 3e 7d 02 4c 3e d0 fb 19 3e
       0.1734946 0.21104524 0.19922824 0.15037465
000060 88 39 bb bd 7d 21 a7 3b 45 2a 49 3c 38 26 3d 3c
       -0.091418326 0.0051004277 0.012278144 0.011544757
000070 86 09 1a 3c 26 0f 44 3c 18 25 1f 3b 30 5f 2f 3b
       0.009401685 0.011966502 0.0024283584 0.0026759617
000080 4f 14 b8 bb 77 f8 80 3c 51 ba 8b 3b a4 25 03 3c
       -0.0056176553 0.015743477 0.004264154 0.00800458
000090 3c 19 e3 3b e3 4d b7 3c df 0e cd 3a 77 af 6b 3c
       0.0069304984 0.022376006 0.0015644691 0.014385096
0000a0 70 1f 3a 3c 4d 03 ff 3b 8f 8a 52 3c 9e a3 e8 3b
       0.011360034 0.007782376 0.012850418 0.007099583
0000b0 10 8a d3 3b 9b d2 35 3c 3d 8b c5 3b eb e6 71 3b
       0.0064556673 0.011097576 0.0060285614 0.003691132
0000c0 03 6c a7 bf 1e fd 3b be ab b9 4d be c0 20 46 be
       -1.3079838 -0.18358275 -0.20090358 -0.1934843
0000d0 3c 4e 4e be d9 a9 4d be 5d d0 5a be 26 43 54 be
       -0.20147032 -0.20084323 -0.21368547 -0.2072874
0000e0 c9 01 4a be 6a 4b 54 be 6d 23 42 be 9f 5e 44 be
       -0.19727243 -0.20731893 -0.18958826 -0.1917672
0000f0 47 91 74 be 48 9c 50 be 56 0a 3c be 0f 80 4f be
       -0.23883544 -0.20372117 -0.18363318 -0.20263694
000100 0f 08 50 be b3 45 75 be f0 a8 4a be 6e df 4f be
       -0.20315574 -0.2395237 -0.19791007 -0.20300075
000110 70 15 56 be 5e 62 4a be 7e 1a 45 be 17 08 5a be
       -0.20906615 -0.19764087 -0.19248387 -0.21292149

bn3.running_var f4 [72]
000000 25 58 7e 40 b4 4f 0b 3f 2a 23 02 3f 06 a3 fd 3e
       3.97413 0.5441849 0.50834906 0.4953844
000010 4e 5b fa 3e b6 cb 02 3f ff 3a db 3e b0 96 e9 3e
       0.48897785 0.5109209 0.42818448 0.45622778
000020 12 49 e3 3e 9d 36 02 3f 1f 4f e1 3e 93 ce 01 3f
       0.44391686 0.50864583 0.44005677 0.5070583
000030 f6 f5 e7 3e 77 cb 0b 3f 2d 38 01 3f 20 b6 10 3f
       0.4530484 0.5460734 0.5047634 0.565279
000040 83 cf fb 3e ac ac df 3e 15 05 03 3f 77 aa f2 3e
       0.49181756 0.43686426 0.5117963 0.4739568
000050 26 e6 eb 3e 28 b8 07 3f 9d 5e 05 3f 7b 7b d5 3e
       0.46074027 0.53015375 0.52097493 0.4169577
000060 8c 7a 67 3e 97 b3 43 3e e8 11 44 3e c4 2b 44 3e
       0.22605342 0.19111477 0.19147456 0.1915732
000070 bb dc 42 3e 03 53 44 3e 9a 06 41 3e eb 29 41 3e
       0.19029514 0.19172291 0.18850175 0.18863647
000080 61 bf 3f 3e a4 97 44 3e 1e 2c 42 3e 67 48 44 3e
       0.18725349 0.19198471 0.18962142 0.19168244
000090 86 ad 42 3e c1 14 47 3e 6b 5d 42 3e ed b4 45 3e
       0.19011506 0.1944151 0.18980949 0.19307299
0000a0 84 93 43 3e e3 4e 42 3e a0 fa 43 3e 10 7f 43 3e
       0.19099241 0.18975405 0.19138575 0.19091439
0000b0 b1 92 42 3e 06 9c 44 3e 94 d6 42 3e 49 bb 40 3e
       0.19001271 0.19200143 0.19027168 0.18821444
0000c0 cf bc 4a 40 b7 21 02 3f b9 25 12 3f 62 48 0c 3f
       3.167774 0.50832695 0.5708881 0.5479795
0000d0 51 cc 10 3f 24 a9 11 3f 54 cc 11 3f 3d 67 0e 3f
       0.5656176 0.56898713 0.56952405 0.5562628
0000e0 4f d2 01 3f 54 2d 1a 3f bc 3d 03 3f 71 95 08 3f
       0.5071153 0.60225415 0.51266074 0.5335303
0000f0 02 ef 28 3f 8b 83 1c 3f 4a 41 fd 3e 18 10 16 3f
       0.65989697 0.6113822 0.49463874 0.5861831
000100 c7 c4 13 3f 93 7d 28 3f 7c 03 11 3f 12 5b 0e 3f
       0.57722133 0.6581661 0.5664594 0.5560771
000110 1b bf 12 3f bc 8b 0f 3f 28 a0 08 3f e2 6c 12 3f
       0.57322854 0.5607259 0.5336938 0.5719739

mlp4.weight f4 [1, 72]
000000 00 00 00 00 00 00 00 00 00 00 00 00 00 00 00 00
       0.0 0.0 0.0 0.0
000010 00 00 00 00 00 00 00 00 00 00 00 00 00 00 00 00
       0.0 0.0 0.0 0.0
000020 00 00 00 00 00 00 00 00 00 00 00 00 00 00 00 00
       0.0 0.0 0.0 0.0
000030 00 00 00 00 00 00 00 00 00 00 00 00 00 00 00 00
       0.0 0.0 0.0 0.0
000040 00 00 00 00 00 00 00 00 00 00 00 00 00 00 00 00
       0.0 0.0 0.0 0.0
000050 00 00 00 00 00 00 00 00 00 00 00 00 00 00 00 00
       0.0 0.0 0.0 0.0
000060 00 00 00 00 10 b0 43 3e 9a 60 3f 3e 4a af 49 3d
       0.0 0.19110131 0.18689194 0.049239434
000070 e9 fa 03 3e 2d d9 03 3d d8 4c 8e 3a e4 d8 45 3e
       0.12888683 0.032189537 0.0010856641 0.19321018
000080 31 cc f0 3d bb a5 cc 3d 67 0e db 3d 95 77 f3 3c
       0.117576964 0.09992548 0.106961064 0.029720107
000090 a6 37 20 3e 22 95 44 3e 6b 23 35 3e 90 f9 8e 3d
       0.15646228 0.19197515 0.17689292 0.06981194
0000a0 4a 78 72 3e 70 7b bc 3d 17 54 47 3e 00 00 00 00
       0.23678699 0.09203231 0.19465671 0.0
0000b0 9b 63 dd 3d 00 00 00 00 34 af 1c 3e 61 93 60 3e
       0.10810014 0.0 0.1530121 0.2193122
0000c0 b2 da 19 3e 10 f7 34 3e e8 6c 59 3e dc 05 09 3e
       0.15024832 0.17672372 0.2123295 0.13381141
0000d0 9b a7 cf 3c 00 00 00 00 68 08 17 3e 00 00 00 00
       0.025348475 0.0 0.147493 0.0
0000e0 00 00 00 00 f6 e2 18 3e 1a 8d 31 3e 47 c8 39 3e
       0.0 0.14930329 0.17338982 0.18142806
0000f0 1c 1a 74 3e ac fd 55 3e ac c7 64 3e 00 00 00 00
       0.23838085 0.2089755 0.22341794 0.0
000100 ac 2a 3e 3e e0 19 4f 3e 5c 25 38 3e 00 00 00 00
       0.18570966 0.20224714 0.17983001 0.0
000110 00 00 00 00 97 24 ff 3d ce 4f 68 3e 32 20 68 3e
       0.0 0.12458151 0.22686693 0.22668532
